results/2021-04-09_14-37/2021-04-09_14-37.pth (torch, 178355 bytes, 12 tensors)

decoder.linear1.weight f4 [32, 400]
0	0xbcc975b9	-0.024592267
1	0x3cf82b08	0.030293956
2	0x3cfcaa05	0.03084279
3	0xbd401224	-0.0468923
4	0x3c67c519	0.014146113
5	0xbb29c467	-0.0025904418
6	0xbb515604	-0.0031942138
7	0x3d266015	0.040618975
8	0x3cb5a522	0.022173468
9	0x3cb5fc3f	0.022215007
10	0xbcb72281	-0.02235532
11	0xbc68ef90	-0.014217272
12	0xbc881a8b	-0.01661422
13	0xbce73cc5	-0.02822722
14	0xbd08685e	-0.033302657
15	0xbadbfe38	-0.0016784137
16	0x3c7ca36c	0.015419822
17	0xbb3511cf	-0.0027629023
18	0x3d43d23e	0.047807924
19	0xbcd880b0	-0.02642855
20	0x3d2aa612	0.041662283
21	0x3c9ed74b	0.019389769
22	0xbc8b758f	-0.01702383
23	0xbc5de5b6	-0.013543537
24	0x3b8cb630	0.0042941794
25	0xbcfd65ad	-0.030932272
26	0x3c925d4c	0.017866753
27	0xbd4470a2	-0.047958978
28	0xbd40fac8	-0.047114164
29	0x3ce79d2b	0.028273186
30	0x3b958b6d	0.00456374
31	0xbd0c6af3	-0.034281682
32	0x3ba1a33c	0.004932789
33	0xbd41d87e	-0.047325604
34	0xbcd95cee	-0.02653357
35	0x3d3ceb1e	0.046122663
36	0xbca856e6	-0.020549249
37	0x3c4e1c22	0.01257995
38	0xbd0c4adc	-0.03425108
39	0x3c64321b	0.013927962
40	0x3c1aa683	0.009439114
41	0xbd473c06	-0.048641227
42	0x3ce63f2b	0.028106293
43	0x3cdd1eb3	0.026992178
44	0xbca85137	-0.020546539
45	0xbc9ffa02	-0.019528393
46	0xbca01bc6	-0.019544493
47	0x3d21988a	0.039452113
48	0x3c255999	0.0100921625
49	0x3c9ce39a	0.019151498
50	0xbcf9c227	-0.030488087
51	0xbd2c746d	-0.04210322
52	0xbd1f0775	-0.03882547
53	0xbd371876	-0.044701062
54	0x3c746f5c	0.014919128
55	0xbd542e9b	-0.05180226
56	0x3d1bc6e0	0.03803146
57	0x3d26bcb7	0.040707316
58	0x3b1e1175	0.0024119292
59	0xbd007914	-0.03136547
60	0x3d3ce6a6	0.0461184
61	0x3d01c3dc	0.031680927
62	0xbc8e14c0	-0.017343879
63	0xbccf29fd	-0.025288576
64	0xbcbcc93b	-0.023045173
65	0xbd399c7c	-0.04531525
66	0xbb40ab48	-0.0029398967
67	0x3d028870	0.0318684
68	0xbc4a9f7a	-0.012367124
69	0xbba56785	-0.005047741
70	0x3abcb896	0.0014398273
71	0x3cf3a813	0.02974323
72	0xbcda5717	-0.026652856
73	0xbd1e7ce9	-0.038693342
74	0x3d2e5aed	0.042567182
75	0x3d0ec962	0.034860022
76	0x3d2c191f	0.042016145
77	0xbd09b567	-0.033620264
78	0xbbcfbdaf	-0.0063397507
79	0xbc93ac96	-0.018026631
80	0x3c07efc8	0.008296914
81	0x3c5af4f9	0.01336407
82	0x3c0eb857	0.008710942
83	0x3d09a0de	0.03360068
84	0x3d3b7fba	0.045776106
85	0x3b5e96bd	0.0033964359
86	0xbb9f3e47	-0.004859719
87	0x3c096c64	0.008387659
88	0x3c793a5d	0.015211669
89	0xbd2ef29e	-0.042711847
90	0x3d353d5a	0.044247963
91	0x3cd87a4c	0.026425503
92	0xbcf001fa	-0.029297817
93	0xbcabe243	-0.020981913
94	0xbc11671d	-0.008874682
95	0x3d14bf1d	0.036315072
96	0xba27f47b	-0.0006406975
97	0x3cce2787	0.025165332
98	0xbb5c3b40	-0.0033604652
99	0xbd5290ee	-0.051407747
100	0xbc682b62	-0.0141704995
101	0x3d25f872	0.04052014
102	0xbc05db21	-0.00816992
103	0xbd2c4363	-0.042056452
104	0xbbe1b21f	-0.0068876888
105	0x3ca387e4	0.019962259
106	0x3cf29996	0.029614251
107	0xbcd223d0	-0.025651842
108	0xbd49b187	-0.04924157
109	0xbd4d11d0	-0.050065815
110	0xbd0c95f5	-0.034322698
111	0x3d2eed27	0.042706635
112	0x3cf24634	0.029574491
113	0xbb5cd15e	-0.0033694129
114	0x3c884f61	0.016639413
115	0x3beb8bcb	0.0071882955
116	0xbc762409	-0.01502324
117	0x3d32de43	0.043668997
118	0x3d101203	0.035173427
119	0xbc7323bb	-0.014840062
120	0x3a026ac0	0.00049750134
121	0x3c055d31	0.008139894
122	0xbd0106fd	-0.031500805
123	0xbce189b3	-0.02753148
124	0x3d1a1d5c	0.037625656
125	0xbd39a547	-0.045323636
126	0x3cdc1afa	0.026868332
127	0x3c8f361b	0.017481854
128	0xbcf58c04	-0.029973991
129	0x3d38c963	0.045113932
130	0xbce3b437	-0.027795894
131	0x3bf3932e	0.0074333167
132	0x3d23a3b8	0.039951056
133	0xbd10c20a	-0.0353413
134	0x3ba44d21	0.0050140773
135	0xbc8d14a0	-0.017221749
136	0xbd4b2954	-0.04959996
137	0xbd0ac283	-0.033876907
138	0x3c71b030	0.014751479
139	0xb95c9ced	-0.00021039294
140	0xbc822893	-0.015888488
141	0x3d067da8	0.03283468
142	0xbc8e8cce	-0.017401125
143	0x3cb2da01	0.021832468
144	0x3d19ba63	0.037531268
145	0xbbc94118	-0.006141793
146	0x3931c5e5	0.00016953757
147	0xbd3eb417	-0.046558466
148	0x3c8d6d68	0.017264083
149	0x3c32ae2f	0.010905786
150	0x3d2331b9	0.03984234
151	0x3c963877	0.018337471
152	0x3ca1f280	0.019768953
153	0x3cc77f09	0.024352567
154	0xbd149b83	-0.03628112
155	0x3d2c53de	0.04207217
156	0x3c1400ae	0.009033365
157	0xbc84470d	-0.01614716
158	0xbc84d58e	-0.016215112
159	0x3cbec34e	0.023286488
160	0xbd1cacbf	-0.03825068
161	0xbccb28f3	-0.0247998
162	0xbb8c4970	-0.0042812154
163	0x3d20a623	0.03922094
164	0xbd224271	-0.039614145
165	0x3bdcd3f7	0.0067391354
166	0xbc9f7177	-0.019463284
167	0x3d1248ba	0.03571389
168	0x3cef6297	0.029221816
169	0x3d10c8f2	0.035347886
170	0xbcad10ff	-0.021126268
171	0xbd058521	-0.032597665
172	0xbcbe6971	-0.023243638
173	0x3c8b7196	0.017021935
174	0x3cc6abb7	0.024251802
175	0xbc508651	-0.012727336
176	0xbcdc9ae9	-0.026929336
177	0xbcf636cd	-0.030055428
178	0xbd42305d	-0.047409404
179	0xbd3696f9	-0.044577572
180	0xbcd6b15e	-0.026207622
181	0xbd37489a	-0.044746973
182	0xbce6fde8	-0.028197244
183	0xbceb77ee	-0.02874371
184	0xbd31b45f	-0.043384906
185	0x3c4b0640	0.012391627
186	0x3cbfe862	0.023426238
187	0x3b6c2c07	0.0036036985
188	0xbd337c10	-0.043819487
189	0x3c4a9cca	0.012366483
190	0x3c6f9a35	0.014624168
191	0x3d34afc5	0.04411294
192	0xbc2fd4d0	-0.010731891
193	0x3d09de1e	0.033659093
194	0xbcc0ebda	-0.023549963
195	0xbcf8e042	-0.030380372
196	0xb97eca54	-0.00024298701
197	0xbd38e5ae	-0.045140915
198	0xbcbd9692	-0.023143087
199	0xbbf1bf02	-0.0073775062
200	0xbcfd3125	-0.030907223
201	0xbbaa9590	-0.0052058175
202	0xbcfdc37d	-0.030977005
203	0xbc5826c5	-0.013192837
204	0x3cf6cebd	0.030127877
205	0x3d1fa01f	0.038971063
206	0xbd2668e6	-0.040627383
207	0xbc30000a	-0.010742197
208	0x3cc363c3	0.023851281
209	0x3cf6b84f	0.030117182
210	0x3c83b047	0.016075267
211	0x3d2b0021	0.04174817
212	0x3d24bf73	0.040221643
213	0xbd5833ff	-0.052783962
214	0x3cd1f833	0.025631046
215	0x3c7fa07c	0.015602227
216	0x3c9e0e7d	0.019294018
217	0x3b768855	0.0037617881
218	0xbd0dec9a	-0.03464947
219	0x3d334dcb	0.04377536
220	0x3d0f953a	0.035054423
221	0x3cceaaac	0.025227867
222	0xbcfed31e	-0.031106528
223	0xbc07d19c	-0.008289721
224	0x3d346bb1	0.044048015
225	0xbd03e077	-0.03219649
226	0x3d3b95da	0.045797206
227	0x3b13b37d	0.0022537403
228	0xbb697b54	-0.0035626488
229	0x3d158ddd	0.036512244
230	0x3ce8df7a	0.028426874
231	0x3c842576	0.016131144
232	0x3cfae7d7	0.030628128
233	0xbc83640c	-0.016038917
234	0x3c7a2515	0.01526763
235	0xbc54d320	-0.012989789
236	0xbc589c5a	-0.013220871
237	0xbd1a8eed	-0.03773396
238	0xbd16e762	-0.036841758
239	0xbd051beb	-0.032497328
240	0x3c810bd7	0.015752716
241	0x3b9c1bfd	0.0047640787
242	0x3d09f99c	0.03368531
243	0x3c36bdef	0.011153682
244	0x3b1d71db	0.0024024162
245	0xbcabaa0f	-0.020955114
246	0xbc895b82	-0.016767267
247	0xbc84d0fc	-0.016212933
248	0xbd41f6ca	-0.047354497
249	0x3ca38f58	0.019965813
250	0xbd078182	-0.033082493
251	0x3bb88ff3	0.0056323945
252	0x3cf58dc7	0.029974831
253	0x3d17cd35	0.037060935
254	0xbd386428	-0.04501739
255	0x3c859c0f	0.016309766

decoder.linear1.bias f4 [32]
0	0xbd48dcda	-0.049038745
1	0xbce79ca8	-0.028272942
2	0x3d2f0d0b	0.042737048
3	0xbabe5129	-0.0014520037
4	0x3c2c1163	0.010502192
5	0xbd38004f	-0.04492217
6	0xbb42817f	-0.0029679236
7	0xba958db6	-0.0011410031
8	0xbc84d9b9	-0.0162171
9	0xbd4068f2	-0.046975084
10	0x3d27a58a	0.040929355
11	0x3d109dd4	0.035306767
12	0xbc1aa51c	-0.009438779
13	0xbd4ce705	-0.050025005
14	0xbd115885	-0.03548481
15	0xbd491903	-0.04909612
16	0x3d3b141e	0.045673482
17	0x3b6bc60d	0.0035976202
18	0x3c5399ea	0.012915114
19	0x3cdafe42	0.026732568
20	0x3d3cff39	0.046141837
21	0x3888fbd1	6.53189e-05
22	0xbbecd998	-0.0072280876
23	0xbd116249	-0.035494123
24	0x393fc640	0.00018289033
25	0xbd199a9c	-0.037500963
26	0xbd13ad3b	-0.036053877
27	0x3c53566e	0.012899024
28	0xbaec303d	-0.0018019747
29	0x3c8214ce	0.015879061
30	0xbcbd4fcc	-0.02310934
31	0xbbfe785f	-0.007765814

decoder.linear2.weight f4 [30, 32]
0	0xbd287a67	-0.041132357
1	0xbe2b22f6	-0.16712555
2	0x3cf82341	0.030290248
3	0xbd88d7cb	-0.06681784
4	0x3e35415f	0.17700718
5	0xbe337892	-0.17526463
6	0x3dcdbaba	0.10045381
7	0xbd80ac87	-0.06282907
8	0x3e2bdaef	0.16782735
9	0x3e1dab2f	0.15397333
10	0x3a3a0a11	0.0007096837
11	0x3cbed732	0.023295972
12	0x3da975d2	0.082744256
13	0x3e2b7261	0.16742851
14	0xbdccb073	-0.099945925
15	0x3e1f374b	0.15548436
16	0xbdf2e856	-0.11860721
17	0xbe2c327f	-0.16816138
18	0x3e07f2cb	0.13276212
19	0x3d3cd741	0.04610372
20	0xbda14cc6	-0.078759715
21	0x3e13023f	0.14356326
22	0xbe0ea652	-0.13930634
23	0xbdcfa7f7	-0.101394586
24	0x3e28e1c7	0.16492377
25	0xbe08b1c3	-0.1334906
26	0xbbbd6db2	-0.005780899
27	0xbd45266a	-0.048132338
28	0xbe0f7b27	-0.14011823
29	0xbd969c5c	-0.07354042
30	0xbddfecae	-0.10933815
31	0xbc780c29	-0.015139618
32	0xbdae7acb	-0.08519515
33	0xbd06a991	-0.032876555
34	0xbe0a78eb	-0.13522689
35	0x3dd0f3a5	0.102027215
36	0x3ae57ea4	0.0017509055
37	0x3c35a3c5	0.011086409
38	0xb80f905c	-3.4228302e-05
39	0x3cd07fc9	0.025451558
40	0xbd687ab0	-0.05675763
41	0xbe169dba	-0.14708605
42	0x3e1c8e21	0.15288593
43	0x3e174547	0.14772521
44	0x3c041969	0.008062699
45	0x3d649011	0.055801455
46	0x3db9db05	0.09074978
47	0x3c9f8b61	0.01947564
48	0xbe296b9c	-0.16544956
49	0xbdff86e3	-0.124768995
50	0xbdbe66c3	-0.09296944
51	0x3c1c5bff	0.009543418
52	0xbd0e254c	-0.034703538
53	0xbd417bf7	-0.047237363
54	0x3e0a8f05	0.1353112
55	0x3da019fd	0.07817457
56	0x3e15785c	0.14596695
57	0xbdf1d749	-0.118086405
58	0x3d8d5b7e	0.069022164
59	0xbdc4081c	-0.09571859
60	0x3d07d832	0.033165164
61	0xbd851993	-0.064990185
62	0xbe2c6204	-0.16834265
63	0xbd9161d7	-0.070987396
64	0xbcd9f681	-0.0266068
65	0xbe1f40fa	-0.1555213
66	0xbe0921ea	-0.13391843
67	0x3dc6c234	0.0970501
68	0xbdce4783	-0.100722335
69	0x3cf88c45	0.030340323
70	0xbdfd077f	-0.123549454
71	0xbe03db4c	-0.12876624
72	0xbdce397f	-0.1006956
73	0xbd721e55	-0.059110958
74	0x3e328719	0.17434348
75	0x3bf9db71	0.0076250364
76	0xbd2878d5	-0.04113086
77	0x3de081cb	0.10962256
78	0xbd228b32	-0.03968353
79	0xbe16358d	-0.14668866
80	0xbd9616d0	-0.0732857
81	0x3de16dd4	0.11007276
82	0x3dbe85ff	0.093029015
83	0xbcca3eee	-0.02468821
84	0x3e070666	0.13186035
85	0x3e2465cf	0.16054462
86	0x3da8b741	0.08238078
87	0xbd0ded36	-0.03465005
88	0xbe2eeec9	-0.17083277
89	0x3e35d8fe	0.17758557
90	0x3dffdc05	0.12493137
91	0xbb60d806	-0.0034308448
92	0xbd717113	-0.058945727
93	0xbe2eec3f	-0.17082308
94	0xbe293967	-0.16525804
95	0xbc817602	-0.01580334
96	0xbda5ecc6	-0.081018016
97	0xbdfc6854	-0.123245865
98	0x3d781906	0.06057074
99	0xbc8935a5	-0.016749213
100	0xbd6da9b4	-0.05802317
101	0x3d82480b	0.06361397
102	0x3d8e69e3	0.0695379
103	0xbd597dd4	-0.053098515
104	0xbb0d8a8e	-0.0021597478
105	0xbd9ce35a	-0.07660551
106	0xbda701b8	-0.08154625
107	0xbc53c097	-0.012924335
108	0xbc4d18e1	-0.012518139
109	0xbe125921	-0.14291812
110	0x3dbd0f97	0.09231489
111	0x3e2d2836	0.1690987
112	0xbca2aa04	-0.01985646
113	0xbca346e4	-0.019931264
114	0xbd14cc64	-0.036327735
115	0x3df19d83	0.11797621
116	0x3e0788d2	0.13235787
117	0xbd29aed1	-0.041426484
118	0x3c56d17d	0.013111469
119	0xbda38b14	-0.079855114
120	0xbe032066	-0.12805328
121	0xbe175edd	-0.14782281
122	0xbe0dba01	-0.13840486
123	0x3dfd2b1f	0.1236174
124	0x3e27421f	0.16333817
125	0xbd5b0138	-0.05346796
126	0xbd940fcb	-0.07229575
127	0xbe0731ec	-0.13202637
128	0xbd8f2de1	-0.069911726
129	0x3e25ed9d	0.16203924
130	0xbbe092cd	-0.0068534375
131	0xbe14492f	-0.14481042
132	0x3e2c7e5b	0.16845076
133	0x3ccd4469	0.025057035
134	0xbcbc2d4f	-0.022970824
135	0xbe2fb114	-0.17157394
136	0x3da8418f	0.08215629
137	0x3d61a43c	0.055088267
138	0xbe008640	-0.12551212
139	0xbe03a9e0	-0.12857771
140	0xbe02eebf	-0.12786387
141	0x3dd18dae	0.102321014
142	0x3e0555dd	0.13021035
143	0x3e078e1d	0.13237806
144	0x3c677dad	0.014129085
145	0xbdd30fb8	-0.103057325
146	0xbdb5a33e	-0.088690266
147	0xbdea0c91	-0.11428178
148	0xbd6a14a8	-0.057148606
149	0x3d83f94a	0.064440325
150	0x3db765a4	0.08954933
151	0xbc1eacf9	-0.009684795
152	0xbcd39602	-0.025828365
153	0xbd10549f	-0.03523695
154	0x3e22578d	0.1585371
155	0x3e14bc26	0.14524898
156	0x39f69641	0.00047032724
157	0xbac2f685	-0.0014874494
158	0x3e05a2f0	0.13050437
159	0xbcc14e94	-0.02359704
160	0x3ded7cfb	0.11596104
161	0xbd0349cc	-0.0320528
162	0x3c50049b	0.0126964105
163	0xbca5b4d6	-0.02022783
164	0x3e171f31	0.14757992
165	0x3d17e28f	0.037081297
166	0xbe0aa9dc	-0.13541359
167	0x3b1debc9	0.0024096838
168	0xbe0033fa	-0.12519827
169	0x3d8f3ceb	0.06994041
170	0xbdabcfe2	-0.0838926
171	0xbe09c96a	-0.1345574
172	0x3e007a72	0.12546709
173	0xbdf27f29	-0.1184066
174	0x3e05516d	0.13019343
175	0x3d84f45c	0.0649192
176	0xbcaa69b7	-0.020802362
177	0x3e3c15d7	0.18367706
178	0x3d9441ae	0.0723909
179	0xbde0524c	-0.10953197
180	0xbd84039f	-0.06446003
181	0x3dcbce03	0.09951403
182	0x3e0a9eac	0.13537091
183	0x3d881d75	0.066462435
184	0x3df01b3f	0.11723947
185	0xbdc33e74	-0.09533396
186	0x3e27e128	0.16394484
187	0xbdaf1080	-0.08548069
188	0x3dd101fb	0.10205456
189	0xbe2d889f	-0.16946648
190	0xbc7fa1c0	-0.015602529
191	0xbe13bd61	-0.14427711
192	0xbe3492a8	-0.1763407
193	0x3e204ac9	0.15653528
194	0x3d9696d1	0.07352985
195	0xba728bc0	-0.0009252392
196	0xbdc6e128	-0.09710914
197	0xbdd4ee3f	-0.10397004
198	0x3e2d14ac	0.16902417
199	0x3d7a8e3e	0.06117081
200	0xbcfff05e	-0.031242546
201	0xbd955adb	-0.0729272
202	0x3df8d999	0.121508785
203	0x3dd327ed	0.103103496
204	0xbe0ef011	-0.13958766
205	0xbe158f01	-0.14605333
206	0xbd954304	-0.07288173
207	0x3dd9337b	0.10605522
208	0x3cfb0a3d	0.03064453
209	0x3d95b07b	0.073090516
210	0x3cf2c53d	0.029635066
211	0xbde0a4e4	-0.109689504
212	0xbc9b817a	-0.018982638
213	0xbd16e7a4	-0.036842003
214	0x3e150675	0.14553244
215	0xbda7e142	-0.081972614
216	0x3dbcce81	0.09219075
217	0x3d254dfe	0.040357582
218	0xbcde798f	-0.027157573
219	0x3d863f51	0.065550454
220	0xba3d8d41	-0.00072308263
221	0x3d965861	0.07341076
222	0x3e11046e	0.14161846
223	0x3de8216e	0.11334501
224	0xbe22cb89	-0.15897955
225	0xbc9ff349	-0.019525187
226	0x3e31c3cb	0.17359845
227	0xbe3788d0	-0.17923284
228	0xbdf35d57	-0.118830375
229	0xbc94268f	-0.018084792
230	0x3e17dbe2	0.14829972
231	0xbceb4db4	-0.028723575
232	0xbe259d45	-0.16173275
233	0x3e072f36	0.13201603
234	0xbd946f98	-0.07247847
235	0xbdfaea4f	-0.12251722
236	0xbe142e6d	-0.14470835
237	0xbe30b5d7	-0.17256866
238	0xbe266fcd	-0.16253586
239	0x3e2c7582	0.168417
240	0xbcbbc68e	-0.022921827
241	0xbd9e0c02	-0.07717134
242	0xbdb28962	-0.0871761
243	0x3e18721e	0.14887282
244	0xbd16c176	-0.036805592
245	0xbcd2359e	-0.025660332
246	0x3d5cc8ea	0.053902544
247	0x3d2ed434	0.04268284
248	0x3d0e697b	0.034768563
249	0x3d5bbbaa	0.053645767
250	0xbd8bf51d	-0.06833861
251	0x3e04ef1c	0.12981838
252	0xbe0a6994	-0.13516837
253	0x3c83f751	0.01610914
254	0x3e077e50	0.13231778
255	0x3d5b4ce8	0.05354014

decoder.linear2.bias f4 [30]
0	0x3de29940	0.11064386
1	0x3e226bb4	0.15861398
2	0x3d0bb2f1	0.0341062
3	0xbdf23b00	-0.118276596
4	0x3e2b453e	0.16725633
5	0xbd4350a9	-0.047684345
6	0xbca6befb	-0.020354738
7	0xbc7861d5	-0.015160044
8	0x3deda23b	0.11603209
9	0x3da11848	0.078659594
10	0x3c8d22be	0.01722848
11	0xbd70ced0	-0.05879098
12	0x3d961df4	0.07329932
13	0xbd63f49f	-0.05565321
14	0xbe25d907	-0.1619607
15	0x3e21b60e	0.15792105
16	0xbd86b54c	-0.065775484
17	0x3dc56c87	0.096398406
18	0xbcc536fe	-0.024074074
19	0xbdbf622e	-0.09344898
20	0xbe1241db	-0.14282934
21	0xbd5710bc	-0.052506194
22	0xbe134704	-0.14382559
23	0x3d98dcc3	0.07463982
24	0xb9a1b165	-0.00030840482
25	0xbd62ec2c	-0.055401012
26	0x3dddc0a7	0.10827761
27	0xbd924b6d	-0.071432926
28	0xbd918f15	-0.07107369
29	0xbe1ff219	-0.15619697

exp_avg f4 [32, 400]
0	0x3668c78f	3.4686852e-06
1	0xb74111bb	-1.1507825e-05
2	0x36b35fb6	5.345758e-06
3	0xb74bbaef	-1.2143267e-05
4	0xb755511e	-1.2714676e-05
5	0xb7b27545	-2.1273861e-05
6	0xb7210621	-9.597775e-06
7	0xb7a745a4	-1.994038e-05
8	0xb7b6c66a	-2.1788484e-05
9	0xb7f38622	-2.9030318e-05
10	0xb7443930	-1.1695825e-05
11	0xb7a32c6b	-1.9451798e-05
12	0xb7eb4deb	-2.8050466e-05
13	0xb7e8b2f5	-2.7739889e-05
14	0xb789e493	-1.643811e-05
15	0xb7d122a5	-2.4930874e-05
16	0xb766dcf2	-1.3760511e-05
17	0xb7ab8c2c	-2.0450061e-05
18	0xb74d5f84	-1.2241191e-05
19	0xb7a6e46b	-1.9895107e-05
20	0xb79be0f3	-1.858219e-05
21	0xb797f100	-1.8112827e-05
22	0xb6bcd95a	-5.6281397e-06
23	0xb6cb1224	-6.0519833e-06
24	0xb5f67248	-1.8361688e-06
25	0xb74ac350	-1.2085613e-05
26	0x359c8817	1.1662513e-06
27	0xb706ca80	-8.034171e-06
28	0xb70df758	-8.461844e-06
29	0xb750b686	-1.2440263e-05
30	0x3594ce22	1.1086852e-06
31	0xb63ff198	-2.8601844e-06
32	0x3583a858	9.809255e-07
33	0xb6ac5167	-5.135476e-06
34	0x3505be76	4.982352e-07
35	0xb65bdf06	-3.276336e-06
36	0xb723489f	-9.7324655e-06
37	0xb7a40c37	-1.9556011e-05
38	0xb6315960	-2.6427078e-06
39	0xb79d120e	-1.8724266e-05
40	0xb79e0676	-1.8838076e-05
41	0xb8133ad1	-3.5102308e-05
42	0xb7815fff	-1.54227e-05
43	0xb80f17ba	-3.4115954e-05
44	0xb7d99283	-2.593664e-05
45	0xb9601092	-0.00021368478
46	0xb76e52fe	-1.4205229e-05
47	0xb8f085d8	-0.00011469022
48	0xb8ca77c0	-9.654416e-05
49	0xb921274f	-0.000153688
50	0xb79e5c37	-1.8878009e-05
51	0xb8e285fe	-0.00010801478
52	0xb881e47c	-6.193758e-05
53	0xb93e471c	-0.00018146302
54	0xb784852b	-1.5797637e-05
55	0xb8d67430	-0.00010225957
56	0xb9807904	-0.00024504226
57	0xb9ab541c	-0.00032678328
58	0xb7d9201e	-2.5883372e-05
59	0xb8d59d5c	-0.00010185942
60	0xb92a1899	-0.00016221627
61	0xb9a0f6d3	-0.00030701476
62	0xb87231cd	-5.7743677e-05
63	0xb9648ce3	-0.00021796259
64	0xb93dc147	-0.00018096446
65	0xb99ee138	-0.0003030391
66	0xb8d3550b	-0.000100771045
67	0xb9388f1f	-0.00017600924
68	0xb9414d7b	-0.00018434778
69	0xb9aa2e26	-0.0003245931
70	0xb91818fd	-0.00014505158
71	0xb99421c4	-0.00028253917
72	0xb994ce31	-0.00028382384
73	0xb9c5fafe	-0.00037761772
74	0xb9838090	-0.00025082054
75	0xb9b748a0	-0.0003495859
76	0xb9b95084	-0.00035345939
77	0xb9edbb18	-0.00045343558
78	0xb97ee5c8	-0.00024308928
79	0xb9ab5e75	-0.00032686038
80	0xb9a8cb92	-0.0003219513
81	0xb9c47182	-0.00037468603
82	0xb9660d94	-0.00021939568
83	0xb9954497	-0.00028470598
84	0xb984ab5f	-0.00025304683
85	0xb99d1522	-0.0002996112
86	0xb9434974	-0.00018624013
87	0xb9832b73	-0.0002501864
88	0xb97d047a	-0.00024129628
89	0xb9936413	-0.00028112586
90	0xb900dfcf	-0.00012290406
91	0xb93bbfdf	-0.00017905187
92	0xb9407b88	-0.00018356566
93	0xb98cb930	-0.00026840856
94	0xb8cae357	-9.674456e-05
95	0xb9753efc	-0.00023388484
96	0xb966e8c9	-0.00022021229
97	0xb9840874	-0.000251833
98	0xb90c8886	-0.000134023
99	0xb93d1f21	-0.00018036041
100	0xb913d11c	-0.00014096912
101	0xb9549aab	-0.00020275514
102	0xb8cb272a	-9.687089e-05
103	0xb9311bcf	-0.00016890395
104	0xb9366af1	-0.00017396711
105	0xb984ebd4	-0.00025352708
106	0xb8e7e832	-0.00011058188
107	0xb978f247	-0.00023741378
108	0xb991b376	-0.00027790264
109	0xb9d7777c	-0.00041097018
110	0xb972e96c	-0.00023165875
111	0xb9d6a4d6	-0.00040940073
112	0xb9b8953b	-0.000352064
113	0xb9dd062b	-0.00042157
114	0xb984e422	-0.00025346974
115	0xb9a98f88	-0.0003234113
116	0xb9a9c841	-0.00032383393
117	0xb9c430bd	-0.00037420346
118	0xb987216b	-0.00025774105
119	0xb98fc808	-0.0002742412
120	0xb9a24aa6	-0.00030954665
121	0xb9be024c	-0.00036241335
122	0xb994b404	-0.00028362882
123	0xb99bb9b4	-0.00029702263
124	0xb9a6da67	-0.0003182471
125	0xba0ed6b0	-0.0005448861
126	0xb9a16cf6	-0.00030789495
127	0xb9daa1ca	-0.00041700742
128	0xb9cc1ca5	-0.00038931254
129	0xb9f3d18d	-0.000465047
130	0xb985b743	-0.00025504277
131	0xb9a838f0	-0.0003208588
132	0xb9b1fafd	-0.00033947072
133	0xb9cf358b	-0.0003952201
134	0xb9874027	-0.00025797004
135	0xb98f78ef	-0.00027365188
136	0xb965515c	-0.0002186945
137	0xb9994415	-0.0002923316
138	0xb93976b5	-0.00017687197
139	0xb93a1ae1	-0.00017748355
140	0xb955a54e	-0.00020374844
141	0xb9ad8ac1	-0.0003310051
142	0xb8cf2cb7	-9.878858e-05
143	0xb95b4997	-0.00020912882
144	0xb97512f5	-0.00023372083
145	0xb9aba8da	-0.00032741466
146	0xb902b5c0	-0.00012465473
147	0xb9871712	-0.00025766395
148	0xb9575591	-0.00020535874
149	0xb9970137	-0.0002880187
150	0xb89a756b	-7.365163e-05
151	0xb937b1bb	-0.0001751845
152	0xb97c1673	-0.00024040956
153	0xb99de8c6	-0.00030118803
154	0xb77e9232	-1.51736185e-05
155	0xb9127684	-0.00013967796
156	0xb93d7c3f	-0.0001807073
157	0xb9b118fa	-0.0003377868
158	0xb91633b4	-0.00014324376
159	0xb9710790	-0.00022986368
160	0xb93d5553	-0.0001805623
161	0xb98aa0b3	-0.0002644114
162	0xb8adadc4	-8.281649e-05
163	0xb8d73deb	-0.00010263532
164	0xb8e572cb	-0.00010940953
165	0xb958bb9c	-0.00020669255
166	0xb89c43c9	-7.451286e-05
167	0xb9197a09	-0.00014636679
168	0xb916dec3	-0.000143881
169	0xb99bb40a	-0.00029698043
170	0xb905721b	-0.00012726376
171	0xb92c813e	-0.00016451345
172	0xb93af209	-0.00017828507
173	0xb9af3ccf	-0.00033423907
174	0xb8fb1609	-0.00011972717
175	0xb953fbee	-0.00020216379
176	0xb95c72ea	-0.00021023644
177	0xb994396b	-0.0002827154
178	0xb8ea8026	-0.00011181859
179	0xb943777e	-0.00018641163
180	0xb946f341	-0.0001897337
181	0xb95cf6c3	-0.00021072761
182	0xb8cfb076	-9.9033976e-05
183	0xb90ce66d	-0.0001343728
184	0xb9101016	-0.00013738903
185	0xb94948c1	-0.00019195957
186	0xb888e99d	-6.528499e-05
187	0xb90a704a	-0.00013202537
188	0xb91fde3a	-0.00015246207
189	0xb98b5c23	-0.00026580793
190	0xb888598e	-6.501666e-05
191	0xb93ba1a3	-0.00017893924
192	0xb9555096	-0.00020343284
193	0xb9b565fc	-0.00034598995
194	0xb8c5b154	-9.426722e-05
195	0xb9593d84	-0.00020717649
196	0xb93f7186	-0.0001825747
197	0xb9b85357	-0.00035157308
198	0xb9146517	-0.00014152039
199	0xb9ab05f4	-0.00032620097
200	0xb980b19b	-0.0002454639
201	0xb9bbc801	-0.00035816434
202	0xb8c83ef7	-9.548471e-05
203	0xb93daaa3	-0.00018088012
204	0xb93c7fb0	-0.00017976644
205	0xb983f690	-0.0002516997
206	0xb90a129f	-0.00013167642
207	0xb95f476c	-0.00021293544
208	0xb9350714	-0.00017264142
209	0xb94b5fef	-0.00019395327
210	0xb904cc02	-0.000126645
211	0xb917e8d1	-0.00014487213
212	0xb91f941d	-0.00015218598
213	0xb9374761	-0.0001747883
214	0xb90765d9	-0.00012912544
215	0xb90cac71	-0.0001341568
216	0xb91e8c9a	-0.00015120432
217	0xb93276f5	-0.00017019718
218	0xb915f18a	-0.00014299728
219	0xb91acd6b	-0.00014763109
220	0xb921b654	-0.00015422079
221	0xb9897af7	-0.00026222292
222	0xb91f4c25	-0.00015191788
223	0xb957a1cf	-0.00020564276
224	0xb9491ba9	-0.00019179158
225	0xb9541643	-0.00020226189
226	0xb90348d2	-0.00012520261
227	0xb9151514	-0.000142176
228	0xb9281575	-0.00016029722
229	0xb9401d1d	-0.00018321392
230	0xb90eabb7	-0.00013606144
231	0xb912fa0a	-0.00014016792
232	0xb8e2197f	-0.00010781269
233	0xb913372a	-0.00014039563
234	0xb8c092e9	-9.1826376e-05
235	0xb8c0ac19	-9.187329e-05
236	0xb8d7f6d8	-0.00010297977
237	0xb8e766d4	-0.000110340916
238	0xb874de78	-5.8381323e-05
239	0xb8ab8eda	-8.1805236e-05
240	0xb8d100c2	-9.966038e-05
241	0xb916fa28	-0.00014398305
242	0xb8ab1b1d	-8.158966e-05
243	0xb8f8d0da	-0.00011864463
244	0xb8ccf2bc	-9.772691e-05
245	0xb8d445ab	-0.000101219244
246	0xb83ce52e	-4.5036133e-05
247	0xb88bef67	-6.672629e-05
248	0xb8889657	-6.512988e-05
249	0xb8b87cb7	-8.797034e-05
250	0xb7fc154c	-3.0050658e-05
251	0xb8890f94	-6.535571e-05
252	0xb8a509b5	-7.869621e-05
253	0xb8f9cf91	-0.000119119075
254	0xb89baf11	-7.4235846e-05
255	0xb89e1f14	-7.539816e-05

exp_avg_sq f4 [32, 400]
0	0x355f19af	8.311135e-07
1	0x35943833	1.1043215e-06
2	0x35154308	5.560437e-07
3	0x355488b9	7.917511e-07
4	0x353a81e5	6.947942e-07
5	0x35893c17	1.0224784e-06
6	0x3502bbb4	4.870192e-07
7	0x35499000	7.508788e-07
8	0x352f0cdb	6.521129e-07
9	0x35815b11	9.637753e-07
10	0x34ebf1b7	4.3948032e-07
11	0x3530230d	6.5616115e-07
12	0x3513561b	5.488707e-07
13	0x355b6dd2	8.1743667e-07
14	0x34aac58d	3.1808705e-07
15	0x3505e3cc	4.987785e-07
16	0x350fb4fc	5.353502e-07
17	0x355a6745	8.1361605e-07
18	0x34b1c114	3.3109302e-07
19	0x351111fd	5.4042886e-07
20	0x34e63795	4.288128e-07
21	0x35347de9	6.723845e-07
22	0x347ca300	2.3528628e-07
23	0x34d72e34	4.0080488e-07
24	0x34c5885c	3.6793324e-07
25	0x351aeb6b	5.771205e-07
26	0x3465fbda	2.141891e-07
27	0x34c7d7e3	3.7223717e-07
28	0x34bbb190	3.4960658e-07
29	0x35191ad4	5.703598e-07
30	0x345690e4	1.9983014e-07
31	0x34c3a917	3.644461e-07
32	0x34ccb275	3.8127806e-07
33	0x351dbbe8	5.87605e-07
34	0x3464d666	2.1312152e-07
35	0x34d37c6d	3.9392344e-07
36	0x34b87644	3.435872e-07
37	0x352b8d8b	6.3908436e-07
38	0x345c5a2c	2.0521901e-07
39	0x34e79717	4.3137035e-07
40	0x34db765a	4.087804e-07
41	0x3531bcd4	6.621242e-07
42	0x3481713b	2.4110508e-07
43	0x34fcbf15	4.7077688e-07
44	0x34f505ca	4.5639018e-07
45	0x354f7402	7.728232e-07
46	0x34997d68	2.8589716e-07
47	0x350b077c	5.1792426e-07
48	0x351866b7	5.677388e-07
49	0x356faeb9	8.9288693e-07
50	0x34a2280b	3.0203987e-07
51	0x35147442	5.5303474e-07
52	0x352277c4	6.0523985e-07
53	0x358f870e	1.0693636e-06
54	0x34ccfdfa	3.8182753e-07
55	0x3539d24f	6.922391e-07
56	0x3545e86a	7.3726426e-07
57	0x35ac23ea	1.2825451e-06
58	0x34fa9053	4.6671138e-07
59	0x356a565e	8.7297474e-07
60	0x3576632e	9.1786467e-07
61	0x35cd3e74	1.5291866e-06
62	0x3538cf6d	6.8847186e-07
63	0x35959f98	1.1147813e-06
64	0x35a3e218	1.2210248e-06
65	0x35ff120a	1.9004231e-06
66	0x3568c9b7	8.672027e-07
67	0x35b50cf9	1.3489326e-06
68	0x35ba4f62	1.3881183e-06
69	0x360f0642	2.1312303e-06
70	0x35839934	9.804849e-07
71	0x35c5de47	1.4742335e-06
72	0x35c235ef	1.4469823e-06
73	0x360ff95e	2.1453811e-06
74	0x3588ea65	1.0201007e-06
75	0x35cb849b	1.5163272e-06
76	0x35cf6dfa	1.5454709e-06
77	0x361bbc95	2.320657e-06
78	0x3593a432	1.1000141e-06
79	0x35df34b7	1.6630137e-06
80	0x35e2eb13	1.6906728e-06
81	0x36241a82	2.4453334e-06
82	0x3598e7b2	1.1392315e-06
83	0x35db886f	1.6356479e-06
84	0x35cb9981	1.5169354e-06
85	0x361ac8c3	2.3064647e-06
86	0x359087a7	1.0768316e-06
87	0x35ceb486	1.5400735e-06
88	0x35c7f017	1.4896531e-06
89	0x361a7367	2.3014961e-06
90	0x3584aeb6	9.885614e-07
91	0x35cf8dc6	1.5463963e-06
92	0x35d2a7c6	1.5695048e-06
93	0x36191804	2.2812756e-06
94	0x358c4c36	1.0452993e-06
95	0x35cfff67	1.5497034e-06
96	0x35c3a834	1.4577586e-06
97	0x360c033d	2.086351e-06
98	0x35732cc3	9.058969e-07
99	0x35b58473	1.3524099e-06
100	0x35a7688d	1.2472898e-06
101	0x3600b807	1.9180604e-06
102	0x3557d333	8.0401077e-07
103	0x35a21d8b	1.2078539e-06
104	0x3595eabd	1.1169683e-06
105	0x35e155d5	1.6788787e-06
106	0x353ef831	7.114168e-07
107	0x358cf13f	1.0501025e-06
108	0x358962d6	1.023606e-06
109	0x35d66650	1.5974019e-06
110	0x35354ee7	6.754257e-07
111	0x35984b07	1.1346718e-06
112	0x3591bb57	1.0857865e-06
113	0x35d9a6f4	1.621635e-06
114	0x35357d53	6.7610125e-07
115	0x3591de6f	1.0868079e-06
116	0x358ca355	1.0478349e-06
117	0x35df0b3e	1.6618067e-06
118	0x353879ae	6.872241e-07
119	0x35937c2e	1.0988495e-06
120	0x35863953	1.0000462e-06
121	0x35c1d84f	1.4442575e-06
122	0x3522b75b	6.061652e-07
123	0x35749c1e	9.1124264e-07
124	0x357f885d	9.519334e-07
125	0x35bfff9c	1.4305001e-06
126	0x351d20f9	5.853504e-07
127	0x3580998b	9.58143e-07
128	0x356e5ee9	8.880002e-07
129	0x35c65992	1.4778218e-06
130	0x3522add0	6.0602633e-07
131	0x358e3236	1.0594438e-06
132	0x3584f034	9.904675e-07
133	0x35c4b9a0	1.4657162e-06
134	0x35278287	6.240229e-07
135	0x3580763c	9.571154e-07
136	0x355cf40b	8.2311516e-07
137	0x35aeec9f	1.3032876e-06
138	0x3510b0d6	5.390151e-07
139	0x35727847	9.032705e-07
140	0x356f5e32	8.917151e-07
141	0x35cd8e88	1.5315172e-06
142	0x352a39ac	6.341386e-07
143	0x35953156	1.1115724e-06
144	0x3581e1e0	9.676987e-07
145	0x35d06156	1.5525536e-06
146	0x352f534a	6.531378e-07
147	0x358f2e41	1.0667792e-06
148	0x358a0e27	1.028592e-06
149	0x35ca23dc	1.5060609e-06
150	0x352f65ce	6.5340726e-07
151	0x358b2a1f	1.0368566e-06
152	0x35889c06	1.0178198e-06
153	0x35c7d47c	1.4888496e-06
154	0x35257102	6.163174e-07
155	0x3586401f	1.000244e-06
156	0x3573174c	9.0558456e-07
157	0x35b32da0	1.3349818e-06
158	0x3515b3fe	5.576875e-07
159	0x3567c45c	8.6339946e-07
160	0x3546e143	7.4088547e-07
161	0x359a2cbe	1.1486916e-06
162	0x34f9e65c	4.6547473e-07
163	0x3551b260	7.8118137e-07
164	0x35348c14	6.7259066e-07
165	0x3593fc2c	1.1025745e-06
166	0x34e7f9ce	4.320886e-07
167	0x3556f951	8.0084016e-07
168	0x3548b2a7	7.476578e-07
169	0x3592e27b	1.0943762e-06
170	0x34f7e935	4.6177016e-07
171	0x3550f6f9	7.784543e-07
172	0x35417ba4	7.2078024e-07
173	0x3590a05a	1.0775505e-06
174	0x34e8f2c4	4.3390003e-07
175	0x3543c280	7.2926196e-07
176	0x3517e28d	5.658156e-07
177	0x357b90ed	9.371568e-07
178	0x34c2eccf	3.6307617e-07
179	0x35250e1d	6.148783e-07
180	0x3505b756	4.981315e-07
181	0x35756c9f	9.1427677e-07
182	0x34a452e2	3.0607686e-07
183	0x352b6a28	6.385694e-07
184	0x35234cc3	6.0833935e-07
185	0x358e58fa	1.060572e-06
186	0x34cf84ef	3.8653477e-07
187	0x3546d532	7.407099e-07
188	0x354107af	7.1909284e-07
189	0x359ca934	1.167215e-06
190	0x34ea007f	4.3586257e-07
191	0x355ab3c2	8.147291e-07
192	0x354d17a9	7.640288e-07
193	0x359db06d	1.1748758e-06
194	0x34f22a6c	4.510688e-07
195	0x35492fcb	7.4947883e-07
196	0x352bc900	6.399496e-07
197	0x358ee507	1.064648e-06
198	0x34c6b1e0	3.7009795e-07
199	0x353bf4e5	7.0019297e-07
200	0x353141e7	6.603354e-07
201	0x35a66e11	1.2399997e-06
202	0x34daf5c9	4.0784496e-07
203	0x356be597	8.787842e-07
204	0x356402bd	8.4940604e-07
205	0x35b9f6b4	1.3855374e-06
206	0x35039d11	4.9029865e-07
207	0x357d09e8	9.426426e-07
208	0x35623554	8.4269163e-07
209	0x35b2b041	1.331333e-06
210	0x3510c0bf	5.392466e-07
211	0x357b3027	9.357486e-07
212	0x356f13a9	8.906305e-07
213	0x35b63944	1.3576723e-06
214	0x3514b585	5.539844e-07
215	0x357817a4	9.24216e-07
216	0x3573d640	9.083633e-07
217	0x35c7445d	1.4846552e-06
218	0x351b82ad	5.793216e-07
219	0x358a556a	1.030666e-06
220	0x358091a0	9.579126e-07
221	0x35c1b9f4	1.443374e-06
222	0x3514d93d	5.545042e-07
223	0x3582cbd7	9.74508e-07
224	0x357cfba4	9.42435e-07
225	0x35c02b65	1.4317744e-06
226	0x350ef954	5.326194e-07
227	0x357ae405	9.346407e-07
228	0x357750b6	9.213212e-07
229	0x35b9f099	1.3853597e-06
230	0x3505cfe4	4.984888e-07
231	0x355ff731	8.3433684e-07
232	0x3562fefb	8.4562606e-07
233	0x35a04913	1.1942196e-06
234	0x34dc6048	4.1048247e-07
235	0x35368d1f	6.800564e-07
236	0x352cd3e0	6.438331e-07
237	0x3583fd8a	9.83405e-07
238	0x34afca9f	3.2743716e-07
239	0x35252b8a	6.153065e-07
240	0x35203840	5.96865e-07
241	0x358989fa	1.0247452e-06
242	0x34ab5b02	3.191745e-07
243	0x352c1c4e	6.411618e-07
244	0x3521a4a4	6.021676e-07
245	0x35884173	1.0151838e-06
246	0x34b69a9d	3.4012638e-07
247	0x3531e679	6.627302e-07
248	0x3528fa4b	6.29491e-07
249	0x358e2ba9	1.0592531e-06
250	0x34b6e5fe	3.4067483e-07
251	0x3541c6fa	7.218765e-07
252	0x353be7ee	7.000043e-07
253	0x359482e6	1.1064956e-06
254	0x34d04493	3.8792913e-07
255	0x3545d347	7.369567e-07

exp_avg f4 [32]
0	0xb99f408f	-0.00030374943
1	0x3b4c5192	0.003117655
2	0xba097571	-0.00052436354
3	0xbaaa65f3	-0.0013000354
4	0x38676357	5.516721e-05
5	0xb956c811	-0.00020483161
6	0x3956ffbf	0.00020503903
7	0x3799cff7	1.8335862e-05
8	0xb93ae972	-0.00017825307
9	0xba49919f	-0.0007689241
10	0xba360387	-0.00069432746
11	0x3a9579f5	0.0011404144
12	0x3a168c13	0.00057429186
13	0x36a2b2ca	4.84879e-06
14	0x3a8d3f24	0.0010776264
15	0x3b822841	0.003972084
16	0xbb52de97	-0.003217613
17	0xb833d98b	-4.287953e-05
18	0xbae7d8a4	-0.0017688465
19	0x377a041a	1.4902116e-05
20	0xb90e7ffc	-0.00013589853
21	0x3a51ca12	0.0008002828
22	0xba0e34a9	-0.0005424717
23	0x39007d9e	0.00012253827
24	0xbae0c9c6	-0.0017149977
25	0xba0379ac	-0.0005015384
26	0x3a03a98a	0.00050225167
27	0x3b115a4d	0.0022179068
28	0x3a79df41	0.00095318636
29	0x3945791f	0.00018832505
30	0x3b5891a4	0.0033045793
31	0xbaa42085	-0.0012521899

exp_avg_sq f4 [32]
0	0x358aa6dc	1.0330364e-06
1	0x36e5b85b	6.8461936e-06
2	0x36ebdc48	7.02919e-06
3	0x3781065e	1.5380963e-05
4	0x369531be	4.446337e-06
5	0x37053fa4	7.942235e-06
6	0x367f95b7	3.8085107e-06
7	0x3645f6a8	2.949886e-06
8	0x3608dcfd	2.0394211e-06
9	0x362b9f2b	2.5573634e-06
10	0x3759902e	1.2967777e-05
11	0x36bf4269	5.6999747e-06
12	0x37576f00	1.2840843e-05
13	0x35a65247	1.239191e-06
14	0x364e95f7	3.0783683e-06
15	0x380a73dc	3.3009666e-05
16	0x37112832	8.652032e-06
17	0x34f26c44	4.5154786e-07
18	0x36e372c5	6.778488e-06
19	0x3557563b	8.0219223e-07
20	0x368a1b7e	4.115921e-06
21	0x35e0d869	1.6752284e-06
22	0x36155abb	2.2255542e-06
23	0x35b7577d	1.3660025e-06
24	0x365c9b94	3.2873113e-06
25	0x37004c60	7.647177e-06
26	0x370e4c64	8.481646e-06
27	0x36403fc3	2.8647344e-06
28	0x370b21c7	8.29291e-06
29	0x36b7ae19	5.4740926e-06
30	0x375e1078	1.3236066e-05
31	0x372db81e	1.0354472e-05

exp_avg f4 [30, 32]
0	0x391bb742	0.00014850221
1	0xbac1ec09	-0.0014795075
2	0x3aa87e8b	0.0012855096
3	0x3b5cada6	0.0033672838
4	0xba21e14d	-0.0006175235
5	0x3a875910	0.0010326225
6	0xbb28048c	-0.0025637476
7	0x3775a799	1.464216e-05
8	0x39a1d305	0.00030865535
9	0xba0fef52	-0.00054906786
10	0x3bb72a64	0.00558977
11	0x3a9db835	0.0012033047
12	0x3a1325f9	0.00056132633
13	0x39006e67	0.0001224816
14	0x3a83db14	0.0010059797
15	0x3a5c1393	0.0008395251
16	0x3b424d99	0.0029648303
17	0x39be3ea8	0.00036286307
18	0xbae4cdcb	-0.0017456351
19	0x38ca1aea	9.637124e-05
20	0xbb4584cc	-0.0030138968
21	0x39128af2	0.00013975406
22	0xb8784f64	-5.9201746e-05
23	0x398aef6e	0.000264998
24	0xba6df2be	-0.0009077004
25	0x3a5f4b82	0.00085180264
26	0xbbc2a351	-0.005939879
27	0xbaa18b8f	-0.0012324917
28	0x39e1e0bd	0.00043082787
29	0xb9690667	-0.00022222997
30	0x3a67c901	0.00088419026
31	0x3ad219fe	0.0016029475
32	0xb707dfb8	-8.098716e-06
33	0xb9e7bc62	-0.0004420011
34	0x3b3adc79	0.002851276
35	0x3b2af508	0.0026085991
36	0xb8d4cb58	-0.000101468235
37	0x3a71670a	0.00092087744
38	0xbaff341e	-0.0019470488
39	0x372b8db2	1.0225385e-05
40	0x399e0ead	0.00030147043
41	0x3a10316c	0.00055005285
42	0x3ba7c2d0	0.005119659
43	0x3a8d58ab	0.0010783871
44	0x3a0117ca	0.00049245043
45	0x38d8acb4	0.00010331851
46	0x3a7a61ea	0.00095513335
47	0x3a6d4d00	0.00090523064
48	0x3b4572ad	0.0030128167
49	0xb910df60	-0.00013816124
50	0x3a6f53c2	0.00091296074
51	0x38e966bd	0.00011129442
52	0xbae44bc4	-0.00174176
53	0xb81e9202	-3.7806116e-05
54	0xb8394425	-4.41709e-05
55	0x39c4d0ad	0.0003753951
56	0xb9ab4c67	-0.00032672586
57	0x3a1a6e39	0.0005891058
58	0xbb0dbe10	-0.0021628179
59	0xb802ce89	-3.1186766e-05
60	0x39c5943b	0.00037685208
61	0xb98bc82d	-0.0002666129
62	0xb9d4f014	-0.00040614663
63	0x3a927da2	0.0011176358
64	0x37d781ac	2.569038e-05
65	0x39119641	0.00013884252
66	0x3ab7dbea	0.0014027331
67	0x3addeb62	0.0016931111
68	0xba103787	-0.0005501438
69	0x3a638a78	0.0008679996
70	0xbb09145c	-0.0020916676
71	0xb4d9ca05	-4.0566388e-07
72	0x392499e9	0.00015697595
73	0x38d09fb4	9.94796e-05
74	0x3b9bc781	0.0047540073
75	0x3a6544aa	0.00087458885
76	0x3a1c8bdd	0.0005971769
77	0x390a9ebf	0.00013219843
78	0x3a87fb9f	0.0010374672
79	0x3a1dcf1e	0.00060199376
80	0x3b35a3d9	0.002771607
81	0xb8fb02c3	-0.00011969127
82	0x3a9bbc88	0.0011881748
83	0x38666b62	5.493628e-05
84	0xb991ec08	-0.00027832412
85	0x3804dd67	3.167745e-05
86	0xb8eba512	-0.0001123642
87	0x392b7432	0.00016351117
88	0x39990f1b	0.00029193689
89	0xb73c8d80	-1.1238619e-05
90	0xbb3dd01f	-0.0028963161
91	0xb9fda5ef	-0.0004837955
92	0x39a2fdea	0.0003108823
93	0xb995fc00	-0.0002860725
94	0x3a3574d7	0.00069220125
95	0x3a30ed61	0.00067492394
96	0xb82e2330	-4.1517604e-05
97	0xba96b1b1	-0.0011497048
98	0x39b087ae	0.00033670425
99	0x396e02af	0.00022698448
100	0xb9771d2b	-0.00023566622
101	0x3a29d193	0.00064780674
102	0xbaa2c62a	-0.0012418677
103	0xb57556ea	-9.139609e-07
104	0x391ce8ee	0.00014964092
105	0x3aa7e181	0.0012808294
106	0x3b32127a	0.0027171657
107	0x39d18bff	0.00039967892
108	0xb887cf71	-6.4759406e-05
109	0x38d558f6	0.00010173202
110	0x3a0a4618	0.0005274727
111	0x39fb4852	0.00047928334
112	0x3a9d9d30	0.0012024995
113	0xb9f88251	-0.0004739934
114	0x39f497e0	0.00046652462
115	0x3856d404	5.121903e-05
116	0xbad19345	-0.0015989324
117	0xb88c1a1b	-6.680583e-05
118	0xb904c66f	-0.00012662423
119	0x38bc94b4	8.992237e-05
120	0xba6fe5ba	-0.00091513584
121	0xb9914004	-0.0002770425
122	0xbae4c076	-0.0017452377
123	0xba018b5a	-0.00049417245
124	0x39985f64	0.0002906277
125	0xba1b56f7	-0.00059257395
126	0x3a5027a8	0.00079404796
127	0x39dafb9e	0.0004176767
128	0x3832559c	4.2518237e-05
129	0x3accdb83	0.0015629384
130	0x3b6fff12	0.003662054
131	0x3a552165	0.00081302813
132	0x38361ffb	4.3421966e-05
133	0x3a6c37eb	0.0009011018
134	0x3b34d862	0.0027594795
135	0x36695a15	3.477214e-06
136	0x397cf825	0.00024125034
137	0x3a1a802e	0.0005893734
138	0x3b991fd2	0.0046729827
139	0x3a85da45	0.0010212144
140	0x398a6b03	0.0002640114
141	0x3920de9d	0.00015341719
142	0x3a483607	0.0007637445
143	0x3a454bbf	0.00075262407
144	0x3b02a141	0.001993254
145	0xb88bad78	-6.6603476e-05
146	0x3b94e751	0.0045441766
147	0x3873b47e	5.810381e-05
148	0x3b140f0b	0.0022591974
149	0x387c4f2a	6.015521e-05
150	0xb7825dbe	-1.554086e-05
151	0x38b049cd	8.4060805e-05
152	0x3abb260c	0.0014278307
153	0xb6717b98	-3.598374e-06
154	0x3bad50ee	0.0052891886
155	0x3a8f2dff	0.0010923742
156	0x39e0ddf9	0.00042889992
157	0xb962ec04	-0.00021640962
158	0x3a1029b5	0.0005499379
159	0x3a24db03	0.0006288739
160	0xb811e413	-3.4783105e-05
161	0x388a39e1	6.5911336e-05
162	0x3b09e6c9	0.00210421
163	0xba19473b	-0.0005847101
164	0xb95cd98a	-0.00021061875
165	0x3a1afb3e	0.0005912072
166	0xba1d1aaa	-0.0005993048
167	0x3534827b	6.72451e-07
168	0x38f1fba9	0.00011538651
169	0xb991a0e7	-0.00027776437
170	0x3b47c47a	0.00304821
171	0x3a2a53d5	0.00064974773
172	0xb9b63779	-0.00034755075
173	0x38cf5173	9.8857e-05
174	0x3a310963	0.0006753413
175	0x3a191ffb	0.0005841252
176	0x39a01ccd	0.00030539036
177	0xba02466c	-0.00049696
178	0x3a027d3d	0.00049777684
179	0x3855851a	5.0907118e-05
180	0x38b6e417	8.720921e-05
181	0xb837bc4d	-4.380597e-05
182	0xb8f36e4a	-0.00011607686
183	0x363cb6f2	2.8120671e-06
184	0x38ddfd43	0.00010585275
185	0xb917dcc1	-0.0001448272
186	0xba626808	-0.00086367177
187	0x3863ee0b	5.4342712e-05
188	0x39800403	0.00024417051
189	0xb9e0e56e	-0.00042895548
190	0x3886f881	6.4359054e-05
191	0x39f39748	0.00046461285
192	0x385ec6c4	5.311404e-05
193	0x37672b15	1.3778704e-05
194	0x3b6009b5	0.0034185473
195	0xb8fd082f	-0.000120655044
196	0xb8f92bf1	-0.0001188143
197	0x3a286c57	0.00064248353
198	0x3a8ebfdf	0.0010890922
199	0x3601180a	1.923649e-06
200	0x39558aef	0.0002036502
201	0xb988ea94	-0.00026114716
202	0x3b57f10d	0.0032950074
203	0x3a8399e6	0.0010040372
204	0xb98296fb	-0.0002490802
205	0x389e524d	7.549357e-05
206	0x3a6cb91d	0.00090302696
207	0x3a1f52b7	0.0006077694
208	0x3a0f2d26	0.0005461745
209	0xb809d84d	-3.286479e-05
210	0x3a473505	0.0007599148
211	0x38782620	5.9163314e-05
212	0x399c3473	0.00029793716
213	0x38b447dc	8.596454e-05
214	0xb840a3ad	-4.5928802e-05
215	0x3706c587	8.033013e-06
216	0x3a23cef2	0.0006248794
217	0xb8f7e11a	-0.00011819806
218	0x39eb43c8	0.00044873194
219	0x3939c0d4	0.00017714809
220	0x3991b8d1	0.00027794254
221	0xb996b997	-0.00028748505
222	0x398c6eeb	0.0002678552
223	0x3a96e35c	0.001151185
224	0xb8b15aac	-8.456907e-05
225	0xb8597a13	-5.1850522e-05
226	0x3b272857	0.0025506222
227	0xbacbf991	-0.0015562047
228	0xb8f113af	-0.00011495442
229	0x39bcc97d	0.00036008275
230	0x390e2337	0.00013555294
231	0xb6871973	-4.026276e-06
232	0x3984e67d	0.0002534873
233	0xb9eaa180	-0.00044752285
234	0x3af6c672	0.0018827452
235	0x3a556455	0.0008140256
236	0xba54a980	-0.00081124157
237	0x3885a9f9	6.373594e-05
238	0x3a16994f	0.00057448907
239	0x3a000480	0.0004883483
240	0xba1dc0fb	-0.0006017831
241	0xba132cc3	-0.0005614275
242	0xb9af4a9d	-0.00033434192
243	0x3881edc2	6.195485e-05
244	0x39416903	0.00018445034
245	0xb8c962e8	-9.6028496e-05
246	0x3882c4cf	6.2355415e-05
247	0x38c0efc0	9.19993e-05
248	0x3899ec75	7.339652e-05
249	0xb87cae7c	-6.0243983e-05
250	0x39a12c19	0.00030741168
251	0x3a01b5e6	0.00049480645
252	0x38e938a4	0.00011120856
253	0xb8cd795c	-9.797767e-05
254	0xb83fab66	-4.5697576e-05
255	0xb92035b0	-0.00015278789

exp_avg_sq f4 [30, 32]
0	0x3501143f	4.8085707e-07
1	0x36361db8	2.7137412e-06
2	0x37fa7ac7	2.9859495e-05
3	0x37e6a2a4	2.7493872e-05
4	0x363c9dda	2.8106065e-06
5	0x37186714	9.083906e-06
6	0x378cefaf	1.6800912e-05
7	0x350b0b02	5.1797554e-07
8	0x361aeb7f	2.3084865e-06
9	0x35ea6988	1.7465072e-06
10	0x379be425	1.8583678e-05
11	0x3691202b	4.3250816e-06
12	0x369428b7	4.4154835e-06
13	0x3465bc5a	2.1395809e-07
14	0x3600e8cd	1.9208994e-06
15	0x3715b911	8.924181e-06
16	0x37dd382c	2.637141e-05
17	0x340cc23e	1.3109181e-07
18	0x3768baeb	1.3871798e-05
19	0x35b26199	1.3290438e-06
20	0x365cc61f	3.2897876e-06
21	0x3512f271	5.4742037e-07
22	0x35727ea9	9.033634e-07
23	0x36d8c742	6.4604983e-06
24	0x374e61c6	1.23013215e-05
25	0x369c6c08	4.661739e-06
26	0x37837e87	1.5675336e-05
27	0x36c4b998	5.862861e-06
28	0x35c1640f	1.4408741e-06
29	0x3598ab73	1.1374781e-06
30	0x3615f538	2.2345466e-06
31	0x370d7a32	8.432706e-06
32	0x351413f2	5.516332e-07
33	0x3629761f	2.5251718e-06
34	0x37e1c269	2.691262e-05
35	0x37d2a788	2.5111964e-05
36	0x364eba20	3.080473e-06
37	0x370a28c0	8.234929e-06
38	0x378000de	1.5259193e-05
39	0x34fdf618	4.730398e-07
40	0x360f68fe	2.1369774e-06
41	0x35f7d298	1.8464225e-06
42	0x37967c70	1.793934e-05
43	0x3685ba1e	3.9853758e-06
44	0x368df254	4.230338e-06
45	0x347db6cb	2.3628961e-07
46	0x3603928b	1.960582e-06
47	0x3708660f	8.129994e-06
48	0x37c86c4f	2.3892293e-05
49	0x3413b1bb	1.37551e-07
50	0x37387408	1.099427e-05
51	0x35b5af3e	1.3536553e-06
52	0x36675f80	3.447727e-06
53	0x351c93e1	5.832972e-07
54	0x356848ec	8.653285e-07
55	0x36bb5535	5.5829537e-06
56	0x373b3a79	1.1159683e-05
57	0x36a30b22	4.8590746e-06
58	0x3748263c	1.1929831e-05
59	0x36b79e2f	5.47224e-06
60	0x35a0ee71	1.1990325e-06
61	0x356b9041	8.775424e-07
62	0x361f39e0	2.3726534e-06
63	0x36f431d5	7.277568e-06
64	0x34e8d4d2	4.3368215e-07
65	0x367ef648	3.7992304e-06
66	0x37ebd3f7	2.8112887e-05
67	0x37c478e6	2.3421318e-05
68	0x3647fe8f	2.9801483e-06
69	0x3701e9f4	7.743471e-06
70	0x3786c7f2	1.6067152e-05
71	0x3506d93c	5.023501e-07
72	0x35ffefdc	1.9068789e-06
73	0x35d3000f	1.5720742e-06
74	0x378d36e1	1.6834065e-05
75	0x3688ceb9	4.0771815e-06
76	0x368593fd	3.980937e-06
77	0x34624ca7	2.1075776e-07
78	0x35f4b1cc	1.8231162e-06
79	0x36f6f193	7.3594942e-06
80	0x37b46b50	2.1507643e-05
81	0x33dfa3ea	1.04140625e-07
82	0x37374f92	1.0926176e-05
83	0x359ca587	1.167108e-06
84	0x363d658f	2.822231e-06
85	0x34d6b8b8	3.9995007e-07
86	0x35412765	7.195543e-07
87	0x3694cd6d	4.4346584e-06
88	0x3737d060	1.0956166e-05
89	0x36896869	4.095073e-06
90	0x374c876d	1.2190879e-05
91	0x369c0a6f	4.650377e-06
92	0x357a3696	9.321169e-07
93	0x358c56eb	1.0456109e-06
94	0x3600dde4	1.9202644e-06
95	0x36ebb5ee	7.024725e-06
96	0x34d8ce3d	4.0383193e-07
97	0x368f8812	4.2775728e-06
98	0x37c2c3d1	2.3217786e-05
99	0x378d4c5a	1.6844064e-05
100	0x364b9f7d	3.0342192e-06
101	0x36cde003	6.1355545e-06
102	0x3771768b	1.439232e-05
103	0x35137983	5.493859e-07
104	0x35d9a49d	1.6215669e-06
105	0x35d905ca	1.6169445e-06
106	0x37727a50	1.4452802e-05
107	0x368a3766	4.1191697e-06
108	0x3668c992	3.4688023e-06
109	0x3443a34a	1.8220194e-07
110	0x35d27fee	1.5683452e-06
111	0x36b85a8e	5.4941693e-06
112	0x3797706a	1.805295e-05
113	0x341d437a	1.4646312e-07
114	0x373fe418	1.1437594e-05
115	0x35b3a0a4	1.3383292e-06
116	0x3670bfd6	3.587445e-06
117	0x34cf260b	3.8584434e-07
118	0x351ce7d0	5.845186e-07
119	0x3661d5f5	3.3652152e-06
120	0x3737c1ea	1.0952799e-05
121	0x366c23b7	3.518753e-06
122	0x3781c825	1.5471198e-05
123	0x366f1d40	3.56308e-06
124	0x3553e41e	7.893558e-07
125	0x3573b3f5	9.0786426e-07
126	0x35f175cb	1.7990182e-06
127	0x36ca325a	6.025931e-06
128	0x353136bf	6.6017304e-07
129	0x365b143a	3.2645316e-06
130	0x37a549e8	1.9703948e-05
131	0x379bae9b	1.8558747e-05
132	0x3614bf32	2.216501e-06
133	0x36ef21af	7.1266763e-06
134	0x373361a0	1.06919615e-05
135	0x34f1c75f	4.503481e-07
136	0x35d65874	1.5969986e-06
137	0x35e5504a	1.7085197e-06
138	0x378a7a01	1.6507694e-05
139	0x3697611c	4.5114557e-06
140	0x366c79af	3.523757e-06
141	0x349d0c8d	2.925266e-07
142	0x36011e6f	1.9240213e-06
143	0x36db53c9	6.5364625e-06
144	0x37aedfac	2.0846572e-05
145	0x33b19820	8.269876e-08
146	0x3748e179	1.1973426e-05
147	0x35a79148	1.2484752e-06
148	0x36601368	3.3389897e-06
149	0x34f37a19	4.5351115e-07
150	0x3542b0f5	7.252814e-07
151	0x366eb615	3.557075e-06
152	0x374c92f6	1.21935645e-05
153	0x36739b03	3.630005e-06
154	0x376af5bc	1.4004701e-05
155	0x3697fbc9	4.5294623e-06
156	0x35816919	9.641836e-07
157	0x35416a50	7.205281e-07
158	0x3601397f	1.9255965e-06
159	0x36d77a39	6.421728e-06
160	0x352f28e6	6.5252095e-07
161	0x35fd27a0	1.8861501e-06
162	0x37961dce	1.7895272e-05
163	0x378695ad	1.6043743e-05
164	0x360bd70b	2.0837786e-06
165	0x36f71f5a	7.3648234e-06
166	0x371e061f	9.418959e-06
167	0x3500c32c	4.796773e-07
168	0x35cc17cb	1.5206109e-06
169	0x35d30c48	1.5724299e-06
170	0x377a7c8a	1.4930158e-05
171	0x36956f4d	4.453503e-06
172	0x364722bc	2.9673529e-06
173	0x348d6d9b	2.6343045e-07
174	0x35ea66ef	1.7464316e-06
175	0x36c14dec	5.7609195e-06
176	0x3798c3c0	1.8210965e-05
177	0x33be7f09	8.870672e-08
178	0x36f364f7	7.253718e-06
179	0x35ab4dcd	1.2763136e-06
180	0x35f1c6c3	1.8013747e-06
181	0x34c6d9a0	3.7038717e-07
182	0x3514a269	5.5370634e-07
183	0x3641baf8	2.8868071e-06
184	0x370fe812	8.577497e-06
185	0x3672df2b	3.619071e-06
186	0x371bf2e0	9.295269e-06
187	0x364c338f	3.042838e-06
188	0x3548a053	7.473911e-07
189	0x3538fbc3	6.8911703e-07
190	0x35dcb960	1.6445229e-06
191	0x36b74f5e	5.4630646e-06
192	0x35377b6c	6.8352415e-07
193	0x3599fc9e	1.147291e-06
194	0x3785c37b	1.5945863e-05
195	0x37907327	1.721976e-05
196	0x35c5c23a	1.4734171e-06
197	0x36c9ecad	6.0178195e-06
198	0x370f9d19	8.560041e-06
199	0x34c599f6	3.680613e-07
200	0x35c4c7bb	1.4661267e-06
201	0x35dd41e1	1.6484956e-06
202	0x3767bf27	1.3813179e-05
203	0x369a24c5	4.593838e-06
204	0x3632aa53	2.6623209e-06
205	0x34a63172	3.0955886e-07
206	0x35fca6ff	1.8824065e-06
207	0x36cbb3ee	6.070818e-06
208	0x37941254	1.765151e-05
209	0x33bf860f	8.918516e-08
210	0x36c1b245	5.7726015e-06
211	0x35871dc1	1.0066943e-06
212	0x3584157d	9.84102e-07
213	0x34d14372	3.8978357e-07
214	0x351859af	5.675492e-07
215	0x36426f36	2.8972986e-06
216	0x3711ab49	8.682554e-06
217	0x364a6823	3.0160961e-06
218	0x370ea64e	8.50258e-06
219	0x3631a390	2.6470261e-06
220	0x35408986	7.1725697e-07
221	0x352351a4	6.0841035e-07
222	0x35baddeb	1.3922667e-06
223	0x36c3ddd4	5.837277e-06
224	0x350d86ea	5.272292e-07
225	0x35bdee9f	1.4151045e-06
226	0x378594b4	1.592408e-05
227	0x37656bc0	1.3674551e-05
228	0x35ca38f5	1.506675e-06
229	0x36c8e4c9	5.9870986e-06
230	0x370ebd86	8.507986e-06
231	0x34d5e179	3.9838395e-07
232	0x359e4746	1.1792661e-06
233	0x35980464	1.132616e-06
234	0x3735c620	1.083457e-05
235	0x36803d2a	3.8218177e-06
236	0x361ee814	2.3678922e-06
237	0x34865b45	2.5025852e-07
238	0x35e52525	1.707264e-06
239	0x36ac9518	5.1433562e-06
240	0x377f5d88	1.5220961e-05
241	0x33b936dc	8.624713e-08
242	0x36c7c9cd	5.954155e-06
243	0x358d892b	1.054524e-06
244	0x35844ba9	9.856786e-07
245	0x34c84c91	3.7308612e-07
246	0x35054458	4.9645814e-07
247	0x3631e261	2.6506825e-06
248	0x3710a944	8.622479e-06
249	0x363e092d	2.8317547e-06
250	0x371147d6	8.659399e-06
251	0x36110eea	2.1615365e-06
252	0x351c171f	5.8148174e-07
253	0x353edf65	7.11056e-07
254	0x35b8cad3	1.3768098e-06
255	0x3694aa96	4.4306025e-06

exp_avg f4 [30]
0	0x3ad6a305	0.0016375488
1	0x3bc8e165	0.0061303847
2	0x3b6312bb	0.0034648615
3	0x39bf9fec	0.0003654951
4	0x3c78238e	0.015145196
5	0x3b390ca0	0.0028236285
6	0x3bccb2dd	0.006246908
7	0x3b3eece1	0.002913289
8	0x3ba1d9df	0.0049393023
9	0x3b4d57e7	0.0031332911
10	0x3afb1697	0.0019156513
11	0x34989b40	2.8425166e-07
12	0x3a293481	0.0006454662
13	0xbaf8159a	-0.0018927336
14	0xba4c6653	-0.000779723
15	0x3a982a78	0.0011609336
16	0xbb15d35e	-0.002286158
17	0xba6e17f1	-0.0009082547
18	0xbb58e537	-0.0033095607
19	0xbb8f8205	-0.004379513
20	0xbb72e3bc	-0.003706201
21	0xbb5c4bc4	-0.0033614496
22	0xbb65c951	-0.003506262
23	0xbafbada4	-0.0019201529
24	0xbb538662	-0.0032276143
25	0xbba4e756	-0.00503246
26	0xbb24972b	-0.0025114517
27	0xbb94da92	-0.004542657
28	0xbb7cf2f1	-0.0038596953
29	0xbbad9dce	-0.005298353

exp_avg_sq f4 [30]
0	0x39226ca0	0.0001548999
1	0x390e8722	0.00013592516
2	0x3908f13b	0.00013059836
3	0x38ebde18	0.000112470414
4	0x38f5b27e	0.00011715757
5	0x38c09537	9.183067e-05
6	0x38b55714	8.646972e-05
7	0x38a44f8a	7.834945e-05
8	0x388faa6e	6.8505164e-05
9	0x38821e99	6.204582e-05
10	0x38667f89	5.495505e-05
11	0x38609b10	5.3550175e-05
12	0x38649cc3	5.450543e-05
13	0x3848011f	4.768476e-05
14	0x384c0ecc	4.865117e-05
15	0x384399c6	4.6634836e-05
16	0x38549194	5.068032e-05
17	0x385c7bb3	5.256729e-05
18	0x3868c5f4	5.549747e-05
19	0x3876ffbd	5.8889145e-05
20	0x388005bd	6.1045845e-05
21	0x38927d97	6.9852154e-05
22	0x38a20380	7.725414e-05
23	0x38b1a8f2	8.471486e-05
24	0x38c4d324	9.385336e-05
25	0x38cdef13	9.819693e-05
26	0x38e181ec	0.00010753036
27	0x38fc0036	0.00012016336
28	0x390d2597	0.00013460811
29	0x390c874a	0.0001340184
