code/2021-04-11_00-03_last.pth (torch, 995691 bytes, 202 tensors)

encoder.maxpool_conv.0.0.weight f4 [1, 1, 2, 50]
000000 37 b4 2c be cb e7 5a bc 8a a8 3d bd 9d a1 63 bc
       -0.16865622 -0.013360928 -0.04630331 -0.013893512
000010 f6 f4 d3 bd 73 ee 0f 3d e6 5b 8d bd 9e d3 05 be
       -0.10349457 0.035139512 -0.06902294 -0.13069007
000020 d7 1c 1b 3d 89 7a a6 bd 4d e3 db bd e0 61 a1 bd
       0.0378693 -0.081288405 -0.107367136 -0.07879996
000030 b1 05 01 3d bf 62 32 bd 0b 85 0e bd 97 99 6e bd
       0.03149957 -0.043551203 -0.03479485 -0.058251943
000040 41 d0 7a 3c 46 9d 42 3d fa 29 d9 bc f9 2e 31 3d
       0.015308441 0.04751327 -0.026509274 0.043257687
000050 9a c5 ab bd ae 98 a4 bc 74 c6 c5 bd 3b cb fc 3c
       -0.08387299 -0.020092335 -0.096569926 0.030858627
000060 13 fd 9d ba b0 f3 61 bd c2 62 aa 3c 70 4e 49 3c
       -0.0012053571 -0.05516404 0.020799045 0.012286767
000070 7f 8c 20 bd aa 5c 4e 3c 79 88 60 bd df ea 4a bd
       -0.039196488 0.012595335 -0.05481765 -0.049540397
000080 54 3e cf bd 6b 3b 0b bd 30 ba cd 3c 8c 7c 8f bd
       -0.1011931 -0.033992212 0.025113195 -0.07006177
000090 31 0e 59 bd af 1c ed bd 9f d3 ac bd 1d 9e 1d bc
       -0.05299205 -0.115777366 -0.08438801 -0.009620217
0000a0 5b 78 28 bd 4b 9e 08 be 49 89 93 bd 1b 9c 02 be
       -0.041130405 -0.13341634 -0.072039194 -0.12754862
0000b0 1f de 1e 3d 70 4c 0d be c5 a9 9e bd 23 94 9e bd
       0.03878605 -0.1379869 -0.07747225 -0.077430986
0000c0 bc 7e b3 bd 57 cb 6b bd c3 06 43 bd 2f 32 9f bc
       -0.08764407 -0.057566967 -0.04761387 -0.01943311
0000d0 61 e7 c0 3d 20 f5 6c 3d 53 d3 89 bd 17 ba 3d bd
       0.09419132 0.057850957 -0.0672976 -0.046320047
0000e0 68 08 47 3d 5f 9e cd 3d 80 f8 cd 3d 44 a2 ae bc
       0.048592 0.100399725 0.10057163 -0.021317609
0000f0 0a 30 04 3e 40 36 c4 bc 7f a7 6c 3c 4d 9a 85 3d
       0.1290895 -0.02395165 0.014444231 0.06523571
000100 46 39 05 3e 89 86 da 3d 73 ed 04 bd 3e 92 e1 3c
       0.1301013 0.10670192 -0.03245301 0.027535554
000110 e7 7b 9f 3c 23 d9 10 3d 51 4f 16 bd 0e 63 d3 3c
       0.01946826 0.035363328 -0.036696736 0.025804069
000120 48 1f bd 3c 0e a6 fd bb e2 d5 07 3e ca c7 89 3d
       0.023086205 -0.0077407425 0.13265184 0.0672756
000130 53 8d 1e bc f8 a9 0b 3e e1 db 40 bd 3b af 28 bc
       -0.009677249 0.13639057 -0.047084693 -0.010295684
000140 09 46 c0 3d 8a a6 b1 3d 9c 11 26 3d 7e 23 62 bd
       0.09388358 0.08674343 0.040544137 -0.05520963
000150 c4 70 ca 3d 39 2b 92 bc 2c eb 96 3d a7 bc cc 3d
       0.098847896 -0.017842876 0.07369074 0.0999692
000160 df 73 38 3d be 94 98 3d 71 b4 41 3d e9 f6 be 3d
       0.04503238 0.07450245 0.047291223 0.09324438
000170 17 39 c5 3d 9f 27 8f 3d 19 21 0d bd 12 65 e7 3d
       0.0963003 0.06989979 -0.034455393 0.112985745
000180 54 41 8f 3d ca b7 e0 bb ab 26 e6 3d 22 3f 0b bd
       0.06994882 -0.006857847 0.11237844 -0.033995755

encoder.maxpool_conv.2.0.weight f4 [1, 1, 2, 50]
000000 83 d3 7c bd 49 7e 41 bd 83 b8 61 bd bd 26 ca bd
       -0.06172515 -0.047239576 -0.055107605 -0.0987067
000010 6a fc ce bd f9 c7 ed bd 3d e9 ca bd ad d8 db bd
       -0.10106738 -0.116104074 -0.09907768 -0.10734687
000020 db 27 11 be 13 50 4b be 24 8a 76 be 58 f9 91 be
       -0.1417536 -0.19854765 -0.24076134 -0.28510547
000030 04 8c 8d be ae 8a 8b be e2 a6 98 be f2 cd a2 be
       -0.27645886 -0.27254242 -0.2981482 -0.3179775
000040 aa 9d 9d be 14 c5 ae be c7 43 8f be 4b 6d 92 be
       -0.3078435 -0.34134734 -0.27981398 -0.2859901
000050 a1 a2 76 be 9d 01 43 be a5 be 16 be 86 b5 0f be
       -0.24085476 -0.19043584 -0.14721163 -0.1403409
000060 3b 25 ec bd fa 7b 41 be 76 d4 27 be ef f8 27 be
       -0.11530539 -0.1889495 -0.16389641 -0.16403554
000070 43 f8 2f be 31 27 28 be f9 3d 16 be e9 8e 3e be
       -0.17184548 -0.164212 -0.14672078 -0.18609203
000080 dc e6 2c be c3 42 28 be 7f 3d 09 be 0c ef fd bd
       -0.16884941 -0.16431718 -0.13402365 -0.1239911
000090 98 f0 96 bd c3 71 15 bd d4 a0 ca bb 29 bc 8a bc
       -0.07370108 -0.036485445 -0.006183723 -0.016935425
0000a0 6a d1 10 bd 0f f9 19 bd ef 5a 02 3a 45 68 70 ba
       -0.035355963 -0.037591036 0.00049726566 -0.0009170811
0000b0 72 92 06 3d 5d 0b 4d 3d 4a 3b 50 3d a8 31 bb 3d
       0.032854505 0.050059665 0.050837792 0.091403306
0000c0 c8 69 fe 3d 1c 57 da 3d f2 95 4a bb 31 c6 8d bb
       0.1242252 0.10661146 -0.0030912128 -0.004326605
0000d0 54 0b cf 3b c8 18 1b bc 7f 53 81 3c 48 d2 a7 bc
       0.006318489 -0.0094663575 0.015786884 -0.020486012
0000e0 bc 10 96 3c f4 18 a4 bc ac 53 85 3c a2 08 a3 bc
       0.018318526 -0.02003143 0.01627525 -0.019901577
0000f0 45 7d af 3c 87 93 f9 bc 2a 1a e9 3c 06 01 e4 bc
       0.021422038 -0.030465854 0.028454859 -0.02783252
000100 f0 08 d1 3c 02 1d e5 bc 11 59 ab 3c 89 9a a9 bc
       0.025516957 -0.027967934 0.020916494 -0.02070357
000110 4f 15 97 3c 5e 29 af bc 4d 13 9b 3c ff c0 66 bc
       0.018442778 -0.02138203 0.018930102 -0.0140841
000120 8e ce 3c 3c a7 a0 01 bc ca d8 bf 3b 53 2e 2e bc
       0.011523856 -0.007911838 0.0058547007 -0.010631162
000130 7b f3 c5 3b ac 58 34 bc d6 87 7f 3b 01 0f af bb
       0.006040988 -0.011007469 0.0038990877 -0.005342365
000140 39 2b 52 bb e0 d0 8c bb be 63 19 3b aa 32 52 bc
       -0.003206922 -0.004297361 0.0023405398 -0.012829462
000150 61 4c 81 3c 06 d6 97 bc dd db 9b 3c 7a 6e 65 bc
       0.01578349 -0.018534672 0.019025737 -0.01400339
000160 d9 52 6f 3c fa 41 93 bb 49 3c 51 3c 3c 2c 8e bc
       0.014607155 -0.004493949 0.012770721 -0.017355077
000170 a8 48 b1 3c 53 bc 8a bc 68 a8 33 3c 25 55 d7 bb
       0.02164109 -0.016935503 0.010965444 -0.0065714293
000180 15 7f ea 3a 06 27 87 bb 45 f8 d0 3a c4 4e 3a bc
       0.0017890657 -0.004124525 0.0015943131 -0.011371318

decoder.transformer.encoder.layers.0.self_attn.in_proj_weight f4 [12, 4]
000000 dc ee ce be a4 58 42 be 91 bc 02 3e e3 e6 37 bd
       -0.4041661 -0.18979126 0.12767245 -0.044897925
000010 85 c1 5c 3e 34 1e 05 3f 74 57 91 be 63 17 03 bd
       0.21558197 0.5199921 -0.28387034 -0.032004725
000020 41 ae 64 be ad 1e be bd ee 44 d9 3e 82 6d eb 3e
       -0.22332098 -0.09283195 0.42435402 0.45981985
000030 d4 2d bc 3e b8 d5 72 3e 28 0d 09 3f c8 2a 13 3f
       0.36753714 0.2371434 0.535357 0.57487154
000040 2f 8d 16 3f 79 95 8c 3d df 20 0f 3f a3 9e 49 be
       0.5880918 0.06864447 0.5590953 -0.19689421
000050 94 42 82 3e 3c a4 20 be b9 35 a1 be 42 41 c8 3d
       0.2544142 -0.1568765 -0.314863 0.09778072
000060 0a 38 a0 3e 97 8c e4 3d 85 44 98 be 22 ca 4b 3e
       0.31292754 0.11159628 -0.29739776 0.19901326
000070 5b 83 9b be 04 f6 b2 3e f9 fb f5 3e 47 2a fe 3e
       -0.30373654 0.3495332 0.48043802 0.4964163
000080 4f 04 e4 be a6 c8 dc be 60 de 6b be bf f5 80 be
       -0.44534537 -0.43121833 -0.23034048 -0.2518749
000090 f8 95 02 be 2e b9 4d be e2 47 8b bd 12 c6 67 be
       -0.12752521 -0.20090172 -0.0680082 -0.22634152
0000a0 13 35 ef be a6 22 93 3e cb 3b 41 3e 8e 4e 6e 3e
       -0.4672018 0.28737372 0.18870465 0.23272154
0000b0 02 b7 cc 3e 73 a8 a7 3e c0 25 9b bd d0 0a f2 be
       0.39983374 0.32745704 -0.075755596 -0.47273874

decoder.transformer.encoder.layers.0.self_attn.in_proj_bias f4 [12]
000000 00 00 00 00 00 00 00 00 00 00 00 00 00 00 00 00
       0.0 0.0 0.0 0.0
000010 00 00 00 00 00 00 00 00 00 00 00 00 00 00 00 00
       0.0 0.0 0.0 0.0
000020 00 00 00 00 00 00 00 00 00 00 00 00 00 00 00 00
       0.0 0.0 0.0 0.0

decoder.transformer.encoder.layers.0.self_attn.out_proj.weight f4 [4, 4]
000000 d8 7c 2b 3f 10 9a 36 bf af e6 18 bf 58 10 0d 3f
       0.6698737 -0.7132883 -0.59726995 0.55103064
000010 21 7f c7 be 43 b4 00 3d 20 c2 2a 3f 86 8d cc 3d
       -0.3896418 0.03142191 0.6670246 0.09987931
000020 a9 9a 41 3e 1b 35 aa 3e 24 95 21 bf d3 c9 08 bf
       0.18906654 0.3324364 -0.63118196 -0.5343296
000030 7d 27 c3 be b0 c9 11 bf fe 8c 1a 3e 73 b4 34 3f
       -0.38116065 -0.56948376 0.15092847 0.70587844

decoder.transformer.encoder.layers.0.self_attn.out_proj.bias f4 [4]
000000 00 00 00 00 00 00 00 00 00 00 00 00 00 00 00 00
       0.0 0.0 0.0 0.0

decoder.transformer.encoder.layers.0.linear1.weight f4 [2048, 4]
000000 b1 f7 42 bc 92 87 2e 3d 1b 68 e2 3c ab bb 19 3d
       -0.011899875 0.04260976 0.027637532 0.03753249
000010 fb c2 75 bc d3 ca c1 3b 22 06 0d bd 9d 80 64 3c
       -0.0150001 0.005914071 -0.034429677 0.013946679
000020 f4 b1 2c bd 4a 9c 4d bd 0b 3f 50 3b 3d b7 52 bd
       -0.042161897 -0.050197877 0.0031775858 -0.05144428
000030 49 1b 37 3b 4a 6c 0b 3d e6 72 17 3d 83 88 38 3d
       0.0027939847 0.03403882 0.03697481 0.045052063
000040 ee 93 51 3d e1 30 f2 bc 5e 35 32 3c e8 9c cb 3c
       0.051166467 -0.029564323 0.010876982 0.024855092
000050 bd cf 3d 3d 1b 57 db b9 dc e4 5c 3d c8 66 bb bc
       0.046340693 -0.00041835834 0.053929195 -0.022876158
000060 0e f6 e8 bc 0f f3 66 3c 85 71 24 3d 1d 25 9d 3c
       -0.02843764 0.014096036 0.040147323 0.019182736
000070 55 82 c9 3c b4 51 33 bd 0c 9c f9 3c 95 af f7 bc
       0.02459828 -0.04377909 0.030469917 -0.030235091
000080 ba 2d ff 3c 23 ba 6c 3c 47 71 aa 3c 15 7a 40 3c
       0.031149734 0.014448675 0.020805968 0.011747857
000090 6e ff 3e bd d2 41 8b bc 3d 4f b4 bb 36 d7 b2 ba
       -0.046630315 -0.016999159 -0.00550261 -0.001364446
0000a0 25 9f aa bb 03 6e 64 bc 65 67 36 bd de f7 42 bd
       -0.00520696 -0.013942244 -0.0445322 -0.047599666
0000b0 e9 76 35 bd 82 56 1e 3c 50 56 40 bc 3f 04 5b 3d
       -0.044302855 0.00966418 -0.0117393285 0.053470846
0000c0 d9 e7 1d bd b7 4f 5d 3d 7c 55 22 3d 48 8c 21 bd
       -0.038551185 0.0540311 0.039632306 -0.039440423
0000d0 1b 66 22 ba f2 e6 45 3d 11 51 32 3d b7 82 9f bc
       -0.00061950245 0.04831595 0.043534342 -0.01947151
0000e0 b6 a8 5a bd d3 ee e7 3c e8 36 84 bc 65 a1 99 bc
       -0.05338355 0.028312122 -0.016139463 -0.018753717
0000f0 b8 c2 25 3c c3 f0 4a 3d fa 9e 62 bc 85 aa fe bc
       0.010117225 0.049546015 -0.013831848 -0.03108717
000100 8a 9c 0f bc 26 34 59 3c e0 2d b4 3c 44 e1 34 3d
       -0.008765349 0.013257062 0.021994531 0.044160143
000110 17 55 2b bd 43 a8 33 bd 1e f6 08 bd 7d 3d 17 3d
       -0.041829195 -0.04386164 -0.03343784 0.036923874
000120 62 2b 35 bd e9 de b8 bc 58 83 4a 3c a3 f5 c2 3b
       -0.044230826 -0.02256723 0.012360416 0.0059496923
000130 9c a0 d8 bc f4 d3 33 3d f7 86 1a 3c 18 dc 30 bd
       -0.026443772 0.043903306 0.009431592 -0.043178648
000140 5c 97 5a bc d3 b4 a0 3c 09 66 52 bd 8d 5c 21 bd
       -0.013341751 0.019617474 -0.05136684 -0.039394904
000150 2f b3 65 bc 82 42 27 3c 51 6f 1c bd 8b 72 47 bc
       -0.0140197715 0.010208728 -0.038192097 -0.012173305
000160 5a 41 1a bd 3e 19 2c bd b3 bf 1b bc 89 43 b1 3c
       -0.03765998 -0.04201626 -0.009506154 0.021638649
000170 e4 6d 51 3d 6a fd ca bb 58 4a dd 3c 28 b3 33 3c
       0.05113019 -0.00619476 0.027012989 0.010968007
000180 5c 84 96 3c 7a 3d db 3c 1a f3 a5 bc 62 90 4f bc
       0.01837366 0.026762713 -0.020257521 -0.012668701
000190 99 45 c3 3c b2 bc d1 3a 6d 26 48 bd eb 03 19 3d
       0.023836898 0.001600167 -0.04886477 0.037357252
0001a0 4c aa b9 bc 90 27 b4 3c ab d2 99 bc f3 9a fa bb
       -0.022664212 0.021991521 -0.018777212 -0.007647866
0001b0 3f 6c 91 bc ba 60 3a bd 67 0f eb 3c 3a 3e 2f 3a
       -0.017751811 -0.045502402 0.028693868 0.00066849927
0001c0 04 ff 25 bd f5 3d c8 3c e2 e2 38 3d 48 0d 57 bd
       -0.040526405 0.024443606 0.045138247 -0.0525029
0001d0 c5 fb 53 bd aa d6 30 bd d6 ce ad bc 8d 4c 27 3d
       -0.051753778 -0.04317347 -0.021216791 0.04084449
0001e0 9d 50 3a bc 9c 6f a2 bc 3f fe 25 3d d8 e0 44 3d
       -0.011371759 -0.01982861 0.04052567 0.04806599
0001f0 ed 7e 47 3d 07 de 0b bc de 82 f4 3c 14 d5 0f bd
       0.04870503 -0.008536822 0.029847559 -0.035115317
000200 c4 f2 29 bd df 99 1f 3d ef 8d 20 bd 49 f4 05 3d
       -0.041491285 0.038965102 -0.03919786 0.03270367
000210 a0 c7 e3 bb 58 29 1e bd 9a e4 dc 3b f8 a0 91 bc
       -0.0069512874 -0.038613647 0.0067411186 -0.017776951
000220 89 69 3f 3d 03 a0 f3 bc 50 6e 5e 3a 8e cb c2 bc
       0.046731506 -0.029739385 0.0008485066 -0.023778703
000230 94 49 07 3d 36 f6 fb bc ed 9a 18 3d 5d 57 67 b9
       0.033029154 -0.030757051 0.037257124 -0.00022062422
000240 ce b8 47 bd 66 57 09 bd d6 8c 10 bd aa d9 50 3c
       -0.048760228 -0.033530615 -0.03529056 0.012747208
000250 fa 09 18 3c c5 f3 1d 3d 7f 19 34 bd e7 3b 54 3c
       0.009279722 0.038562555 -0.043969627 0.012953735
000260 74 c0 1d 3d a9 f6 15 3d 6b 0a 2f bd ba ae 2d bd
       0.038513616 0.036612187 -0.042734545 -0.04240296
000270 f8 38 13 3d bb 08 3f 3d 35 21 03 bd 12 52 2e bd
       0.035943 0.046639185 -0.03201409 -0.042558737
000280 08 91 3e bd 98 f0 9d 3c d3 86 de 3c 29 5b 50 3b
       -0.04652503 0.019279763 0.027163899 0.0031792617
000290 f1 9c dc 3c ea 92 c0 bc e3 6d 19 3d 3c 1e 10 bd
       0.026930304 -0.023507554 0.03745831 -0.035185084
0002a0 6c aa 14 bd 38 ec ef 3c 6e a8 2d bc c2 c1 4f bd
       -0.03629534 0.029287443 -0.010599239 -0.05072189
0002b0 8a 6a c7 bc cd 9a ad 3c 1f 57 47 3d 36 8f fe bb
       -0.024342794 0.021191979 0.04866707 -0.007768537
0002c0 87 41 de 3c f1 c7 51 ba cb 84 1d bd f9 a6 5b bc
       0.027130855 -0.0008002511 -0.03845672 -0.013406509
0002d0 d5 a9 24 3d a2 5d 85 3c 44 81 1f 3d 38 38 4c bd
       0.040201027 0.01628 0.038941637 -0.049858302
0002e0 fd 3b 43 3d 66 84 8b ba 0f dd 4b 3d 33 c6 c3 b8
       0.04766463 -0.0010644316 0.049771365 -9.335242e-05
0002f0 1a 41 b2 38 7c 61 3e 3d cb f8 8a bc 13 4b 29 3a
       8.4998275e-05 0.046479687 -0.016964337 0.00064580253
000300 05 e0 86 bb 41 52 35 3c ab cf 4a bc fc f4 21 bc
       -0.0041160607 0.011066974 -0.012378613 -0.009885069
000310 9f b7 61 bc e8 cd 34 3d 99 fd 84 3c a1 28 84 bc
       -0.013776689 0.04414168 0.016234206 -0.016132655
000320 63 4e 2a bc 35 4e ec 3b 6f 66 06 3c 18 3a cf bc
       -0.010394665 0.0072114714 0.008203133 -0.025296256
000330 b5 c2 21 bd 9d 94 11 3c 94 16 03 bd 12 fc 38 bd
       -0.039492328 0.00888553 -0.032003954 -0.045162268
000340 42 fa 5c bd c4 bf 56 3d 69 47 44 bd a4 be 4b 3d
       -0.053949602 0.052428976 -0.047919665 0.049742356
000350 c1 96 66 bb 14 35 1f bd 53 da 27 bd b3 69 44 3d
       -0.0035185071 -0.03886898 -0.040979695 0.047952365
000360 ef 06 05 bd c2 96 04 3d 85 d4 02 3d ce 19 b2 3c
       -0.032477316 0.032370336 0.031940956 0.02174082
000370 7e 77 38 3c 65 66 76 bc 16 82 70 3c 44 57 50 3d
       0.011258958 -0.015039061 0.014679452 0.050864473
000380 de f3 3a 3d 64 3c 46 bd ba 57 68 3c a2 b4 50 3d
       0.045642726 -0.048397437 0.014181072 0.050953515
000390 96 20 aa bc fc 54 4d 3c db 63 40 bd e5 09 a5 bc
       -0.020767491 0.012532469 -0.04697023 -0.02014632
0003a0 dd 90 a3 bc 4d 90 b6 bc ea 94 71 bc 93 e6 18 3d
       -0.019966537 -0.022285605 -0.014744977 0.037329268
0003b0 d0 3f 35 3c 0c 44 53 3d 42 01 ee bc c0 40 25 bc
       0.011062577 0.051578566 -0.029053334 -0.010086238
0003c0 c1 54 1b bd f5 9f a9 bc 73 7e e4 3a 53 37 34 bd
       -0.037922624 -0.020706156 0.0017432704 -0.043998074
0003d0 15 2b 0c bc 2e 32 56 bd 82 2e 05 bb c5 08 4c 3d
       -0.008555193 -0.05229395 -0.002032191 0.04981305
0003e0 aa 7f c1 bc 2d 16 a9 bc 55 0c 02 bd 5f f1 c9 bc
       -0.023620445 -0.020640457 -0.031750042 -0.024651228
0003f0 da 29 44 3d 3a 74 bf bb e6 f2 a5 3c 98 6a 10 3d
       0.047891475 -0.0058427127 0.020257425 0.035257906

decoder.transformer.encoder.layers.0.linear1.bias f4 [2048]
000000 ba 5c ea be d2 e8 a8 be 46 12 d1 3e e0 da a3 be
       -0.4577387 -0.32990128 0.40834254 -0.32002926
000010 28 2a b3 3e 84 69 64 be e8 a2 a1 bd 70 76 90 3e
       0.349931 -0.22305876 -0.078924 0.2821536
000020 f4 e5 9a 3e 4a 0f bb be dc 02 7e be 62 e8 b4 be
       0.30253565 -0.36535102 -0.24805778 -0.35333544
000030 80 ec 66 be 5c 12 4d be b0 3b b9 be f0 7a c9 3d
       -0.22551155 -0.20026535 -0.3617835 0.098379016
000040 0c 61 84 be 00 5d b9 bd 72 e7 9b be f4 7b 43 3e
       -0.2585529 -0.090509415 -0.30450016 0.19090253
000050 78 ae ef 3d e4 6a e1 3e 86 8e c4 be 48 c5 92 3e
       0.11703199 0.44026864 -0.38389987 0.2866614
000060 9a bf d9 be 00 b8 3d 3d 7e c4 ea 3e 98 a9 d4 3d
       -0.42528993 0.046318054 0.45853037 0.1038391
000070 5c 42 86 be 88 c8 71 3e e8 df d2 3d 92 ce b7 3e
       -0.26222503 0.23611653 0.10296613 0.35899788
000080 10 2b 69 3d 1a 0d e6 3e ec 1b 4b be 00 c9 eb bc
       0.056925833 0.4493187 -0.1983487 -0.028782368
000090 48 5a b5 3e 38 76 ac 3e f0 2c 4e 3e 54 85 65 be
       0.35420442 0.33683944 0.2013433 -0.22414142
0000a0 04 b4 1b 3e ca 9c c9 3e 96 08 c6 3e 12 21 e2 3e
       0.1520539 0.39377433 0.38678426 0.44165856
0000b0 c6 ca a7 3e 72 f7 a8 be c0 16 95 bd 50 49 eb be
       0.3277189 -0.33001286 -0.0727973 -0.4595437
0000c0 40 2e ff bc 28 8b 8c 3e f0 ae 83 3e c4 4f f6 be
       -0.031149983 0.27449918 0.25719404 -0.4810773
0000d0 80 5c 52 be 48 b7 92 3e 18 c5 67 3e 90 97 9b 3e
       -0.20543098 0.28655457 0.22633779 0.3038907
0000e0 e8 d1 87 3e ec d1 37 be 2c a1 e9 be f8 cd fc be
       0.26527333 -0.17951173 -0.45630777 -0.49375892
0000f0 3e 71 e0 3e d4 13 34 be 48 6f ce 3e bc 43 c5 3e
       0.43836397 -0.17585689 0.40319276 0.3852824
000100 fc de f6 be b0 5b e5 3e c0 51 d1 bc f8 d6 d4 3d
       -0.48217 0.44796515 -0.025551677 0.103925645
000110 0c d3 7c be 20 3b 1b 3d d0 02 60 be 00 90 21 bc
       -0.24689883 0.037898183 -0.21876073 -0.009860992
000120 0e 62 87 be 2e b9 c7 be d8 a5 8b 3e 1a 4b ec 3e
       -0.26441997 -0.39008468 0.27274966 0.46151048
000130 f0 72 db be ac d1 82 3e 74 14 8a be 50 4a 59 be
       -0.42861128 0.25550592 -0.2696873 -0.21219754
000140 40 a8 f7 3c c0 92 75 3c 7a 24 e6 3e b0 02 cc 3e
       0.030231595 0.014988601 0.44949704 0.398458
000150 80 8c da bb 98 37 b2 bd da 71 ae 3e 7e 72 ab be
       -0.006669581 -0.0870201 0.34071237 -0.33485788
000160 34 57 71 3e 08 df f2 3e 9e 83 99 3e bc f8 4c be
       0.23568422 0.47435784 0.29983228 -0.2001676
000170 2c 2e e7 3e 1a 40 af be 38 57 41 3e bc e8 8c 3e
       0.45152414 -0.34228593 0.18880928 0.27521312
000180 66 da d3 3e 84 fc 85 3e 5c fb 46 3e c4 df 8c 3e
       0.41377562 0.26169217 0.19431823 0.2751447
000190 52 26 ba be 9e db b4 3e 48 08 b7 3d d4 ef 20 be
       -0.3635736 0.35323805 0.089371264 -0.15716487
0001a0 8c 24 07 be 54 73 14 be ec a3 e6 be d2 3a cc be
       -0.13197535 -0.14497119 -0.45046937 -0.39888626
0001b0 70 e8 3c 3e 20 86 86 3c 7e 52 dc be 9c 49 13 3e
       0.18448043 0.016421378 -0.43031687 0.14383548
0001c0 d0 d7 e5 3d 0c 2d 8a 3e a0 fa f1 be 30 cd 72 3e
       0.112228036 0.26987493 -0.47261524 0.23711085
0001d0 a2 65 f6 be 8c 0b 03 3e b4 b1 36 be 36 c8 ee be
       -0.48124415 0.12797374 -0.17841226 -0.46637124
0001e0 a0 be 1d 3e e0 b1 ab 3c 90 2b 07 3e 1a 19 e4 3e
       0.15404749 0.02095884 0.13200212 0.445504
0001f0 b8 b6 cb bd 5a 72 ea be 2c d7 2a be 9c 70 fd 3e
       -0.0994696 -0.45790368 -0.16683644 0.49499977
000200 4e 06 fa be ec 0f 92 be 2c 43 26 3e 90 86 0b 3e
       -0.48832935 -0.28527772 0.16236562 0.1362555
000210 68 6c b4 be c8 f9 9e 3d 34 19 a2 3e a8 71 bb 3d
       -0.35238957 0.07762486 0.31659853 0.091525376
000220 c2 aa a1 3e 82 5a a5 3e 64 a5 27 be ea ca 8b be
       0.3157559 0.32295614 -0.16371685 -0.2730325
000230 60 18 eb 3c b6 95 e1 be 90 f6 9c be d4 7c 16 be
       0.028698146 -0.44059533 -0.30656862 -0.14696056
000240 18 fa df 3d 36 e3 98 be 98 d5 17 3e 18 40 b4 3d
       0.109363735 -0.29860848 0.14827573 0.088012874
000250 16 8f f5 be 58 58 12 be 3e 28 8c be c0 7f b3 bd
       -0.47960728 -0.14291513 -0.27374452 -0.08764601
000260 a2 6d c3 be 54 20 10 be 80 12 4c 3d 20 8e 43 bd
       -0.3816958 -0.14074832 0.04982233 -0.047742963
000270 e0 da cb bc 50 66 80 3d e0 50 c9 3d 60 a6 12 3d
       -0.024884641 0.062695146 0.09829879 0.0358032
000280 e0 2b 4c be ce 8a ce 3e 0a 03 c1 be 9c 75 a9 3e
       -0.19938612 0.40340275 -0.3769763 0.3309754
000290 30 75 85 be 8c a3 53 be 06 01 f9 3e 70 01 6a 3d
       -0.2606597 -0.20667857 0.48633593 0.057130277
0002a0 7c 2f bb 3e 68 04 71 3e 40 f7 6f 3e 52 69 f4 3e
       0.36559665 0.23536837 0.23434162 0.47736603
0002b0 22 62 ec be da 2c a8 3e 60 f8 ea bd a2 b9 f5 3e
       -0.4616862 0.3284672 -0.11473155 0.4799319
0002c0 12 1d 81 be c8 b3 48 3e d6 e7 b9 be c0 f3 5a 3c
       -0.2521749 0.19599831 -0.3630969 0.013363779
0002d0 e4 bf d1 3e f8 09 b7 bd b0 12 96 bd 58 4d e8 bd
       0.40966713 -0.08937448 -0.07327783 -0.11342877
0002e0 80 26 a0 3d 46 08 d5 3e 2e 6c ab 3e e2 da a7 be
       0.07819843 0.41607875 0.33480972 -0.32784182
0002f0 d4 e5 4a 3e 80 3c 4e be 94 ce 78 3e 04 bc 3f be
       0.19814235 -0.20140266 0.24297553 -0.18724066
000300 e0 d3 c5 3c fc b1 07 3e 28 ab a9 be 3c 0f c0 3e
       0.024148881 0.1325149 -0.33138394 0.37511623
000310 ea 2a fa 3e f4 02 a1 be 80 e4 ce bd a0 80 19 bd
       0.48860866 -0.31447566 -0.10102177 -0.037476182
000320 74 63 18 3e 08 ba f1 bd f6 fc c4 be 00 e0 da bd
       0.14881688 -0.11803061 -0.38474244 -0.10687256
000330 18 00 21 be a0 bb a4 3e 40 3b fe bc 1a d4 fa be
       -0.15722692 0.32174397 -0.031034112 -0.48989946
000340 28 0b 1e 3e 58 5f f1 3e a0 5a 03 bd 40 b4 dd 3c
       0.15433943 0.47143054 -0.03206885 0.027063489
000350 2c 3d 15 be 14 31 d4 3e 20 a2 98 3e d0 de 6e 3d
       -0.14574116 0.41443694 0.29811192 0.05831796
000360 a8 86 b8 3d 80 a0 35 3d 10 62 ff be 88 a9 8d 3e
       0.09010059 0.044342518 -0.49879503 0.27668405
000370 30 ef 1d be a4 a4 b0 3e b4 d9 bb be fe 51 dc 3e
       -0.15423274 0.3450061 -0.36689532 0.43031305
000380 ec 84 68 3e d4 67 cd be 24 e7 cc 3e d0 65 eb be
       0.22706956 -0.40118277 0.40020096 -0.45976114
000390 d0 7b f3 3d 90 03 fd be ec 93 e0 3e 4c 4b 26 3e
       0.1188885 -0.4941678 0.43862855 0.16239661
0003a0 f8 e0 af 3d c6 0a d0 3e 30 10 31 3d 98 c4 dc bd
       0.08587831 0.4063322 0.04322833 -0.10779685
0003b0 80 ac 59 bd 70 7a 26 be 1e af de be 28 db d5 bd
       -0.053143024 -0.16257644 -0.4349298 -0.10442191
0003c0 66 68 ed be b8 00 51 3e 32 68 94 3e d0 20 fd 3e
       -0.46368712 0.2041043 0.28985745 0.49439096
0003d0 80 c6 f6 3c ba 8b a3 be 00 31 c6 3c 02 0b bd 3e
       0.030123949 -0.3194254 0.024193287 0.3692246
0003e0 98 c4 5a 3e cc 58 c5 be 04 13 6c be e0 92 b7 be
       0.21364057 -0.3854431 -0.23054129 -0.35854244
0003f0 24 42 a1 be a0 8c be 3c 00 fd 10 bb 0c 5b d6 3e
       -0.31495774 0.023260415 -0.0022123456 0.41866338

decoder.transformer.encoder.layers.0.linear2.weight f4 [4, 2048]
000000 1a dd 04 bc 4e 16 4a bd 78 4c 3c 3d bd 9c 44 bc
       -0.008109355 -0.049337678 0.045971364 -0.01200026
000010 c9 c0 b2 3c 34 29 fb 3c 0e 4f 50 bd 74 7c 1b 3d
       0.021820443 0.030659296 -0.050856642 0.037960485
000020 70 79 08 bd 48 42 a1 bc 95 78 32 3c 8d 8c 11 3d
       -0.033318937 -0.019684926 0.010893007 0.03553443
000030 60 a0 75 3b dc a3 3a bd 1c a9 4e bd 78 d6 3c bd
       0.0037479624 -0.045566425 -0.050454244 -0.04610297
000040 30 a7 ab 3a 40 2d 91 3c b2 ae 99 3c 3b 01 ec bc
       0.001309609 0.017721772 0.018760059 -0.02880918
000050 ee 1d c7 3c 34 8f 94 bc fe bb 1e 3d ce 93 1b bd
       0.024306264 -0.01813469 0.038753502 -0.037982754
000060 c7 03 4e 3c b4 13 43 3c 7f 7e c3 3c b3 8c 25 3c
       0.012574143 0.011906553 0.023864029 0.010104346
000070 b8 3e 29 3c 90 19 89 bc 76 fb 93 3a fb d2 a5 bc
       0.010329895 -0.016735822 0.0011290151 -0.020242205
000080 89 81 23 bc 30 3b 46 ba 70 1c 3f 3d f2 7d 90 b9
       -0.009979614 -0.000756192 0.04665798 -0.00027559657
000090 ad 30 0d 3d d9 40 fb bc 43 6c 1f bc 8c 4b 49 bd
       0.03447025 -0.03067057 -0.009730401 -0.049144313
0000a0 a6 64 f7 bc 91 64 28 bd a0 01 4c bd f1 e3 dc 3c
       -0.03019936 -0.041111533 -0.049806237 0.02696416
0000b0 0e 51 c9 3c 3c ae 9b bb 3c c8 0b 3c 0e 90 48 bb
       0.024574783 -0.004750995 0.008531626 -0.0030603441
0000c0 53 7d 2f 3d db d8 d1 bc 27 0e 06 3d c7 53 ec 3b
       0.042844128 -0.0256161 0.03272834 0.0072121355
0000d0 22 e2 1f bd d1 04 ab bc 06 5d 13 bc ca 73 0e 3d
       -0.039034016 -0.02087632 -0.0089943465 0.034778394
0000e0 26 49 d4 bb 36 46 2d 3d 22 24 3c bd 8e ec cb 3c
       -0.0064784465 0.042303286 -0.045932896 0.024893072
0000f0 ba cd e0 bb fa 5d 32 3d b6 1e fc ba 9e f0 a2 3c
       -0.006860462 0.043546654 -0.0019235227 0.019890126
000100 8d c1 e6 bc 7e a6 e2 ba 20 2b 1d 3d a5 cf 53 3c
       -0.028168464 -0.001729205 0.038371205 0.012927924
000110 94 9c ce bc e6 e5 1e bd 32 ff 41 bd 15 9f 33 3d
       -0.025221147 -0.038793467 -0.047362514 0.043852884
000120 34 96 35 bd 1c 94 27 3d 84 db 60 bb fc c7 5b bd
       -0.044332698 0.040912732 -0.003431053 -0.053657517
000130 4a 95 1d bd b8 81 71 bb 71 f4 ed 3c db 9d e0 3c
       -0.03847245 -0.0036851 0.029047223 0.027419021
000140 a7 0e 32 bc 97 0b ea 3c a1 a9 ef bc 9d 53 52 3c
       -0.010867751 0.02856998 -0.02925569 0.012837318
000150 a4 14 3f bd c6 8a ce 3c 91 d1 ba 3c d0 b1 aa 3c
       -0.046650544 0.025212657 0.022805007 0.02083674
000160 b4 05 99 bc 62 7f 57 3d 66 ba 0f bd 57 30 07 3d
       -0.018679477 0.052611716 -0.035089873 0.033005085
000170 98 07 7e bc 56 82 3f bd e0 f9 89 bc 79 0b 38 bd
       -0.01550474 -0.046755157 -0.016842782 -0.044932816
000180 dd 8c 46 bc 79 ca 55 bd 4d 92 87 ba 4b ba a6 3b
       -0.012118545 -0.052195046 -0.0010343284 0.005088126
000190 16 c9 8c bc e0 91 8d bc 8d 71 bf bc 72 39 06 bd
       -0.017185729 -0.017281473 -0.023369575 -0.032769628
0001a0 39 ee 6d 3c bb 88 45 3d 62 32 fb bc a5 97 73 3c
       0.014522129 0.0482261 -0.030663673 0.014867698
0001b0 0f 71 3e bd 0e da 46 3b e9 a9 1b 3c b9 9f 39 bd
       -0.04649454 0.0030342373 0.009500959 -0.04531834
0001c0 96 90 41 bb 4c 91 5c 3d 6a 11 4e bd 10 21 f2 bc
       -0.0029535643 0.053849503 -0.050309576 -0.029556781
0001d0 ad ee 83 bc de 39 42 bd b7 9a 45 3d 2f cc 02 3d
       -0.01610502 -0.047418468 0.04824325 0.031933006
0001e0 c4 5c 3f bd f5 9b 74 3b 43 a3 3c 3c 9e a5 a0 bb
       -0.046719328 0.0037324403 0.011513534 -0.0049025556
0001f0 44 38 ac bc 52 27 f1 bc 04 2b 35 3d 09 d8 8c 3b
       -0.021022923 -0.029437695 0.044230476 0.0042982143
000200 64 45 96 bc a2 0f 4f bd 5a e5 00 3c a5 3c ec bc
       -0.018343635 -0.050552018 0.007867182 -0.028837511
000210 60 40 11 3d fa 73 de 3c 9b b6 30 3d a6 27 31 3d
       0.035461783 0.027154911 0.043142896 0.043250702
000220 f0 b8 3e bd 07 e2 b1 3c f0 52 ad bc 60 5e 1a bd
       -0.04656309 0.021714224 -0.021157712 -0.03768766
000230 a6 18 51 3d 23 39 42 bc 85 a6 6f bc c2 9f a4 bc
       0.051048897 -0.011854443 -0.014627104 -0.02009571
000240 1a db 1c 3c d0 ed 59 bc 35 36 04 bd a9 95 33 3d
       0.009573722 -0.013301328 -0.03227826 0.0438439
000250 18 92 41 3d 98 9e 48 3d 86 42 c9 bc 3b 01 35 bd
       0.047258466 0.04897937 -0.024567854 -0.044190627
000260 c3 0d 62 bc ff d7 0a bd b9 23 b7 ba 24 5b 1c 3d
       -0.013797226 -0.033897396 -0.0013972438 0.038172856
000270 bc cf 20 bd b6 05 50 bd d8 ee 4e bd 0b 4f df 3b
       -0.03926061 -0.050786696 -0.050520748 0.0068148426
000280 55 ec 33 3d d1 10 ed 3b 34 32 80 bc 54 25 f7 bc
       0.043926556 0.0072346707 -0.015648939 -0.030169167
000290 f9 f7 56 bd f9 a1 b5 bc fc f2 12 3d 91 a6 29 bc
       -0.05248258 -0.022171961 0.03587626 -0.010354654
0002a0 09 07 50 3d 2f 04 09 bd 7c 61 07 3d 53 14 54 bd
       0.05078796 -0.033451255 0.033051953 -0.051777195
0002b0 a1 42 52 3d f5 7b 41 bc 8b ca 44 3d b8 c8 e6 bc
       0.051333074 -0.011809339 0.048044723 -0.028171882
0002c0 4c da 2e 3b f3 e9 a3 bc 92 a0 44 3d 19 fc c4 bb
       0.0026680408 -0.020009017 0.048004694 -0.0060114977
0002d0 6d 8a 4a 3d 4f 77 f2 bc b4 be a4 3b 06 17 4d bd
       0.04944842 -0.029597906 0.0050276164 -0.050070785
0002e0 07 e5 3f 3c b7 c3 3c bd 45 fa ba bc e7 d2 0e 3d
       0.011712319 -0.046085086 -0.022824416 0.0348691
0002f0 c2 85 0f bd 95 90 47 bc 93 8c b4 bc 8c 98 04 3d
       -0.03503967 -0.012180467 -0.022039687 0.032372043
000300 ef 9f 58 ba a4 2f 53 3c 3a bd fd 3c 36 4a 0d bd
       -0.0008263578 0.012889776 0.03097402 -0.0344946
000310 6b 8b 51 bd 1c 98 2f 3d a3 f3 cd 3b 27 40 cd 3c
       -0.05115835 0.042869672 0.0062851473 0.025055004
000320 e5 53 0c 3d 9d 17 63 3c ad b5 89 3c a1 ad 62 3c
       0.034259696 0.01386061 0.016810263 0.013835342
000330 dc ac 38 3d 98 a6 4e bd d6 5c b7 3c 80 59 9c bc
       0.045086727 -0.050451845 0.022383135 -0.019085646
000340 dc 52 86 bc d2 ff ca 3c 28 d0 1c 3d 4a dd d1 3c
       -0.016396932 0.024780188 0.03828445 0.025618214
000350 0b 61 1b 3d 91 fa 5f 3c 90 83 02 3d 59 70 72 bc
       0.037934344 0.0136705795 0.03186375 -0.014797294
000360 a9 f7 de ba c7 d2 4b bd 6f c9 2c 3d 43 37 49 bd
       -0.0017011064 -0.04976156 0.04218429 -0.049124967
000370 1f d0 86 3b 15 63 9e bb b5 41 10 bb 60 2a b3 bc
       0.0041141654 -0.004833589 -0.002201182 -0.021870792
000380 c8 8b 1b 3d 8f a9 01 3d b8 11 99 bb 47 76 d2 3b
       0.037975103 0.031655844 -0.0046713017 0.006422791
000390 57 01 ae bc 49 a8 0e 3c 5e b6 9f 3c 48 b0 23 3b
       -0.021240873 0.0087071145 0.01949614 0.0024976898
0003a0 6d 50 5c 3d 08 6e 91 ba d9 94 a8 bc ac 32 39 bd
       0.053787638 -0.0011095414 -0.020578789 -0.04521434
0003b0 19 5c d9 bc 22 8d d5 3c fa 6a 26 bd e0 3c 79 bc
       -0.026533173 0.026068274 -0.040629365 -0.015212268
0003c0 47 df 36 bd be 20 96 bc 72 42 41 3d 49 a1 fc bc
       -0.044646528 -0.01832616 0.047182508 -0.030838626
0003d0 6b e1 24 3d 20 2a 5b 3d 3f 38 e5 bc f4 fc 2e 3d
       0.040254038 0.05350697 -0.027980922 0.042721704
0003e0 3e 4c 13 bd b8 a8 47 3d 3b 1e 94 bc 87 1b 9f 3c
       -0.035961382 0.048744887 -0.018080821 0.019422306
0003f0 2f 04 18 3d 95 7a 0c bd 5a 42 86 3c 14 e0 2d 3d
       0.037113365 -0.03429659 0.01638906 0.042450026

decoder.transformer.encoder.layers.0.linear2.bias f4 [4]
000000 01 9b 5c bc 55 4d c3 bb 10 e0 5f bc 51 06 03 3a
       -0.01346469 -0.0059601464 -0.0136642605 0.00049981946

decoder.transformer.encoder.layers.0.norm1.weight f4 [4]
000000 00 00 80 3f 00 00 80 3f 00 00 80 3f 00 00 80 3f
       1.0 1.0 1.0 1.0

decoder.transformer.encoder.layers.0.norm1.bias f4 [4]
000000 00 00 00 00 00 00 00 00 00 00 00 00 00 00 00 00
       0.0 0.0 0.0 0.0

decoder.transformer.encoder.layers.0.norm2.weight f4 [4]
000000 00 00 80 3f 00 00 80 3f 00 00 80 3f 00 00 80 3f
       1.0 1.0 1.0 1.0

decoder.transformer.encoder.layers.0.norm2.bias f4 [4]
000000 00 00 00 00 00 00 00 00 00 00 00 00 00 00 00 00
       0.0 0.0 0.0 0.0

decoder.transformer.encoder.layers.1.self_attn.in_proj_weight f4 [12, 4]
000000 58 c0 98 3e 65 60 96 3e ac 98 a9 3d 49 eb 44 3e
       0.29834247 0.29370418 0.08281073 0.19230379
000010 96 48 04 3f 56 7e e7 be 10 b3 c9 3e 1e 2f 11 bf
       0.5167326 -0.45213574 0.39394426 -0.5671252
000020 aa c6 52 be 1b eb 17 be d6 7c a3 be 62 e4 ba 3e
       -0.20583597 -0.1483578 -0.3193118 0.36502367
000030 31 3e a1 be c4 d0 87 be 60 3a d8 bd 9b 71 a9 3e
       -0.3149276 -0.26526463 -0.10558009 0.33094487
000040 8a 42 dd be 3a 44 07 3f 3f 36 85 3e eb af 4f be
       -0.43214828 0.5283848 0.2601795 -0.20281951
000050 64 b4 8d be 18 62 a8 be 5e 96 00 3e 9c 51 f5 3e
       -0.2767669 -0.3288734 0.1255736 0.47913826
000060 a8 82 f4 be c7 83 5f bd 8d 5d 32 3c 2d b4 07 bf
       -0.47755933 -0.054569032 0.010886562 -0.530093
000070 4d 56 ea 3c b5 0c 92 be f5 2b 14 be aa a8 b8 3d
       0.028605605 -0.2852532 -0.14469893 0.09016545
000080 73 49 ca be d1 7c 03 bf 83 86 0a 3f 3f 1d ba 3e
       -0.39509162 -0.5136233 0.541115 0.36350438
000090 8d 1b cb bd f1 cb f8 bc ae fc 1b bf a9 ca 7a bd
       -0.09917364 -0.030370684 -0.60932434 -0.061228428
0000a0 a3 40 ff 3e 0f be 30 3d 2f ee c5 3e eb 3a 08 bd
       0.49854 0.043150004 0.38658282 -0.033259314
0000b0 9d de 0f bf 2a 8f 65 bd 94 44 ad be d0 2e 03 3e
       -0.56199056 -0.056044735 -0.33841383 0.12810826

decoder.transformer.encoder.layers.1.self_attn.in_proj_bias f4 [12]
000000 00 00 00 00 00 00 00 00 00 00 00 00 00 00 00 00
       0.0 0.0 0.0 0.0
000010 00 00 00 00 00 00 00 00 00 00 00 00 00 00 00 00
       0.0 0.0 0.0 0.0
000020 00 00 00 00 00 00 00 00 00 00 00 00 00 00 00 00
       0.0 0.0 0.0 0.0

decoder.transformer.encoder.layers.1.self_attn.out_proj.weight f4 [4, 4]
000000 75 fb 39 bf 6f 83 14 3e 95 28 bb 3e 88 23 0a bf
       -0.7264932 0.14503263 0.365544 -0.53960466
000010 bb b0 22 3e f5 3c 4c be 26 3d 01 bf 3d 54 5d 3f
       0.1588773 -0.19945128 -0.5048393 0.8645666
000020 05 cd fe 3e 45 c9 57 be 10 d5 0c bf 68 6d 56 3f
       0.49765792 -0.21072872 -0.5501261 0.8376069
000030 c8 ab 39 3f 85 28 fa bd 4e 37 4a bf 01 db d6 bc
       0.7252774 -0.1221476 -0.7899064 -0.026227476

decoder.transformer.encoder.layers.1.self_attn.out_proj.bias f4 [4]
000000 00 00 00 00 00 00 00 00 00 00 00 00 00 00 00 00
       0.0 0.0 0.0 0.0

decoder.transformer.encoder.layers.1.linear1.weight f4 [2048, 4]
000000 54 a6 5c bd 3d 7c 46 bc 2d 0d 33 3d 2f 7e 54 3d
       -0.05386956 -0.012114582 0.043713737 0.05187815
000010 48 ed 1d 3c 28 5b af bc e3 56 45 3c 62 89 3a 3d
       0.009639092 -0.021405771 0.012044641 0.045541175
000020 3d d2 d4 3c 65 ec 33 3d a8 73 f5 3b 00 7d ce 3c
       0.025979156 0.043926615 0.007490594 0.025206089
000030 60 db 06 3d ee 7c db bc 2a 7e 82 3c ed f4 4b 3d
       0.032924056 -0.02679297 0.0159293 0.049794126
000040 fe c1 ed 3c d7 43 6b 3a e2 3d a8 3c 80 1c 94 3c
       0.029023167 0.00089746475 0.02053732 0.018079996
000050 10 f6 36 3d d7 48 ed 3b b6 ee c6 3b 4c 2a 4f bd
       0.044668257 0.007241349 0.006070937 -0.050577447
000060 26 ca ce 3c 0d b4 19 3c 28 90 66 bb f8 b0 8b 3c
       0.025242876 0.009381306 -0.0035181139 0.017052159
000070 48 4a 99 3c b8 33 a7 3c e3 d5 8b 3c 06 b3 16 3d
       0.018712178 0.020410404 0.017069763 0.036791824
000080 8d c4 ea bb b5 ff 2a 3d 9e 71 3f bd 7f 35 9e bc
       -0.007164544 0.041747767 -0.046739213 -0.019312618
000090 a7 39 81 3b f5 d9 8c bc 1b 24 12 3d 96 7c 98 bc
       0.0039436403 -0.017193774 0.035678964 -0.018614095
0000a0 b4 e2 5b bd 2a 02 15 bd 4f 9f c0 3b f1 b4 0c 3c
       -0.053682998 -0.036379017 0.005878366 0.008588062
0000b0 d2 14 26 3d 1e 50 c2 3b dd 52 32 bc 0a 75 57 3d
       0.0405472 0.005929961 -0.010884014 0.05260185
0000c0 44 43 fb 3c 70 4f d2 bc 51 87 2d bd 3d 8e 2c 3d
       0.030671723 -0.025672644 -0.042365376 0.042127836
0000d0 16 b7 5c bd 14 46 17 3d 23 20 c4 bc 74 31 58 bd
       -0.05388554 0.036932066 -0.023941105 -0.052781537
0000e0 cf c2 5c bb c7 0d 40 3d b1 d5 ea bc 71 4a 58 3c
       -0.003368545 0.04688814 -0.02866635 0.013201342
0000f0 79 e2 fb 3c 2d 57 1a 3d 80 98 24 bd d8 3b 20 3d
       0.030747639 0.037680794 -0.040184498 0.03911957
000100 b7 7a ff bc 67 ba 05 3d 60 ba 1b 3d 6e bd 26 ba
       -0.031186445 0.03264847 0.038019538 -0.00063606247
000110 ea 25 35 3d d6 b1 d4 3b 40 9e 1f 3d e5 d7 eb 3c
       0.04422561 0.0064909263 0.03896928 0.02878947
000120 d9 90 05 3d 52 c6 9d ba 72 a6 aa bc 5a 94 89 3c
       0.03260884 -0.0012037253 -0.02083132 0.016794372
000130 a9 9c 5a bb 50 7b ef bb ae c9 bf 3c 45 ca 74 3c
       -0.0033357537 -0.007308401 0.023411598 0.014940803
000140 64 f3 c4 3b e4 d3 78 3c e8 96 c9 3c b0 ba 5c bd
       0.0060104597 0.015187237 0.02460809 -0.053888977
000150 ab f9 45 bd 68 78 c9 3c c9 14 9b bc 14 54 91 bb
       -0.048333805 0.024593547 -0.01893081 -0.0044350717
000160 94 a7 78 bb 87 25 3d bc 53 d7 38 bd d9 5b 31 3d
       -0.0037941681 -0.011544592 -0.045127224 0.043300483
000170 1e 2d 1e bc 02 5d 89 3b 41 9d 42 3c d4 39 80 3b
       -0.009654311 0.0041919956 0.011878313 0.0039131436
000180 28 57 38 3c 58 cf 24 3d 45 dd 42 bd b9 af 4c bd
       0.011251248 0.0402368 -0.0475743 -0.04997227
000190 23 bd 55 3d ec df 0d 3d ca 08 4e 3d 34 3f 39 3d
       0.052182328 0.034637377 0.05030135 0.04522629
0001a0 86 08 28 bd 40 b1 0e 3d 4b 6f e5 bc 84 a3 b3 3c
       -0.041023754 0.034837008 -0.02800717 0.021928556
0001b0 2d 04 b0 3c 30 de fc bb 21 7a 5e 3c 9a 96 e7 bc
       0.021486366 -0.0077169165 0.0135789225 -0.028270055
0001c0 45 2e 27 3d 62 0c 09 bc e2 9f 50 bd c1 a6 14 3d
       0.04081561 -0.008364769 -0.050933726 0.03629184
0001d0 30 e5 1c bc 8a 61 f8 3c a0 ff 4f bd b3 9c 36 bc
       -0.009576127 0.030319948 -0.050780892 -0.011145758
0001e0 0e a4 08 3d b6 f3 0a bd d4 3b 46 bd 6c 7d 04 bd
       0.03335958 -0.033923827 -0.0483969 -0.032346174
0001f0 af ec a2 3c 06 51 23 3d d6 a5 c5 bb 91 26 06 3d
       0.01988825 0.03987219 -0.006031732 0.032751624
000200 d3 03 96 bc 08 16 0f bd 7d dc a2 bc e4 5d 43 3d
       -0.01831237 -0.03493312 -0.019880528 0.047696963
000210 4c 2f 19 bb 44 88 e0 bc 45 9c be 3c 25 71 b4 bb
       -0.0023374138 -0.027408727 0.023267874 -0.005506652
000220 05 e4 d1 bc 92 a0 58 3d 12 a8 c0 3c db 56 09 3d
       -0.025621423 0.052887507 0.023517642 0.033530097
000230 4c 67 ae bc 5d c7 54 3d 86 9b 42 bc 10 98 42 bc
       -0.02128949 0.05194794 -0.0118779 -0.011877075
000240 12 1d 1d bb 6a 32 0b 3d 57 11 e7 3b 21 a3 4c 3d
       -0.0023973626 0.033983625 0.0070516276 0.04996026
000250 2a e3 4d 3d 0c ae 1a 3d 40 07 2d 3d 57 a8 0f 3d
       0.05026547 0.03776364 0.042243242 0.03507265
000260 46 a8 0c bd 65 bf 37 3d 69 38 19 3d 99 d3 50 bd
       -0.034340166 0.044860262 0.037407313 -0.050983045
000270 35 32 36 bd 02 e7 3e bd ef 27 21 bd 5d 0b c0 bc
       -0.044481475 -0.046607025 -0.039344724 -0.023442918
000280 03 89 d4 3b 38 38 20 bd b6 ea 12 3c 6a 87 35 bd
       0.0064860596 -0.039116114 0.008967092 -0.044318594
000290 d8 d3 4b bc ea ea 13 3b c5 63 3e bd e3 41 3f 3c
       -0.012440644 0.002257044 -0.046481866 0.011673423
0002a0 69 85 40 bd cd a9 80 bc f3 d7 f6 bb 29 98 25 3c
       -0.04700223 -0.015705967 -0.0075330674 0.010107079
0002b0 82 2d 23 bd f3 d7 a9 3c da fb 15 3d bd 50 f5 3c
       -0.03983832 0.020732855 0.036617137 0.029945726
0002c0 23 56 45 bd f4 73 12 3d 2e f4 1f bd 06 09 47 3d
       -0.04817785 0.035755113 -0.039051227 0.04859259
0002d0 e7 8c ee 3c 4b 54 c5 3b 19 f7 7f bc aa 09 fc 3c
       0.029119922 0.0060220114 -0.0156228775 0.030766327
0002e0 22 75 3b 3d a2 ee 25 bd 0a 40 a2 ba 77 0c d3 bc
       0.045766003 -0.04051078 -0.0012378704 -0.02576278
0002f0 de a5 34 bd 5e 60 17 3d cd d5 a9 3c 36 6c 65 3c
       -0.044103496 0.036957137 0.020731831 0.01400285
000300 da 98 bc bc 36 d6 3f 3c 46 c6 97 3c 09 04 cd 3a
       -0.023022104 0.011708787 0.018527161 0.0015641461
000310 50 e9 45 3d 87 25 bd bb ad 7c 58 bb 65 9d b1 bc
       0.048318207 -0.005772296 -0.0033033297 -0.021681497
000320 fc 66 55 3d fe de db 3c 8b 8a 38 3d 21 40 bd bc
       0.052100167 0.02683973 0.045054 -0.023101868
000330 53 2d e6 bc 13 9e 5d bc a5 6a 5d 3d 35 c7 b0 3c
       -0.028097784 -0.013526457 0.054056782 0.021579364
000340 a9 39 32 3d 6a 93 83 3c 23 31 b2 bc d9 45 b0 bc
       0.04351202 0.016061503 -0.021751946 -0.021517681
000350 5c 82 22 bc be 0d 28 3d ca 3f 07 bd 49 cb 9c bc
       -0.009918775 0.04102873 -0.03301982 -0.019139903
000360 9a f6 b0 b9 e1 f4 9e 3c 4a 57 0e 3d cb 6e 3f bd
       -0.00033753068 0.019403877 0.034751214 -0.04673652
000370 9c 5e 08 bd f0 55 5f bc a3 5f a7 bc 63 8f 4d bd
       -0.03329335 -0.013631329 -0.020431345 -0.050185572
000380 b0 45 5b bd fc 6c 57 3c cc 07 fe 3c f4 fd 59 3c
       -0.053533256 0.0131485425 0.031009577 0.013305176
000390 71 64 ca 3c bf 06 54 bd bf 08 12 bd cc 1c 13 bd
       0.024706097 -0.051764246 -0.035652872 -0.035916135
0003a0 7d cc cf bc 67 12 0b 3d c6 1d 22 3d e9 80 0d 3b
       -0.025366062 0.033953097 0.039579175 0.002159173
0003b0 92 b0 e7 3c 90 05 29 3c de 80 81 bc 29 a1 e6 3c
       0.028282437 0.010316268 -0.015808519 0.028153019
0003c0 cf 1a 8a bb aa 11 51 bd 83 c9 5c bc ab 96 3e bd
       -0.0042146216 -0.051042236 -0.0134757785 -0.046530407
0003d0 1f 12 47 3d a5 68 b0 bc 9d 31 c9 bc 75 18 c7 ba
       0.048601266 -0.021534273 -0.02455979 -0.0015189784
0003e0 f5 fa ef 3c 42 a8 8f 3c 2d a8 c2 3c a7 ad 28 bd
       0.02929447 0.017536286 0.023761833 -0.041181233
0003f0 5e cc f4 bc ba 58 1e 3d 29 78 0e bd 93 f8 4c 3b
       -0.029882606 0.038658835 -0.034782562 0.0031276091

decoder.transformer.encoder.layers.1.linear1.bias f4 [2048]
000000 ba 5c ea be d2 e8 a8 be 46 12 d1 3e e0 da a3 be
       -0.4577387 -0.32990128 0.40834254 -0.32002926
000010 28 2a b3 3e 84 69 64 be e8 a2 a1 bd 70 76 90 3e
       0.349931 -0.22305876 -0.078924 0.2821536
000020 f4 e5 9a 3e 4a 0f bb be dc 02 7e be 62 e8 b4 be
       0.30253565 -0.36535102 -0.24805778 -0.35333544
000030 80 ec 66 be 5c 12 4d be b0 3b b9 be f0 7a c9 3d
       -0.22551155 -0.20026535 -0.3617835 0.098379016
000040 0c 61 84 be 00 5d b9 bd 72 e7 9b be f4 7b 43 3e
       -0.2585529 -0.090509415 -0.30450016 0.19090253
000050 78 ae ef 3d e4 6a e1 3e 86 8e c4 be 48 c5 92 3e
       0.11703199 0.44026864 -0.38389987 0.2866614
000060 9a bf d9 be 00 b8 3d 3d 7e c4 ea 3e 98 a9 d4 3d
       -0.42528993 0.046318054 0.45853037 0.1038391
000070 5c 42 86 be 88 c8 71 3e e8 df d2 3d 92 ce b7 3e
       -0.26222503 0.23611653 0.10296613 0.35899788
000080 10 2b 69 3d 1a 0d e6 3e ec 1b 4b be 00 c9 eb bc
       0.056925833 0.4493187 -0.1983487 -0.028782368
000090 48 5a b5 3e 38 76 ac 3e f0 2c 4e 3e 54 85 65 be
       0.35420442 0.33683944 0.2013433 -0.22414142
0000a0 04 b4 1b 3e ca 9c c9 3e 96 08 c6 3e 12 21 e2 3e
       0.1520539 0.39377433 0.38678426 0.44165856
0000b0 c6 ca a7 3e 72 f7 a8 be c0 16 95 bd 50 49 eb be
       0.3277189 -0.33001286 -0.0727973 -0.4595437
0000c0 40 2e ff bc 28 8b 8c 3e f0 ae 83 3e c4 4f f6 be
       -0.031149983 0.27449918 0.25719404 -0.4810773
0000d0 80 5c 52 be 48 b7 92 3e 18 c5 67 3e 90 97 9b 3e
       -0.20543098 0.28655457 0.22633779 0.3038907
0000e0 e8 d1 87 3e ec d1 37 be 2c a1 e9 be f8 cd fc be
       0.26527333 -0.17951173 -0.45630777 -0.49375892
0000f0 3e 71 e0 3e d4 13 34 be 48 6f ce 3e bc 43 c5 3e
       0.43836397 -0.17585689 0.40319276 0.3852824
000100 fc de f6 be b0 5b e5 3e c0 51 d1 bc f8 d6 d4 3d
       -0.48217 0.44796515 -0.025551677 0.103925645
000110 0c d3 7c be 20 3b 1b 3d d0 02 60 be 00 90 21 bc
       -0.24689883 0.037898183 -0.21876073 -0.009860992
000120 0e 62 87 be 2e b9 c7 be d8 a5 8b 3e 1a 4b ec 3e
       -0.26441997 -0.39008468 0.27274966 0.46151048
000130 f0 72 db be ac d1 82 3e 74 14 8a be 50 4a 59 be
       -0.42861128 0.25550592 -0.2696873 -0.21219754
000140 40 a8 f7 3c c0 92 75 3c 7a 24 e6 3e b0 02 cc 3e
       0.030231595 0.014988601 0.44949704 0.398458
000150 80 8c da bb 98 37 b2 bd da 71 ae 3e 7e 72 ab be
       -0.006669581 -0.0870201 0.34071237 -0.33485788
000160 34 57 71 3e 08 df f2 3e 9e 83 99 3e bc f8 4c be
       0.23568422 0.47435784 0.29983228 -0.2001676
000170 2c 2e e7 3e 1a 40 af be 38 57 41 3e bc e8 8c 3e
       0.45152414 -0.34228593 0.18880928 0.27521312
000180 66 da d3 3e 84 fc 85 3e 5c fb 46 3e c4 df 8c 3e
       0.41377562 0.26169217 0.19431823 0.2751447
000190 52 26 ba be 9e db b4 3e 48 08 b7 3d d4 ef 20 be
       -0.3635736 0.35323805 0.089371264 -0.15716487
0001a0 8c 24 07 be 54 73 14 be ec a3 e6 be d2 3a cc be
       -0.13197535 -0.14497119 -0.45046937 -0.39888626
0001b0 70 e8 3c 3e 20 86 86 3c 7e 52 dc be 9c 49 13 3e
       0.18448043 0.016421378 -0.43031687 0.14383548
0001c0 d0 d7 e5 3d 0c 2d 8a 3e a0 fa f1 be 30 cd 72 3e
       0.112228036 0.26987493 -0.47261524 0.23711085
0001d0 a2 65 f6 be 8c 0b 03 3e b4 b1 36 be 36 c8 ee be
       -0.48124415 0.12797374 -0.17841226 -0.46637124
0001e0 a0 be 1d 3e e0 b1 ab 3c 90 2b 07 3e 1a 19 e4 3e
       0.15404749 0.02095884 0.13200212 0.445504
0001f0 b8 b6 cb bd 5a 72 ea be 2c d7 2a be 9c 70 fd 3e
       -0.0994696 -0.45790368 -0.16683644 0.49499977
000200 4e 06 fa be ec 0f 92 be 2c 43 26 3e 90 86 0b 3e
       -0.48832935 -0.28527772 0.16236562 0.1362555
000210 68 6c b4 be c8 f9 9e 3d 34 19 a2 3e a8 71 bb 3d
       -0.35238957 0.07762486 0.31659853 0.091525376
000220 c2 aa a1 3e 82 5a a5 3e 64 a5 27 be ea ca 8b be
       0.3157559 0.32295614 -0.16371685 -0.2730325
000230 60 18 eb 3c b6 95 e1 be 90 f6 9c be d4 7c 16 be
       0.028698146 -0.44059533 -0.30656862 -0.14696056
000240 18 fa df 3d 36 e3 98 be 98 d5 17 3e 18 40 b4 3d
       0.109363735 -0.29860848 0.14827573 0.088012874
000250 16 8f f5 be 58 58 12 be 3e 28 8c be c0 7f b3 bd
       -0.47960728 -0.14291513 -0.27374452 -0.08764601
000260 a2 6d c3 be 54 20 10 be 80 12 4c 3d 20 8e 43 bd
       -0.3816958 -0.14074832 0.04982233 -0.047742963
000270 e0 da cb bc 50 66 80 3d e0 50 c9 3d 60 a6 12 3d
       -0.024884641 0.062695146 0.09829879 0.0358032
000280 e0 2b 4c be ce 8a ce 3e 0a 03 c1 be 9c 75 a9 3e
       -0.19938612 0.40340275 -0.3769763 0.3309754
000290 30 75 85 be 8c a3 53 be 06 01 f9 3e 70 01 6a 3d
       -0.2606597 -0.20667857 0.48633593 0.057130277
0002a0 7c 2f bb 3e 68 04 71 3e 40 f7 6f 3e 52 69 f4 3e
       0.36559665 0.23536837 0.23434162 0.47736603
0002b0 22 62 ec be da 2c a8 3e 60 f8 ea bd a2 b9 f5 3e
       -0.4616862 0.3284672 -0.11473155 0.4799319
0002c0 12 1d 81 be c8 b3 48 3e d6 e7 b9 be c0 f3 5a 3c
       -0.2521749 0.19599831 -0.3630969 0.013363779
0002d0 e4 bf d1 3e f8 09 b7 bd b0 12 96 bd 58 4d e8 bd
       0.40966713 -0.08937448 -0.07327783 -0.11342877
0002e0 80 26 a0 3d 46 08 d5 3e 2e 6c ab 3e e2 da a7 be
       0.07819843 0.41607875 0.33480972 -0.32784182
0002f0 d4 e5 4a 3e 80 3c 4e be 94 ce 78 3e 04 bc 3f be
       0.19814235 -0.20140266 0.24297553 -0.18724066
000300 e0 d3 c5 3c fc b1 07 3e 28 ab a9 be 3c 0f c0 3e
       0.024148881 0.1325149 -0.33138394 0.37511623
000310 ea 2a fa 3e f4 02 a1 be 80 e4 ce bd a0 80 19 bd
       0.48860866 -0.31447566 -0.10102177 -0.037476182
000320 74 63 18 3e 08 ba f1 bd f6 fc c4 be 00 e0 da bd
       0.14881688 -0.11803061 -0.38474244 -0.10687256
000330 18 00 21 be a0 bb a4 3e 40 3b fe bc 1a d4 fa be
       -0.15722692 0.32174397 -0.031034112 -0.48989946
000340 28 0b 1e 3e 58 5f f1 3e a0 5a 03 bd 40 b4 dd 3c
       0.15433943 0.47143054 -0.03206885 0.027063489
000350 2c 3d 15 be 14 31 d4 3e 20 a2 98 3e d0 de 6e 3d
       -0.14574116 0.41443694 0.29811192 0.05831796
000360 a8 86 b8 3d 80 a0 35 3d 10 62 ff be 88 a9 8d 3e
       0.09010059 0.044342518 -0.49879503 0.27668405
000370 30 ef 1d be a4 a4 b0 3e b4 d9 bb be fe 51 dc 3e
       -0.15423274 0.3450061 -0.36689532 0.43031305
000380 ec 84 68 3e d4 67 cd be 24 e7 cc 3e d0 65 eb be
       0.22706956 -0.40118277 0.40020096 -0.45976114
000390 d0 7b f3 3d 90 03 fd be ec 93 e0 3e 4c 4b 26 3e
       0.1188885 -0.4941678 0.43862855 0.16239661
0003a0 f8 e0 af 3d c6 0a d0 3e 30 10 31 3d 98 c4 dc bd
       0.08587831 0.4063322 0.04322833 -0.10779685
0003b0 80 ac 59 bd 70 7a 26 be 1e af de be 28 db d5 bd
       -0.053143024 -0.16257644 -0.4349298 -0.10442191
0003c0 66 68 ed be b8 00 51 3e 32 68 94 3e d0 20 fd 3e
       -0.46368712 0.2041043 0.28985745 0.49439096
0003d0 80 c6 f6 3c ba 8b a3 be 00 31 c6 3c 02 0b bd 3e
       0.030123949 -0.3194254 0.024193287 0.3692246
0003e0 98 c4 5a 3e cc 58 c5 be 04 13 6c be e0 92 b7 be
       0.21364057 -0.3854431 -0.23054129 -0.35854244
0003f0 24 42 a1 be a0 8c be 3c 00 fd 10 bb 0c 5b d6 3e
       -0.31495774 0.023260415 -0.0022123456 0.41866338
