code/2021-04-12_18-17_last.pth (torch, 20531 bytes, 18 tensors)

encoder.maxpool_conv.0.0.weight f4 [1, 1, 2, 50]
000000 7e 80 f2 bd 7b a3 cd bd 24 29 dd 3c 0e 9a 97 bd
       -0.11840914 -0.10040947 0.026997156 -0.074024305
000010 e0 28 98 3c ca d9 1c 3d 4a ea 54 ba e2 4d 9c bd
       0.018574178 0.038293637 -0.000812207 -0.076320425
000020 5b e3 9d bd 5d a6 2f 3d 62 c8 31 3d ca 1a 9a bd
       -0.0770938 0.042883266 0.04340399 -0.07524641
000030 2b a0 6c bd 85 7b ec bd f5 8c 22 3b 05 6e 95 bd
       -0.057769936 -0.11546997 0.0024803255 -0.07296375
000040 98 6c c9 bd b5 58 ba bc 44 03 d1 bc 88 7c 0b 3d
       -0.09835166 -0.022747377 -0.025514252 0.03405431
000050 2a e1 b1 bd 5e 98 92 bd 10 0e 0b be 57 21 b4 bd
       -0.08685525 -0.07157968 -0.13579583 -0.087954216
000060 0f 7e 77 bd 71 71 4c bd 43 de fb bb fb 7f 54 bd
       -0.060422953 -0.049912874 -0.007686408 -0.051879864
000070 fa 77 23 3d 5d 78 f1 3c e0 a1 bd bc 31 0a ef bd
       0.03990934 0.029476339 -0.023148477 -0.11671866
000080 7f dc 12 be 3e 97 02 be c3 c1 8c bd 2e 6c a0 bc
       -0.14341925 -0.12753007 -0.068728946 -0.019582834
000090 45 93 8e bd 86 8b 58 bd 57 e3 bd bd 78 b6 43 bd
       -0.06961683 -0.052867435 -0.09271877 -0.047781438
0000a0 d7 3f e3 3c ac c4 56 3c ae 47 f3 bc 16 b6 df bc
       0.027740402 0.013108414 -0.029697265 -0.027308505
0000b0 64 ab ce 3c c7 63 96 3c b2 94 57 3d fd 4a 70 3c
       0.02522821 0.018358124 0.05263204 0.014666316
0000c0 87 0d e5 bd d4 3b ed bd e3 42 cb 3c 6b 49 c5 3a
       -0.11184221 -0.11583677 0.024812168 0.0015051787
0000d0 e9 f2 e9 bc 2d 15 d7 3d 31 b2 07 3e d3 ce d3 3d
       -0.028558211 0.10502086 0.13251568 0.10342183
0000e0 8d c8 46 3d ec 2b 29 3d 61 cb c6 3d 4d 6e f8 bb
       0.048531104 0.041301653 0.0970676 -0.0075815083
0000f0 a6 46 89 3d ec 9c 30 3c 25 48 ce bc 29 ee ce 3c
       0.06702928 0.010779601 -0.025180886 0.025260048
000100 ff 9d cb 3c 91 54 eb 3a f6 c5 92 3d 8f 34 c9 3d
       0.024855612 0.001795428 0.07166664 0.09824478
000110 a5 cf bc 3d db 4b 12 bd 0a bd 0a bc 90 bb b0 bc
       0.092192926 -0.035716873 -0.008467922 -0.021573812
000120 6f f6 64 bd 9b 60 c5 3d 6d 1a 8c 3d e8 cb 04 3e
       -0.05589908 0.09637567 0.06840978 0.12968409
000130 9a 44 f6 3d b9 5b 0a 3d 5a 30 f1 3c 5a d8 92 3c
       0.120248035 0.03377888 0.029442001 0.01792543
000140 e9 16 75 bd ef 40 2a 3d 8c 3b a0 3d 89 0b fa 3b
       -0.059836302 0.04156583 0.07823858 0.0076307696
000150 31 68 33 bd 4e 46 a8 3d 32 ad 5c 3d 1b 6c c4 3d
       -0.043800537 0.082165346 0.05387611 0.09590932
000160 09 c8 c5 3d 9e 57 60 bc a4 ba d5 3c dc b6 ec 3c
       0.09657294 -0.013692765 0.026089974 0.028895788
000170 29 db 85 3d f5 00 eb 3c 47 65 3e bc 60 33 f6 3d
       0.06535942 0.02868698 -0.011620826 0.12021518
000180 b6 96 1f 3d 6a 47 b4 3d 4a 92 b1 3d e7 a8 e1 3d
       0.03896209 0.08802684 0.086704805 0.11018544

encoder.maxpool_conv.2.0.weight f4 [1, 1, 2, 50]
000000 84 7b 88 3c 37 de 87 3c fb dd 10 bc 28 c9 ef 3a
       0.01666046 0.016585452 -0.008841987 0.0018294202
000010 14 d1 8d 3b bb 97 4f bc 41 c6 92 3b 52 17 47 bd
       0.0043279026 -0.012670453 0.0044792 -0.048606224
000020 ad 4c 1f 3c 83 7c 0f bd 21 19 63 bb 58 9b b9 bc
       0.009722871 -0.035030853 -0.003465243 -0.022657081
000030 6f fc 7d 3c 6c 51 44 bd 19 51 45 3c a4 60 13 3c
       0.015502079 -0.047929212 0.012043261 0.008995209
000040 80 ef 33 bb 07 b6 39 3c a5 99 70 bc 44 f3 24 3c
       -0.0027455986 0.011334903 -0.014685069 0.010067765
000050 55 52 f1 3b da 89 f1 bc cf ce 0a 3d b2 88 52 bd
       0.007364551 -0.029484678 0.033888634 -0.051399894
000060 2f 08 84 bb e2 43 8f 3c 68 70 1f bd f2 0d ee 3b
       -0.004029296 0.017488424 -0.03892556 0.007264846
000070 8a 16 66 3a 10 95 62 bd 55 7f 6e 3c 40 c7 6a bc
       0.00087771623 -0.05531794 0.0145567255 -0.014329731
000080 c0 51 b6 3b f4 a6 05 bd e4 31 89 3c ca ac 48 3c
       0.0055639446 -0.032629922 0.016747423 0.012248227
000090 cb ae 72 bd 6a 2c 47 3d 88 d5 87 bc 1d f0 67 bc
       -0.059248727 0.04862634 -0.016581312 -0.014156369
0000a0 45 53 a0 bb 38 f9 00 3d cb a5 01 bd 7f 15 fa 3c
       -0.004892739 0.031487674 -0.031652253 0.030527828
0000b0 bc 47 e2 bc b0 3e 35 3d 07 2d 66 bd 91 3e 2a 3d
       -0.027622096 0.044249237 -0.056195285 0.041563574
0000c0 e6 cd 39 bd 4c 77 85 3d 03 bf cd 3c ab 56 81 3c
       -0.045362376 0.06516895 0.025115496 0.015788397
0000d0 01 28 9e 3d 28 d8 af bb 84 63 1c bd b6 ac 84 bd
       0.07722474 -0.005366344 -0.038180843 -0.064782545
0000e0 ea c2 55 be 09 5b 98 be 64 46 9f be 0d dc 8f be
       -0.20875135 -0.29756954 -0.3110839 -0.28097573
0000f0 22 2b 6b be f4 f9 06 be 5e 85 12 be 32 de 82 bd
       -0.22965673 -0.13181287 -0.14308688 -0.06390037
000100 fc a0 86 bd 84 2f 03 3d 98 cb d0 3c e2 63 83 3d
       -0.06573674 0.032027736 0.025487706 0.064155355
000110 be 6f 0e 3d 27 ca 77 3c d9 69 80 bd 4b 5d c4 bd
       0.034774534 0.0151238805 -0.06270189 -0.09588107
000120 0c 4b 5f be 16 5e 5a be 54 53 8a be 55 fe b0 be
       -0.21805972 -0.21324953 -0.270167 -0.3456904
000130 67 a0 df be cc bb cc be e3 38 bb be 71 7f 52 be
       -0.43677065 -0.39987028 -0.3656684 -0.20556428
000140 f3 98 26 be cc f4 70 bd 2a 8e c9 bd df 98 32 bd
       -0.16269283 -0.058827206 -0.09841569 -0.04360282
000150 0e ed c3 bc 0b d0 45 3d d7 1e 83 3d 04 48 ff 3c
       -0.023916747 0.04829411 0.064023666 0.03116227
000160 22 f4 89 3d 94 37 0c 3d ba 4c 9f 3c 05 6e d2 3b
       0.06736018 0.03423269 0.019445766 0.0064218068
000170 97 1f 2f 3b 0d a7 ac bd d2 0d fa 3b 16 2a d3 bd
       0.002672171 -0.084303 0.007631042 -0.10310762
000180 a4 1b 02 bd 01 f4 16 bd 85 2d 6e 3d 5d 82 da 3d
       -0.03176464 -0.036853794 0.05814888 0.10669396

decoder.linear1.weight f4 [32, 4]
000000 d1 f2 d2 3f 24 f6 29 be ee 48 38 3f 89 23 a8 bd
       1.6480352 -0.16597801 0.7198628 -0.08209903
000010 64 f6 be 3f 36 d9 11 bf ee 2b 85 3f db 46 6c 3e
       1.4918942 -0.5697206 1.0404031 0.23073904
000020 18 bc b7 3f 4c d3 2d bf c1 a4 b2 3f 86 9e 82 bd
       1.4354277 -0.6790054 1.3956529 -0.06377892
000030 3a 18 85 bd 9c dc a8 be 6a 76 bb be bd c4 59 be
       -0.064987615 -0.32980812 -0.3661378 -0.21266456
000040 20 71 c6 3f 94 aa fb be d0 03 60 3f 86 5f 57 be
       1.5503273 -0.49153578 0.8750582 -0.21032533
000050 58 ba 54 3f 8a 85 a7 be 71 d7 b4 3f c6 84 dc be
       0.8309684 -0.3271907 1.4128247 -0.43070048
000060 05 62 d1 3f 3f c7 a9 be 6f ea ae 3f 50 a2 e1 be
       1.6358038 -0.33159825 1.3665293 -0.44069147
000070 d1 0f a3 3f 7b 4a 3c be 98 76 ca 3f 61 24 12 bf
       1.2739202 -0.18387787 1.5817442 -0.5708676
000080 e2 43 be 3f 29 c6 15 be 7a 97 9c 3f 5d 93 2a 3a
       1.4864466 -0.14626373 1.2233727 0.0006506944
000090 36 9b 50 3f 26 01 7a bd 9d 9a c1 3f 51 d2 46 3d
       0.81486833 -0.06103625 1.5125309 0.048540417
0000a0 a6 bd cc 3f 6b 6f 7d 3a 7c 1e a5 3f 42 ee 27 3e
       1.5995376 0.00096677867 1.2899928 0.16399482
0000b0 07 d2 5a be 52 c2 7c bd c5 d2 dc be 99 ca 0f 3e
       -0.21369182 -0.061708756 -0.43129554 0.14042129
0000c0 0d a2 a7 3f c0 4f d3 be f8 bd 8a 3f 85 24 65 3e
       1.3096329 -0.41271782 1.0839224 0.22377212
0000d0 12 e5 5e 3e c9 aa fa be 50 55 02 bf 37 49 7f 3e
       0.21767071 -0.48958424 -0.50911427 0.24930273
0000e0 2b 8f 50 3f 78 a0 97 3e 49 59 cd 3f 2c 17 ca 3b
       0.81468457 0.29614615 1.6042873 0.006167313
0000f0 8b 1c a3 be f1 1a 01 3f 81 67 bf 3e fd 5f a5 3e
       -0.31857714 0.50431734 0.37383655 0.32299796
000100 54 36 25 be c4 fd 8d 3d 45 49 77 3e cb 02 a4 3e
       -0.16134006 0.069331676 0.24149044 0.3203338
000110 e2 65 ba be 14 a4 16 be f6 74 84 be 58 8b 9c 3d
       -0.36405855 -0.14711028 -0.25870484 0.07643765
000120 f8 bb a7 be a8 86 d2 bd 4a ce e6 be c0 f7 17 3d
       -0.32760596 -0.1027959 -0.4507926 0.037101507
000130 5c 12 c5 3f c5 8d d2 be 59 46 b8 3f d7 87 03 bf
       1.5396228 -0.41123787 1.4396468 -0.5137915
000140 c0 0e 8a bc d0 7c a5 bd 92 10 cb be 58 46 7a be
       -0.016852736 -0.08080447 -0.3966108 -0.24440897
000150 32 9b fb be a8 19 e5 bd f6 03 a4 be d4 6a 37 be
       -0.49141842 -0.11186534 -0.32034272 -0.17911845
000160 57 23 9d 3f 0c 9a 86 be b2 3c c2 3f 1d ea f3 bd
       1.227641 -0.26289403 1.5174773 -0.11909888
000170 64 35 45 be 66 e9 e3 be 0b eb 88 3d 28 af 40 be
       -0.19258648 -0.44514006 0.06685456 -0.18816817
000180 00 65 98 3e 83 f5 1c 3f 6d 22 37 be 84 50 23 3f
       0.29764557 0.6131212 -0.17884226 0.6379473
000190 b1 55 d4 3f 8e a8 c0 be bb b9 c3 3f 09 dc 1c bf
       1.6588651 -0.37628597 1.5291055 -0.61273247
0001a0 13 d1 65 be 00 5f 13 3f e2 1a c3 3d d1 04 af 3e
       -0.22443037 0.57566833 0.09526612 0.34183362
0001b0 d0 ae 68 3f bf da 70 be da 98 c2 3f c0 6c a8 be
       0.9089174 -0.23520945 1.5202897 -0.3289547
0001c0 14 c4 42 3e 95 55 61 be 10 ca 45 be f0 18 74 3e
       0.1902011 -0.22005303 -0.19315362 0.23837638
0001d0 d2 80 e7 3d 3b 45 ad 3e 69 6b c6 be e5 14 1c 3f
       0.113038674 0.3384188 -0.38753822 0.6096938
0001e0 9f 9f d4 3f 59 bb 88 3e 86 da af 3f 87 01 5f be
       1.6611212 0.26705435 1.3738563 -0.21777926
0001f0 26 ce a7 be e8 fc bd 3d 63 76 b1 be d9 74 3a 3e
       -0.32774466 0.09276754 -0.34660634 0.18208636

decoder.linear1.bias f4 [32]
000000 0b 6a aa 3f 24 24 8b 3f 60 f4 82 3f 9d f6 08 3e
       1.3313612 1.0870404 1.0230827 0.13375326
000010 8a 3f 8d 3f a0 08 ad 3f 5d 6e 68 3f 31 5e 6d 3f
       1.1035016 1.3518257 0.907934 0.9272185
000020 f5 42 49 3f 11 f8 b9 3f 65 7e 2a 3f 5e 5b 88 bd
       0.78617793 1.4528829 0.6659911 -0.06658052
000030 1e 11 ba 3f 13 87 1a 3e 8f b5 81 3f 15 bb 52 be
       1.4536474 0.15090589 1.0133532 -0.20579179
000040 9d 2b 8f be 34 9b dc be e8 91 b3 bd 20 5f 62 3f
       -0.27962962 -0.4308716 -0.08768064 0.884264
000050 7a 17 9f be bc ec 01 be 30 f6 b2 3f a4 42 93 bd
       -0.310726 -0.12687963 1.398138 -0.07190445
000060 99 86 ce be 7f 11 19 3f 56 df ec bd 31 ca a0 3f
       -0.40337065 0.5979232 -0.115660354 1.2561704
000070 f4 20 23 be 76 c4 77 3e 51 9b 8f 3f 08 5e 19 be
       -0.1593054 0.24196038 1.1219274 -0.14977276

decoder.linear2.weight f4 [10, 32]
000000 3e 33 85 3f eb 48 83 3f b2 bd 90 3f 18 32 27 3d
       1.0406263 1.0256628 1.130789 0.040819257
000010 21 6a a1 3f c9 a0 85 3f 81 1c 84 3f 4b c5 91 3f
       1.2610513 1.0439693 1.0321199 1.1388334
000020 8a b5 80 3f 09 21 8f 3f 0b ef 80 3f 4d 8f ea bd
       1.0055401 1.1181957 1.007295 -0.11453114
000030 39 42 67 3f 00 02 aa 3c 5a c8 81 3f a8 c9 8f bd
       0.9033542 0.020752907 1.0139267 -0.07020885
000040 d0 93 88 bd 24 d7 7c bb 13 5d 2b 3e a2 6c 8a 3f
       -0.06668818 -0.0038580382 0.16734724 1.0814402
000050 0e 89 40 bc 9e 44 01 be 68 b8 97 3f 1d bc cc bd
       -0.011751426 -0.12623832 1.1853151 -0.09996817
000060 0c ab ee 3c 43 41 6d 3f 92 e7 59 3e bb 9a 9a 3f
       0.029134296 0.92677706 0.21279743 1.207847
000070 2a 13 7a be 58 9e 93 3e 83 91 98 3f 2e cb 6c 3d
       -0.24421373 0.28831744 1.1919407 0.057810955
000080 5c f9 87 3f 9d 00 98 3f 2d a7 97 3f c5 ef 4b ba
       1.0622973 1.1875187 1.1847893 -0.0007779564
000090 e6 47 8f 3f e9 a6 7b 3f 6b 86 8e 3f ec 41 89 3f
       1.1193817 0.9830156 1.1134771 1.0723243
0000a0 b3 96 a1 3f 33 db 90 3f 94 fa 71 3f 26 04 9e 3d
       1.2624115 1.1316894 0.94522977 0.07715635
0000b0 40 41 97 3f a6 55 8d bd 2d 3d 7e 3f 09 9c 26 be
       1.1816788 -0.06901102 0.99312097 -0.1627046
0000c0 2d 6d ca bc c4 1b d0 3c 05 a4 33 be 4c 05 65 3f
       -0.024710262 0.025403865 -0.17543037 0.8946121
0000d0 f2 09 ce 3d b5 bd 16 3e 7e 1a 8e 3f c6 0c 0c be
       0.10060491 0.14720805 1.1101835 -0.13676748
0000e0 f4 8b 71 bc 0e cd 89 3f ff 15 56 3e 8d c5 82 3f
       -0.01474284 1.0765703 0.20906828 1.0216538
0000f0 04 bd 07 3c d7 ff 56 3e 9c 7a 80 3f ec 4b 27 3e
       0.008284811 0.20996033 1.0037417 0.16337556
000100 5d 1c 96 3f 21 fa 88 3f 46 10 96 3f 51 b7 98 3c
       1.1727406 1.0701333 1.1723716 0.0186421
000110 00 06 96 3f 90 2b 8e 3f 38 81 94 3f 17 06 61 3f
       1.1720581 1.1107044 1.1601934 0.8789992
000120 8a 42 9b 3f 4c cb 76 3f 67 16 93 3f 1b 26 cb bc
       1.2129681 0.96403956 1.1491212 -0.024798444
000130 7f e3 83 3f de 23 13 bd fa 93 9a 3f bb 55 92 bd
       1.0303801 -0.035922877 1.2076409 -0.07145258
000140 c1 69 e6 bb be 94 04 3e 93 59 20 be bc 49 5b 3f
       -0.00703165 0.12947366 -0.1565917 0.85659385
000150 34 78 d3 bd 44 b1 30 3c 60 be 7f 3f b6 ae ae 3d
       -0.10325661 0.010784451 0.99899864 0.08529417
000160 d3 1f 7e be 0e 64 81 3f 37 75 be 3e e3 28 87 3f
       -0.24816827 1.0108659 0.37198803 1.0559353
000170 82 ea 64 3c 36 b6 b8 3e 9a 19 91 3f 14 4e 65 bd
       0.013971927 0.36076516 1.1335938 -0.055982664
000180 d4 22 79 3f 1e 32 8e 3f 8d 43 69 3f 7f 4a 1c 3e
       0.9731877 1.1109045 0.911187 0.15262793
000190 2b 50 90 3f 7c 64 75 3f 57 37 91 3f 35 a5 97 3f
       1.1274465 0.9585645 1.1345013 1.1847292
0001a0 8e 3f 93 3f 32 09 86 3f aa 94 8d 3f e2 b2 ed bd
       1.150377 1.0471556 1.1060994 -0.11606385
0001b0 4a 1b 83 3f 5a 7c 15 3d 09 c1 93 3f f5 3f 47 be
       1.0242703 0.036495544 1.1543285 -0.19457991
0001c0 d0 93 92 bd 9a 76 bc ba bd 6f f5 3b 25 9f 86 3f
       -0.07157099 -0.0014378608 0.007490127 1.0517317
0001d0 e4 07 ac 3d 76 ea c8 3d dd 46 81 3f ec 4f 9d 3d
       0.083999425 0.09810345 1.0099751 0.076812595
0001e0 f4 33 87 bd ab 09 95 3f 3f e1 a4 3e ca d1 9c 3f
       -0.06601706 1.1643575 0.322031 1.2251523
0001f0 80 ad 4e be 3b 0c 05 3e a0 9d 7d 3f 4d 78 75 bd
       -0.20183372 0.12992947 0.9906864 -0.05992918
000200 74 08 7c 3f e7 69 78 3f 90 27 88 3f 4c c0 44 3b
       0.984504 0.97036594 1.0637074 0.0030021844
000210 61 60 89 3f d7 f9 a5 3f 27 77 80 3f d8 84 7a 3f
       1.0732538 1.296687 1.0036362 0.97858953
000220 47 36 80 3f 32 2d 94 3f f1 36 9f 3f a4 c2 3f 3c
       1.0016564 1.1576293 1.2438642 0.011704121
000230 72 e1 9b 3f 83 de 22 be cf 4f 83 3f b0 1f 0a be
       1.2178175 -0.15905194 1.0258731 -0.1348865
000240 88 97 5f 3d 9a 0e d3 bc c0 0e f6 3d 28 7f 6d 3f
       0.05458787 -0.025763799 0.12014532 0.9277215
000250 59 80 04 be 95 e1 2b 3e 18 cf 68 3f e1 e7 5c bd
       -0.12939586 0.16785271 0.90941 -0.053932074
000260 15 26 59 be 09 07 88 3f 41 78 42 3e 49 0b 9f 3f
       -0.21205933 1.0627147 0.18991186 1.2425319
000270 f8 98 6b be 9b 13 5b 3e 0e 99 9a 3f 50 1b f6 3c
       -0.23007572 0.21394198 1.2077959 0.03004232
000280 1a 2b 7c 3f 1f 96 7d 3f f4 3a 8b 3f 7e c3 e9 3b
       0.9850327 0.9905719 1.0877366 0.0071339
000290 fb 1e a1 3f 0a 86 7b 3f d9 be 82 3f ac 51 99 3f
       1.258758 0.982514 1.0214492 1.1978049
0002a0 aa e5 78 3f 9a dc 95 3f 8b 98 94 3f a7 ed da 3d
       0.9722544 1.1707947 1.1609052 0.1068986
0002b0 8a 82 96 3f 4e d3 27 3e 80 c2 85 3f 07 1d 3b 3d
       1.1758587 0.163892 1.0449982 0.04568198
0002c0 d4 92 72 be 60 52 07 3d 94 37 86 3d 44 7d 84 3f
       -0.23688823 0.033037543 0.065535694 1.0350728
0002d0 b2 2e 18 3e 1b 25 49 3d a4 7e 88 3f 96 a5 0a 3e
       0.14861563 0.049107652 1.0663648 0.13539729
0002e0 e3 76 31 be b1 55 88 3f 91 ff 33 3e cf bd 7f 3f
       -0.17330508 1.0651151 0.1757796 0.99899
0002f0 b8 0e 14 be a2 64 8b 3e e5 02 8e 3f d4 00 04 be
       -0.1445874 0.27225214 1.1094633 -0.12890941
000300 20 1a a0 3f f6 b7 99 3f 19 5a 78 3f 39 fa e4 bc
       1.2507973 1.2009265 0.9701248 -0.027951347
000310 99 2e 83 3f 34 d1 a0 3f 35 1b 6c 3f 96 8e 9c 3f
       1.0248595 1.2563844 0.92229015 1.2231014
000320 09 92 a2 3f 04 b8 84 3f 62 1b 7b 3f 8f 72 96 3d
       1.2700816 1.0368657 0.9808866 0.07346069
000330 11 7a 8c 3f c7 fa 01 3e 06 4d 91 3f 7d 9d f2 bd
       1.0974752 0.1269332 1.1351631 -0.11846445
000340 37 6b fb bd cb 2a ed bd 42 25 91 3d ec fe 9d 3f
       -0.12276309 -0.11580428 0.070871845 1.2343421
000350 df a2 e0 bb ea 6b ef bd 68 1c 72 3f 93 66 ec bc
       -0.0068553532 -0.11690505 0.94574594 -0.028857505
000360 82 dd 5a be 3e bc 6c 3f e5 c6 ad 3e 3d 50 72 3f
       -0.21373561 0.92474735 0.33940807 0.94653684
000370 2a 30 1c be 2d c6 75 3e 0a 59 7a 3f 4f 68 1e be
       -0.15252748 0.2400138 0.9779211 -0.15469478
000380 b0 94 9b 3f 40 4e 99 3f ca 8b 74 3f ff 6a 43 bc
       1.2154751 1.1977005 0.955258 -0.011927365
000390 1e 89 8c 3f dc 68 88 3f d7 5b 8f 3f 58 78 9e 3f
       1.0979345 1.0657 1.1199902 1.2380476
0003a0 25 09 91 3f b6 a5 71 3f 34 79 74 3f 81 57 06 bd
       1.1330916 0.9439348 0.9549744 -0.032798294
0003b0 e6 03 86 3f e1 2d 18 be 93 9d 8a 3f bb 41 94 bd
       1.046994 -0.14861251 1.0829338 -0.072390996
0003c0 45 71 50 3d 97 b0 27 be 22 d2 1e bd 3c 50 97 3f
       0.050889272 -0.16375957 -0.038774617 1.182136
0003d0 89 04 f3 bd 27 ed d1 3d ec af 84 3f 2a 86 4f 3d
       -0.118660994 0.10250311 1.0366187 0.05066506
0003e0 6f d0 ac bd 93 24 a0 3f 5a 7b c8 3e 09 7a 74 3f
       -0.08438193 1.2511162 0.3915661 0.9549871
0003f0 eb 76 b2 bd 96 38 52 3e 33 37 5e 3f ec 2c 28 3e
       -0.08714088 0.20529398 0.8680298 0.16423386

decoder.linear2.bias f4 [10]
000000 ec 7a 42 3f 03 73 2d 3f 47 a9 28 3f b7 ee 41 3f
       0.75968814 0.6775362 0.65883297 0.75754875
000010 1b 16 44 3f df 2e 37 3f 74 be 54 3f 28 32 21 3f
       0.7659623 0.71555895 0.8310311 0.6296716
000020 37 1d 4d 3f 95 e2 1b 3f
       0.80122703 0.6089261

exp_avg f4 [1, 1, 2, 50]
000000 6b 65 a7 43 e6 bb a4 43 89 a7 a5 43 ef 29 bf 43
       334.79233 329.46796 331.30887 382.3276
000010 5b e1 c1 43 6f d2 af 43 01 1a 92 43 b7 50 5c 43
       387.7606 351.644 292.20316 220.31529
000020 82 c4 29 43 b9 5f 5f 43 68 5f 83 43 d9 96 93 43
       169.76761 223.37392 262.74536 295.1785
000030 17 cb bb 43 94 5e e8 43 4a 9f 00 44 f3 01 0f 44
       375.58664 464.7389 514.4889 572.03046
000040 e7 1f 12 44 17 56 08 44 ed 97 f2 43 6d 06 c0 43
       584.4985 545.34515 485.18692 384.0502
000050 4b 9e 7c 43 e9 5f f7 42 b5 46 86 42 89 7e 1c c1
       252.61833 123.687325 67.1381 -9.780892
000060 20 4f 6b c2 69 38 81 c2 a4 e9 94 c2 a5 b0 e3 c2
       -58.82727 -64.610176 -74.45633 -113.84501
000070 36 73 07 c3 52 ca 29 c3 f8 fb 46 c3 14 2e 5d c3
       -135.45004 -169.79031 -198.98425 -221.18
000080 4c 48 88 c3 d1 f5 a8 c3 f3 c2 bc c3 6d 39 cb c3
       -272.56482 -337.92044 -377.52304 -406.44864
000090 8b cd f1 c3 4c d1 13 c4 c8 80 29 c4 b4 49 44 c4
       -483.6058 -591.27026 -678.0122 -785.1516
0000a0 a4 af 4e c4 ba df 53 c4 eb d0 4e c4 31 5b 55 c4
       -826.7444 -847.4957 -827.26434 -853.42487
0000b0 23 99 50 c4 16 79 53 c4 08 ba 55 c4 50 51 4e c4
       -834.39276 -845.89197 -854.90674 -825.2705
0000c0 5f ef 51 c4 4e 2c 3d c4 35 1e e6 43 9f 70 ea 43
       -839.7402 -756.69226 460.236 468.87985
0000d0 00 0c ee 43 2d 70 fb 43 ee f0 02 44 0a d3 f6 43
       476.09375 502.87637 523.7645 493.64874
0000e0 f9 40 d3 43 40 e2 b5 43 51 31 a3 43 71 7a ad 43
       422.5076 363.76758 326.38528 346.95657
0000f0 53 24 bd 43 f0 21 cf 43 da 39 f7 43 31 97 0d 44
       378.28378 414.26514 494.45197 566.36237
000100 0d 71 1c 44 d2 b0 26 44 28 e9 2b 44 2b e6 24 44
       625.7664 666.7628 687.64307 659.5964
000110 af 16 18 44 79 6f f5 43 e7 28 c1 43 a4 43 6e 43
       608.35443 490.87088 386.31955 238.26422
000120 7c 9f 24 43 b3 99 de 42 bd 6c 95 42 d8 54 48 42
       164.62299 111.30019 74.71238 50.082855
000130 87 bf 2e 42 0d 01 04 c0 0e 6f 03 c2 86 a9 54 c2
       43.68704 -2.0625641 -32.85845 -53.16555
000140 4d 9c ab c2 61 c2 ed c2 42 f1 1f c3 3f ec 60 c3
       -85.805275 -118.87965 -159.94241 -224.92284
000150 bc 2e 8e c3 e6 da 95 c3 d2 f4 bc c3 15 8e ec c3
       -284.3651 -299.71014 -377.91266 -473.11002
000160 2d 95 0c c4 7b c5 25 c4 fe 7f 36 c4 76 67 3f c4
       -562.3309 -663.08563 -729.9999 -765.6166
000170 39 24 3b c4 04 b3 3b c4 ef 92 3b c4 64 11 3f c4
       -748.566 -750.7971 -750.29584 -764.2717
000180 5c 03 44 c4 23 eb 39 c4 67 d6 35 c4 43 39 1b c4
       -784.0525 -743.674 -727.35004 -620.8947

exp_avg_sq f4 [1, 1, 2, 50]
000000 db 3c ab 49 a7 9c 9e 49 e8 df 96 49 bc a0 9c 49
       1.4027794e+06 1.2993489e+06 1.235965e+06 1.2830955e+06
000010 1f 5b a8 49 d3 ac b5 49 50 2a c7 49 69 3f df 49
       1.3791719e+06 1.4882824e+06 1.631562e+06 1.8288451e+06
000020 c9 61 e6 49 ff ce dd 49 ea ad cb 49 cd a8 b7 49
       1.8872891e+06 1.8170559e+06 1.6685412e+06 1.5045376e+06
000030 4a 6d ac 49 f9 25 ac 49 b7 62 b7 49 b6 bc b6 49
       1.4125212e+06 1.4102391e+06 1.5022949e+06 1.4969828e+06
000040 82 73 bd 49 7d 31 b7 49 5e a4 a7 49 de f1 85 49
       1.5519842e+06 1.5007196e+06 1.3733238e+06 1.0972758e+06
000050 cf 85 51 49 94 56 2c 49 10 bf 30 49 5c fb 43 49
       858204.94 705897.25 723953.0 802741.75
000060 08 51 47 49 ea ed 48 49 94 4b 37 49 2b 37 2a 49
       816400.5 823006.6 750777.25 697202.7
000070 1c ec 24 49 90 ab 22 49 d7 32 27 49 1c c1 39 49
       675521.75 666297.0 684845.44 760849.75
000080 ce 79 5b 49 ef 3c 82 49 ef fc 90 49 9f 12 97 49
       898972.9 1.0669099e+06 1.1877419e+06 1.2375879e+06
000090 12 89 99 49 61 04 a4 49 b9 07 b7 49 2c 84 d0 49
       1.2577622e+06 1.3436281e+06 1.4993831e+06 1.7081655e+06
0000a0 48 5f e2 49 62 88 db 49 df 09 d5 49 ac d6 d0 49
       1.854441e+06 1.7984122e+06 1.7452119e+06 1.7108055e+06
0000b0 8a 37 d3 49 a2 bb d8 49 94 0c df 49 56 1f d7 49
       1.7302892e+06 1.7754762e+06 1.8272185e+06 1.7622828e+06
0000c0 53 a0 c5 49 4b 82 ac 49 be b9 b4 49 56 fc a5 49
       1.6189544e+06 1.4131934e+06 1.4805038e+06 1.3597548e+06
0000d0 ee 95 9e 49 40 83 a2 49 57 a8 aa 49 67 1e af 49
       1.2991338e+06 1.331304e+06 1.3980269e+06 1.4345729e+06
0000e0 fa ad ba 49 8b 96 cc 49 7a 20 d7 49 3b 24 d6 49
       1.5292792e+06 1.6759854e+06 1.7623192e+06 1.7542474e+06
0000f0 b1 51 c7 49 1a cc b8 49 45 0d b5 49 f9 18 c7 49
       1.6328221e+06 1.5138592e+06 1.4831766e+06 1.6310071e+06
000100 e3 da d8 49 5d eb db 49 a8 15 e3 49 cf 57 dd 49
       1.7764764e+06 1.8015796e+06 1.860277e+06 1.8132419e+06
000110 fc ae cb 49 8c 2b a1 49 f6 c4 71 49 d0 e0 3d 49
       1.6685755e+06 1.3203055e+06 990287.4 777741.0
000120 65 5d 38 49 3c a0 36 49 5c 5e 32 49 4d 6d 34 49
       755158.3 748035.75 730597.75 739028.8
000130 9e 6b 28 49 0d 03 20 49 84 ae 1f 49 39 02 22 49
       689849.9 655408.8 654056.25 663587.56
000140 b8 60 2f 49 41 15 4d 49 7f fe 73 49 c3 97 88 49
       718347.5 840020.06 999399.94 1.1189684e+06
000150 fe c5 94 49 c8 ed 92 49 74 ea 8d 49 a9 93 93 49
       1.2187518e+06 1.203641e+06 1.1625745e+06 1.2089491e+06
000160 bb 43 a2 49 e8 89 b5 49 d7 04 c2 49 b2 5f bb 49
       1.3292714e+06 1.487165e+06 1.5894029e+06 1.5349662e+06
000170 a0 28 b2 49 13 a9 ad 49 ce c2 b0 49 7e eb b8 49
       1.459476e+06 1.4226264e+06 1.4480258e+06 1.5148638e+06
000180 4b 1b c1 49 54 60 b4 49 08 26 a3 49 15 1a 8f 49
       1.5819294e+06 1.4776425e+06 1.336513e+06 1.1722906e+06

exp_avg f4 [1, 1, 2, 50]
000000 9e f6 f6 42 b9 30 02 43 d3 52 12 43 91 cd 27 43
       123.481674 130.19032 146.32353 167.803
000010 ea 41 3a 43 d6 18 4c 43 13 84 59 43 96 7f 5f 43
       186.25748 204.09702 217.51591 223.49838
000020 52 f4 62 43 bb 18 63 43 ca e3 5b 43 a6 e8 4f 43
       226.95438 227.0966 219.8898 207.90878
000030 c0 35 3f 43 12 c5 31 43 8f 0f 32 43 6c 4e 3c 43
       191.20996 177.7698 178.06078 188.30634
000040 2b 29 49 43 20 d4 52 43 3b 60 56 43 f1 0f 53 43
       201.16081 210.82861 214.3759 211.06227
000050 5f 55 4b 43 0f 9e 49 43 66 b0 4a 43 01 4a 44 43
       203.33348 201.61742 202.68906 196.28908
000060 04 96 36 43 1f 57 22 43 ec f7 0c 43 b7 e7 ff 42
       182.586 162.34032 140.96844 127.95257
000070 10 19 f7 42 84 6e ec 42 fe 05 ec 42 cd 3d f8 42
       123.54895 118.21585 118.0117 124.120705
000080 4c e3 04 43 97 c6 15 43 0a 12 28 43 56 1c 39 43
       132.88788 149.77574 168.07047 185.11069
000090 28 31 4e 43 e1 5d 60 43 4f f2 64 43 14 54 5c 43
       206.19202 224.36671 228.94652 220.32843
0000a0 4c 63 54 43 ce e9 4b 43 dc 5a 48 43 97 03 4a 43
       212.38788 203.9133 200.35492 202.01402
0000b0 cf 80 45 43 09 4d 3a 43 ad 06 29 43 6e 58 1d 43
       197.50316 186.30092 169.02608 157.34543
0000c0 81 65 25 43 8c 49 2d 43 f8 65 53 c3 89 e5 58 c3
       165.3965 173.2873 -211.39832 -216.89662
0000d0 13 fc 5a c3 fd 69 4e c3 95 cc 35 c3 78 ec 13 c3
       -218.98466 -206.41402 -181.79915 -147.9237
0000e0 dd 6c d7 c2 c4 c1 90 c2 6c be 4b c2 2c c7 2d c2
       -107.71262 -72.37845 -50.93596 -43.444504
0000f0 23 f0 36 c2 5b 7c 49 c2 86 38 50 c2 9a 6b 5b c2
       -45.73451 -50.37144 -52.0552 -54.85508
000100 62 1c 6c c2 83 58 77 c2 2a 79 79 c2 6d bf 69 c2
       -59.027718 -61.836437 -62.368324 -58.43694
000110 8f 0b 3e c2 04 6b 05 c2 fb 40 9c c1 a4 75 22 c1
       -47.511288 -33.354507 -19.531729 -10.153721
000120 7e 9f 93 c0 5d ef d8 40 22 f7 d8 41 42 4a 41 42
       -4.6132193 6.779219 27.12067 48.322517
000130 0b 74 68 42 a5 2b 31 42 c2 8b c2 40 08 74 37 c2
       58.113323 44.29262 6.0795603 -45.86331
000140 c8 63 ca c2 d2 5d 1c c3 31 2c 48 c3 7c 9a 6c c3
       -101.194885 -156.36649 -200.17262 -236.60345
000150 e1 1b 85 c3 ed cc 91 c3 bc b1 9f c3 7c 32 aa c3
       -266.2178 -291.60098 -319.38855 -340.3944
000160 3b 32 ad c3 6c 98 ab c3 4b c7 a6 c3 6f 13 9c c3
       -346.39243 -343.1908 -333.55698 -312.15182
000170 e4 bd 8f c3 ab bb 85 c3 58 8f 77 c3 2f a8 62 c3
       -287.48352 -267.46616 -247.55994 -226.65697
000180 61 f1 50 c3 93 13 50 c3 8f 3c 65 c3 ff ab 7e c3
       -208.94289 -208.07646 -229.23656 -254.67186

exp_avg_sq f4 [1, 1, 2, 50]
000000 4d cf 95 47 f2 10 96 47 63 b9 9b 47 9e 5b aa 47
       76702.6 76833.89 79730.77 87223.234
000010 05 69 be 47 03 19 d2 47 bb c5 dd 47 52 0d e2 47
       97490.04 107570.02 113547.46 115738.64
000020 27 08 e4 47 20 60 e1 47 e6 9c d6 47 51 1a c8 47
       116752.305 115392.25 109881.8 102452.63
000030 43 80 b9 47 30 10 b5 47 8b a6 b9 47 e6 8a bf 47
       94976.52 92704.375 95053.086 98069.8
000040 59 0a c8 47 b6 eb cd 47 54 5a ce 47 fe d7 cf 47
       102420.695 105431.42 105652.66 106415.984
000050 e1 b7 d6 47 ed 0d e4 47 82 ce ef 47 cc 15 f3 47
       109935.76 116763.85 122781.016 124459.59
000060 03 62 ec 47 b1 94 e5 47 b5 0b e8 47 bd f5 ee 47
       121028.02 117545.38 118807.414 122347.48
000070 73 dc ef 47 27 9e ea 47 08 04 de 47 71 26 cf 47
       122808.9 120124.305 113672.06 106060.88
000080 cd 6c c2 47 68 96 b9 47 2e e9 b6 47 f6 9b be 47
       99545.6 95020.81 93650.36 97591.92
000090 27 e9 d5 47 9e 06 ec 47 3a a0 f1 47 a6 22 e3 47
       109522.305 120845.234 123712.45 116293.3
0000a0 27 63 d6 47 f8 93 d2 47 eb 80 d7 47 43 31 db 47
       109766.305 107815.94 110337.836 112226.52
0000b0 32 14 d2 47 ab 13 c2 47 ab 0d b4 47 b0 65 b4 47
       107560.39 99367.336 92187.336 92363.375
0000c0 45 27 b8 47 9e d6 b5 47 bc f2 5b 48 53 e9 3a 48
       94286.54 93101.234 225226.94 191397.3
0000d0 1e f8 12 48 e1 26 d8 47 8f c4 98 47 ee 92 4e 47
       150496.47 110669.76 78217.12 52882.93
0000e0 ae 9f 01 47 91 3e a0 46 fc 19 67 46 f4 54 60 46
       33183.68 20511.283 14790.496 14357.238
0000f0 01 1d 8e 46 18 08 ce 46 74 d6 1a 47 e1 05 64 47
       18190.502 26372.047 39638.453 58373.88
000100 5b 1d 9c 47 66 e8 c0 47 88 59 d4 47 47 b5 d0 47
       79930.71 98768.8 108723.06 106858.555
000110 77 44 b4 47 fa 07 88 47 37 0b 2f 47 a6 15 ba 46
       92296.93 69647.95 44811.215 23818.824
000120 35 9a 2f 46 ed ce cb 45 50 ef d6 45 aa 73 1d 46
       11238.552 6521.8657 6877.914 10076.916
000130 73 00 5c 46 fb 37 69 46 cf 1b 53 46 e9 fe 8d 46
       14080.112 14925.995 13510.952 18175.455
000140 0b cd 0a 47 91 83 80 47 11 2f cb 47 00 04 10 48
       35533.043 65799.13 104030.13 147472.0
000150 25 57 39 48 57 7f 5b 48 56 52 77 48 6c f2 83 48
       189788.58 224765.36 253257.34 270227.38
000160 7f 08 83 48 25 2c 77 48 24 59 60 48 fb d9 43 48
       268355.97 253104.58 229732.56 200551.92
000170 4c 78 2a 48 7d 37 1a 48 18 b1 11 48 db cd 0e 48
       174561.19 157917.95 149188.38 146231.42
000180 ae 2a 12 48 f8 3a 19 48 11 c8 21 48 d0 ca 2a 48
       149674.72 156907.88 165664.27 174891.25

exp_avg f4 [32, 4]
000000 34 76 93 42 4e 80 11 41 0f 6f 93 42 c3 46 0f 41
       73.730865 9.093824 73.71691 8.954776
000010 2c 53 94 42 d8 62 12 41 63 4c 94 42 48 19 10 41
       74.162445 9.149132 74.14919 9.006172
000020 6a d2 91 42 92 3b 10 41 71 ca 91 42 02 da 0d 41
       72.910965 9.014544 72.89539 8.865725
000030 04 00 00 80 04 00 00 80 04 00 00 80 04 00 00 80
       -6e-45 -6e-45 -6e-45 -6e-45
000040 1f 48 9d 42 26 66 1b 41 8e 40 9d 42 54 e1 18 41
       78.64086 9.712439 78.62608 9.555012
000050 b9 1f 95 42 73 33 13 41 c2 18 95 42 5b e2 10 41
       74.56196 9.200061 74.548355 9.055263
000060 25 04 91 42 e4 52 0f 41 18 fd 90 42 5c f6 0c 41
       72.508095 8.957737 72.49432 8.810146
000070 bc 3f 94 42 91 79 12 41 86 39 94 42 07 34 10 41
       74.12448 9.154679 74.11235 9.012702
000080 75 29 9a 42 4d 22 18 41 3a 22 9a 42 13 ba 15 41
       77.08097 9.508374 77.06685 9.357928
000090 fe 79 91 42 df f4 0f 41 e7 72 91 42 f7 92 0d 41
       72.738266 8.997283 72.72442 8.84838
0000a0 46 0e 94 42 29 42 12 41 a8 07 94 42 e6 d9 0f 41
       74.02788 9.141152 74.01495 8.990698
0000b0 04 00 00 80 04 00 00 80 04 00 00 80 04 00 00 80
       -6e-45 -6e-45 -6e-45 -6e-45
0000c0 af cb 94 42 0b e1 12 41 e3 c4 94 42 32 8b 10 41
       74.39782 9.179942 74.384544 9.033983
0000d0 04 00 00 80 04 00 00 00 04 00 00 80 04 00 00 00
       -6e-45 6e-45 -6e-45 6e-45
0000e0 3e 3c 94 42 54 5e 12 41 a7 35 94 42 0a 07 10 41
       74.11766 9.148029 74.10479 9.0017185
0000f0 b6 b1 4c c0 e6 dc 5e bf 18 5a 4d c0 b3 fb 5a bf
       -3.1983466 -0.87055814 -3.208624 -0.8554031
000100 52 cb 0a c0 92 7f 21 bf 9d 34 0b c0 9b 6a 24 bf
       -2.1686597 -0.6308528 -2.1750863 -0.6422517
000110 00 00 00 00 00 00 00 00 00 00 00 00 00 00 00 00
       0.0 0.0 0.0 0.0
000120 00 00 00 00 00 00 00 00 00 00 00 00 00 00 00 00
       0.0 0.0 0.0 0.0
000130 d3 05 90 42 36 7d 0d 41 46 00 90 42 27 73 0b 41
       72.011375 8.843069 72.000534 8.715613
000140 00 00 00 00 00 00 00 00 00 00 00 00 00 00 00 00
       0.0 0.0 0.0 0.0
000150 00 00 00 00 00 00 00 00 00 00 00 00 00 00 00 00
       0.0 0.0 0.0 0.0
000160 67 5d 8b 42 50 f0 09 41 59 56 8b 42 47 ac 07 41
       69.68243 8.62117 69.66865 8.47956
000170 00 00 00 00 00 00 00 00 04 00 00 80 00 00 00 00
       0.0 0.0 -6e-45 0.0
000180 b9 b7 5b c0 57 b9 6b bf d5 16 5b c0 bb e6 67 bf
       -3.4330885 -0.9207968 -3.4232686 -0.9058644
000190 74 5b 91 42 fd 43 0f 41 25 55 91 42 ca 01 0d 41
       72.67862 8.954099 72.6663 8.812937
0001a0 7d c1 8c 40 6a 0e e2 3f 40 80 8c 40 62 69 dd 3f
       4.398619 1.7660649 4.3906555 1.7297785
0001b0 1e 15 94 42 b4 8e 12 41 55 0e 94 42 c2 09 10 41
       74.041245 9.15984 74.02799 9.002382
0001c0 1c 1d ee bc 9d 38 f1 bb 24 65 f1 bc ee 8c 89 bc
       -0.029066615 -0.007361485 -0.029467173 -0.016790833
0001d0 d9 29 8e 40 0b 9d e2 3f 1b ff 8d 40 f4 ed e3 3f
       4.4426084 1.7704176 4.437391 1.7806993
0001e0 a3 f7 8d 42 a1 fc 0c 41 04 f0 8d 42 3e 89 0a 41
       70.983665 8.811677 70.96878 8.658506
0001f0 04 00 00 00 04 00 00 00 04 00 00 00 04 00 00 00
       6e-45 6e-45 6e-45 6e-45

exp_avg_sq f4 [32, 4]
000000 de 05 46 46 99 25 56 43 e1 03 46 46 80 91 45 43
       12673.467 214.14687 12672.97 197.56836
000010 3d 27 48 46 72 6a 58 43 bc 25 48 46 5f a9 47 43
       12809.81 216.4158 12809.434 199.6616
000020 d3 22 41 46 87 d6 50 43 ab 20 41 46 d0 a8 40 43
       12360.706 208.838 12360.167 192.65942
000030 74 db a8 31 d9 45 2a 2d c4 74 e6 2f 85 75 b3 2d
       4.9143924e-09 9.6788905e-12 4.1919723e-10 2.0402133e-11
000040 a5 23 61 46 6e 71 73 43 6e 21 61 46 62 93 60 43
       14408.911 243.44308 14408.357 224.57571
000050 72 ad 4a 46 ce 37 5b 43 41 ab 4a 46 b6 35 4a 43
       12971.361 219.21799 12970.813 202.20981
000060 f4 0d 3f 46 08 9c 4e 43 39 0c 3f 46 a1 91 3e 43
       12227.488 206.6095 12227.056 190.56886
000070 41 f4 47 46 9f 36 58 43 0b f3 47 46 fa 88 47 43
       12797.063 216.21336 12796.761 199.53506
000080 51 38 58 46 bb cc 69 43 74 36 58 46 f2 a8 57 43
       13838.079 233.79973 13837.613 215.65994
000090 a8 60 40 46 5f 0a 50 43 07 5f 40 46 1d f0 3f 43
       12312.164 208.04051 12311.757 191.93794
0000a0 14 82 47 46 68 e5 57 43 07 80 47 46 26 15 47 43
       12768.52 215.89612 12768.007 199.08261
0000b0 cd f7 13 2a bd a9 da 2e e0 6c c9 2b b9 b6 58 30
       1.3142196e-13 9.943644e-11 1.4312128e-12 7.8840007e-10
0000c0 db bd 49 46 39 3c 5a 43 f6 bb 49 46 e6 47 49 43
       12911.464 218.23524 12910.99 201.28085
0000d0 63 8a 18 33 ed e0 30 31 4b d4 fb 31 76 44 3f 32
       3.551612e-08 2.5739226e-09 7.3291964e-09 1.11332294e-08
0000e0 e2 f5 47 46 c8 4c 58 43 f8 f3 47 46 f8 7e 47 43
       12797.471 216.29993 12796.992 199.49597
0000f0 6a 53 d6 41 79 68 19 40 17 70 d7 41 b6 2c 0d 40
       26.79073 2.3970015 26.929731 2.205854
000100 c9 09 72 41 0a 80 ca 3f 81 1c 73 41 ff 87 c2 3f
       15.127389 1.5820324 15.194459 1.5197753
000110 00 00 00 00 00 00 00 00 00 00 00 00 00 00 00 00
       0.0 0.0 0.0 0.0
000120 00 00 00 00 00 00 00 00 00 00 00 00 00 00 00 00
       0.0 0.0 0.0 0.0
000130 aa 62 3d 46 04 06 4d 43 f1 60 3d 46 bc 1d 3d 43
       12120.666 205.0235 12120.235 189.11615
000140 00 00 00 00 00 00 00 00 00 00 00 00 00 00 00 00
       0.0 0.0 0.0 0.0
000150 00 00 00 00 00 00 00 00 00 00 00 00 00 00 00 00
       0.0 0.0 0.0 0.0
000160 70 30 30 46 1d 76 3e 43 f9 2e 30 46 0e c4 2f 43
       11276.109 190.46138 11275.743 175.76584
000170 00 00 00 00 00 00 00 00 63 da 5a 2f 00 00 00 00
       0.0 0.0 1.9904571e-10 0.0
000180 1a 68 f3 41 1a 0b 21 40 c4 78 f1 41 ea 6a 14 40
       30.42583 2.5163026 30.183968 2.3190255
000190 08 6a 40 46 ee 35 50 43 5c 68 40 46 7c 02 40 43
       12314.508 208.21066 12314.09 192.0097
0001a0 8d ce 14 42 4b e3 f9 40 d5 4f 14 42 f3 9b e5 40
       37.20171 7.8089957 37.07796 7.175287
0001b0 26 2a 47 46 eb 54 57 43 c0 28 47 46 9e 9f 46 43
       12746.537 215.33171 12746.1875 198.6235
0001c0 2e 27 93 3d fc 1d 21 3c 2e e9 94 3d e9 29 d9 3c
       0.07185207 0.009833809 0.07271038 0.026509242
0001d0 1a 8e 11 42 ee ba ff 40 5f 5a 11 42 bd 16 f7 40
       36.38877 7.9915686 36.338253 7.7215257
0001e0 8b a6 36 46 7b 73 45 43 dd a4 36 46 03 32 36 43
       11689.636 197.4511 11689.216 182.19536
0001f0 8c 94 1f 2e a5 28 ac 30 3f cf 24 2f 1d b5 34 31
       3.628435e-11 1.2526199e-09 1.4989342e-10 2.6296398e-09

exp_avg f4 [32]
000000 fa 0c bf 41 ff 2c c0 41 59 f0 bc 41 04 00 00 80
       23.881336 24.02197 23.617357 -6e-45
000010 3f c8 cb 41 bb 33 c1 41 6f e4 bb 41 96 13 c0 41
       25.472776 24.150259 23.48654 24.009563
000020 f9 bc c7 41 4d 7d bc 41 ca d1 bf 41 04 00 00 80
       24.967272 23.561182 23.977436 -6e-45
000030 e4 c6 c0 41 04 00 00 80 1c 0e c0 41 f7 b7 83 bf
       24.097115 -6e-45 24.00689 -1.0290517
000040 66 03 32 bf 00 00 00 00 00 00 00 00 e0 94 ba 41
       -0.69536436 0.0 0.0 23.322693
000050 00 00 00 00 00 00 00 00 55 94 b4 41 04 00 00 80
       0.0 0.0 22.572428 -6e-45
000060 bf 8a 8c bf fe 51 bc 41 4e 50 b4 3f 93 df bf 41
       -1.0979842 23.540035 1.4087007 23.984167
000070 5c c6 22 bc 4b 8e b6 3f fa f3 b7 41 04 00 00 00
       -0.009934988 1.4262174 22.99413 6e-45

exp_avg_sq f4 [32]
000000 b3 6b 9e 44 39 1f a0 44 db 80 9a 44 5d 19 17 34
       1267.3656 1280.9757 1236.0267 1.4072198e-07
000010 0d 1b b4 44 57 24 a2 44 24 d7 98 44 3d f6 9f 44
       1440.8453 1297.1356 1222.7231 1279.695
000020 c9 f9 ac 44 3a e5 99 44 9f 9b 9f 44 bd e4 5f 30
       1383.8058 1231.1633 1276.8632 8.1451984e-10
000030 1c 65 a1 44 15 39 a3 34 f8 f7 9f 44 49 b5 28 40
       1291.1597 3.0402649e-07 1279.749 2.6360648
000040 01 7d bc 3f 00 00 00 00 00 00 00 00 3a 86 97 44
       1.4725648 0.0 0.0 1212.1946
000050 00 00 00 00 00 00 00 00 a6 f1 8c 44 9a 8f 0a 2f
       0.0 0.0 1127.5515 1.2602044e-10
000060 e7 ce 3b 40 0b f0 99 44 09 65 6e 40 23 52 9f 44
       2.9345033 1231.5013 3.7249167 1274.5668
000070 17 58 f3 3b 41 eb 69 40 9b 1b 92 44 22 26 f1 30
       0.0074262726 3.6549838 1168.8627 1.7545896e-09

exp_avg f4 [10, 32]
000000 5c a4 9e 41 d3 c0 a2 41 21 b3 af 41 04 00 00 80
       19.830254 20.344152 21.962465 -6e-45
000010 f9 52 9a 41 8f 25 94 41 28 3a b7 41 5d 56 af 41
       19.290514 18.51834 22.903397 21.91717
000020 96 d0 a8 41 41 48 a0 41 3f 28 b3 41 04 00 00 80
       21.101849 20.03528 22.394651 -6e-45
000030 bb be a2 41 04 00 00 80 99 b7 9f 41 ab e1 38 3f
       20.34313 -6e-45 19.964647 0.7221934
000040 3e d0 a2 3e 00 00 00 00 00 00 00 00 22 56 b4 41
       0.317995 0.0 0.0 22.542057
000050 00 00 00 00 00 00 00 00 67 74 b4 41 04 00 00 80
       0.0 0.0 22.556837 -6e-45
000060 12 0b 8e 3f dd 80 ba 41 a1 e3 cb 3e a0 68 9e 41
       1.1097128 23.312922 0.39822105 19.801086
000070 ac 80 12 3a 0b 39 b8 3e 3d 2c c3 41 04 00 00 80
       0.00055886316 0.3598102 24.3966 -6e-45
000080 ed 9f 9d 41 34 ba a1 41 d2 a5 ae 41 04 00 00 80
       19.703089 20.21592 21.830967 -6e-45
000090 cf 67 99 41 c9 45 93 41 70 20 b6 41 c0 48 ae 41
       19.175688 18.409075 22.765839 21.785522
0000a0 c6 b7 a7 41 7e 37 9f 41 3e f2 b1 41 04 00 00 80
       20.964733 19.902096 22.243282 -6e-45
0000b0 86 b1 a1 41 04 00 00 80 ce 9b 9e 41 90 c5 33 3f
       20.211681 -6e-45 19.826077 0.7022333
0000c0 69 4d 9e 3e 00 00 00 00 00 00 00 00 2a 47 b3 41
       0.30918434 0.0 0.0 22.409748
0000d0 00 00 00 00 00 00 00 00 e7 4f b3 41 04 00 00 80
       0.0 0.0 22.414015 -6e-45
0000e0 cd 2f 8a 3f 26 6a b9 41 fb f6 c4 3e 37 70 9d 41
       1.0795838 23.17683 0.3846968 19.679792
0000f0 01 47 12 3a ac e8 b1 3e f2 dd c1 41 04 00 00 80
       0.00055800384 0.34747827 24.233372 -6e-45
000100 30 d3 9c 41 82 e0 a0 41 0c a5 ad 41 04 00 00 80
       19.603119 20.109623 21.70559 -6e-45
000110 95 83 98 41 7d 66 92 41 fb 18 b5 41 fc 4c ad 41
       19.064249 18.300043 22.637197 21.66259
000120 84 e7 a6 41 6f 77 9e 41 cd 29 b1 41 04 00 00 80
       20.863045 19.808317 22.14541 -6e-45
000130 bf e0 a0 41 04 00 00 80 b9 f3 9d 41 2d 75 39 3f
       20.10974 -6e-45 19.744005 0.7244442
000140 8d 44 a3 3e 00 00 00 00 00 00 00 00 98 39 b2 41
       0.31888238 0.0 0.0 22.278122
000150 00 00 00 00 00 00 00 00 37 61 b2 41 04 00 00 80
       0.0 0.0 22.297468 -6e-45
000160 92 66 8e 3f 1f 53 b8 41 ad f5 d0 3e 74 91 9c 41
       1.1125052 23.040586 0.40812436 19.571022
000170 5b 47 0a 3a bb 73 bd 3e 2a fd c0 41 04 00 00 80
       0.0005274915 0.37002358 24.123615 -6e-45
000180 14 33 9a 41 ae 3a 9e 41 6b ee aa 41 04 00 00 80
       19.27494 19.778652 21.366415 -6e-45
000190 40 1f 96 41 c5 2d 90 41 c9 43 b2 41 3e 9e aa 41
       18.765259 18.022348 22.283098 21.327267
0001a0 04 1b a4 41 03 cc 9b 41 73 16 ae 41 04 00 00 80
       20.513191 19.474615 21.760962 -6e-45
0001b0 bd 2f 9e 41 04 00 00 80 c9 32 9b 41 f5 d8 2d 3f
       19.77331 -6e-45 19.399797 0.67909175
0001c0 56 9a 98 3e 00 00 00 00 00 00 00 00 78 7f af 41
       0.2980525 0.0 0.0 21.93724
0001d0 00 00 00 00 00 00 00 00 a0 7a af 41 04 00 00 80
       0.0 0.0 21.934875 -6e-45
0001e0 57 69 85 3f a8 84 b5 41 83 0a c0 3e d4 1c 9a 41
       1.0422772 22.689774 0.3750802 19.264076
0001f0 11 68 f0 39 7a d2 ac 3e ee ae bd 41 04 00 00 80
       0.00045853903 0.3375433 23.710415 -6e-45
000200 16 c4 97 41 11 b6 9b 41 bf 23 a8 41 04 00 00 80
       18.970745 19.4639 21.017454 -6e-45
000210 6c ad 93 41 34 c7 8d 41 a9 5b af 41 d8 d0 a7 41
       18.459679 17.722267 21.919756 20.976974
000220 53 85 a1 41 09 54 99 41 fe 65 ab 41 04 00 00 80
       20.1901 19.166033 21.4248 -6e-45
000230 73 ae 9b 41 04 00 00 80 ee c9 98 41 1f e8 2e 3f
       19.46018 -6e-45 19.098598 0.6832294
000240 58 09 9a 3e 00 00 00 00 00 00 00 00 22 9b ac 41
       0.30085254 0.0 0.0 21.575748
000250 00 00 00 00 00 00 00 00 36 a8 ac 41 04 00 00 80
       0.0 0.0 21.582134 -6e-45
000260 9c 6a 86 3f 86 86 b2 41 08 2f c4 3e 5f 96 97 41
       1.0501285 22.315685 0.38317132 18.948423
000270 4e fa f2 39 b6 5b b1 3e 2c b9 ba 41 04 00 00 80
       0.00046344328 0.34640282 23.340416 -6e-45
000280 8c e2 95 41 51 d9 99 41 72 20 a6 41 04 00 00 80
       18.735619 19.231112 20.765842 -6e-45
000290 5c e1 91 41 87 09 8c 41 17 33 ad 41 1f bc a5 41
       18.235039 17.504652 21.649946 20.716856
0002a0 96 89 9f 41 24 71 97 41 9b 49 a9 41 04 00 00 80
       19.94218 18.930244 21.16094 -6e-45
0002b0 f1 cc 99 41 04 00 00 80 6f e0 96 41 8f 28 2c 3f
       19.225069 -6e-45 18.859587 0.6724939
0002c0 a0 51 99 3e 00 00 00 00 00 00 00 00 06 7d aa 41
       0.29945087 0.0 0.0 21.311047
0002d0 00 00 00 00 00 00 00 00 92 8a aa 41 04 00 00 80
       0.0 0.0 21.317661 -6e-45
0002e0 ed 57 84 3f 6f 54 b0 41 2c 9b c3 3e 17 b9 95 41
       1.0339333 22.041227 0.38204324 18.715376
0002f0 87 be ef 39 74 2f b1 3e eb 5e b8 41 04 00 00 80
       0.00045727586 0.34606516 23.046347 -6e-45
000300 d7 21 94 41 c1 1b 98 41 53 54 a4 41 04 00 00 80
       18.516523 19.013552 20.541174 -6e-45
000310 d3 4c 90 41 a9 85 8a 41 ab 49 ab 41 35 e5 a3 41
       18.037512 17.315264 21.41097 20.486917
000320 08 a6 9d 41 21 9d 95 41 68 34 a7 41 04 00 00 80
       19.70607 18.701723 20.900589 -6e-45
000330 7c 03 98 41 04 00 00 80 7d f5 94 41 24 89 23 3f
       19.001701 -6e-45 18.619867 0.63881135
000340 81 a6 92 3e 00 00 00 00 00 00 00 00 e1 a5 a8 41
       0.28642657 0.0 0.0 21.080996
000350 00 00 00 00 00 00 00 00 56 93 a8 41 04 00 00 80
       0.0 0.0 21.071941 -6e-45
000360 ef d1 7b 3f de 6d ae 41 f9 fe b9 3e 1f 0b 94 41
       0.9836721 21.803646 0.3632734 18.50543
000370 56 e6 fc 39 22 a2 a9 3e 74 19 b6 41 04 00 00 80
       0.000482368 0.3313151 22.762428 -6e-45
000380 89 98 92 41 e9 91 96 41 73 c5 a2 41 04 00 00 80
       18.32448 18.821245 20.34641 -6e-45
000390 67 f1 8e 41 2a 3a 89 41 68 a6 a9 41 d5 52 a2 41
       17.867872 17.1534 21.206253 20.290445
0003a0 32 fb 9b 41 a5 fb 93 41 24 58 a5 41 04 00 00 80
       19.497654 18.497873 20.668037 -6e-45
0003b0 aa 6c 96 41 04 00 00 80 e4 3c 93 41 fc 01 1a 3f
       18.803059 -6e-45 18.404732 0.6015928
0003c0 84 6f 8a 3e 00 00 00 00 00 00 00 00 42 15 a7 41
       0.27038205 0.0 0.0 20.88538
0003d0 00 00 00 00 00 00 00 00 d3 d9 a6 41 04 00 00 80
       0.0 0.0 20.85636 -6e-45
0003e0 4c a2 6d 3f f1 d1 ac 41 d3 ea ad 3e dd 96 92 41
       0.9282577 21.60251 0.3396822 18.323664
0003f0 01 b3 fa 39 6b 34 9f 3e 15 18 b4 41 04 00 00 80
       0.00047817084 0.3109468 22.511759 -6e-45

exp_avg_sq f4 [10, 32]
000000 6d 7d 59 44 74 bb 65 44 95 ea 86 44 92 08 e4 33
       869.9598 918.92896 1079.3307 1.0618636e-07
000010 d6 c0 4f 44 db 59 3f 44 32 e8 92 44 14 7a 86 44
       831.01306 765.404 1175.2561 1075.815
000020 41 f5 76 44 6c 0d 5d 44 be 9e 8a 44 bd ea 9a 2d
       987.8321 884.2097 1108.9607 1.7612018e-11
000030 3b 9b 64 44 8b 30 3b 35 dd f6 5a 44 22 da 9b 3f
       914.4255 6.973357e-07 875.85724 1.2175944
000040 64 c8 80 3e 00 00 00 00 00 00 00 00 9b af 8e 44
       0.25152886 0.0 0.0 1141.4877
000050 00 00 00 00 00 00 00 00 61 3a 8d 44 bf 97 d1 2a
       0.0 0.0 1129.8243 3.7231153e-13
000060 39 a1 32 40 82 01 99 44 45 3f 0b 3f ea 39 5a 44
       2.7910903 1224.0471 0.54393417 872.9049
000070 73 54 69 37 ca 9a 01 3f 54 94 a4 44 da c3 00 2f
       1.3907545e-05 0.50626814 1316.6353 1.1711113e-10
000080 22 e1 56 44 9f f8 62 44 ac 52 85 44 59 83 e3 33
       859.5177 907.8847 1066.5835 1.0594403e-07
000090 ae 4f 4d 44 6d 20 3d 44 b6 2d 91 44 8f e6 84 44
       821.245 756.50665 1161.4285 1063.205
0000a0 8b f9 73 44 d2 60 5a 44 1e ec 88 44 d2 bd 97 2d
       975.8991 873.5128 1095.3787 1.725101e-11
0000b0 cb d8 61 44 2c 61 37 35 2c 48 58 44 ab db 98 3f
       903.3874 6.8314216e-07 865.1277 1.1942037
0000c0 21 be 7b 3e 00 00 00 00 00 00 00 00 e1 04 8d 44
       0.24584247 0.0 0.0 1128.1525
0000d0 00 00 00 00 00 00 00 00 7d 8a 8b 44 af 00 d5 2a
       0.0 0.0 1116.3278 3.7836875e-13
0000e0 81 08 2f 40 6e 38 97 44 6a 97 08 3f 04 a8 57 44
       2.734894 1209.7634 0.5335604 862.62524
0000f0 df fd 59 37 66 6c fd 3e f6 94 a2 44 8f 50 ff 2e
       1.2993317e-05 0.49496764 1300.655 1.16103675e-10
000100 71 08 55 44 86 fc 60 44 a8 26 84 44 36 f0 e2 33
       852.1319 899.9457 1057.208 1.0567639e-07
000110 6c 85 4b 44 f2 7a 3b 44 d5 ea 8f 44 d7 bf 83 44
       814.0847 749.921 1151.3385 1053.995
000120 ef de 71 44 93 7f 58 44 22 bf 87 44 c5 5d 97 2d
       967.48334 865.99335 1085.9729 1.7208355e-11
000130 33 e2 5f 44 4c d8 36 35 46 71 56 44 ba fc 96 3f
       895.53436 6.8115037e-07 857.7699 1.1795876
000140 26 85 77 3e 00 00 00 00 00 00 00 00 32 ca 8b 44
       0.24171886 0.0 0.0 1118.3186
000150 00 00 00 00 00 00 00 00 d3 54 8a 44 65 7e d2 2a
       0.0 0.0 1106.6508 3.7391197e-13
000160 9c de 2c 40 20 e7 95 44 8a 15 06 3f 39 c9 55 44
       2.701087 1199.2227 0.52376616 855.1441
000170 6a 8f 4a 37 61 0b f8 3e 7e 32 a1 44 f8 d3 fa 2e
       1.2073529e-05 0.4844618 1289.5779 1.1406337e-10
000180 f8 ae 51 44 bb 74 5d 44 ef 19 82 44 a2 04 e3 33
       838.7339 885.8239 1040.8104 1.0571354e-07
000190 90 5b 48 44 a5 9c 38 44 06 b0 8d 44 73 b8 81 44
       801.43066 738.4476 1133.5007 1037.764
0001a0 93 13 6e 44 96 1f 55 44 74 9a 85 44 a4 51 97 2d
       952.30585 852.4935 1068.8267 1.7202968e-11
0001b0 ba 5e 5c 44 b4 1c 37 35 0c 16 53 44 e4 f1 95 3f
       881.4801 6.821458e-07 844.3445 1.1714444
0001c0 f5 a8 75 3e 00 00 00 00 00 00 00 00 3a a2 89 44
       0.23990233 0.0 0.0 1101.0696
0001d0 00 00 00 00 00 00 00 00 1b 2e 88 44 4e 25 d0 2a
       0.0 0.0 1089.4408 3.6974108e-13
0001e0 bb 7f 2b 40 97 97 93 44 03 f5 05 3f 59 7e 52 44
       2.679671 1180.7372 0.52326983 841.9742
0001f0 79 1f 29 37 5b 3b f7 3e 48 aa 9e 44 43 95 fa 2e
       1.0080513e-05 0.48287472 1269.3213 1.1395198e-10
000200 81 a3 4f 44 03 45 5b 44 f7 cc 80 44 3e ba e2 33
       830.55475 877.0783 1030.4052 1.0557822e-07
000210 53 5f 46 44 08 c2 36 44 11 47 8c 44 96 6c 80 44
       793.48944 731.03174 1122.2208 1027.3933
000220 47 bc 6b 44 d4 04 53 44 4d 4c 84 44 19 87 96 2d
       942.94183 844.07544 1058.3844 1.7113021e-11
000230 b3 33 5a 44 e1 12 37 35 07 04 51 44 8a 22 95 3f
       872.8078 6.8200285e-07 836.0629 1.1651165
000240 20 76 74 3e 00 00 00 00 00 00 00 00 d8 41 88 44
       0.23873186 0.0 0.0 1090.0576
000250 00 00 00 00 00 00 00 00 69 d4 86 44 44 87 d0 2a
       0.0 0.0 1078.6378 3.7042082e-13
000260 d6 c2 2a 40 48 1d 92 44 b5 4f 05 3f d4 63 50 44
       2.6681418 1168.915 0.5207475 833.5598
000270 13 2b 47 37 c4 18 f6 3e bc 1d 9d 44 37 2a f7 2e
       1.1871353e-05 0.4806577 1256.9292 1.12397584e-10
000280 f4 2a 4e 44 af b7 59 44 88 bf 7f 44 40 b4 e2 33
       824.67114 870.87006 1022.9927 1.05567324e-07
000290 36 f1 44 44 4f 70 35 44 0a 43 8b 44 89 fc 7e 44
       787.7689 725.7548 1114.095 1019.94586
0002a0 ee 10 6a 44 33 8b 51 44 af 5e 83 44 db a9 95 2d
       936.2645 838.175 1050.9589 1.701477e-11
0002b0 66 ab 58 44 dc a7 36 35 ff 8f 4f 44 f3 cd 94 3f
       866.6781 6.804455e-07 830.24994 1.1625351
0002c0 5e b6 74 3e 00 00 00 00 00 00 00 00 14 44 87 44
       0.23897693 0.0 0.0 1082.1274
0002d0 00 00 00 00 00 00 00 00 3b df 85 44 36 2f cc 2a
       0.0 0.0 1070.976 3.627044e-13
0002e0 ad 6a 2a 40 de 0b 91 44 21 d1 05 3f 86 e5 4e 44
       2.662761 1160.3708 0.5227223 827.5863
0002f0 3f b2 54 37 19 4e f7 3e b1 01 9c 44 9d 8a fa 2e
       1.2677686e-05 0.4830177 1248.0529 1.13933064e-10
000300 06 fe 4c 44 a2 79 58 44 3e 49 7e 44 73 99 e0 33
       819.9691 865.9005 1017.1444 1.0458725e-07
000310 a3 d1 43 44 98 68 34 44 4c 76 8a 44 fb 85 7d 44
       783.2756 721.6343 1107.6968 1014.09344
000320 67 b8 68 44 b2 59 50 44 bf 9c 82 44 9e 85 97 2d
       930.8813 833.4015 1044.8983 1.722605e-11
000330 19 70 57 44 78 8b 35 35 e9 5e 4e 44 3d b7 93 3f
       861.7515 6.763071e-07 825.483 1.1540295
000340 ed 39 73 3e 00 00 00 00 00 00 00 00 36 7d 86 44
       0.23752566 0.0 0.0 1075.9128
000350 00 00 00 00 00 00 00 00 7d 1b 85 44 c4 2d cc 2a
       0.0 0.0 1064.859 3.6269436e-13
000360 66 33 29 40 d7 35 90 44 98 50 06 3f 90 b7 4d 44
       2.643762 1153.6825 0.52466726 822.86816
000370 6b 87 54 37 0c 4f f8 3e bc 1b 9b 44 8c 35 f8 2e
       1.2667714e-05 0.48497808 1240.8667 1.1287246e-10
000380 83 f3 4b 44 e9 59 57 44 32 f6 7c 44 09 06 e1 33
       815.8049 861.40485 1011.8468 1.0478477e-07
000390 2f cf 42 44 ef 7c 33 44 03 c0 89 44 22 3a 7c 44
       779.23724 717.9521 1102.0004 1008.9083
0003a0 f5 86 67 44 81 4b 4f 44 9b f1 81 44 32 74 96 2d
       926.1087 829.17975 1039.5502 1.7104627e-11
0003b0 ce 54 56 44 67 f7 34 35 5a 55 4d 44 7b 2e 93 3f
       857.3251 6.7415243e-07 821.3336 1.149856
0003c0 9c e3 71 3e 00 00 00 00 00 00 00 00 a4 cb 85 44
       0.23621982 0.0 0.0 1070.3638
0003d0 00 00 00 00 00 00 00 00 51 6d 84 44 f6 38 cf 2a
       0.0 0.0 1059.4161 3.681011e-13
0003e0 71 8f 28 40 1d 77 8f 44 cc 60 07 3f f7 aa 4c 44
       2.633755 1147.7223 0.52882075 818.6713
0003f0 2b c7 59 37 3f 6a fa 3e 97 53 9a 44 d1 43 f8 2e
       1.298058e-05 0.48909184 1234.6122 1.1289781e-10

exp_avg f4 [10]
000000 4f b1 14 40 97 a9 13 40 8e df 12 40 f5 4b 10 40
       2.323322 2.307226 2.2948947 2.254636
000010 0e f4 0d 40 58 19 0c 40 07 5e 0a 40 e5 cc 08 40
       2.218021 2.1890469 2.161989 2.1375058
000020 0a 19 07 40 ff 24 05 40
       2.1109033 2.080383

exp_avg_sq f4 [10]
000000 4e bb 37 41 4f 88 35 41 8e fd 33 41 e5 2e 31 41
       11.483229 11.345778 11.249403 11.073949
000010 a4 7f 2f 41 92 56 2e 41 90 6e 2d 41 e9 a3 2c 41
       10.968662 10.896135 10.839493 10.790017
000020 ba 61 2c 41 41 44 2c 41
       10.773859 10.766664
