code/2021-04-12_18-39.pth (torch, 80051 bytes, 18 tensors)

encoder.maxpool_conv.0.0.weight f4 [1, 1, 2, 10]
000000 16 36 2b bd d6 fc 04 bc d9 86 ce bd e4 03 09 be
       -0.041799627 -0.008116921 -0.10084314 -0.1338039
000010 38 09 66 bc 28 b0 89 bd 4c e5 cf 3d 17 2f af bd
       -0.014040284 -0.06723052 0.10151157 -0.085539035
000020 38 e1 87 3d ae 90 c8 bc c6 d5 b1 3c b9 c2 03 bd
       0.06634754 -0.024483051 0.02170838 -0.032168124
000030 1f 02 8c bd 3a c6 ca 3d 3e a6 f2 3d c6 5c 48 3e
       -0.06836342 0.0990109 0.118481144 0.1956664
000040 b7 82 d6 bd 2f 80 9a 3d 9d aa 30 3e 51 ea 04 be
       -0.10474151 0.0754398 0.17252584 -0.1298001

encoder.maxpool_conv.2.0.weight f4 [1, 1, 2, 10]
000000 31 0e 33 be c6 a3 6d be a6 0f 85 be 68 82 32 be
       -0.17485882 -0.23207006 -0.259885 -0.17432559
000010 a5 b0 4c bd 08 75 a7 bd b5 61 2a be 66 86 07 be
       -0.04997315 -0.08176619 -0.16638835 -0.13234863
000020 b9 9b 5d 3e 91 97 31 bc df 64 db bd f5 ec fc bd
       0.21641435 -0.010839359 -0.10712599 -0.123498835
000030 75 ab 85 3d d1 11 42 3e 1b c9 f2 3d cb f1 c6 bc
       0.065268435 0.18952109 0.11854764 -0.024285218
000040 4b 34 82 3e df e4 3f 3d 12 b7 62 3d b9 bf dd 3d
       0.2543052 0.046849128 0.05535037 0.10827584

decoder.linear1.weight f4 [32, 164]
000000 ab 52 c6 3b f4 e5 2c 3d 1e 40 23 3d cc 32 ad ba
       0.0060523353 0.042211488 0.03985607 -0.0013213991
000010 ab 13 cc bc 79 55 aa bd 64 8d 0f 3d 4e f3 b3 bd
       -0.024911722 -0.08317084 0.03504695 -0.08786641
000020 31 80 6c 3c db f7 11 3c 41 a2 5a bd cc f1 4f bc
       0.01443486 0.008909191 -0.053377394 -0.012691926
000030 d7 4e 33 bd d4 05 91 bd 57 de e5 bc df 03 0c 3d
       -0.04377636 -0.0708119 -0.028060121 0.03418338
000040 bc 06 11 bd 4b 19 15 bd ff 26 b6 bc 45 5f 68 3d
       -0.035406813 -0.036401074 -0.022235392 0.05673148
000050 6d 0e f7 3c fb a2 6a bc ed 08 72 3d 83 dc 49 3d
       0.030158246 -0.014321084 0.059090544 0.049282562
000060 fc 2c 17 3d 4b 9c 47 3d 56 86 c6 3c da 33 56 3d
       0.036908135 0.048733037 0.024233978 0.052295543
000070 be e1 5b 3d 7e 9f 01 bd a6 ed b2 bd 4a 2d b7 bd
       0.05368208 -0.031646244 -0.08736734 -0.08944185
000080 16 f7 b2 bc f5 28 21 bd be 18 51 bc 37 22 88 bd
       -0.021846335 -0.0393457 -0.012762247 -0.06647151
000090 2c f7 32 3d ab 58 ac bd 90 5f 23 3d f8 16 09 ba
       0.043692753 -0.084153496 0.039886057 -0.0005229558
0000a0 1d 85 74 3c 69 5c a5 bd c7 c3 61 3d a0 69 fe 3b
       0.014924315 -0.080742665 0.05511835 0.0077640563
0000b0 73 4c 73 bd 73 e9 ce bc df bb c4 bc 73 ec ef 3c
       -0.05939908 -0.025257802 -0.024015365 0.029287552
0000c0 38 98 6c 3d ff ef 28 bd 67 ae ac bc c6 98 40 3d
       0.057762355 -0.041244503 -0.021079255 0.047020696
0000d0 a1 f1 5b bd b2 0f 7f bd 48 8a a9 bd 42 d6 89 bd
       -0.053697232 -0.062270828 -0.08278328 -0.067303196
0000e0 81 6b 82 bd c0 a1 2c 3d 19 c9 39 3d 87 92 5d 3d
       -0.06368161 0.042146444 0.045357797 0.054094817
0000f0 7c 0b 84 3c 83 73 0f 3c 07 5b 80 bd d2 2b 07 bd
       0.016118757 0.0087555675 -0.06267362 -0.033000775
000100 5d 35 34 bd d8 55 b6 bc 20 9d 96 3c 32 6d 65 3d
       -0.043996204 -0.02225773 0.01838547 0.05601234
000110 ed 2e 43 bc f6 c1 f2 3c 67 e8 60 bd 88 7a d5 bc
       -0.011913043 0.029633503 -0.054909136 -0.026059404
000120 ad fa 4b bd 98 29 0f bd d9 0f 30 bd 08 c5 48 bd
       -0.04979961 -0.034951776 -0.042983864 -0.04901603
000130 15 85 9e bc fb f6 d3 bc 78 8e fa 3c 48 4c 57 3b
       -0.019350568 -0.025874605 0.030585513 0.0032851864
000140 49 19 8e bd 3d 73 d2 bc b2 ab d3 39 4d 35 2c 3d
       -0.069384165 -0.025689716 0.0004037298 0.04204302
000150 41 69 af bd 9b fb 95 bd 3c da b5 bd 14 83 82 bd
       -0.085649975 -0.073233806 -0.088795155 -0.063726574
000160 1c 26 bb 3c 3e 0a f9 3c 76 cb cc ba 92 1b 30 bc
       0.02284532 0.030400392 -0.0015624601 -0.010748761
000170 85 8b 6f bd 10 2a 80 bd 64 a3 38 3a 38 6f 4b 3d
       -0.058482666 -0.06258023 0.000704339 0.049666613
000180 ab f9 10 bd d5 6b 58 bb 34 a7 b1 bd 68 0b b7 3c
       -0.035394352 -0.0033023257 -0.086744696 0.022344306
000190 6a 06 fe 3c 0e c0 35 3d 92 92 8f bd f2 e6 43 3d
       0.031008918 0.04437261 -0.07010378 0.04782767
0001a0 6f cd f4 3c e1 32 66 3d d9 16 9c 3c 7c 8f 61 bc
       0.029883115 0.056200866 0.019053863 -0.0137671195
0001b0 ff 76 d8 3b b9 48 a4 3c c1 89 16 bd a9 14 74 3d
       0.0066059823 0.020054208 -0.036752466 0.059590016
0001c0 fe af 6b 3d 94 0b 8e bc 7b 8a 16 3c 15 9a b3 3c
       0.057540886 -0.017339505 0.00918829 0.021924058
0001d0 60 cf 8b bd ac 95 0b bd 0c cf 88 bd c7 b1 4b 3d
       -0.06826663 -0.034078285 -0.06680116 0.04973009
0001e0 4a d7 88 3d 3a 03 1f bd 09 82 ce bc 7b c3 76 bd
       0.06681688 -0.038821436 -0.02520849 -0.06024502
0001f0 ca cf 86 bd a5 40 38 bd 30 ba d4 bc 38 c9 ec bc
       -0.06582601 -0.044983525 -0.025967687 -0.028904542
000200 6c e0 48 bd 83 47 78 bd 7d eb 08 bc 3e 96 4e 3d
       -0.04904215 -0.060615074 -0.008356926 0.05043625
000210 5a 1f 16 3c 73 34 5f bb 38 e3 9c 3b 28 7e c0 3c
       0.009162748 -0.0034058362 0.004787829 0.023497656
000220 c8 b3 9c bd be 1d c4 3c 3b 1f aa bd a0 8a 1b 3d
       -0.07651478 0.023939963 -0.08306738 0.037974
000230 c7 24 09 bd b9 7b 60 bd 75 2f c6 3c 11 b5 ad bc
       -0.03348234 -0.05480549 0.024192551 -0.021204503
000240 86 c5 5a bd 21 1c 26 3d 92 5c 30 bd ab 02 a7 3c
       -0.05341103 0.04055417 -0.043057032 0.020387014
000250 2b 58 65 bc a9 f2 59 bd 46 19 06 3a e0 4f 0b bd
       -0.013998072 -0.053209934 0.00051154604 -0.03401172
000260 f6 9b 66 bd 13 55 cb 3b 52 d4 66 3d f5 43 81 bc
       -0.05630108 0.00620521 0.05635483 -0.015779475
000270 c6 f2 aa bd 1e 3a f2 3b ab d9 a0 bd cf d5 6a bc
       -0.083470866 0.007392182 -0.07854017 -0.0143332025
000280 aa 42 27 3d 37 29 7c bd da c8 a1 bd dd b1 60 bd
       0.04083506 -0.061562743 -0.078996375 -0.054857124
000290 80 32 4c bd a8 5d 5a 3d e8 4e cd 3c 44 1d 25 bd
       -0.049852848 0.053311974 0.02506204 -0.040311113
0002a0 b1 7d 3b 3d 89 e4 49 3d 04 a6 26 3d 94 3c ac bc
       0.045774166 0.049290214 0.04068567 -0.02102498
0002b0 61 42 25 bc fa 95 b5 bb 07 44 6f bc dd f5 74 3c
       -0.010086627 -0.0055415602 -0.014603621 0.0149511965
0002c0 71 d0 34 3d a6 5c af bd e0 2c 3a 3d f2 04 a5 3c
       0.044144098 -0.08562593 0.045452952 0.02014396
0002d0 52 2b e4 3c 68 bc 99 bd 11 a3 e4 3b b2 23 83 bd
       0.027852688 -0.07506639 0.006977447 -0.06403293
0002e0 85 cd 8c bd 9d 10 7d 3c a0 b7 4e 3d b9 2f 99 3b
       -0.06875137 0.015445855 0.050468087 0.0046748784
0002f0 ed bc 0c 3b eb f1 9d bd 13 26 a5 bd e3 51 6f 3d
       0.0021474913 -0.07712158 -0.08063903 0.058427703
000300 75 5b d5 bc 46 ab aa bd d6 2f 5c 3d c8 af b7 3c
       -0.026044587 -0.08333449 0.053756557 0.022422686
000310 e2 1e 2f bd 3c 06 9e 3b 4b 95 70 3d fe a6 bd bc
       -0.04275406 0.0048225205 0.058736127 -0.023150917
000320 c4 87 08 3c 73 c0 e7 3c 30 2d 7b 39 cf e3 81 bc
       0.00833315 0.02829001 0.00023954059 -0.015855698
000330 33 2e 7e 3c a5 b6 86 bd 2b 29 08 bd d5 bd 9e bd
       0.015513944 -0.065778054 -0.033242386 -0.07751051
000340 a0 5e 98 3c 47 8d 94 bc 66 42 aa bd b6 35 9b bd
       0.018599808 -0.018133773 -0.08313446 -0.07578604
000350 bd 3d a2 3a 69 ee 4f bd 0f ea c9 3c 85 6e 58 bd
       0.0012378019 -0.050764475 0.02464774 -0.052839775
000360 f7 47 99 3c bb 09 8c 3c de 2f 5a bd 3c c4 78 bd
       0.018711073 0.017094484 -0.053268306 -0.06073402
000370 e5 cd 83 bd 63 cf c2 3c 0c fd 2a 3b 84 a4 58 bd
       -0.06435756 0.02378053 0.002609077 -0.05289127
000380 27 c4 5c bd cb b2 9b 3c 89 8e 08 bd 3a 0e 70 bd
       -0.053898003 0.019006154 -0.033339057 -0.058607318
000390 25 cb 4c bd ba 9d 9a bd fc f8 8a bd 13 4f a1 bd
       -0.04999842 -0.07549615 -0.06785771 -0.0787641
0003a0 fb b7 1b 3d e3 92 ae bd a5 b5 16 3d 00 02 a3 bd
       0.038017254 -0.0852411 0.036794323 -0.07959366
0003b0 60 a9 97 bd 32 0b c7 bc 6b c8 d3 bc 63 a4 d4 3c
       -0.074053526 -0.02429733 -0.025852403 0.025957292
0003c0 a5 cc c2 3b aa cd 8c bd 2e c0 05 bd 99 fe 7c 3c
       0.0059448057 -0.06875165 -0.03265398 0.01544156
0003d0 e4 8e 91 bd ff 67 95 bd e7 18 7c 3d 13 0f 9d bc
       -0.07107332 -0.07295226 0.061547186 -0.019172227
0003e0 7e 93 49 bd d4 03 4d 3d 5d 40 a1 3c 53 44 82 3c
       -0.049212925 0.05005248 0.019684011 0.01590172
0003f0 6f f2 06 bd b5 61 2e bc 10 ea 94 bc 1c 74 7e bd
       -0.032946046 -0.010643412 -0.018178016 -0.06212245

decoder.linear1.bias f4 [32]
000000 8a 4f fb 3c 06 a4 85 3d 36 09 7b 3e 59 00 a0 3e
       0.030677576 0.065254256 0.24515232 0.31250265
000010 ee f2 8e 3e d3 a5 80 bd 35 cb 68 3e 64 ea a2 bd
       0.27919716 -0.062816285 0.22733767 -0.07954863
000020 7b 9f 86 bc d2 86 42 bd 64 e4 6c 3e 4d 95 ac 3e
       -0.016433468 -0.047491856 0.23133999 0.33707657
000030 56 37 91 3e e1 16 8a 3d 3c 1e 62 3d a3 a1 75 3e
       0.2836253 0.06742645 0.055204615 0.23987441
000040 04 e4 8f 3e 90 86 0a 3d 8a 70 a5 3e 4d b5 a0 3e
       0.2810365 0.033819735 0.32312423 0.31388322
000050 e2 8a 88 bd 3b 47 58 bc 75 32 74 3e 08 65 0f bc
       -0.06667115 -0.013200576 0.23847373 -0.008752115
000060 62 fa a3 3e 6a e6 91 3e 1f 25 9c 3e 32 d1 97 3e
       0.32026964 0.28496104 0.3049707 0.2965179
000070 cc a9 8f 3e c7 ff 91 3e 21 f9 b3 3e 60 81 7a 3e
       0.28059232 0.28515455 0.35151008 0.24463415

decoder.linear2.weight f4 [10, 32]
000000 95 a8 12 3c e1 15 35 bc 94 4c 59 3e af 64 93 3e
       0.008951326 -0.01105258 0.21220618 0.28787753
000010 e6 01 bc 3e 07 f6 da bd 2b dd b2 3e 59 9a c6 bd
       0.36720198 -0.10691457 0.34934363 -0.09697408
000020 e2 d3 0b be 87 f5 5a bd 2c a7 c8 3e b3 87 b2 3e
       -0.13655046 -0.05345681 0.39190042 0.34869155
000030 aa b1 34 3e 83 02 ac bd 8a 0e 99 3d 0f fd 63 3e
       0.17645898 -0.083989166 0.07473476 0.22264503
000040 bf ea b7 3e 91 a0 91 bc d5 13 96 3e 93 ac da 3e
       0.35921285 -0.01777676 0.29312006 0.4270979
000050 d8 86 90 bd 38 12 59 3d 82 db ec 3e 8e c0 92 3c
       -0.070569694 0.05299589 0.4626122 0.017914083
000060 f4 28 6a 3e c6 08 b3 3e e3 a0 a6 3e b0 96 8f 3e
       0.22867185 0.3496763 0.32544622 0.28044653
000070 e7 6a 9d 3e 16 3d 4a 3e dc bd 1e 3e 80 33 88 3e
       0.30745623 0.19749865 0.15502113 0.2660179
000080 ef f5 b0 3c cc 56 12 3d d2 1c 70 3e ba 44 a8 3e
       0.021601645 0.035727307 0.23448494 0.32864934
000090 0c 62 bc 3e a5 b2 65 3d b4 82 bb 3e d5 14 7e 3d
       0.36793554 0.05607857 0.36623156 0.062031586
0000a0 92 6a 1f be f4 26 74 3d a9 3c ca 3e 79 a1 28 3e
       -0.15567997 0.05960746 0.39499405 0.16467847
0000b0 31 94 bb 3e e4 1e 58 3c 5b 01 32 3d b6 45 fb 3d
       0.366365 0.013190959 0.043458324 0.12269156
0000c0 26 5b 7f 3e 95 e2 f3 bc 9d fe 9b 3e 8b 61 9a 3e
       0.24937114 -0.029771129 0.30467692 0.30152544
0000d0 32 44 1d be 85 68 01 be a3 31 b4 3e 2a 1f 21 be
       -0.15358046 -0.12637527 0.3519412 -0.15734544
0000e0 80 2a c5 3e 84 76 6a 3e 02 7a ec 3d 03 be de 3e
       0.38508987 0.22896773 0.11546709 0.43504342
0000f0 f7 1c 4e 3e a2 90 6c 3e 5c c7 d7 3e ca 2c de 3e
       0.20128237 0.23102048 0.42144287 0.43393546
000100 3d 4f b2 3d 38 40 cc bd 42 39 a0 3e 48 db 71 3e
       0.0870652 -0.09973186 0.31293684 0.23618805
000110 67 b3 42 3e bb 16 29 be 56 32 bc 3e 28 5a ec 3c
       0.19013749 -0.16512577 0.36757153 0.028851584
000120 48 d8 aa 3d a9 8a ff bd 36 41 8a 3e 3c 4f 81 3e
       0.083420336 -0.12477619 0.27002877 0.25255764
000130 d1 00 c2 3e 1b c9 4f bd 1a bf 3e 3d 12 1f c5 3e
       0.37891248 -0.0507289 0.046568967 0.38500267
000140 7b 74 6e 3e e2 b0 aa bd 2c df cc 3e 12 05 55 3e
       0.23286621 -0.08334519 0.40014017 0.20802715
000150 70 c4 0f 3e bc 19 27 be 1c b4 ba 3e bf 18 c1 bc
       0.14039779 -0.1631841 0.36465538 -0.02357137
000160 73 fc 5c 3e 36 87 42 3e 00 6d 64 3e 22 b6 8e 3e
       0.21580677 0.18996891 0.22307205 0.2787333
000170 48 b2 c7 3e 3e f4 db 3e 88 68 ab 3e 52 c7 af 3e
       0.39003205 0.4295978 0.3347819 0.34331757
000180 98 f7 2a bd be 38 85 bc 05 eb 14 3e 69 93 c0 3e
       -0.04174003 -0.016262408 0.14542778 0.37612465
000190 1e ee db 3e c5 44 ec bd 25 26 97 3e 82 0f 9e 3d
       0.42955106 -0.11536554 0.2952129 0.07717802
0001a0 bb 13 07 3e 3c 24 de bd 8a a1 89 3e e8 95 53 3e
       0.1319112 -0.10846755 0.26881057 0.20662653
0001b0 63 e7 d4 3e d9 b0 37 bc 0e b1 75 3d 08 a8 d2 3e
       0.41582784 -0.011211597 0.059983306 0.41143823
0001c0 f1 02 a1 3e 09 f3 2c 3e 92 fd b5 3e 37 c9 36 3e
       0.31447557 0.16889586 0.3554502 0.17850195
0001d0 5f c2 cb bc fc 6f aa bc 61 a7 8f 3e 56 19 b1 bd
       -0.024872957 -0.020805351 0.28057387 -0.086474106
0001e0 f4 18 98 3e 4d b1 90 3e d8 20 12 3e cd 9b 0e 3e
       0.29706538 0.2826027 0.14270341 0.13926621
0001f0 d6 b7 bf 3e 8c 51 ca 3e 00 0d a7 3e fd 09 c1 3e
       0.37444943 0.3951534 0.32627106 0.37702933
000200 9c d6 dc bc 9a ae 74 3d 34 c6 e2 3e 01 12 7f 3e
       -0.026957802 0.059736826 0.44291842 0.24909212
000210 9e 5a 98 3e a3 23 c0 bd 14 27 32 3e cb 89 9e 3d
       0.29756635 -0.09381797 0.1739772 0.07741126
000220 df 0a 01 be 6e 84 b9 bd 86 2f d3 3e 9b 41 3a 3e
       -0.12601803 -0.09058462 0.41247195 0.18189089
000230 b9 19 12 3e df ea d2 3d 65 3b 5d bd 9e 92 01 3e
       0.14267625 0.10298704 -0.05401172 0.12653586
000240 f5 2e a3 3e 05 9c cc 3c 01 36 d3 3e 88 dd 7d 3e
       0.31871763 0.02497674 0.4125214 0.24791539
000250 39 8b c6 bd 94 e4 21 3c d3 8f a4 3e ed a8 ef 3d
       -0.09694523 0.009881157 0.3214098 0.11702142
000260 fb 00 73 3e 72 85 ad 3e 82 45 ec 3e 13 61 e5 3e
       0.23730843 0.33890873 0.4614678 0.44800624
000270 d4 3e a1 3e a5 0f c9 3e 5a 73 96 3e e5 fd 39 3e
       0.31493247 0.39269748 0.2938488 0.1816326
000280 7f af 01 3e fa a7 0d 3e c9 4a e8 3e 52 de 02 3e
       0.12664603 0.13833609 0.45369557 0.12780121
000290 12 e4 97 3e 8e 6b 14 3e 83 6a 1e 3e 7b 52 fa 3d
       0.2966619 0.14494154 0.15470318 0.12222763
0002a0 30 e5 8e 3d 17 e5 0c 3e b4 b6 a7 3e e4 88 95 3e
       0.06977308 0.13759266 0.3275658 0.29206002
0002b0 72 c1 e8 3e f4 60 9b 3d bf 13 12 be 55 9d d9 3e
       0.45460087 0.07586852 -0.14265345 0.42502847
0002c0 cc 31 aa 3e 0e 4a 2a be 8c 6f 86 3e 02 11 11 3e
       0.33241117 -0.16629812 0.2625698 0.14166644
0002d0 e1 fd 80 3d a2 59 81 3d 24 45 4b 3e 62 da 1c bd
       0.062984236 0.06315924 0.19850594 -0.038294204
0002e0 47 f9 ba 3e 22 e8 ae 3e ff bb a7 3e 1e 4c b0 3e
       0.3651831 0.34161478 0.32760617 0.34433073
0002f0 9c d8 c1 3e 32 df cd 3e 09 2e 30 3e 96 8c 6b 3e
       0.37860572 0.40209347 0.17205061 0.23002848
000300 c7 1b 1b be 3b ab 7f bd 00 e0 9e 3e ff 19 c5 3e
       -0.15147315 -0.062419157 0.31030273 0.38496396
000310 41 9d 98 3e 84 56 30 3e 54 db de 3e 4c 0e 87 bd
       0.29807475 0.17220503 0.4352671 -0.06594524
000320 f8 6f 31 bd c1 e2 be 3c 86 b7 67 3e 88 c7 d6 3e
       -0.043319672 0.023301484 0.22628602 0.41949105
000330 1c 95 43 3e 78 2a da bd 45 07 f3 bd 8e 9d c2 3e
       0.1909985 -0.106526315 -0.11866621 0.3801083
000340 ab 5d dd 3e 7a 0f cb 3d 73 16 41 3e 78 e4 bb 3e
       0.43235525 0.09915061 0.1885622 0.36697745
000350 f7 0d 72 3d ef 5a 01 be d0 5b 26 3e f5 96 e0 bd
       0.05909535 -0.12632345 0.16245961 -0.10966293
000360 9b a1 54 3e ec cb 87 3e 24 88 bc 3e 94 4b 84 3e
       0.20764773 0.26522768 0.36822617 0.25838912
000370 f8 0b a5 3e 6c 58 68 3e 91 35 3a 3e d3 da ca 3e
       0.32235694 0.2268998 0.18184496 0.39620075
000380 2e 1f e7 bd 24 43 2a 3e 31 b8 b1 3e 18 b5 87 3e
       -0.11285244 0.16627175 0.3471084 0.2650535
000390 71 ee 44 3e d6 f6 6d bd 25 71 13 3e 5a 1f 1d be
       0.19231583 -0.05809673 0.1439863 -0.15343991
0003a0 85 c2 cc 3d f6 10 e2 bd 11 52 b0 3e ee c0 8d 3e
       0.09998039 -0.11038391 0.34437612 0.27686256
0003b0 3b 5b bd 3e 09 d3 91 bd 9f 35 58 bd 8a fc 48 3e
       0.36983666 -0.0712033 -0.052785512 0.19627586
0003c0 5d f4 55 3e fe 27 0c be b5 7d 43 3e cf b9 c2 3e
       0.20893998 -0.13687131 0.19090922 0.38032386
0003d0 14 f6 ff bd 6a 78 0a bd f2 43 1a 3e c6 1b 1f be
       -0.124981076 -0.033806242 0.15064982 -0.15537938
0003e0 aa 54 47 3e c9 15 ce 3e bb 78 ec 3e ec 01 cf 3e
       0.1946589 0.40250996 0.4618586 0.40431154
0003f0 45 8f b4 3e b6 36 99 3e cd 18 e3 3e 5f f2 d2 3e
       0.35265556 0.29924554 0.4435486 0.4120054

decoder.linear2.bias f4 [10]
000000 ee 56 68 3e c5 c7 62 3e e6 52 08 3e eb b9 32 3e
       0.22689411 0.22146519 0.13312873 0.17453735
000010 fe 7c a4 3b c1 6e 94 3e 64 c0 b5 3d 53 19 0b 3e
       0.005019783 0.2899075 0.08874586 0.13583879
000020 a7 5e 66 3c 70 73 0b 3e
       0.014060653 0.13618255

exp_avg f4 [1, 1, 2, 10]
000000 15 de 67 44 83 ef 51 44 e4 54 29 44 ef af 0c 44
       927.47003 839.7424 677.3264 562.74896
000010 84 f1 ee 43 a0 46 97 43 5a 82 f0 42 1e a4 29 42
       477.88684 302.55176 120.25459 42.41027
000020 5d 23 83 c2 bd dc 85 c1 b4 ce 9a 44 5f d2 86 44
       -65.56907 -16.732782 1238.4595 1078.5741
000030 18 7e 74 44 45 4d 55 44 9c 19 33 44 1a a7 0b 44
       977.9702 853.20734 716.40015 558.61096
000040 bb c2 f7 43 49 76 d9 43 ea 8c c3 43 0f 72 f7 43
       495.52133 434.9241 391.1009 494.89108

exp_avg_sq f4 [1, 1, 2, 10]
000000 84 71 14 4a a4 dc 0f 4a 6c 17 03 4a d3 46 e1 49
       2.432097e+06 2.357033e+06 2.147803e+06 1.8454664e+06
000010 6a 0b d2 49 29 b6 cf 49 88 d2 d8 49 88 79 d9 49
       1.7206852e+06 1.7015731e+06 1.776209e+06 1.781553e+06
000020 36 79 d2 49 b8 30 d3 49 1c 80 0f 4a 9c c5 09 4a
       1.7241988e+06 1.730071e+06 2.351111e+06 2.257255e+06
000030 ac 2a f1 49 ba ea cf 49 aa c5 bb 49 fe 56 b0 49
       1.9756375e+06 1.7032552e+06 1.5382292e+06 1.4445758e+06
000040 85 83 af 49 26 e8 ae 49 89 1d ac 49 88 f6 aa 49
       1.4378086e+06 1.4328368e+06 1.4099691e+06 1.400529e+06

exp_avg f4 [1, 1, 2, 10]
000000 c6 6f 0a c3 42 8b a1 c2 02 2c 01 c2 46 f4 1f c3
       -138.43661 -80.77199 -32.292976 -159.9542
000010 2b e9 60 c3 2f 61 4f c3 34 13 6f c3 6a 15 03 c3
       -224.91081 -207.37962 -239.07501 -131.08365
000020 ae df a5 c2 89 f9 27 c2 a5 38 39 43 68 83 5c 43
       -82.936874 -41.993687 185.22127 220.5133
000030 1b 13 a9 42 0f 5a f3 c2 63 a4 f1 c2 44 44 ac c2
       84.537315 -121.675896 -120.82107 -86.13333
000040 e5 c3 74 c3 18 a3 03 c3 74 3d 54 c2 23 0f 8f c1
       -244.76521 -131.63708 -53.060013 -17.882391

exp_avg_sq f4 [1, 1, 2, 10]
000000 ce 4b 9b 48 8d ca ae 48 b0 24 d3 48 15 6c 0c 49
       318046.44 357972.4 432421.5 575169.3
000010 3f 56 38 49 5d 1f 6b 49 28 a6 93 49 29 93 b3 49
       755043.94 963061.8 1.209541e+06 1.4710771e+06
000020 cc b4 d4 49 08 de ea 49 39 1e b1 48 2f eb c0 48
       1.7424895e+06 1.924033e+06 362737.78 395097.47
000030 1c 0d d4 48 97 11 0b 49 18 9a 35 49 92 7e 66 49
       434280.88 569625.44 743841.5 944105.1
000040 f8 d5 98 49 e7 a5 b5 49 ac a3 d1 49 45 5b e5 49
       1.252031e+06 1.4880609e+06 1.7173655e+06 1.8788886e+06

exp_avg f4 [32, 164]
000000 81 62 a5 2e 4c ae 92 b7 28 4a b7 2e 37 f7 45 b7
       7.520829e-11 -1.748572e-05 8.335049e-11 -1.1799674e-05
000010 76 ed be 2e 71 27 02 b7 5d 52 a8 2e bb f2 dd b6
       8.682381e-11 -7.757787e-06 7.654386e-11 -6.614571e-06
000020 ee 19 1d b5 8e b5 ff b6 c0 0c dc b5 1e b6 04 b7
       -5.852479e-07 -7.620728e-06 -1.6394988e-06 -7.910216e-06
000030 92 26 e9 b5 40 24 2e b7 4f 29 3a b6 5e 7b 70 b7
       -1.7371078e-06 -1.0379648e-05 -2.7740205e-06 -1.4333838e-05
000040 38 f9 3e b6 73 72 70 b7 3c 6b b0 b5 aa 0e 90 b7
       -2.845727e-06 -1.4331762e-05 -1.3144231e-06 -1.7172966e-05
000050 cf 23 60 b5 73 e6 81 b7 76 8b 77 b5 26 d1 1e b7
       -8.349861e-07 -1.548531e-05 -9.221761e-07 -9.46623e-06
000060 16 84 4b b5 3f 49 5c b7 9f ab 89 b4 d3 53 12 b7
       -7.5815603e-07 -1.3130076e-05 -2.564311e-07 -8.721795e-06
000070 c0 a1 0e b4 cf d2 b7 b6 41 05 22 b5 99 2d 5d b6
       -1.3283625e-07 -5.4783663e-06 -6.035735e-07 -3.2958108e-06
000080 3f 58 a6 b5 d2 46 a5 b6 a1 4a 0f b6 4a 4e d1 b6
       -1.2393647e-06 -4.9256278e-06 -2.13521e-06 -6.2377994e-06
000090 ae 73 87 b6 72 d2 04 b7 d9 47 c7 b6 8c e6 18 b7
       -4.0367804e-06 -7.916811e-06 -5.9390263e-06 -9.113584e-06
0000a0 23 a5 b3 b6 39 76 15 b7 11 09 84 b6 57 3d 33 b7
       -5.35384e-06 -8.908618e-06 -3.934962e-06 -1.0683513e-05
0000b0 86 af 86 b6 f4 d1 04 b7 ad 38 83 b6 11 03 0a b7
       -4.013945e-06 -7.916697e-06 -3.910702e-06 -8.226155e-06
0000c0 4f c2 77 b6 b9 da 10 b7 32 e3 4c b6 42 10 19 b7
       -3.691897e-06 -8.633994e-06 -3.0530614e-06 -9.123296e-06
0000d0 7b 9c d4 b6 68 57 0c b7 e3 c8 e1 b6 e7 e8 3d b7
       -6.336309e-06 -8.365001e-06 -6.728909e-06 -1.1319505e-05
0000e0 24 08 c3 b6 7b 97 9e b7 a5 5a 7c b6 7a eb 99 b7
       -5.8124006e-06 -1.8905606e-05 -3.7603688e-06 -1.8348674e-05
0000f0 a3 7b ac b4 c8 19 9e b7 fb 94 6f b5 48 7b bf b7
       -3.2127454e-07 -1.8847073e-05 -8.9251233e-07 -2.2826382e-05
000100 90 ba 5b b5 cc b7 af b7 77 94 87 b4 a8 b9 8c b7
       -8.185534e-07 -2.0947213e-05 -2.5253732e-07 -1.6775753e-05
000110 ef 66 81 26 3f c8 19 b7 eb d2 16 25 e6 cc ad b6
       8.979073e-16 -9.166134e-06 1.3081888e-16 -5.179655e-06
000120 94 d0 97 2c 5e 5c 9e b6 6d 02 05 2d cb bc f3 b6
       4.314835e-12 -4.71952e-06 7.560713e-12 -7.2639427e-06
000130 f1 f3 5f 2d 85 53 51 b7 44 fc 54 b6 15 b6 6e b7
       1.2730248e-11 -1.2476817e-05 -3.17373e-06 -1.42283e-05
000140 73 fe 90 b6 2e 4b 5b b7 b7 cd ac 2e c4 30 62 b7
       -4.321156e-06 -1.3070921e-05 7.858197e-11 -1.3482004e-05
000150 7a db 27 2d 3c 5a 76 b7 7a 53 45 b5 70 af 3c b7
       9.5415845e-12 -1.4683752e-05 -7.3509693e-07 -1.124652e-05
000160 30 fa ce 2d f1 a6 65 b7 35 b9 15 2b 8b c0 69 b7
       2.3530594e-11 -1.3688333e-05 5.319246e-13 -1.3932712e-05
000170 80 0d e5 2a 96 b3 0e b7 e2 2f d1 2a 30 41 23 b7
       4.068794e-13 -8.505673e-06 3.7159083e-13 -9.730735e-06
000180 cc 29 09 2c 5d fb 4e b7 0c 90 20 b5 0b 7e 4b b7
       1.9492073e-12 -1.2337082e-05 -5.981426e-07 -1.212909e-05
000190 dc f5 e7 b4 b0 c5 8a b7 d0 b0 0b b5 83 f1 a6 b7
       -4.320599e-07 -1.6542937e-05 -5.203883e-07 -1.9901205e-05
0001a0 ef 48 34 2e 52 68 c1 b7 5c 80 36 2e 76 d5 dc b7
       4.099204e-11 -2.305597e-05 4.1496015e-11 -2.6325444e-05
0001b0 84 eb fb 2d fd 66 03 b8 9f be 9f 2d cb a7 05 b8
       2.8639986e-11 -3.132875e-05 1.816086e-11 -3.186594e-05
0001c0 f7 9a f9 2c 2a 3e e4 b7 7f b8 15 2b 26 7d d7 b7
       7.09421e-12 -2.7208665e-05 5.3191474e-13 -2.5688274e-05
0001d0 f9 5c 11 8f a7 b9 c7 b7 1e 24 ab 8c bc 65 7d b7
       -7.166958e-30 -2.38091e-05 -2.636846e-31 -1.5103662e-05
0001e0 04 00 00 00 75 32 d5 b6 04 00 00 00 e2 b4 b1 b6
       6e-45 -6.3537686e-06 6e-45 -5.2960686e-06
0001f0 04 00 00 00 6b fc 45 2d 04 00 00 00 12 98 62 b5
       6e-45 1.12542016e-11 6e-45 -8.441285e-07
000200 80 71 04 0f 76 01 f1 b6 7e 84 68 2a f4 93 2e b7
       6.529962e-30 -7.1825298e-06 2.0651707e-13 -1.0405656e-05
000210 bf c4 b9 b4 82 60 f9 b6 f9 b5 05 b6 29 b1 3c b7
       -3.4602087e-07 -7.4320133e-06 -1.9924466e-06 -1.12469215e-05
000220 9a 8a d1 b5 d6 a0 98 b7 39 7a 5e b4 ad 4d 8a b7
       -1.5612052e-06 -1.8194707e-05 -2.0719825e-07 -1.6487053e-05
000230 27 2d e9 13 d5 8b 56 b7 33 46 83 b5 83 96 80 b7
       5.8861993e-27 -1.2787951e-05 -9.780691e-07 -1.5328877e-05
000240 ae 1a 9e b5 39 08 90 b7 04 00 00 00 78 a7 82 b7
       -1.1779682e-06 -1.7169967e-05 6e-45 -1.5575191e-05
000250 04 00 00 00 48 12 03 b7 04 00 00 00 14 f1 ac b6
       6e-45 -7.812465e-06 6e-45 -5.1540646e-06
000260 04 00 00 00 90 ee 2e b7 04 00 00 00 85 02 62 b7
       6e-45 -1.0426753e-05 6e-45 -1.3471236e-05
000270 04 00 00 00 3a 92 2b b7 da b5 11 b3 3e 97 91 b6
       6e-45 -1.022644e-05 -3.3925836e-08 -4.3389437e-06
000280 65 17 a0 b5 ff 83 c4 b6 d2 a5 10 b6 0e 02 d0 b6
       -1.1927738e-06 -5.8566216e-06 -2.1554192e-06 -6.1991223e-06
000290 04 00 00 00 04 00 00 00 04 00 00 00 04 00 00 00
       6e-45 6e-45 6e-45 6e-45
0002a0 04 00 00 00 04 00 00 00 04 00 00 00 04 00 00 00
       6e-45 6e-45 6e-45 6e-45
0002b0 04 00 00 00 04 00 00 00 04 00 00 00 04 00 00 00
       6e-45 6e-45 6e-45 6e-45
0002c0 04 00 00 00 04 00 00 00 04 00 00 00 04 00 00 00
       6e-45 6e-45 6e-45 6e-45
0002d0 04 00 00 00 04 00 00 00 04 00 00 00 04 00 00 00
       6e-45 6e-45 6e-45 6e-45
0002e0 04 00 00 00 04 00 00 00 04 00 00 00 04 00 00 00
       6e-45 6e-45 6e-45 6e-45
0002f0 04 00 00 00 04 00 00 00 04 00 00 00 04 00 00 00
       6e-45 6e-45 6e-45 6e-45
000300 04 00 00 00 04 00 00 00 04 00 00 00 04 00 00 00
       6e-45 6e-45 6e-45 6e-45
000310 04 00 00 00 04 00 00 00 04 00 00 00 04 00 00 00
       6e-45 6e-45 6e-45 6e-45
000320 04 00 00 00 04 00 00 00 04 00 00 00 04 00 00 00
       6e-45 6e-45 6e-45 6e-45
000330 04 00 00 00 04 00 00 00 04 00 00 00 04 00 00 00
       6e-45 6e-45 6e-45 6e-45
000340 04 00 00 00 04 00 00 00 04 00 00 00 04 00 00 00
       6e-45 6e-45 6e-45 6e-45
000350 04 00 00 00 04 00 00 00 04 00 00 00 04 00 00 00
       6e-45 6e-45 6e-45 6e-45
000360 04 00 00 00 04 00 00 00 04 00 00 00 04 00 00 00
       6e-45 6e-45 6e-45 6e-45
000370 04 00 00 00 04 00 00 00 04 00 00 00 04 00 00 00
       6e-45 6e-45 6e-45 6e-45
000380 04 00 00 00 04 00 00 00 04 00 00 00 04 00 00 00
       6e-45 6e-45 6e-45 6e-45
000390 04 00 00 00 04 00 00 00 04 00 00 00 04 00 00 00
       6e-45 6e-45 6e-45 6e-45
0003a0 04 00 00 00 04 00 00 00 04 00 00 00 04 00 00 00
       6e-45 6e-45 6e-45 6e-45
0003b0 04 00 00 00 04 00 00 00 04 00 00 00 04 00 00 00
       6e-45 6e-45 6e-45 6e-45
0003c0 04 00 00 00 04 00 00 00 04 00 00 00 04 00 00 00
       6e-45 6e-45 6e-45 6e-45
0003d0 04 00 00 00 04 00 00 00 04 00 00 00 04 00 00 00
       6e-45 6e-45 6e-45 6e-45
0003e0 04 00 00 00 04 00 00 00 04 00 00 00 04 00 00 00
       6e-45 6e-45 6e-45 6e-45
0003f0 04 00 00 00 04 00 00 00 04 00 00 00 04 00 00 00
       6e-45 6e-45 6e-45 6e-45

exp_avg_sq f4 [32, 164]
000000 af 77 42 3b 2b 55 71 3b a7 2e 10 3b f2 b5 29 3b
       0.0029673388 0.0036824446 0.0022000463 0.0025895801
000010 57 19 c6 3a 7b 36 12 3b 00 d6 cb 3a 61 28 ea 3a
       0.0015113753 0.0022310305 0.0015551448 0.0017864817
000020 cc c5 d1 3a f9 a0 fe 3a c8 6a 9f 3a 2c 23 e7 3a
       0.0016004383 0.0019426636 0.0012162561 0.0017634383
000030 0b 0b ad 3a d2 c5 d8 3a 36 97 f1 3a 6d e2 17 3b
       0.0013202144 0.0016538447 0.0018431905 0.0023175732
000040 ab 65 17 3b 16 5b 47 3b 3e 2e 3a 3b 31 f6 7f 3b
       0.002310137 0.0030419282 0.002840891 0.0039056654
000050 b9 84 81 3b c5 c0 9a 3b dd 27 9d 3b c3 52 ba 3b
       0.0039525894 0.004722687 0.004796012 0.0056861355
000060 18 5b a6 3b 35 70 c6 3b bb 76 8b 3b b3 9e ab 3b
       0.005076777 0.0060558566 0.004256097 0.0052374243
000070 d1 ea 51 3b af a2 6c 3b 36 27 06 3b 29 6f 23 3b
       0.003203083 0.003610771 0.002047015 0.0024938083
000080 f8 7d 00 3b 55 02 2e 3b 1f e6 17 3b 6f 2d 3c 3b
       0.0019606333 0.0026551683 0.0023177934 0.0028713604
000090 5d 83 1f 3b e3 47 47 3b f9 a3 19 3b 39 6f 59 3b
       0.0024339773 0.0030407838 0.0023443683 0.0033177866
0000a0 f4 56 22 3b ac 74 41 3b 1c 5d 31 3b 60 26 61 3b
       0.0024771066 0.0029519005 0.0027063554 0.0034355149
0000b0 20 36 14 3b 76 26 5e 3b 49 25 2a 3b 1a 23 73 3b
       0.0022615269 0.0033897436 0.0025962165 0.003709978
0000c0 85 b1 47 3b 0c 1b 7a 3b 55 93 1c 3b 55 3e 75 3b
       0.00304708 0.0038163094 0.0023891528 0.0037421186
0000d0 26 e1 dd 3a 15 90 32 3b 71 ee df 3a 86 a5 25 3b
       0.0016928061 0.0027246524 0.0017084611 0.0025275662
0000e0 88 de 12 3b 8a 5b 59 3b 73 58 36 3b 06 a2 80 3b
       0.002241047 0.0033166134 0.0027823716 0.0039255647
0000f0 21 75 1f 3b 87 32 51 3b 4f c1 e0 3a c8 a1 1c 3b
       0.002433129 0.0031920986 0.0017147454 0.002390014
000100 43 70 c9 3a b5 a0 0b 3b d5 eb 12 3b 98 2c 3c 3b
       0.001536854 0.0021305506 0.00224184 0.0028713103
000110 ec 0a 11 3b 3e 73 4d 3b 9e 74 af 3a d5 af 04 3b
       0.0022131754 0.0031349207 0.0013386195 0.0020246406
000120 35 af 5a 3a 9a 19 af 3a 88 9e 9f 3a 15 26 d5 3a
       0.0008342148 0.001335907 0.0012177983 0.001626196
000130 db 13 d6 3a c9 8b 10 3b 8a 02 f3 3a 41 f0 27 3b
       0.0016332822 0.0022055975 0.0018540185 0.002562538
000140 3b 67 b8 3a b6 cb fb 3a b7 bd 98 3a f9 51 d0 3a
       0.0014068851 0.0019210491 0.0011653219 0.001589357
000150 49 1a 82 3a d5 fa a6 3a 8c f1 9a 3a 9f 6b c6 3a
       0.0009926046 0.0012739549 0.0011821254 0.0015138275
000160 54 c2 c2 3a 4a 23 0c 3b 47 1d e8 3a a9 f5 11 3b
       0.001485894 0.0021383339 0.0017708921 0.002227167
000170 93 94 df 3a 6a ab 11 3b bb 7b 16 3b 10 43 3a 3b
       0.0017057828 0.0022227415 0.0022961933 0.002842132
000180 86 8f 2b 3b 60 5f 54 3b e3 48 33 3b c3 5d 87 3b
       0.0026178076 0.003240548 0.0027356676 0.0041310503
000190 2f b8 8f 3b a4 0d b4 3b d4 10 a4 3b dd 5c d8 3b
       0.00438597 0.00549479 0.005006889 0.006602867
0001a0 03 a9 b3 3b ee 1c ef 3b 43 ea ad 3b ef e5 dc 3b
       0.0054827943 0.00729715 0.005307467 0.0067412774
0001b0 d6 d2 a6 3b 89 c8 e4 3b 1b ad 9a 3b 36 de e1 3b
       0.0050910516 0.0069819135 0.004720343 0.0068929447
0001c0 ab 50 95 3b 44 49 c1 3b 94 61 7a 3b b0 79 99 3b
       0.0045567355 0.0058986265 0.0038205134 0.0046836957
0001d0 92 01 3c 3b 87 13 74 3b c0 fa 0e 3b 4e 54 4c 3b
       0.002868746 0.0037243085 0.002181694 0.003117818
0001e0 3f 78 0f 3b 83 5d 3b 3b 1e f9 c3 3a 25 47 14 3b
       0.002189174 0.0028589673 0.0014951562 0.0022625413
0001f0 8f f1 97 3a 22 cc 07 3b e5 20 a6 3a 96 a0 05 3b
       0.0011592376 0.0020721038 0.0012674598 0.0020389906
000200 89 fe b8 3a 35 12 12 3b fd 60 0c 3b 93 1f 60 3b
       0.0014113943 0.0022288684 0.0021420114 0.0034198507
000210 57 35 1e 3b 5a ad 6a 3b c6 51 39 3b 40 61 5d 3b
       0.002414068 0.0035808892 0.00282775 0.003377989
000220 73 1f fd 3a 11 cb 33 3b e6 19 ba 3a f5 3c 16 3b
       0.0019311741 0.002743427 0.0014198392 0.0022924517
000230 61 3e a9 3a 5b 3c f2 3a 50 dd f0 3a 23 06 09 3b
       0.0012912267 0.0018481122 0.0018376503 0.0020908199
000240 d2 9d ba 3a 13 6f 17 3b 63 42 d4 3a 41 07 22 3b
       0.0014237708 0.0023106977 0.0016194101 0.0024723562
000250 7c e5 a7 3a b1 8f e2 3a 52 85 b2 3a cd 40 0d 3b
       0.001280948 0.0017285255 0.0013620055 0.0021553517
000260 24 1d 91 3a c7 d7 fc 3a d6 4b c7 3a b2 60 02 3b
       0.0011071307 0.0019290381 0.0015205096 0.001989406
000270 18 cc 8c 3a ff 04 f0 3a 8d 6f 83 3a 9b d5 f3 3a
       0.0010741977 0.0018312036 0.0010027752 0.0018603088
000280 06 28 9f 3a df 64 c3 3a 97 2c 9c 3a 53 72 e9 3a
       0.0012142665 0.0014907381 0.0011915144 0.001781056
000290 66 9c c6 3a 9a e0 dc 3a 6a ff e1 3a 4c 3f f7 3a
       0.0015152812 0.0016851604 0.0017242257 0.0018863468
0002a0 cc c0 fb 3a a5 2c 0c 3b 5c ef f9 3a 21 dc 03 3b
       0.0019207238 0.0021388915 0.0019068527 0.002012022
0002b0 51 92 d1 3a 18 02 e2 3a 34 f7 af 3a 61 29 c5 3a
       0.001598904 0.0017243056 0.0013425113 0.0015042239
0002c0 53 10 a8 3a de 96 ad 3a 7f 90 92 3a 92 85 ae 3a
       0.0012822248 0.0013243814 0.0011181979 0.0013314954
0002d0 16 ab 67 3a 3b 15 79 3a b5 b5 26 3a a9 ee 1f 3a
       0.00088374445 0.000950176 0.0006359474 0.0006100932
0002e0 92 aa e1 39 a2 f0 2f 3a 63 4e 58 3a 65 d4 69 3a
       0.0004304243 0.00067115773 0.00082514266 0.0008919894
0002f0 5d 94 4f 3a c2 9a 78 3a a5 9d 2b 3a e8 e2 85 3a
       0.0007918531 0.000948351 0.0006546623 0.0010214718
000300 eb 7f 42 3a 43 59 54 3a a4 03 65 3a cf bf 90 3a
       0.0007419574 0.0008100459 0.0008736199 0.0011043492
000310 01 7c 6b 3a 48 1d a5 3a c3 b4 7e 3a 0d 01 9d 3a
       0.00089830166 0.0012597227 0.00097162666 0.0011978463
000320 5e 78 4b 3a 27 59 81 3a e3 8e 13 3a f5 a1 40 3a
       0.00077617716 0.0009868488 0.0005628897 0.0007348352
000330 d1 cb ef 39 6d ed 14 3a 73 cd 67 39 61 ea c1 39
       0.00045737487 0.0005681131 0.00022106413 0.00036986455
000340 98 8a 4c 39 9c 17 99 39 ee 45 c4 38 79 a7 42 39
       0.00019506586 0.00029200024 9.359034e-05 0.0001856367
000350 09 01 3d 39 5e 9e 7d 39 6d 29 86 39 e0 02 b4 39
       0.0001802483 0.00024186957 0.00025589336 0.00034334417
000360 aa 8f b4 39 cd e1 e1 39 d9 ae 2c 39 87 78 9d 39
       0.00034439313 0.0004308358 0.00016468334 0.00030035173
000370 73 82 34 39 cf ed ac 39 19 4d 7c 39 69 8c 9b 39
       0.00017214734 0.00032983578 0.00024061314 0.00029668518
000380 59 f7 67 39 38 1b b8 39 bf a6 75 39 0c e6 a1 39
       0.00022122021 0.00035115494 0.00023427139 0.0003087971
000390 ce d2 4d 39 65 10 7b 39 11 cf 81 39 2c 3a 99 39
       0.00019628854 0.00023943333 0.00024759074 0.00029225776
0003a0 0c 07 93 39 9f 8e af 39 54 18 a5 39 64 d0 ab 39
       0.00028043275 0.00033484862 0.00031489378 0.00032770925
0003b0 f6 23 84 39 d5 5e b2 39 7b 87 be 39 33 e3 02 3a
       0.00025203795 0.0003402146 0.00036340565 0.0004992962
0003c0 e2 68 e8 39 a6 cb 0d 3a d1 a7 be 39 3c 4c 26 3a
       0.00044328632 0.0005409069 0.00036364657 0.0006343757
0003d0 b4 85 b4 39 47 2b 21 3a 68 e2 2a 3a 42 ec 50 3a
       0.00034431892 0.00061481114 0.00065187225 0.00079697755
0003e0 a8 7c 41 3a d9 f9 94 3a 5e 93 56 3a 21 52 92 3a
       0.0007380941 0.0011365964 0.00081854116 0.0011163392
0003f0 7b 2b 2d 3a 8c 04 78 3a a3 cb 4c 3a de 69 8b 3a
       0.00066059054 0.0009461127 0.00078123267 0.0010636409

exp_avg f4 [32]
000000 f2 d7 23 b7 04 00 00 00 d8 db dc 40 aa 2a ce 40
       -9.765836e-06 6e-45 6.9018364 6.442708
000010 52 c1 e3 40 09 4e d4 31 98 2d d8 40 04 00 00 00
       7.1173487 6.1788836e-09 6.7555656 6e-45
000020 89 c4 a0 2b 51 4a 13 ad ba 8b f1 40 f5 5a be 40
       1.1423233e-12 -8.372484e-12 7.5483065 5.948603
000030 64 95 e0 40 d0 18 8c 2f 8b c3 dc ba d1 e8 d9 40
       7.018236 2.5483482e-10 -0.0016842944 6.80967
000040 a6 f6 cd 40 99 0f a4 31 8a 85 cb 40 6a d8 df 40
       6.4363585 4.7748014e-09 6.360051 6.9951677
000050 65 2b 54 ba c7 43 ab bb ae 03 d1 40 77 2d 4b 39
       -0.00080936245 -0.0052265855 6.531699 0.00019376526
000060 5a e5 d9 40 77 d0 dd 40 48 73 cc 40 63 6b de 40
       6.809247 6.9316974 6.3890724 6.9506087
000070 ee 80 ee 40 91 23 e0 40 6c 7d cd 40 e1 77 f1 40
       7.4532385 7.0043416 6.4215603 7.5458837

exp_avg_sq f4 [32]
000000 b2 c9 6d 3c 29 67 6b 3b 20 71 8c 43 a0 fc 60 43
       0.01451342 0.0035919643 280.8838 224.98682
000010 27 01 93 43 e9 25 6d 3b 67 98 80 43 31 de 93 3a
       294.009 0.0036185926 257.19064 0.0011281428
000020 96 b6 60 3b 1f 6f ab 3e 0e b1 b0 43 72 3b 06 43
       0.0034288517 0.33483216 353.38324 134.23221
000030 26 0e 90 43 da de 8a 3c 7c e6 90 3e a0 48 84 43
       288.11053 0.016951967 0.28300846 264.56738
000040 43 8c 5d 43 4a f5 69 3c d6 ac 5c 43 83 db 8e 43
       221.5479 0.014279673 220.67514 285.71494
000050 97 9e 92 3e 7a f5 b8 3c 14 58 63 43 fd 2a a0 3d
       0.2863662 0.02257799 227.34406 0.07820699
000060 0c 90 81 43 74 df 8b 43 b4 6d 47 43 08 ef 8c 43
       259.12537 279.74573 199.42853 281.86743
000070 ca e9 ac 43 87 80 91 43 e7 fe 4f 43 2f 3f ae 43
       345.82648 291.00412 207.99571 348.49362

exp_avg f4 [10, 32]
000000 b4 7c e1 37 04 00 00 80 3f 66 85 42 21 5a 8b 42
       2.688016e-05 -6e-45 66.6997 69.67603
000010 84 37 7e 42 63 b2 0a ad 57 d6 88 42 04 00 00 80
       63.554214 -7.884002e-12 68.41863 -6e-45
000020 7d 73 af aa c8 65 0b 2c 92 85 7e 42 61 8a 74 42
       -3.116638e-13 1.9809588e-12 63.63044 61.135136
000030 06 76 81 42 b0 a4 d1 ae b8 c8 16 3a 72 f8 84 42
       64.730515 -9.533474e-11 0.00057519553 66.485245
000040 c6 77 8c 42 9c a6 88 b0 21 b3 8d 42 c1 a9 85 42
       70.23393 -9.942656e-10 70.84986 66.83155
000050 7b e3 74 38 3d cc 20 3b c8 ae 8a 42 4f 41 c8 b6
       5.838599e-05 0.0024535798 69.34137 -5.9680674e-06
000060 b4 65 84 42 53 93 84 42 ed 60 84 42 02 76 85 42
       66.19864 66.28774 66.18931 66.730484
000070 a6 ce 79 42 df c4 83 42 20 53 87 42 9a c9 78 42
       62.451805 65.884514 67.66235 62.196877
000080 d7 44 bb 37 04 00 00 80 14 cd 84 42 b4 bd 8a 42
       2.2324193e-05 -6e-45 66.40054 69.370514
000090 49 10 7d 42 d4 be 99 2f ea 3a 88 42 04 00 00 80
       63.265903 2.796613e-10 68.11507 -6e-45
0000a0 c7 ef ad aa 2d cc 12 2c cf 66 7d 42 c6 74 73 42
       -3.0897352e-13 2.0861188e-12 63.3504 60.864037
0000b0 d2 e2 80 42 b9 e1 d3 ae 56 a1 1d 3a b6 5b 84 42
       64.44301 -9.6352655e-11 0.00060131156 66.17912
0000c0 b6 d8 8b 42 9f 3b 8c b0 f5 0e 8d 42 e4 0c 85 42
       69.92326 -1.0203286e-09 70.52921 66.52518
0000d0 d7 08 3d 38 4d ed 30 3b 4c 10 8a 42 b0 a9 be b6
       4.5069344e-05 0.002699691 69.03183 -5.6821955e-06
0000e0 4b d2 83 42 6f fb 83 42 25 cb 83 42 0a e3 84 42
       65.91073 65.99108 65.89677 66.443436
0000f0 98 a8 78 42 ea 2d 83 42 3f bb 86 42 8c bf 77 42
       62.164642 65.589676 67.365715 61.937057
000100 bf 25 a0 37 04 00 00 80 a8 41 82 42 6d 18 88 42
       1.9091063e-05 -6e-45 65.128235 68.04771
000110 e3 34 78 42 c7 b4 9b 2f c5 a5 85 42 04 00 00 80
       62.051647 2.8322786e-10 66.82377 -6e-45
000120 4d 89 ac aa 7c fb 07 2c 10 92 78 42 57 d7 6e 42
       -3.064861e-13 1.9324256e-12 62.14264 59.710293
000130 60 e0 7c 42 99 eb cc ae 26 a1 09 3a 74 d3 81 42
       63.219116 -9.3186965e-11 0.0005250148 64.912994
000140 3d 2d 89 42 cb 42 8a b0 82 5d 8a 42 46 80 82 42
       68.588356 -1.0059805e-09 69.18263 65.250534
000150 25 29 1d 39 73 a2 35 3b 23 6d 87 42 9b 3b c8 b6
       0.00014988014 0.0027715235 67.71316 -5.9674035e-06
000160 87 4f 81 42 07 7b 81 42 a4 49 81 42 30 59 82 42
       64.65533 64.74029 64.64383 65.174194
000170 ed ec 73 42 fe b2 80 42 14 28 84 42 08 0a 73 42
       60.981373 64.349594 66.07828 60.759796
000180 2d 1e a3 37 04 00 00 80 2c 81 83 42 a7 68 89 42
       1.9445166e-05 -6e-45 65.75229 68.7044
000190 71 99 7a 42 d7 e9 93 2f 50 f0 86 42 04 00 00 80
       62.649845 2.6905297e-10 67.46936 -6e-45
0001a0 22 f3 84 aa 14 0d 16 2c 48 f6 7a 42 48 1f 71 42
       -2.3616618e-13 2.1323542e-12 62.74051 60.28055
0001b0 76 52 7f 42 27 5c ab ae 36 fe 11 3a c4 16 83 42
       63.83053 -7.792549e-11 0.00055691914 65.544464
0001c0 74 7e 8a 42 fb 4c 76 b0 9a af 8b 42 8a bf 83 42
       69.24698 -8.9603674e-10 69.84297 65.8741
0001d0 e8 73 28 39 82 7d 32 3b 93 b6 88 42 87 c0 ca b6
       0.00016064907 0.0027235453 68.35659 -6.0424823e-06
0001e0 81 8f 82 42 e6 bd 82 42 fe 88 82 42 0f 99 83 42
       65.28028 65.370895 65.26756 65.79894
0001f0 46 48 76 42 83 f2 81 42 46 6f 85 42 f2 5b 75 42
       61.57058 64.973656 66.71733 61.33979
000200 1a e8 7e 37 04 00 00 80 2b 3a 83 42 96 11 89 42
       1.519362e-05 -6e-45 65.61361 68.53435
000210 9e f9 79 42 2a 39 9c 2f 40 9f 86 42 04 00 00 80
       62.493767 2.8416852e-10 67.311035 -6e-45
000220 53 fa 73 aa 68 a9 10 2c f0 5a 7a 42 78 85 70 42
       -2.1669584e-13 2.055767e-12 62.588806 60.13034
000230 14 b1 7e 42 17 8e 9b ae 19 18 26 3a 99 c2 82 42
       63.672928 -7.073824e-11 0.00063359883 65.38007
000240 d9 23 8a 42 5c 4a 5c b0 84 58 8b 42 3c 6f 83 42
       69.070015 -8.0141205e-10 69.67288 65.717255
000250 56 a4 19 39 17 34 41 3b 94 5e 88 42 76 26 c0 b6
       0.00014652437 0.002948051 68.18472 -5.7265233e-06
000260 64 41 82 42 07 69 82 42 19 42 82 42 ae 4f 83 42
       65.127716 65.20513 65.1291 65.655624
000270 d5 af 75 42 d4 a6 81 42 65 1e 85 42 a6 bd 74 42
       61.42171 64.825836 66.559364 61.185204
000280 9d 78 82 37 04 00 00 80 68 bc 83 42 5e 90 89 42
       1.5553373e-05 -6e-45 65.86798 68.78197
000290 8a dc 7a 42 ca d3 94 2f f1 14 87 42 04 00 00 80
       62.71537 2.7071528e-10 67.5409 -6e-45
0002a0 50 e5 67 aa 54 2f fd 2b 8e 39 7b 42 93 4e 71 42
       -2.059648e-13 1.7989867e-12 62.806206 60.326733
0002b0 b9 9f 7f 42 8f f0 97 ae 82 0c 30 3a 37 41 83 42
       63.90598 -6.909417e-11 0.0006715731 65.62737
0002c0 c7 9d 8a 42 9e b3 3d b0 02 d6 8b 42 82 e9 83 42
       69.30816 -6.901305e-10 69.917984 65.95607
0002d0 b9 55 25 39 be 6d 39 3b 97 d4 88 42 a3 71 bd b6
       0.0001576756 0.0028294171 68.415215 -5.645868e-06
0002e0 e9 b9 82 42 1a e6 82 42 33 be 82 42 b1 c6 83 42
       65.363106 65.44942 65.37148 65.88807
0002f0 af 97 76 42 c7 22 82 42 db 98 85 42 f3 a0 75 42
       61.64813 65.067924 66.798546 61.407177
000300 00 ab 4b 37 04 00 00 80 86 3a 85 42 1c 19 8b 42
       1.2139557e-05 -6e-45 66.6143 69.54904
000310 da a2 7d 42 7e 5b ac 2f a4 87 88 42 04 00 00 80
       63.409035 3.1351627e-10 68.26492 -6e-45
000320 ff 55 79 aa 90 42 f2 2b d0 ef 7d 42 ec e5 73 42
       -2.2145479e-13 1.7213609e-12 63.48419 60.974533
000330 01 32 81 42 5a 53 9f ae d9 2a 48 3a 75 b4 84 42
       64.597664 -7.245289e-11 0.00076357793 66.352455
000340 c0 21 8c 42 10 45 4f b0 15 5d 8d 42 eb 5d 85 42
       70.06592 -7.5404305e-10 70.6818 66.68343
000350 f2 52 1e 39 76 79 4d 3b 3c 53 8a 42 b5 14 c1 b6
       0.00015098954 0.0031352914 69.16257 -5.754259e-06
000360 00 23 84 42 d4 51 84 42 28 2f 84 42 71 36 85 42
       66.06836 66.15982 66.0921 66.60633
000370 f0 44 79 42 2f 8c 83 42 e3 15 87 42 36 58 78 42
       62.31732 65.773796 67.54275 62.086143
000380 52 df 2c 37 04 00 00 80 46 96 85 42 d1 71 8b 42
       1.0303995e-05 -6e-45 66.7935 69.7223
000390 c9 3d 7e 42 6f 0f ad 2f 69 d2 88 42 04 00 00 80
       63.560337 3.1479483e-10 68.41096 -6e-45
0003a0 19 42 7b aa 2f 3d fc 2b 78 89 7e 42 42 66 74 42
       -2.231621e-13 1.7922659e-12 63.634247 61.09986
0003b0 09 81 81 42 4e db a1 ae 3f 82 41 3a 58 06 85 42
       64.75202 -7.360389e-11 0.0007381774 66.51239
0003c0 3c 77 8c 42 c1 d8 3e b0 08 b5 8d 42 91 ad 85 42
       70.23288 -6.9429623e-10 70.85358 66.839
0003d0 4f 1c 2c 39 20 42 52 3b 8b aa 8a 42 14 07 bd b6
       0.00016413744 0.003208287 69.33309 -5.633463e-06
0003e0 66 70 84 42 53 9d 84 42 72 82 84 42 54 85 85 42
       66.21953 66.307274 66.254776 66.76041
0003f0 bb d8 79 42 7a db 83 42 77 70 87 42 a3 f4 78 42
       62.46165 65.928665 67.71966 62.238903

exp_avg_sq f4 [10, 32]
000000 42 76 d4 3c d3 65 23 3c 9e c2 a5 46 c7 24 b8 46
       0.025935296 0.009973007 21217.309 23570.389
000010 33 ff 97 46 58 f0 4c 3b 37 8d a9 46 98 e5 4d 3a
       19455.6 0.0031271186 21702.607 0.00078543415
000020 4f 9f 6f 3b 9d b2 ca 3d 74 5a 90 46 56 53 4b 46
       0.0036563461 0.09897349 18477.227 13012.834
000030 1e 02 9d 46 5f e8 a5 3c 0a ab fd 3d 76 61 a5 46
       20097.059 0.020252405 0.12386139 21168.73
000040 e0 1b b2 46 43 87 bb 3b 5f dc ba 46 7d 17 a2 46
       22797.938 0.0057229116 23918.186 20747.744
000050 f6 5f 2e 3e d5 4c 0c 3b 88 a1 a9 46 68 a5 28 3c
       0.17028794 0.00214081 21712.766 0.010293342
000060 fa f1 a3 46 65 75 a2 46 e5 ca 94 46 9d 9c a0 46
       20984.988 20794.697 19045.447 20558.307
000070 ea ce 92 46 4f 8b 9e 46 e7 b3 a2 46 1a bf 8d 46
       18791.457 20293.654 20825.951 18143.55
000080 3c 1b d4 3c 39 d5 22 3c c7 e1 99 46 7e 93 aa 46
       0.025891893 0.009938532 19696.889 21833.746
000090 24 c3 8c 46 5a 57 4d 3b bf 45 9d 46 aa 33 4d 3a
       18017.57 0.0031332583 20130.873 0.0007827828
0000a0 5b af 6e 3b 84 87 ca 3d f4 ef 85 46 c8 9e 40 46
       0.0036420438 0.09889129 17143.977 12327.695
0000b0 44 94 91 46 51 76 a5 3c 5b 54 fd 3d 74 6c 99 46
       18634.133 0.02019802 0.12369605 19638.227
0000c0 04 32 a5 46 3a 2b bb 3b 17 36 ad 46 fc 54 96 46
       21145.008 0.00571194 22171.045 19242.492
0000d0 a4 71 2e 3e f3 c5 0b 3b a8 89 9d 46 a4 0e 29 3c
       0.17035538 0.0021327704 20164.828 0.010318432
0000e0 98 d3 97 46 61 ba 96 46 86 b2 8a 46 88 00 95 46
       19433.797 19293.19 17753.262 19072.266
0000f0 a6 23 88 46 4c 30 93 46 eb fa 96 46 78 6f 83 46
       17425.824 18840.148 19325.459 16823.734
000100 77 b4 d4 3c 9d cd 24 3c b2 df b7 46 e6 bd cc 46
       0.025964959 0.010058788 23535.848 26206.95
000110 ba 21 a9 46 76 12 4f 3b c1 5b bc 46 c5 ce 4c 3a
       21648.863 0.0031596697 24109.877 0.00078127935
000120 0c 57 6e 3b ea 64 cb 3d ee 2f a0 46 44 6d 5e 46
       0.0036367802 0.09931357 20503.965 14235.316
000130 0b 7f ae 46 91 58 a5 3c 80 b1 fd 3d e7 af b7 46
       22335.521 0.020183833 0.12387371 23511.951
000140 b1 de c5 46 50 8d bb 3b c3 ac cf 46 7a ff b3 46
       25327.346 0.005723633 26582.38 23039.738
000150 51 11 2f 3e 51 ed 0b 3b 65 5a bc 46 c7 65 29 3c
       0.1709645 0.0021351168 24109.197 0.010339207
000160 c2 67 b6 46 a7 64 b4 46 35 ef a4 46 c0 5d b2 46
       23347.879 23090.326 21111.604 22830.875
000170 02 0c a3 46 fd 0e b0 46 01 d9 b4 46 ae 70 9d 46
       20870.004 22535.494 23148.502 20152.34
000180 e9 e6 d3 3c 55 34 23 3c fd 91 97 46 dc f0 a7 46
       0.025866942 0.009961207 19400.994 21496.43
000190 69 8e 8a 46 40 b9 4d 3b 04 ec 9a 46 3f d3 4a 3a
       17735.205 0.0031390935 19830.008 0.00077371666
0001a0 1f 6f 6d 3b e1 f6 ca 3d 93 e1 83 46 99 c7 3e 46
       0.0036229563 0.0991037 16880.787 12209.899
0001b0 a9 5f 8f 46 f3 d9 a4 3c e1 76 fc 3d 20 1e 97 46
       18351.83 0.020123458 0.12327362 19343.062
0001c0 ff b0 a2 46 20 1c bb 3b da 94 aa 46 25 08 94 46
       20824.498 0.00571014 21834.426 18948.072
0001d0 3a a3 2e 3e ad cd 0b 3b 8d 3d 9b 46 65 05 29 3c
       0.17054453 0.002133231 19870.775 0.010316228
0001e0 d3 75 95 46 c1 74 94 46 87 d0 88 46 04 c3 92 46
       19130.912 19002.377 17512.264 18785.508
0001f0 38 08 86 46 44 0c 91 46 4d ab 94 46 6a 64 81 46
       17156.11 18566.133 19029.65 16562.207
000200 cf b7 d4 3c 8b 78 24 3c 03 52 aa 46 6c 5e bd 46
       0.025966553 0.010038505 21801.006 24239.21
000210 ab 54 9c 46 14 5e 4f 3b 81 66 ae 46 63 f7 4b 3a
       20010.334 0.0031641768 22323.252 0.0007780699
000220 bd 98 6d 3b c4 d6 cb 3d 82 4a 94 46 43 50 50 46
       0.003625437 0.09953073 18981.254 13332.065
000230 7c 79 a1 46 5c 6e a5 3c 3a 7e fd 3d f6 0b aa 46
       20668.742 0.020194225 0.123775914 21765.98
000240 1d 21 b7 46 b2 c6 bb 3b 16 31 c0 46 bc 9d a6 46
       23440.557 0.0057304734 24600.543 21326.867
000250 c3 35 2f 3e ea f0 0c 3b 09 77 ae 46 42 a9 29 3c
       0.17110352 0.00215059 22331.518 0.010355296
000260 81 9f a8 46 88 05 a7 46 81 f4 98 46 a1 22 a5 46
       21583.752 21378.766 19578.252 21137.314
000270 66 de 96 46 a4 1e a3 46 de 3e a7 46 5b a4 91 46
       19311.2 20879.32 21407.434 18642.178
000280 1d d4 d3 3c b9 5f 23 3c c9 fd a4 46 96 49 b7 46
       0.02585798 0.0099715525 21118.893 23460.793
000290 37 45 97 46 8e 58 4e 3b 0f e6 a8 46 cf 8e 4c 3a
       19362.607 0.0031485888 21619.03 0.00078032626
0002a0 2b 01 6b 3b ba 05 cb 3d 50 9c 8f 46 50 2a 4b 46
       0.003585885 0.09913202 18382.156 13002.578
0002b0 da 56 9c 46 a1 e1 a4 3c 22 a0 fc 3d 30 ad a4 46
       20011.426 0.02012712 0.123352304 21078.594
0002c0 69 55 b1 46 48 77 bb 3b e7 13 ba 46 91 55 a1 46
       22698.705 0.0057210065 23817.951 20650.783
0002d0 53 7a 2e 3e dd 98 0c 3b 91 05 a9 46 4d 26 29 3c
       0.1703885 0.0021453418 21634.783 0.010324073
0002e0 05 30 a3 46 9c c0 a1 46 d6 59 94 46 0d ee 9f 46
       20888.01 20704.305 18988.918 20471.025
0002f0 2e 13 92 46 67 05 9e 46 80 ef a1 46 ad 01 8d 46
       18697.59 20226.701 20727.75 18048.838
000300 39 1e d5 3c 0b 3d 24 3c 60 5c a8 46 b3 21 bb 46
       0.026015388 0.010024319 21550.188 23952.85
000310 03 75 9a 46 2e 59 4e 3b dd 6a ac 46 3d 0c 4d 3a
       19770.506 0.003148626 22069.432 0.0007821953
000320 1d f9 6a 3b 34 91 cb 3d 86 8b 92 46 84 3c 4e 46
       0.003585405 0.09939805 18757.762 13199.129
000330 8b 99 9f 46 61 88 a5 3c 7d 62 fd 3d 53 18 a8 46
       20428.771 0.020206632 0.12372301 21516.162
000340 d6 01 b5 46 a5 fa bb 3b ae fb bd 46 1a ae a4 46
       23168.918 0.0057366663 24317.84 21079.05
000350 d1 f5 2e 3e 70 0b 0d 3b 10 7b ac 46 e4 fa 29 3c
       0.17085959 0.002152171 22077.531 0.010374758
000360 1a a4 a6 46 5c 1b a5 46 43 36 97 46 e8 3d a3 46
       21330.05 21133.68 19355.13 20894.953
000370 06 19 95 46 fa 4b a1 46 ea 3b a5 46 11 e9 8f 46
       19084.512 20645.988 21149.957 18420.533
000380 ce bb d5 3c 90 36 24 3c 6f 39 ac 46 87 82 bf 46
       0.026090529 0.010022774 22044.717 24513.264
000390 4c 1c 9e 46 62 e6 4e 3b 88 73 b0 46 c7 58 4c 3a
       20238.148 0.0031570424 22585.766 0.0007795211
0003a0 65 5e 6b 3b 6c af cb 3d 49 eb 95 46 e8 83 52 46
       0.0035914418 0.099455684 19189.643 13472.977
0003b0 61 56 a3 46 95 33 a5 3c 10 76 fd 3d 08 04 ac 46
       20907.19 0.020166198 0.12376034 22018.016
0003c0 0f 3c b9 46 e8 08 bc 3b df 71 c2 46 46 82 a8 46
       23710.03 0.0057383664 24888.936 21569.137
0003d0 87 2c 2f 3e 35 f6 0c 3b fb 7d b0 46 92 d7 2a 3c
       0.1710683 0.0021509056 22590.99 0.0104273725
0003e0 f7 98 aa 46 c3 f2 a8 46 8d af 9a 46 42 0b a7 46
       21836.482 21625.38 19799.775 21381.629
0003f0 12 92 98 46 05 0f a5 46 c9 1c a9 46 11 42 93 46
       19529.035 21127.51 21646.393 18849.033

exp_avg f4 [10]
000000 85 47 11 40 c8 69 10 40 d9 69 0d 40 22 bb 0e 40
       2.2699902 2.2564564 2.2095854 2.2301717
000010 e8 53 0e 40 31 fa 0e 40 31 b6 10 40 9c 41 11 40
       2.2238712 2.2340205 2.26112 2.2696295
000020 88 99 12 40 0a 00 14 40
       2.2906208 2.3125024

exp_avg_sq f4 [10]
000000 f5 a4 aa 42 ae 70 9e 42 ab e7 b7 42 e3 44 9b 42
       85.32218 79.22008 91.95248 77.634544
000010 32 d2 ac 42 07 7a a7 42 15 d4 aa 42 16 8e ad 42
       86.41054 83.738335 85.41422 86.77751
000020 44 e0 a5 42 5f a9 a9 42
       82.93802 84.8308
