code/2021-04-09_20-05.pth (torch, 178355 bytes, 12 tensors)

decoder.linear1.weight f4 [32, 400]
00000000: 6832 79bc 8bce 35bd d956 4abc 9c0e 8ebd
00000010: f0f7 e53c 1e99 75bb 1bc4 a5bd 8ba9 02bc
00000020: 221b 283c c474 cfb9 ddbe 93bd 4b1a 85bd
00000030: b425 45bd e1bd 95bc 023c cabc 678f 3fbd
00000040: 4259 47bd 171a 45bd ee49 a0bd 96eb 33bd
00000050: eec9 85bd 0a16 43bd 9025 9abd 1b58 7cbd
00000060: fe47 bd3c f130 59bd 51f3 90bc 3487 75bd
00000070: 2c2b 04bd 8191 17bd f96e c2bb 448d 59bd
00000080: f90c ba3c f5ea 1d3d b026 c2bc d806 c13b
00000090: 7f34 53bd 00cf 65bd 1d1e bc3c 8236 073d
000000a0: 3467 0d3d 4098 bebc a270 1bbd 2853 25bd
000000b0: c15b 4b3d 346c e7bc 1b47 833d 2d1f 433c
000000c0: d716 c2bc a7d7 e3bc dd88 883b 0772 3abd
000000d0: 1d63 78bc 4482 683d 3324 c6bb 0583 e6bc
000000e0: 6b2b b5bb f3d1 843c 489a 9d3c 0a56 ff3c
000000f0: c635 a3bc 6003 b1bb df88 043d 5bd6 c93c
00000100: 739e 0f3d cc75 5b3d 52fb 74b9 ce86 b53c
00000110: 6cf1 863d 876b 703d d715 a53c af5e f2bc
00000120: bc1a 383d 0a6f d7bb 4d11 793c 9eee 93bc
00000130: 88e4 fa3a d090 943c ba65 993d 474b d83a
00000140: 3129 a13d 4bbf 4a3d a071 ae3c dacf 983c
00000150: 8080 723d 69a6 0b3d fa66 503d 5af7 153d
00000160: 4040 2d3d 56e0 0b3d 9695 5a3c de64 033d
00000170: 80ba 963c a1a0 2b3d 7457 073d fb15 4d3c
00000180: 0619 a23a b2a0 313d 1e34 0c3d cf98 ed3c
00000190: 98c9 aebb 3a3b 8f3d 4b33 073d 8050 323d
000001a0: 9065 bcbb d211 0c3b 784a 913d 1717 463d
000001b0: 2874 873d 35b4 d13c d1f9 6d3d 52e2 8cbc
000001c0: bda9 4b3d 60b9 173c 1a87 fbbb 829f 94bc
000001d0: de1f f83b cdba 91bc dc29 8bbc a812 a9bc
000001e0: 11df 1dbd 137d d8bc 7b64 313d 3c68 c3bb
000001f0: b589 86bc e000 cbbc dc51 693a 5a5a c0bb
00000200: 0f54 2e3d 6afb a5bc 70a6 e43a 069f c83b
00000210: 00d7 01bd 16b0 63bc cf9c 9bbc d76f 01bd
00000220: e78c 59bd 3371 55bd b27b 223d 7c81 833c
00000230: eca3 8dbd c7db 89bd bdd7 52bd 5ed4 8cbb
00000240: 7844 7b3b 65aa f9bb 1bb8 93bd ee44 e0bc
00000250: b09a 9ebd 84d7 57bd 4a95 6dbd 0655 23bc
00000260: 3260 49bd 7c3d d5bd 2ad2 78bd 8c32 9abd
00000270: 600f d1bc e240 31bd 303f 9e3c f14a c6bb
00000280: 6577 eabd 6ad7 9fbd e56f 0cbd 9192 6cbd
00000290: 1a2b 0fbe ed05 2bbd 0f9c a6bd 5fcd 5fbd
000002a0: d0d4 bdbd 7a9f 87bd 9e17 7bbd 9a98 acbd
000002b0: 4d0e f3bd df90 fabd 5246 29bc ae90 debd
000002c0: 186b 8ebd 1bfd 5abd 5655 02bb 8859 97bd
000002d0: 811c 82bd 2501 7dbd 9135 a0bd 7e60 68bd
000002e0: 9287 89bd 9288 02bd f8e3 9bbc 9e9f bdbd
000002f0: 1ed0 23bd 8b7b bebd d686 31bc 1160 58bd
00000300: d438 c4bd 46e8 8bbd 1950 17bd f6f4 81bd
00000310: e6bc 91b8 94c8 a33c e0e2 a3bd 1bd1 b7bd
00000320: a607 8bbd 3586 1d3c cd55 01bd 20ae c9ba
00000330: 2024 76bc a350 d9bc d106 38bd 249a e8bc
00000340: f1aa 07bd 3313 3cbb 7f0c 803c 347a 9fbc
00000350: 457a 99bb 4e7c c739 7a95 44bb d26f 81bc
00000360: e5dd f3bc 14c9 433d da74 c43c 7a73 393d
00000370: fb0a 4a3d ee14 dd3c d3f1 c93b d5ae 0dbd
00000380: ae7b 53bd ce49 233d e440 08bc 6177 183d
00000390: fdc3 9d3c a92e 253b 1bd1 c23b 9e6e 1cbc
000003a0: c8fd 6d3d 8f79 453d 927f 4fbd 1ab8 4fbc
000003b0: ff3e df3c c338 05bb 400b 83bd f7ae bc3c
000003c0: 3461 39bc d85c 733d 4b9d 74bd b37e 22bd
000003d0: f6fd 0dbc d779 26bc c0e9 47bd 3d77 85bc
000003e0: 5e43 843c 0eb9 51bd b9b1 47bc a70f 3d3c
000003f0: acbe aebb f4d8 ee3c 941d 31bd ef08 1ebb
-0.015209772 -0.044386428 -0.012349808 -0.0693638 0.028072327 -0.0037475298 -0.08094045 -0.0079749925
0.010260375 -0.00039569114 -0.07214139 -0.064991556 -0.04813166 -0.018279018 -0.024686817 -0.04676762
-0.048669107 -0.048120584 -0.07826601 -0.043925844 -0.06532656 -0.04762844 -0.07526696 -0.06160746
0.023105618 -0.05302519 -0.017694147 -0.059943393 -0.032267734 -0.037003998 -0.005933639 -0.053113237
0.022711264 0.03855415 -0.023700088 0.0058907084 -0.051563736 -0.056105614 0.022963578 0.033010967
0.03452225 -0.023265958 -0.037949212 -0.040362507 0.04964805 -0.028249837 0.06410047 0.011909288
-0.023692532 -0.027812792 0.004166706 -0.0455189 -0.015160349 0.056764856 -0.0060467958 -0.028138647
-0.0055288575 0.016213393 0.019238606 0.031168956 -0.019923102 -0.0054020137 0.032357093 0.024638345
0.03506322 0.053579137 -0.00023363277 0.022159006 0.06589016 0.058696296 0.020152016 -0.029586164
0.04494737 -0.006574516 0.015201879 -0.018058117 0.0019141594 0.018135458 0.07490106 0.0016501927
0.07869185 0.049498837 0.021294415 0.018653799 0.05920458 0.034094248 0.050879456 0.036612846
0.0422976 0.03414949 0.013341328 0.032078616 0.018399477 0.041901235 0.033042386 0.012517448
0.0012367077 0.04336614 0.03422939 0.029003529 -0.0053340904 0.069937184 0.0330079 0.043533802
-0.005749412 0.0021372926 0.07094282 0.048361864 0.06613952 0.025598625 0.05809957 -0.017197762
0.049722422 0.009260505 -0.0076760175 -0.018142466 0.0075721582 -0.017789269 -0.016987734 -0.020638779
-0.03854281 -0.026426828 0.043308716 -0.0059633534 -0.016423086 -0.02478069 0.00089004426 -0.0058701457
0.042560633 -0.020261485 0.0017444622 0.0061224727 -0.03169918 -0.013896963 -0.01899567 -0.0316008
-0.05311289 -0.05210991 0.039668746 0.016052954 -0.06916031 -0.06731372 -0.051475275 -0.004297777
0.003834037 -0.0076191896 -0.0721285 -0.027376618 -0.07744348 -0.052695766 -0.0580037 -0.009969002
-0.049164005 -0.10412118 -0.060747303 -0.07529172 -0.025520027 -0.043274768 0.01931724 -0.006051414
-0.11448554 -0.07804759 -0.0342864 -0.057756964 -0.13981286 -0.0417537 -0.081352346 -0.054639217
-0.092691064 -0.066222146 -0.06130182 -0.08427544 -0.11867962 -0.12234663 -0.010331707 -0.10867439
-0.0695402 -0.053464036 -0.001988729 -0.073901236 -0.06353093 -0.06176867 -0.07822717 -0.056732647
-0.06715311 -0.031868525 -0.019029602 -0.0925896 -0.039993398 -0.09300908 -0.01083537 -0.05282599
-0.095811516 -0.06831412 -0.03694162 -0.06345551 -6.949324e-05 0.019993104 -0.08002257 -0.089754306
-0.06788568 0.009614517 -0.031575967 -0.0015386976 -0.015023261 -0.026527708 -0.044928376 -0.028393812
-0.033122007 -0.0028697967 0.015630959 -0.01946745 -0.004683765 0.00038048852 -0.0029996322 -0.01580039
-0.029768893 0.047799185 0.0239815 0.045276143 0.049326878 0.02698752 0.006162861 -0.03459056
-0.051631622 0.039865308 -0.008316252 0.037223224 0.019258494 0.0025204814 0.0059453375 -0.009547858
0.058103353 0.04821163 -0.05065877 -0.012678171 0.027251719 -0.0020328022 -0.0639863 0.023032648
-0.011314679 0.059414715 -0.05972032 -0.03967161 -0.008666506 -0.010160885 -0.048806906 -0.016292209
0.016145404 -0.051201873 -0.0121883685 0.011539376 -0.0053327885 0.029156186 -0.0432411 -0.0024114212

decoder.linear1.bias f4 [32]
00000000: 83da 0d3c 72f9 8bbd 26ee 06bd 7541 de3b
00000010: 8542 0d3c 38c4 06bd b792 aabc 95e4 62bd
00000020: d645 ce3c 9a13 2f3d 749d 943d 2ca0 00bd
00000030: 731f f63c 33d4 a93c 9243 583c a2e8 8d3d
00000040: d67a 413c 659d 433d f29e b4bc c066 87bc
00000050: f7ec 65bc 42eb 2d3c e338 3bbd 41c4 b1bc
00000060: f2ea 483c c247 103d 7a76 853d c66a 8d3c
00000070: 332f 863c 6641 32bd ca78 4d3d 2c58 b23c
0.008658054 -0.06834687 -0.03294196 0.0067827054 0.0086218165 -0.032901973 -0.020821912 -0.055393774
0.025179785 0.042743303 0.07256594 -0.03140275 0.030044293 0.020731067 0.013199704 0.06929137
0.0118090715 0.047757525 -0.022048447 -0.016528487 -0.014033548 0.010615172 -0.04570855 -0.021700026
0.012263047 0.035224684 0.06516738 0.017262828 0.016379928 -0.0435194 0.05016402 0.02177056

decoder.linear2.weight f4 [30, 32]
00000000: d441 4e3e d88c 373e 9cc4 92bd f241 d73c
00000010: a77d 5a3e 2d8b b23d b48f 4d3e a03e 473d
00000020: 8cc6 7dbd 3496 b9bd f1b0 4dbc d11f 12be
00000030: 2ffc 783d 47a8 a8bd 892b 06be 378a 973d
00000040: 4ae6 e53d 7eba 64be 0c7b a03c ae98 5e3e
00000050: 167d 963c 2e47 b3bd 8bf9 c0bd 4a70 873d
00000060: b9a3 2bbe f2fb a13d f776 2cbe 62d0 293d
00000070: 0e09 f0bd 6cc2 b6bd 74c0 31be 7844 ca3d
00000080: d36f 2c3e 1f34 72bc a16e 1f3e 824a fb3d
00000090: d422 c23d b576 e13d 9260 f13d ed67 a8bd
000000a0: c50a 49bd 3f98 4dbe 3170 5dbe 9d1f 44bd
000000b0: bc6f 403e b688 ebbd f291 63bd 23c8 c6bc
000000c0: a42c 013e dac0 00bd c4e7 cf3d 9ed9 aa3d
000000d0: 525a 94bd 7e78 eabd 730a b53d 2e2e 8bbd
000000e0: e4f3 7ebc d15b 95bd e033 153e b579 ea3d
000000f0: 959b 1dbe 3d06 13be fc06 23bd 82a8 a1bd
00000100: dff1 8e3c 961f 923d 5a77 fbbc 6e66 3b3e
00000110: c146 ac3d 6a5c 7ebd 220b 413e da0c c6bc
00000120: 58c6 d1bd e1a7 a9bd 7f9a bdbd aa49 eebd
00000130: 7a0a 2cbd eee3 13ba 62fe 0c3e 0eb7 dabd
00000140: 1975 193e d5af 1f3d 5220 10be 8aeb 6f3e
00000150: c80b 943d 5f1d b9bd 48fc e43d 1943 96bd
00000160: db67 afbd edb5 183e afd8 aa3d 6c65 3abe
00000170: c3f6 c5bd 8722 6abe 957e 0bbe ea6b 08be
00000180: f491 183e c047 eb3d 1954 37be 7857 39bd
00000190: 8013 423e d091 d23d ae05 70bd f8ca b9bd
000001a0: 8e9c 0a3d 9983 46be c14d 94bd 41de 003d
000001b0: 4e95 593e cf0f 103d 56d5 04be a574 0fbe
000001c0: 3c28 ae3d f86f bcbd db8c c03c dee0 fb3d
000001d0: 5276 253e 2fda 61be f430 aebc feb5 19be
000001e0: 6894 72bd de23 81bd 09ad e8bc 4200 0f3e
000001f0: 394e b3bd 6bd2 efbc 377e 54be 6522 8e3d
00000200: e60d 4b3e 4edb 88bd e87a 063e 8551 883d
00000210: 21fa bd3d 8ea7 a23d 25ca 143e 1652 753d
00000220: f8c1 e03d d8e3 ea3d 2292 5d3d 0a2e 15be
00000230: 617a 06bd 8653 ff3d 2e85 cfbb 84e4 b23d
00000240: 62b2 7e3d 86c3 76be f36a 57be c5f0 8c3d
00000250: 9772 d5bd 5578 a3bc 91da 0fbe 144d 5fbe
00000260: 3473 f2bd 65be 2abe 8874 2cbe 3b3a 47be
00000270: fe26 743d 7b4d b5bd cc04 4bbe 1f89 f23d
00000280: 3fe8 6b3d ba85 1f3d 75e5 733e 7654 51bd
00000290: b508 19bd dcae fd3d 0546 433d b8f4 05be
000002a0: afa6 91bd c082 0cbe fe8d 14be 5b32 b63d
000002b0: ff32 473e a521 a83d c6bb 10be 696f eebc
000002c0: ff46 90bd 5ff2 33be 8269 dbbd 2051 64bb
000002d0: c481 a03d 5c00 36bd 0e8d 3f3d c319 1cbd
000002e0: 1133 d7bd 514e afbd 6330 c03d 654c a33d
000002f0: a0b9 28be 89b2 1bbe ea8d 3ebe da22 bf3d
00000300: f5c6 563e 2221 a23d e328 f33b 194d 82bd
00000310: 0600 85bd c9f8 bc3c ff77 8a3e 6347 193e
00000320: a7ac ab3c 4fe5 b0bd c49f d8bd 86d6 933d
00000330: 5f49 113e 8681 213e a342 edbc 8307 22be
00000340: a359 0fbe fd3f 5abc ed17 93bd 2213 a2bd
00000350: e5cd 65bc 5d39 ca3b a9aa 3ebe d93d 8dbc
00000360: 3dcf c4bb 2633 463d 89cb 91bc e6ac 1cbe
00000370: 1bb0 15be e20f 58be 016c d5bd 22bb c13d
00000380: e62d 83bd 1169 c23c fb71 d43d 637b 4e3e
00000390: 409e 263b 1cca 053e 73f2 673e 3e6c e63d
000003a0: 842e e83c 8b78 29be d760 b53d af66 053e
000003b0: 898e 9cbd 0c3f a03b f63d 84bd fa3a 1c3e
000003c0: 10de ea3d a897 55bc 3676 a2bd d040 013e
000003d0: e52c 80bd 3127 4d3d 971b a4bd b11f 08be
000003e0: 7c7f e63c 68f5 3ebe aff0 c5bd 2b0a f7bd
000003f0: c84a aa3c 5b56 f5bd b573 91bd 08a0 ecbd
0.20142299 0.17924821 -0.071664065 0.026276562 0.21336995 0.08717952 0.2007435 0.04864371
-0.061956927 -0.09061852 -0.012554393 -0.1426995 0.060787376 -0.08235221 -0.13102545 0.07399409
0.11225565 -0.22336766 0.019589923 0.2173793 0.018370192 -0.08753811 -0.094225965 0.06613214
-0.16761674 0.07909383 -0.16842256 0.041458495 -0.11720477 -0.08923802 -0.17358571 0.09876341
0.16839533 -0.014782934 0.15569545 0.122700706 0.09479299 0.1100897 0.117859975 -0.08222947
-0.049082536 -0.20077609 -0.21624829 -0.04788171 0.18792623 -0.11500685 -0.055559106 -0.024265354
0.12614685 -0.031433918 0.10151628 0.083422884 -0.0724379 -0.11448763 0.08839884 -0.067959175
-0.015561078 -0.07292903 0.1457057 0.11448995 -0.15391381 -0.14357848 -0.039801583 -0.078934684
0.017449317 0.07134931 -0.03069656 0.18300793 0.08411933 -0.06209985 0.18851903 -0.02417605
-0.10242909 -0.082839735 -0.092579834 -0.11635144 -0.04200218 -0.0005641569 0.13768914 -0.10679446
0.14986075 0.038986046 -0.14074829 0.23429695 0.072288096 -0.09038805 0.11180931 -0.073370166
-0.08564731 0.14913149 0.0834211 -0.18202752 -0.09666207 -0.22864734 -0.13622506 -0.13322416
0.14899427 0.114882946 -0.17903174 -0.045249432 0.18952751 0.10281718 -0.058599167 -0.09071916
0.03384071 -0.19386138 -0.07241393 0.031461958 0.21248361 0.035171326 -0.12972006 -0.1400934
0.08503768 -0.09201044 0.023504665 0.122987494 0.16158417 -0.22055887 -0.021263577 -0.15010831
-0.059223562 -0.06305669 -0.028402822 0.13964942 -0.08755154 -0.02927514 -0.20751272 0.06940154
0.1982952 -0.06682454 0.13132823 0.066561736 0.09276224 0.07942115 0.14530237 0.059892736
0.109744966 0.11469239 0.05409444 -0.14568344 -0.032831553 0.12467103 -0.006333015 0.08734992
0.062181838 -0.24098024 -0.21036892 0.06881861 -0.10422247 -0.01995484 -0.1404822 -0.21806747
-0.118383795 -0.16674192 -0.16841328 -0.19455807 0.0596075 -0.08852669 -0.19826049 0.1184256
0.057594534 0.03894589 0.23818 -0.05110594 -0.03736182 0.123868674 0.047674198 -0.13081634
-0.071118705 -0.13721752 -0.1450729 0.08896323 0.19453047 0.08209542 -0.1413413 -0.029105859
-0.070447914 -0.17572926 -0.107134834 -0.0034838393 0.07837251 -0.044433936 0.04676538 -0.038110506
-0.10507787 -0.085598595 0.09384229 0.079735555 -0.1647706 -0.15204825 -0.18608823 0.09332819
0.20974334 0.07916476 0.0074206456 -0.063623615 -0.06494145 0.023067849 0.27044675 0.14968638
0.02095635 -0.08637487 -0.10577348 0.072186515 0.14188145 0.15772066 -0.028962439 -0.15823178
-0.13999037 -0.01332092 -0.07182298 -0.079138055 -0.01402614 0.006171389 -0.18619789 -0.017241405
-0.00600615 0.048388623 -0.017797248 -0.1530033 -0.1461796 -0.21099809 -0.10420991 0.09459521
-0.06405239 0.02373174 0.103733025 0.20164256 0.0025423914 0.1306538 0.22651081 0.11251114
0.028342493 -0.1654989 0.08856361 0.13027452 -0.07644374 0.0048903283 -0.064571306 0.15256873
0.11468136 -0.013036646 -0.07932703 0.1262238 -0.06258563 0.050086204 -0.08013075 -0.1329334
0.028136961 -0.18648303 -0.096650474 -0.12062486 0.020787612 -0.119793616 -0.071021475 -0.11553961

decoder.linear2.bias f4 [30]
00000000: e0ce fd3d 9192 f73d 144a 9e3d 5cb5 c33d
00000010: 2d11 1b3e aa73 a63d 4fd0 1e3d 89fb 9b3d
00000020: 9893 94bc f1cf 663d db69 d3bc ed6b e63c
00000030: 326b e83d feab 03be b45d a1bd 465a 98bd
00000040: 30bb a5bd d382 7c3c 1dab d63d 092e d8bd
00000050: e612 3e3e 5500 fd3d 8e0b af3d fa2b 133a
00000060: 48e1 b7bd 2dba 5ebc 996a ee3d f80d bcbd
00000070: dabd dd3d 4333 cc3d
0.12392974 0.12088502 0.07728973 0.09556076 0.15143271 0.0812753 0.038772877 0.07616336
-0.018136784 0.056350652 -0.025807312 0.028127635 0.11348571 -0.12858579 -0.078792006 -0.07439093
-0.08092344 0.01541205 0.10481856 -0.105556555 0.18561897 0.12353579 0.08547126 0.0005614158
-0.08978516 -0.013594192 0.11641426 -0.09182352 0.10827227 0.09970715

exp_avg f4 [32, 400]
00000000: 0bb2 443b a92b 693b 2064 2f3b 39e0 473b
00000010: e13f 463b 155b 723b bd14 263b 8cc8 4b3b
00000020: 4153 4d3b 0eac 6c3b 703e 163b b40f 3a3b
00000030: 2c68 513b dde4 833b 38a2 233b 5f7c 5b3b
00000040: 9220 6f3b 915b 8e3b a03d 3f3b 3266 713b
00000050: a6bc 733b 28f0 b03b 2c84 453b 2b4c 8d3b
00000060: 81f2 813b a5eb bd3b 24d4 373b 7081 943b
00000070: 3d29 893b 53e4 d63b e3d6 3f3b a63c a03b
00000080: d8c7 a73b 0e13 f53b 6d1a 293b b815 913b
00000090: 1726 9a3b 180a 033c d96f 183b 1dad a63b
000000a0: a92a af3b 9d88 073c 80ad 3a3b ff86 ac3b
000000b0: 70b5 bf3b 74e1 143c 9217 653b 632c d13b
000000c0: 7d82 df3b 942d 233c 453e 9f3b 8b40 013c
000000d0: 2707 fe3b f04e 323c b7af c83b c18f 103c
000000e0: bfc7 0f3c 42e8 373c c227 e43b 5db1 183c
000000f0: c0c6 153c 4ccb 363c 1295 f43b 22bd 1d3c
00000100: 2846 163c 2c1e 323c 9c21 e43b 9170 123c
00000110: 71bf 0d3c ec13 2e3c b936 ce3b 5271 0e3c
00000120: bd76 093c 89a5 223c 4538 c63b cb4e 023c
00000130: a1c4 fc3b 7e20 1b3c a890 c03b 91c0 043c
00000140: f625 023c e964 253c 36d4 c43b e6ed 113c
00000150: 8edf 0a3c cdab 323c 5178 d83b 6abc 223c
00000160: 4e5b 153c 0878 393c f07f e13b 5892 1e3c
00000170: a744 153c 3ce7 3b3c a09b e73b 310c 1f3c
00000180: f62a 1c3c 12a0 413c ad34 fc3b ed32 233c
00000190: 8e86 233c 6f33 543c f5e6 043c 4572 293c
000001a0: 7e84 293c 061a 4f3c 6f2e fd3b c53a 183c
000001b0: 977b 1f3c 57d8 433c 881f f13b 3ded 103c
000001c0: d494 0b3c f36b 313c 1961 d13b 0bd4 ff3b
000001d0: 74a2 013c edd9 243c 333a ba3b c20d eb3b
000001e0: a4d1 dc3b 8e63 0d3c 66e0 933b 9f71 c43b
000001f0: 1d8d ab3b 434c e63b fdf1 4f3b 8c5a 963b
00000200: e980 883b 77f6 ba3b 11c0 fe3a 7227 623b
00000210: 93a7 653b 6feb a83b 1d1a cd3a 807b 413b
00000220: 01e7 403b be45 973b e2c5 a13a 63fb 1a3b
00000230: 32c5 0b3b 1e06 5c3b a17e 2f3a 8908 b03a
00000240: 2771 ab3a ee5d 453b 6060 f939 cd97 5b3a
00000250: 6d4d 4b3a 1e33 2d3b 6b6c da39 1610 3d3a
00000260: af76 1b3a 6652 093b 249d 6d37 b790 bf39
00000270: 406c 143a 67c5 f73a 46db cb37 43e3 c439
00000280: 4167 093a 0adf ec3a 057a fdb6 b7ab 143a
00000290: 7ba3 693a 6031 fe3a 2dd1 3338 dc19 353a
000002a0: 48d7 963a 6aef 183b c4a0 3037 6391 883a
000002b0: 25db b63a 1265 4c3b cd76 e139 245a 063b
000002c0: 07e2 eb3a eb1f 713b 6157 c139 5839 f83a
000002d0: dafd df3a cf31 5b3b 8d78 c339 b229 e03a
000002e0: 063f af3a 14f5 2f3b 6279 b639 ef13 c33a
000002f0: b892 833a c3bd f13a 2487 a139 de39 5e3a
00000300: 9d1e fd39 f17a 403a 1897 4d36 9aca f237
00000310: d9ac 04b9 1822 e4b9 96c2 98b8 779f 8fb9
00000320: f140 62b9 5939 24b9 f5f7 e036 cf0b c8b8
00000330: 57b1 26b8 ec2d ecb8 9835 28b8 3f3d bab8
00000340: 6d55 c6b9 0af9 a0b9 39b6 7d38 cdeb 29b8
00000350: ddb4 1bb9 191e 14b9 9497 1eb9 b872 40b9
00000360: 3215 33b9 f9fe 2ab9 9ec4 54b9 a4a0 a2b8
00000370: 2209 51b9 74e1 71b9 7b84 81b9 e958 aab9
00000380: a8a4 e9b9 03d2 d3b9 9c72 00ba f99d ffb9
00000390: fc99 18ba 9b40 3eba 27b0 ceb9 e744 e9b9
000003a0: 2818 0bba 39d5 2fba b432 c3b9 1c14 0eba
000003b0: dc68 00ba 6149 073b 8be4 9ab9 aa77 e0b9
000003c0: f008 edb9 555f 1f3b a1ed 19b9 ddd5 37b9
000003d0: d309 32b9 460c 253b dab5 0838 234c 7ab8
000003e0: 1d42 74b9 33d3 273b f69d e6b8 9116 0ab8
000003f0: 8770 0db9 591c 083b 4d3a f0b8 e16d 31b9
0.0030013348 0.0035579002 0.002676256 0.0030498637 0.0030250477 0.0036980559 0.002534195 0.0031094877
0.003133014 0.0036113295 0.00229254 0.0028390707 0.003195296 0.0040250854 0.0024968516 0.003349088
0.003648792 0.0043444117 0.0029181018 0.0036834595 0.00371913 0.0053997226 0.0030138595 0.0043120584
0.0039656763 0.0057959133 0.002805003 0.0045320317 0.004185824 0.00655798 0.002927237 0.0048900424
0.005120259 0.007479078 0.0025803105 0.004427638 0.0047042477 0.007998012 0.0023260026 0.0050865547
0.0053456617 0.008272317 0.0028484762 0.005265116 0.0058504865 0.009086955 0.0034956676 0.006383465
0.0068209753 0.009959597 0.004859718 0.007888923 0.0077523175 0.010883078 0.0061244625 0.008823336
0.0087756505 0.011224808 0.0069627473 0.00931963 0.009141624 0.011156868 0.0074640596 0.009627612
0.009172 0.010871451 0.0069620144 0.008937971 0.0086516 0.010624867 0.0062931445 0.00869401
0.008390126 0.009927162 0.0060491883 0.007953356 0.0077138697 0.009468196 0.0058766194 0.008102552
0.007943621 0.01009486 0.006006743 0.008906817 0.008476151 0.010905218 0.0066061397 0.009932617
0.009116007 0.011320122 0.0068817064 0.009678446 0.009110606 0.011468705 0.0070681125 0.0097074965
0.009531727 0.011817949 0.007696709 0.009960872 0.009980811 0.012951716 0.008111705 0.010342185
0.01034653 0.012640482 0.0077264826 0.0092913555 0.009734056 0.011953435 0.007358495 0.0088456245
0.00851937 0.01082896 0.006389749 0.00780726 0.007912267 0.010061723 0.0056832074 0.007173271
0.0067388583 0.008629693 0.0045128344 0.00599499 0.005235328 0.007028134 0.003172993 0.0045884307
0.004165758 0.0057056504 0.0019435902 0.0034508375 0.003504251 0.005155019 0.0015648041 0.0029523075
0.0029434564 0.004616468 0.0012342299 0.0023648373 0.0021327254 0.0033572982 0.00066945894 0.0013430278
0.0013079987 0.00301158 0.00047564786 0.0008376807 0.0007755373 0.0026428173 0.00041660978 0.0007212175
0.0005930466 0.0020953654 1.4162888e-05 0.0003653818 0.00056618825 0.0018903435 2.4301593e-05 0.00037553356
0.0005241521 0.0018071842 -7.5541925e-06 0.00056713395 0.0008912605 0.0019393377 4.2871736e-05 0.00069084554
0.0011508251 0.0023336061 1.0527849e-05 0.0010419305 0.0013950808 0.0031188172 0.00043003858 0.0020500505
0.0017996439 0.0036792706 0.0003687693 0.0018937988 0.0017089203 0.0033446436 0.00037283116 0.001710227
0.0013370223 0.0026848959 0.00034804182 0.001488326 0.0010038232 0.0018443394 0.00030809 0.0008477251
0.0004827873 0.00073425384 3.0635329e-06 2.8942992e-05 -0.00012652892 -0.0004351295 -7.284169e-05 -0.00027393896
-0.00021577232 -0.00015661622 6.704586e-06 -9.538943e-05 -3.9742645e-05 -0.000112619105 -4.0104234e-05 -8.880579e-05
-0.0003782915 -0.00030703127 6.048961e-05 -4.0512346e-05 -0.00014849329 -0.00014125592 -0.00015124521 -0.00018353283
-0.00017078666 -0.00016307448 -0.00020291141 -7.7546836e-05 -0.00019935195 -0.00023067539 -0.00024703503 -0.0003249117
-0.00044563902 -0.00040401527 -0.00048998906 -0.0004875509 -0.00058212853 -0.0007257552 -0.00039422626 -0.0004449256
-0.0005306029 -0.0006707493 -0.00037231075 -0.00054198666 -0.0004898438 0.0020643102 -0.00029543447 -0.00042813766
-0.00045210822 0.0024318297 -0.0001467974 -0.0001753191 -0.00016979063 0.0025184317 3.259429e-05 -5.9675553e-05
-0.00023294282 0.0025608062 -0.00010996677 -3.292278e-05 -0.00013488728 0.002076885 -0.00011454951 -0.00016920968

exp_avg_sq f4 [32, 400]
00000000: f7ff a339 1158 e139 b7c6 4839 0277 9139
00000010: 722f 8d39 68b9 c739 9ccb 3139 228a 8439
00000020: ada6 8239 7987 b939 d140 2c39 fdc5 7f39
00000030: 5369 7839 29d5 b139 7118 2d39 1538 7c39
00000040: a40a 7639 a83d b339 8685 3339 e71a 8039
00000050: 4c39 7a39 db60 c139 3404 3f39 cb68 8d39
00000060: cef9 8539 0816 d239 d7bc 4f39 9db2 9839
00000070: 604b 9239 5e91 eb39 266d 6739 c8d7 ab39
00000080: 9c25 a939 d40f 033a 3f48 8039 13e0 b339
00000090: 04bf af39 c8f9 0e3a 2abf 8639 3dd0 c139
000000a0: 3fff bc39 7116 163a 889d 8b39 d1a9 c839
000000b0: cb4e cf39 93d7 233a 3e3b 9839 3806 de39
000000c0: 8895 e139 1df6 343a d450 a239 64ab f739
000000d0: bc7d f539 fbda 473a 50be b539 6674 0b3a
000000e0: 3634 0a3a 3918 583a 5e07 cd39 44aa 143a
000000f0: 4094 163a 33e1 683a 8a9c e039 444b 253a
00000100: f279 243a 4e87 753a 2820 e739 7063 2a3a
00000110: 660d 2b3a ccbc 7b3a 4cfd e439 e207 293a
00000120: 63ed 2a3a b2c5 783a 30e7 e139 04b3 253a
00000130: e577 2d3a cdc9 803a 5c7e eb39 9178 2e3a
00000140: 3a41 363a dddf 863a 5101 f539 b3bf 373a
00000150: 2b4f 3b3a a739 8d3a babf fa39 d3ef 443a
00000160: 7bf2 433a cc1e 913a 01f5 ff39 52eb 463a
00000170: 9195 433a a8d1 8c3a 7644 fc39 80a9 3e3a
00000180: 2374 3c3a 9c80 883a 2298 f139 d29c 323a
00000190: 40d5 323a 4e9c 843a 2309 e439 316a 293a
000001a0: 9415 283a 6249 723a 97a0 ce39 f41d 153a
000001b0: 1da3 123a bb89 573a cf1d b239 9ed2 fc39
000001c0: eb27 e139 34d3 293a 8bcb 8039 f097 b839
000001d0: e785 a639 cb98 013a 36a4 2f39 2ff3 8539
000001e0: bc57 6739 9d54 b839 a3c2 e338 3438 3939
000001f0: 221f 1b39 51dc 7c39 de54 8838 8796 f338
00000200: c03f ce38 5e0a 3339 af84 1e38 d8f0 9b38
00000210: bd04 9038 4aee 0039 0bfb b937 4b4b 4938
00000220: a3d8 2a38 efa8 a738 7c68 4737 2ddb eb37
00000230: 9d19 c737 0f6a 4d38 7073 eb36 786f 7537
00000240: 62de 4837 cc2e 1638 b629 9836 fe6a 2537
00000250: a249 0137 0a07 ea37 93dd 6236 e02d 0037
00000260: 3b74 bf36 4b12 af37 0171 fb35 7b7f 9436
00000270: de94 8e36 68e9 8b37 7ad9 9b35 0d49 7736
00000280: 071b 7136 2420 8b37 141f 5e35 b456 8336
00000290: 190e 9a36 a05f 8b37 1650 f134 6aff 5536
000002a0: 8087 9136 7817 9737 b0cb 2634 32e8 af36
000002b0: 7830 c236 53cf e737 d3d9 ec34 728a 3437
000002c0: d15e 0337 bd2b 1038 fab7 d334 38e7 2437
000002d0: 8bb9 ef36 c036 fe37 6bc2 2b35 f2d2 2837
000002e0: 29ff c436 e8b1 bc37 1b00 2d35 3479 ea36
000002f0: d27c 6936 4679 5237 feb9 3f35 1237 7d36
00000300: 1c74 e935 2f99 9236 4662 fa34 c4b4 7135
00000310: 538f 5d35 4072 3336 5738 0c35 9021 a335
00000320: 4587 a235 e474 9236 c314 3835 bdc8 0436
00000330: c2f0 0936 94e5 e436 01d1 8a35 3555 4436
00000340: dd9b 6d36 1c7f 3f37 3ae3 f535 efee b436
00000350: 4aee d336 fa67 9637 35a5 4836 a61e 1137
00000360: ecfe 2437 c8d3 cc37 9842 a236 89bb 3c37
00000370: b791 5e37 1435 0438 e469 d236 7335 7137
00000380: ccae 9137 63d5 3338 21e4 1037 00ae aa37
00000390: b7db c237 bc67 8338 69de 3f37 82e6 fd37
000003a0: 7f0a 0938 2deb b138 610b 7337 09c6 1a38
000003b0: 0aa9 2538 36cd 0039 405a 9137 198c 4838
000003c0: a1ac 5438 4dbc 0039 fbb6 c937 0015 4838
000003d0: 8499 5138 8864 0739 4207 ef37 2242 6338
000003e0: 0e97 6138 95ab 0139 ef4e 0f38 3296 7f38
000003f0: 0b89 8338 e198 f038 c954 2d38 3c1b 8338
0.0003128049 0.0004298096 0.00019147513 0.00027745223 0.00026928965 0.00038094376 0.00016955886 0.0002527992
0.00024919715 0.00035386885 0.00016427344 0.00024392451 0.0002369036 0.00033918887 0.00016507671 0.00024053485
0.00023464352 0.00034187478 0.00017120512 0.00024434106 0.00023863203 0.00036883992 0.00018216745 0.00026971693
0.00025553856 0.00040070736 0.00019811407 0.00029124776 0.0002790345 0.00044931 0.00022070538 0.0003277643
0.00032262213 0.0004999612 0.0002446789 0.0003430849 0.0003352092 0.00054540904 0.000257009 0.00036966978
0.00036048327 0.000572539 0.00026629516 0.00038273496 0.00039540822 0.00062500796 0.00029035838 0.00042347773
0.00043026754 0.0006903129 0.0003095927 0.00047239207 0.0004682372 0.0007623878 0.00034664804 0.0005319774
0.0005272062 0.00082433556 0.00039106136 0.00056711235 0.0005744137 0.0008883655 0.0004284124 0.0006305466
0.0006274275 0.000936617 0.00044083712 0.00064998027 0.0006525129 0.0009603023 0.0004367627 0.0006448013
0.0006520359 0.0009489908 0.00043087592 0.0006320926 0.0006617292 0.0009825766 0.00044916838 0.0006655539
0.00069524685 0.0010290105 0.00046731022 0.00070094614 0.0007145281 0.0010774628 0.00047826563 0.0007512543
0.0007474792 0.00110718 0.00048819932 0.0007588166 0.0007460947 0.0010743635 0.00048116193 0.0007273182
0.00071889366 0.0010414305 0.0004608045 0.0006813529 0.0006821938 0.0010117383 0.00043494356 0.0006462662
0.0006411907 0.0009242502 0.0003941103 0.0005688362 0.0005593764 0.00082221226 0.00033973015 0.00048222108
0.00042945085 0.000647831 0.00024565714 0.00035208417 0.00031761752 0.00049437274 0.00016750474 0.00025548923
0.0002206256 0.00035158257 0.000108604574 0.00017663912 0.0001479355 0.00024114667 6.500793e-05 0.00011615181
9.83472e-05 0.00017074632 3.7793707e-05 7.4358366e-05 6.867338e-05 0.00012295801 2.217062e-05 4.7992256e-05
4.0732917e-05 7.994647e-05 1.18856515e-05 2.8116245e-05 2.3734576e-05 4.8974583e-05 7.0169845e-06 1.4629091e-05
1.19727065e-05 3.580637e-05 4.534809e-06 9.859677e-06 7.706143e-06 2.7898252e-05 3.3805597e-06 7.640076e-06
5.7057746e-06 2.0870144e-05 1.8733846e-06 4.4255844e-06 4.24926e-06 1.667878e-05 1.1611694e-06 3.684839e-06
3.592753e-06 1.6585058e-05 8.274667e-07 3.914198e-06 4.591199e-06 1.661462e-05 4.4948018e-07 3.1888144e-06
4.337111e-06 1.8011531e-05 1.5534056e-07 5.2424375e-06 5.787293e-06 2.7633889e-05 4.4116914e-07 1.076107e-05
7.830285e-06 3.437301e-05 3.9435673e-07 9.828997e-06 7.144355e-06 3.0304655e-05 6.398538e-07 1.0062695e-05
5.8709597e-06 2.249419e-05 6.4447676e-07 6.9878533e-06 3.479236e-06 1.2545212e-05 7.14237e-07 3.7731993e-06
1.7393645e-06 4.368972e-06 4.6637632e-07 9.0042545e-07 8.253748e-07 2.673958e-06 5.223605e-07 1.2154214e-06
1.2109309e-06 4.364747e-06 6.8575554e-07 1.9786378e-06 2.055473e-06 6.821656e-06 1.0342629e-06 2.9255873e-06
3.5406476e-06 1.1414082e-05 1.8320054e-06 5.3922336e-06 6.3160305e-06 1.7929811e-05 2.9898486e-06 8.649809e-06
9.834515e-06 2.4417313e-05 4.8357288e-06 1.1249337e-05 1.3266158e-05 3.1520685e-05 6.270815e-06 1.4377164e-05
1.7366743e-05 4.2875658e-05 8.636184e-06 2.0346604e-05 2.3228915e-05 6.265889e-05 1.1436271e-05 3.0267289e-05
3.267312e-05 8.4838226e-05 1.4486578e-05 3.6900896e-05 3.9496495e-05 0.00012283478 1.7327373e-05 4.7814192e-05
5.0705512e-05 0.00012277179 2.4046274e-05 4.7703274e-05 4.9972456e-05 0.00012912054 2.84944e-05 5.418261e-05
5.378486e-05 0.00012366318 3.416737e-05 6.0936618e-05 6.272093e-05 0.00011472568 4.1325377e-05 6.2516396e-05

exp_avg f4 [32]
00000000: cad8 b13b 9733 343c eb9c 683a 12f2 303a
00000010: ee1f 7abb 177e 0d3c 976b bcba 34c4 8310
00000020: b4ba d03b dc75 bfba 26dd 6fbb 08ea c93a
00000030: 94fe a3ba 4dcf c73b ffe9 1ebb 4930 25bb
00000040: 3129 533b fbf0 2d3a 9957 a3bb 6c1c 0d3c
00000050: 276a 4eba 3089 8abb 13b3 2ab9 1ddf 35bc
00000060: a874 42bb a6a8 14bb d8d9 21ba f367 febb
00000070: ad4f 4cbc 99ea 20bc 4863 533a 1bbf 1e3b
0.0054274546 0.010998628 0.000887348 0.00067499385 -0.0038166004 0.008636019 -0.0014375326 5.197269e-29
0.006369913 -0.0014607268 -0.003660032 0.001540483 -0.0012511783 0.00609771 -0.002424836 -0.0025205782
0.0032220597 0.0006635335 -0.0049848077 0.008612733 -0.00078740943 -0.00422778 -0.00016279174 -0.011100558
-0.0029671583 -0.002268353 -0.0006174124 -0.0077638566 -0.012470168 -0.009821557 0.0008063805 0.0024222794

exp_avg_sq f4 [32]
00000000: 440f 8f39 c717 913a ebf5 e039 f177 533a
00000010: bd50 b539 9adb 4e3a 476f c03a 0a28 8634
00000020: e017 8a39 6ac7 1a3b 8b20 0d3b fafb fb38
00000030: cbb0 3a3a fabf 0b3a d734 2639 d8cd 6c39
00000040: 5118 1939 fde6 933a 83ac c339 b227 913a
00000050: 7d9d 8239 0f1e 9439 d723 2639 318c bc39
00000060: 73ac c539 1573 0f3a af65 a639 1fed a03a
00000070: 59d2 893a 2ba7 3b3a e326 c039 7f13 0e3a
0.0002728646 0.0011069708 0.00042907833 0.0008066884 0.00034583165 0.00078909995 0.0014681601 2.4988577e-07
0.000263392 0.0023617395 0.002153429 0.00012015547 0.0007121681 0.0005331036 0.00015850678 0.00022583397
0.00014600276 0.001128405 0.0003732183 0.0011074452 0.0002491287 0.00028251155 0.00015844345 0.00035962605
0.00037703253 0.00054721656 0.00031737747 0.0012277699 0.0010514959 0.0007158394 0.00036650067 0.0005419775

exp_avg f4 [30, 32]
00000000: d67b 3b3b 443a e1b9 bef9 fc3a 99ca 83bc
00000010: 6607 9abc 512e bcba 0a7b 09bd a64a 4d0b
00000020: dbe4 cb3c 15a7 653b 6e8f 023c e557 863b
00000030: 6b62 a4bc 89f7 183c f3c7 7b3c d55f c93b
00000040: 113e 803b bfee a53c 49f3 6fbc c7f4 22bd
00000050: d4de 81bb 899c ee3b fb10 063c df91 94bb
00000060: cf43 823b eb7c 73bb 463b 0e3c 5b4e da3b
00000070: bcca 253c 5ff9 743c e5a7 563a 7f8b 063c
00000080: e406 443b 432f 64ba 6c26 50bc 247e 85bb
00000090: c001 32bc f4cc 17bd 5f66 10bd 1549 b40b
000000a0: 1a5f 39bc 12a6 05bc 6feb 26bb 84d0 b43b
000000b0: a326 29bd 387e 8cbc 0658 3a3c 4dca ae3b
000000c0: deea 9a3b 3315 683b df8b 96bc b3c7 47bd
000000d0: e83c 87bb cdd5 51bb efe1 373c 19d7 9c3b
000000e0: c004 063c bae2 a03b 87d2 c7bb b9fd 80bc
000000f0: 1109 d73b 10ec 323c 399a 253b 3e8b 393c
00000100: 9c88 ea3a 6092 63bb 11eb 673b 439d 02bc
00000110: 7d45 303b 193e f53c ee54 653b 6fb8 e80b
00000120: 2c87 b13c 877d 093c c0ad 073c 8279 6c3b
00000130: 2dda 4d3c aeec 723c 083f 153c a9cb 233b
00000140: 3a1e 603b a862 893b a3aa 1a3c 952f 053c
00000150: 4114 773b 4ac7 c63b ab66 063c 1981 f93b
00000160: be05 b93b 5e25 1c3c 9673 a33b 7eec 203c
00000170: 4a9c da3b a6f0 253c bcd4 9d3a 7198 083c
00000180: 4645 103b c46a a23a da23 893c 567d 083c
00000190: 5c98 24bb c4c1 b63c e617 363c 8e67 fe0b
000001a0: 5893 9c3c d39f 843c 9852 593b 73ed 153b
000001b0: ed9e 6b3a 94e2 5e3c 0e6c 8f3c fabd 5d3b
000001c0: 2cdf 803b 9f3b 9c3b 6fef e73b 5983 b73c
000001d0: 6b45 c9ba 6f7b c13c f4ef 0d3c 22f1 773c
000001e0: d79a d93b ee4a 9a3c e3d1 5b3c f754 bc3a
000001f0: d2d7 0a3c 4ef0 373c 50f4 9d3a 5493 243c
00000200: 7fe0 803a 7857 0abb d5bb 7e3c c518 113d
00000210: 8a7d be3c 7d8d 9c3d 1f56 6a3d 7a1a d60b
00000220: 8e5e 0e3d a4a7 8c3c 0c3a 03ba e050 2c3b
00000230: 406d 483d b75a f13c c816 033d 2a23 ef3b
00000240: bc0d 1b3b aeb1 b139 9c4a 043d 3317 a53d
00000250: 2794 c73c a996 8f3c b328 2c3c 00af 263d
00000260: f92e 0d3c 231f 233d bc39 8e3c 78cc 3d3c
00000270: bae3 2a3c 06e2 313c 4091 133b 1623 5c3c
00000280: 0da1 973a 685a 233b 29af 023b a468 a3ba
00000290: 2694 32bb a8fe 1a3c b08d 01bc f142 090c
000002a0: 18c3 ff3b 4c97 7aba 5e51 0bba 5379 7f3b
000002b0: f9cc e3bb 4724 81bb 3679 6e3c 84e1 d43b
000002c0: 4b52 3f3b b9d9 82b9 2eb5 fa38 e34c 3abc
000002d0: 7e81 323a 8dae 6d3b 0f90 653c cb52 1a3c
000002e0: c6bc 2b3c 6d68 2d3c e1a9 b03a f138 91ba
000002f0: d4cb d13b 8dde 7b3b 10da ff3a 5728 813c
00000300: ff88 aa3a 9ed6 4c3b 3f1e fb3a 628e b9ba
00000310: d378 fc35 a1bd 573c 9f1e 9cbb 812e d60b
00000320: c940 203c 9a69 053a c77f e9ba bbe1 4f3b
00000330: b15c 52bb 5146 43b9 4bac 613c caf5 443b
00000340: 186c 483b dd51 1f3a 8b21 183b 4978 acbb
00000350: 8179 5e3b 1944 b13b 5826 023c c3d6 203c
00000360: 808a 163c 5ffc 2a3c 83c4 123b 256a edba
00000370: 28d7 8e3b c460 2f3b a0ed e63a fe48 223c
00000380: 21f2 9b3a cbc2 fb3a b373 873b 8e8e 703b
00000390: e96a aeb9 b8bc c13c 87cd a9ba 66da 740b
000003a0: c572 403c 56a7 73b9 46ff 70b8 e74b 8e3b
000003b0: a90a 30b9 72d4 6f3b 95de 873c 9bd6 ac3b
000003c0: a498 383b 75d6 f2ba 92a7 113c dade 8e3b
000003d0: 5911 353b 07c3 9a3b c94e 343c 3ab8 3b3c
000003e0: f562 463c 79ce 513c 1453 db3a 55a1 13bb
000003f0: a31c ad3b 7374 493b bcee a83a 0106 513c
0.0028607748 -0.00042958756 0.0019300503 -0.016087817 -0.018802356 -0.0014357065 -0.033564605 3.9537723e-32
0.0248894 0.0035042216 0.007968767 0.0040998333 -0.02006646 0.009336361 0.015367496 0.0061454573
0.003913649 0.020255445 -0.014645406 -0.03978422 -0.0039633308 0.007281844 0.008182759 -0.0045339908
0.0039753686 -0.0037153314 0.008681124 0.0066621727 0.010119136 0.014952033 0.00081884704 0.008211969
0.0029911334 -0.00087045523 -0.012704473 -0.004073875 -0.010864675 -0.037060693 -0.03525388 6.944344e-32
-0.011314178 -0.00815727 -0.002546992 0.005518021 -0.041296612 -0.01715003 0.0113735255 0.0053341747
0.0047277054 0.0035413026 -0.018377243 -0.048774432 -0.0041271336 -0.0032018304 0.0112233 0.004786384
0.008179843 0.0049098404 -0.006098095 -0.015745984 0.00656236 0.0109205395 0.0025268926 0.011324702
0.0017893496 -0.0034724697 0.0035387913 -0.007972064 0.0026896887 0.029936837 0.003499325 8.9640654e-32
0.0216709 0.008391744 0.008281171 0.0036083166 0.012564224 0.014826937 0.009109266 0.0024993217
0.0034197704 0.004192669 0.009440097 0.00812902 0.0037701281 0.0060662376 0.008203189 0.0076142666
0.0056464365 0.009530393 0.004988144 0.009822009 0.006671463 0.010128176 0.0012041549 0.008337126
0.0022013946 0.0012391438 0.016740728 0.008330664 -0.0025115227 0.022309192 0.011114096 9.7993053e-32
0.019113228 0.016189491 0.0033160802 0.0022877126 0.00089882204 0.013603825 0.01750758 0.0033835159
0.003932854 0.0047678496 0.0070781033 0.022401499 -0.0015355771 0.023618428 0.008663166 0.015133174
0.006640773 0.018834557 0.01341674 0.0014368583 0.008474307 0.011226727 0.001205096 0.010044891
0.000983253 -0.0021109264 0.015547712 0.035424013 0.023253221 0.07644174 0.057211038 8.246964e-32
0.034758143 0.017169781 -0.0005005903 0.0026293322 0.048932314 0.029462202 0.032004148 0.007297893
0.002365931 0.00033892452 0.032297716 0.080610655 0.024362637 0.017527895 0.01050775 0.040694237
0.008617156 0.039824616 0.017361514 0.011584394 0.010430271 0.010857111 0.0022516996 0.0134360995
0.0011568383 0.0024925712 0.001994083 -0.0012467098 -0.0027248948 0.009460129 -0.007907316 1.057424e-31
0.0078052394 -0.0009559288 -0.0005314554 0.0038982227 -0.006951925 -0.003941092 0.014555266 0.00649661
0.0029193338 -0.00024957748 0.00011954676 -0.01137087 0.0006809457 0.003626737 0.014011397 0.009419153
0.010482019 0.010583979 0.0013478362 -0.0011079592 0.006402472 0.003843221 0.0019519944 0.015766306
0.0013010799 0.0031255851 0.0019158794 -0.0014156813 1.8810628e-06 0.01316777 -0.0047643925 8.249977e-32
0.009781071 0.0005089283 -0.001781457 0.003172024 -0.0032098705 -0.00018622844 0.013773988 0.0030053728
0.0030582007 0.0006077567 0.0023213353 -0.0052633625 0.0033946934 0.005409729 0.007943712 0.009816828
0.009188294 0.0104361465 0.0022394962 -0.0018113299 0.0043591447 0.0026760558 0.0017618425 0.009905098
0.0011897722 0.0019207833 0.0041336655 0.0036706063 -0.0003326752 0.023649558 -0.0012954929 4.7156995e-32
0.011746113 -0.00023236623 -5.74582e-05 0.0043425444 -0.00016788639 0.0036595133 0.016585628 0.0052746064
0.0028167153 -0.0018527048 0.0088900495 0.004360062 0.0027628748 0.004722956 0.011005112 0.011457497
0.012108554 0.012805575 0.0016733133 -0.0022526581 0.005282955 0.0030739575 0.0012888531 0.012757779

exp_avg_sq f4 [30, 32]
00000000: f934 6939 350d 023b 9ad4 0d3a c08f 143b
00000010: fbcb de3a c9d3 bd3c dda4 473c 1420 2a33
00000020: 0671 1d3c f9d0 a53b a494 db3a 2395 dc39
00000030: 3456 2f3c 2f51 993b 5998 cd3b 31c0 113a
00000040: 00de 9e39 1f90 3b3a 978c 433b 9d98 923c
00000050: 9048 4c3b b080 4c3b 7737 223b c5c5 433b
00000060: 8286 d83a 2f2a af3b fe51 583b abca 3d3b
00000070: 3d00 763a 2dd5 b03a fa96 9638 cbd6 303b
00000080: 51fb 3c39 c9a9 fb3a e545 5e3a 8c62 e03a
00000090: e9ad 183a 6d55 903c 697e d23b 972e 4233
000000a0: 1e02 053c 0d9b 9b3b 3fcc d73a 9fb0 d039
000000b0: 8231 cb3b 341d 893b 491d ab3b 4632 093a
000000c0: a49d 8539 9fcc ff39 2cce 1c3b 2763 433c
000000d0: a374 083b c441 3e3b 3330 103b 62eb db3a
000000e0: 2900 c23a 2edd 773b 218f 4a3b ef0d 403b
000000f0: 832b 363a 10f0 403a 34a3 a238 0ec3 213b
00000100: 5eba 4239 d0c5 d63a e75c db39 a461 cf3a
00000110: 22c7 df39 f002 463c df85 843b 4e34 1b33
00000120: 2914 cd3b 90e0 793b cfe5 c43a 1fcc a739
00000130: fd1c 7f3b dfec 3c3b 8721 793b d24f d739
00000140: e10c 8639 2932 d339 1901 bf3a 439d f03b
00000150: fd41 cb3a b4e5 123b 59e6 f63a 52eb c63a
00000160: 2a0d a53a 41d1 423b d1ae 203b cae1 123b
00000170: 7e91 103a 9cdd 103a 9119 3538 2aef 0c3b
00000180: 1c0f 3539 a2b8 bf3a 4b2e 843a 8c38 953a
00000190: 4134 283a b819 363c 347d 933b f102 ed32
000001a0: 3a54 ac3b 3f1f 5a3b a620 8d3a 4fac 9d39
000001b0: a36a 883b c17d 143b 9fc1 6b3b c186 f239
000001c0: 892d 6d39 5e45 af39 4a31 a83a a9e0 fb3b
000001d0: b576 a83a 00f7 153b 4c77 0b3b 08e6 a53a
000001e0: e72c af3a aa2f 303b b50c 073b ecfe 043b
000001f0: b5b4 353a fa05 7b3a aaa3 3838 7648 263b
00000200: ec01 3139 945e b63a ab59 8339 878a a43a
00000210: e9f2 303a 7043 1d3c ab39 973b 24dc d032
00000220: d097 823b d32e 373b a302 8d3a e788 9e39
00000230: 7186 8e3b cf57 ae3a 9f5c 483b 26a7 e639
00000240: 2fd7 6239 492b a739 4984 963a 7c69 003c
00000250: f2ef ab3a 8719 c03a 2f10 fa3a cddb ae3a
00000260: c3a3 9e3a e814 193b 4f92 ef3a 15b9 ff3a
00000270: d083 173a bb0c 443a 0671 4c38 44e5 183b
00000280: 403e 1839 45b0 a23a 64d6 1439 dca5 393a
00000290: 4f4d e239 2fae be3b 8a04 063b f181 9732
000002a0: 3813 483b ac06 123b d4c4 653a 2cc1 8c39
000002b0: 46e6 073b d8a2 4f3a a0c5 123b 7646 c139
000002c0: 4fcf 4339 e715 8f39 0a3a 3b3a 77d7 663b
000002d0: 9351 7b3a eb90 933a 587c cf3a 434f 5e3a
000002e0: 641f 843a 74ef d13a c699 b63a e531 c93a
000002f0: 6273 cc39 e0d0 a239 56d4 7b38 14be f33a
00000300: d7b0 ec38 28e6 903a 6c86 1539 be52 a739
00000310: 3ea6 2439 0557 943b 818b 173a c704 e832
00000320: 10c0 303b d69f 023b c805 593a da21 9139
00000330: 4868 313a 3782 223a 15ac 013b cf63 cb39
00000340: e7ce 2439 daf2 9339 ac5f c539 6c11 af3a
00000350: 8bf2 2a3a 7f7d 7b3a 6228 a63a 9412 0a3a
00000360: cd03 653a 007b b13a 7dc4 983a 78e6 ac3a
00000370: c5ee 9539 30ae 3d39 d7a4 9e38 7c24 d83a
00000380: 4b05 d938 d2de 873a 6439 0b39 f9c0 8839
00000390: c703 0339 bc8d 7c3b 8dcd fb39 099a e732
000003a0: aa76 1f3b abf4 003b d901 543a 0e26 8439
000003b0: 2d58 0d3a cc2b 203a 21a0 dc3a b03b b639
000003c0: 0c01 1039 4fea ad39 3b7d b339 c7c2 9e3a
000003d0: a0c4 213a 20b8 6f3a e753 b23a a917 eb39
000003e0: 3820 523a 8b0c 9c3a df26 923a bb5d ae3a
000003f0: 6c01 6839 a4ef 8039 044f 8938 aee6 cc3a
0.00022240345 0.0019844298 0.0005410403 0.002266869 0.0016998047 0.023172276 0.012185303 3.9610384e-08
0.009609466 0.005060312 0.0016752672 0.00042072785 0.010701705 0.0046788673 0.006274265 0.000555995
0.0003030151 0.00071549596 0.0029838437 0.017895037 0.003117118 0.0031204633 0.0024752298 0.0029872518
0.0016519579 0.005345605 0.0033007856 0.002895991 0.0009384191 0.0013491266 7.180679e-05 0.0026983495
0.000180227 0.001920038 0.0008479043 0.0017119213 0.00058242545 0.01761886 0.0064237607 4.5211518e-08
0.008118181 0.004748708 0.0016464068 0.00039804445 0.00620097 0.0041843895 0.005221997 0.00052336266
0.00025485188 0.00048789845 0.00239266 0.011925495 0.0020821474 0.0029030899 0.0022001385 0.0016778524
0.0014801073 0.0037821042 0.0030908065 0.002930518 0.0006949233 0.0007359991 7.755161e-05 0.0024682912
0.00018570709 0.0016385857 0.00041840153 0.0015821946 0.0004268224 0.012085661 0.004044279 3.613632e-08
0.006258507 0.0038128234 0.0015022102 0.00032004804 0.003892719 0.002882771 0.0038014369 0.00041067466
0.00025568067 0.00040282428 0.0014572471 0.007342966 0.0015507337 0.0022414746 0.001883696 0.0015176332
0.0012592424 0.0029726776 0.0024518261 0.0022412413 0.0005514844 0.00055261864 4.3177573e-05 0.0021504858
0.00017267134 0.0014627168 0.0010084597 0.001138465 0.0006416478 0.01111453 0.0045010094 2.7591769e-08
0.005259064 0.0033282784 0.0010767176 0.00030073753 0.0041631027 0.0022657963 0.0035973561 0.00046258236
0.00022619044 0.00033430284 0.0012832072 0.0076866937 0.001285276 0.002288282 0.0021280823 0.0012657056
0.0013364822 0.0026883879 0.002060694 0.0020293547 0.00069315295 0.0009575781 4.4021443e-05 0.002537278
0.00016880751 0.0013913685 0.00025053075 0.0012553491 0.00067500636 0.009598598 0.004615029 2.4314495e-08
0.0039853826 0.0027951493 0.0010758232 0.0003023811 0.0043495228 0.0013301315 0.0030572785 0.00043993554
0.00021633202 0.00031884972 0.0011483516 0.007837649 0.0013117774 0.0014656045 0.0019078309 0.0013340652
0.0012103248 0.0023358408 0.0018277856 0.0019510115 0.00057798345 0.00074787036 4.874265e-05 0.0023330012
0.0001451904 0.0012412152 0.00014194247 0.0007081905 0.00043163678 0.005819104 0.0020449483 1.7637804e-08
0.0030529033 0.0022281809 0.00087649864 0.00026846805 0.002073662 0.0007920689 0.0022395626 0.00036864326
0.00018673878 0.00027291404 0.00071421324 0.0035223642 0.00095870456 0.0011258399 0.0015829904 0.0008480439
0.0010080156 0.0016016797 0.0013931326 0.0015349953 0.0003899588 0.00031054672 6.0040817e-05 0.0018596076
0.00011286296 0.001105492 0.00014259823 0.0003191437 0.00015702189 0.004526975 0.00057809806 2.7010527e-08
0.0026969947 0.0019931695 0.00082787545 0.00027681777 0.0006767553 0.0006199213 0.0019786407 0.0003879354
0.00015717336 0.00028218963 0.0003764605 0.0013356633 0.0006521127 0.00095935905 0.001267683 0.00052670506
0.0008736223 0.0013540685 0.0011655238 0.0013191244 0.00028597392 0.00018089334 7.564731e-05 0.0016490365
0.00010348352 0.0010366088 0.00013277453 0.00026083717 0.0001249454 0.0038536629 0.00048027598 2.6961986e-08
0.0024332204 0.0019677083 0.00080874335 0.00025205355 0.00053918624 0.0006110042 0.001683239 0.00034758216
0.000137333 0.00033171705 0.00034234844 0.0012112492 0.0006170962 0.0009144563 0.0013605327 0.0004484032
0.0008015665 0.0011905594 0.00111505 0.001330308 0.00022125774 0.0002459261 6.547387e-05 0.0015632713

exp_avg f4 [30]
00000000: dbc8 323c ffe5 083b 9343 5e3c 94b7 843c
00000010: f1b2 e23c baf2 fd3b 4673 0e3c ca1f 0c3c
00000020: fca8 1c3c f905 673b 873f ff3a d90e c73a
00000030: b773 843b b63e 8e3b c93d bebb 53bd 4fbb
00000040: 8105 5fbb 15f2 4dbb e4bb a1bb ffe6 f1bb
00000050: 6544 81bb 8817 eabb f978 30bc ef9f 00bc
00000060: bc67 1dbc 1b5d 44bc 2493 48bc 609f 47bc
00000070: c3bf 1abc aa32 f1bb
0.0109121455 0.0020889041 0.013565916 0.016200818 0.027673217 0.0077498825 0.0086944755 0.008552501
0.009561773 0.0035251363 0.0019473889 0.001518692 0.0040421146 0.004340972 -0.005805705 -0.003169854
-0.003403038 -0.003142481 -0.0049357284 -0.007382273 -0.003944921 -0.0071439184 -0.01077103 -0.007850631
-0.009607252 -0.011985089 -0.012242112 -0.012183994 -0.009445134 -0.007360776

exp_avg_sq f4 [30]
00000000: 73fa 8c3b 939f 5c3b e527 263b 8cfa 113b
00000010: 3d29 f73a a3c8 a73a 8e2f 793a 99bb 553a
00000020: 1256 443a 79ce 203a 58ab 023a 29b4 023a
00000030: 039c d339 8fa4 a839 7deb d939 402b ad39
00000040: 486c c239 aff6 c239 2946 e739 b24c fb39
00000050: c54e 3e3a 755b 263a 6542 693a 9619 8b3a
00000060: 57f2 b93a c67b d53a 99cd f93a a822 173b
00000070: bcd0 2c3b e2bb 3c3b
0.004302317 0.003366445 0.002535337 0.0022274582 0.0018856894 0.0012800883 0.00095056824 0.00081532594
0.0007489632 0.00061342824 0.00049846387 0.00049859524 0.00040361294 0.00032166063 0.00041564918 0.00033029355
0.0003708324 0.00037186357 0.00044112027 0.00047931593 0.00072596624 0.00063460256 0.0008898138 0.0010612484
0.0014186603 0.0016287498 0.0019058465 0.0023061428 0.0026369533 0.002879851
