code/2021-04-12_18-39_last.pth (torch, 80051 bytes, 18 tensors)

encoder.maxpool_conv.0.0.weight f4 [1, 1, 2, 10]
00000000: 44e3 91bc 7710 543a 9bac 8dbd aada 0fbe
00000010: 7624 8ebd e59a 31be 18c6 893d 6233 8abd
00000020: ba54 093e 29e3 a33c f5d7 ad3c 0b63 e23c
00000030: 4487 d3bd 2d92 0e3e 39c6 013e 64d2 563e
00000040: 7f0a 03be ab0f 223d d962 223e 49a8 24be
-0.017808564 0.00080896117 -0.069176875 -0.14048257 -0.06940548 -0.17344244 0.067272365 -0.06748082
0.13411227 0.02000578 0.02122114 0.027635118 -0.10328534 0.13922949 0.12673272 0.20978695
-0.12796973 0.039565723 0.1585802 -0.1607982

encoder.maxpool_conv.2.0.weight f4 [1, 1, 2, 10]
00000000: ebfd 66be cff7 babe 32f1 9bbe c3d7 06be
00000010: af3c 583b 7e2d 37bd 735f 3c3c c07b 3dbc
00000020: 61a7 5a3e 6cd5 e83d 55e0 733c 0d63 0abe
00000030: d230 af3d 3985 b23e 0e96 c03d 00e6 afbd
00000040: b6ee 463e 309f b63d bea8 37be aee2 523b
-0.225578 -0.36517188 -0.30457455 -0.13168244 0.0032995155 -0.04472112 0.011497366 -0.011565149
0.21352912 0.11368832 0.014885028 -0.13514347 0.085542336 0.34867266 0.09403621 -0.08588791
0.19426998 0.08917081 -0.17935464 0.0032178569

decoder.linear1.weight f4 [32, 164]
00000000: d3cc 1ebe 7851 d03c c36c 88bc 1d3a 40bd
00000010: 08af fabb e319 1fbe b35b 203e 3941 ffbd
00000020: ecc2 483e bba7 843c dbcb 0d3e 24a5 2f3d
00000030: 0606 053e ef9b 733d 1651 bb3d 2368 643e
00000040: 5bba 553d f23d 2c3e 0265 d93c f875 733e
00000050: ff0f 88bc b66e 223e b170 66bd ac46 5a3e
00000060: c973 04be 5bba 093e ddc9 1ebe 0db1 083d
00000070: b0fc 28be db6e 12be 3a71 41be 3b63 82be
00000080: 5c92 183b a050 63be 4a9d cf3d addf 52be
00000090: e58e 543e 0e42 1abe 8c36 623e d60e 943a
000000a0: f755 7e3e 3f45 8fbd 8d3c 993e 5377 503d
000000b0: 7ea7 0e3e 6502 c13d e870 45bc 46ce 283e
000000c0: bccb fcbc e9cc 613d c7ed 48be fafb 253e
000000d0: 599b b5be f638 103e 9ca2 ecbe 3469 9f3d
000000e0: 64da c9be c161 663d 412b 66be e3ca db3c
000000f0: 49a7 41be afb7 40bd 2053 4bbe 9c97 13be
00000100: ddd5 b0bd d321 23be 66c4 893d 65cb 11bc
00000110: c09e 903d 205b 1f3d 9210 c73c 5c9d 023d
00000120: 2bce 6bbc dea4 983d 06a2 c6bd 2183 cc3d
00000130: 604a febd 0db0 d23d 28e7 42be b21a fa3d
00000140: 8848 b1be 27b6 bd3d f2c7 a6be e591 fc3d
00000150: df0f d0be 2be2 2b3d 45ad cfbe 137a 953d
00000160: caa0 c1be d012 4a3e 8c8e f4be 5d98 383e
00000170: dce0 14bf 4c0e fe3d bbd1 02bf cfd7 633e
00000180: c5f2 0ebf 1005 1d3e 448a 55bf f79d f03d
00000190: 61b7 66bf 305d 8c3d a1e8 6cbf 6fbc 7f3d
000001a0: 757b 39bf 79c3 d83d 515e 21bf ab29 e13c
000001b0: 1bce bdbe e924 663d 3e39 9fbe 30c3 cd3d
000001c0: c1fb 29be 14b9 723d f8f2 cebd 6d6b 1b3e
000001d0: 79c8 9bbd 8838 ff3d 3142 3fbe ebce 683e
000001e0: 581d 86be 7d42 463e b7e0 19bf eb9b 4d3e
000001f0: c36b 58bf e17e 453e d82d 76bf 82f5 183e
00000200: fedd 87bf ab0b 9a3d 6fe4 88bf b1b4 403e
00000210: 92cf 80bf d241 d53d 4a64 4bbf 0c49 c73d
00000220: 5355 1dbf 9be5 c23d 9f49 8fbe 9852 2b3e
00000230: ddaf bcbd d9f6 d13d 5977 a23d 9053 f63d
00000240: b92c f93c 2e7b 4a3e 3b34 523d a2ba 5f3e
00000250: bc05 4d3d fec5 1c3e c303 37bc 1183 b13d
00000260: 4044 2ebe 4745 b43d cfb1 5fbe 83f2 663d
00000270: d92d cfbe 5a3e 313d aefc 95be 3ccd a4bb
00000280: 367c 0b3c a18e 2bbd 54b3 77be 43ce 19bb
00000290: 8032 4cbd a85d 5a3d e84e cd3c 441d 25bd
000002a0: b17d 3b3d 89e4 493d 04a6 263d 943c acbc
000002b0: 6142 25bc fa95 b5bb 0744 6fbc ddf5 743c
000002c0: 71d0 343d a65c afbd e02c 3a3d f204 a53c
000002d0: 522b e43c 68bc 99bd 11a3 e43b b223 83bd
000002e0: 85cd 8cbd 9d10 7d3c a0b7 4e3d b92f 993b
000002f0: edbc 0c3b ebf1 9dbd 1326 a5bd e351 6f3d
00000300: 755b d5bc 46ab aabd d62f 5c3d c8af b73c
00000310: e21e 2fbd 3c06 9e3b 4b95 703d fea6 bdbc
00000320: c487 083c 73c0 e73c 302d 7b39 cfe3 81bc
00000330: 332e 7e3c a5b6 86bd 2b29 08bd d5bd 9ebd
00000340: a05e 983c 478d 94bc 6642 aabd b635 9bbd
00000350: bd3d a23a 69ee 4fbd 0fea c93c 856e 58bd
00000360: f747 993c bb09 8c3c de2f 5abd 3cc4 78bd
00000370: e5cd 83bd 63cf c23c 0cfd 2a3b 84a4 58bd
00000380: 27c4 5cbd cbb2 9b3c 898e 08bd 3a0e 70bd
00000390: 25cb 4cbd ba9d 9abd fcf8 8abd 134f a1bd
000003a0: fbb7 1b3d e392 aebd a5b5 163d 0002 a3bd
000003b0: 60a9 97bd 320b c7bc 6bc8 d3bc 63a4 d43c
000003c0: a5cc c23b aacd 8cbd 2ec0 05bd 99fe 7c3c
000003d0: e48e 91bd ff67 95bd e718 7c3d 130f 9dbc
000003e0: 7e93 49bd d403 4d3d 5d40 a13c 5344 823c
000003f0: 6ff2 06bd b561 2ebc 10ea 94bc 1c74 7ebd
-0.15507822 0.025429472 -0.016653424 -0.04693042 -0.00765026 -0.15537219 0.1565998 -0.12463612
0.19605607 0.016193261 0.13847296 0.0428821 0.12990579 0.05947488 0.09146325 0.2230535
0.052179676 0.16820505 0.026537422 0.2377547 -0.01660919 0.15862545 -0.056259815 0.21316022
-0.12934794 0.13449995 -0.15506692 0.033371974 -0.16502643 -0.143001 -0.18890849 -0.25466332
0.0023280596 -0.22198725 0.101374224 -0.20593138 0.20757635 -0.1506426 0.2209112 0.0011295925
0.2483748 -0.069956295 0.2992901 0.050895046 0.1393108 0.09424285 -0.012050845 0.16484937
-0.030858867 0.05512706 -0.19621955 0.16209403 -0.35470083 0.14084229 -0.4621781 0.07783738
-0.3942443 0.05624557 -0.22477438 0.026830142 -0.1891147 -0.047050174 -0.19855928 -0.14413303
-0.08634541 -0.15930872 0.06726913 -0.008898591 0.07061529 0.038905263 0.024299894 0.03188835
-0.014392416 0.07453321 -0.09698872 0.09985948 -0.1241653 0.10287485 -0.19033492 0.12212123
-0.3462565 0.092632584 -0.3257442 0.12332515 -0.4063711 0.041963737 -0.40561882 0.072986744
-0.37817985 0.19733739 -0.47765005 0.18026872 -0.5815561 0.12405071 -0.51101273 0.22250293
-0.55839187 0.15333962 -0.834141 0.117488794 -0.90123564 0.068537116 -0.92542464 0.062435564
-0.72454005 0.105841585 -0.6303454 0.02748569 -0.37071308 0.056187544 -0.3109836 0.10046995
-0.16599943 0.059258536 -0.10104936 0.15177698 -0.076065965 0.12461954 -0.18677594 0.22735183
-0.26194263 0.19361301 -0.6010851 0.20079009 -0.8453943 0.19286682 -0.961637 0.14937404
-1.0614622 0.07521757 -1.0694712 0.18818928 -1.0063345 0.10412945 -0.79449904 0.097307295
-0.6145832 0.0951645 -0.27985856 0.16730726 -0.09213231 0.102521606 0.0793292 0.12027657
0.030416833 0.19773552 0.051319342 0.21848539 0.050054297 0.15309903 -0.01117033 0.08667577
-0.17018223 0.08802276 -0.21845172 0.05638362 -0.40464666 0.043272354 -0.29294342 -0.0050293487
0.008513501 -0.04188407 -0.24189502 -0.0023468889 -0.049852848 0.053311974 0.02506204 -0.040311113
0.045774166 0.049290214 0.04068567 -0.02102498 -0.010086627 -0.0055415602 -0.014603621 0.0149511965
0.044144098 -0.08562593 0.045452952 0.02014396 0.027852688 -0.07506639 0.006977447 -0.06403293
-0.06875137 0.015445855 0.050468087 0.0046748784 0.0021474913 -0.07712158 -0.08063903 0.058427703
-0.026044587 -0.08333449 0.053756557 0.022422686 -0.04275406 0.0048225205 0.058736127 -0.023150917
0.00833315 0.02829001 0.00023954059 -0.015855698 0.015513944 -0.065778054 -0.033242386 -0.07751051
0.018599808 -0.018133773 -0.08313446 -0.07578604 0.0012378019 -0.050764475 0.02464774 -0.052839775
0.018711073 0.017094484 -0.053268306 -0.06073402 -0.06435756 0.02378053 0.002609077 -0.05289127
-0.053898003 0.019006154 -0.033339057 -0.058607318 -0.04999842 -0.07549615 -0.06785771 -0.0787641
0.038017254 -0.0852411 0.036794323 -0.07959366 -0.074053526 -0.02429733 -0.025852403 0.025957292
0.0059448057 -0.06875165 -0.03265398 0.01544156 -0.07107332 -0.07295226 0.061547186 -0.019172227
-0.049212925 0.05005248 0.019684011 0.01590172 -0.032946046 -0.010643412 -0.018178016 -0.06212245

decoder.linear1.bias f4 [32]
00000000: b2ff eb3d 06a4 853d 4023 493e 5958 863e
00000010: 227d 6b3e 74fc 86bd 6bbd 353e a10b a4bd
00000020: 74eb 9cbc 84b6 5cbd 7811 3b3e 49a3 923e
00000030: aa1b 703e bf13 6c3d b62d 103e 749e 433e
00000040: 5232 6c3e cdb9 8b3d a34f 8b3e 31c3 873e
00000050: a734 79bb 2aeb 463d 1116 403e 8acb 60b9
00000060: bae1 8a3e ecc2 713e 5ec3 823e 5511 7d3e
00000070: 35bb 6d3e 6f98 713e ed4a 9a3e c3f1 483e
0.115233794 0.065254256 0.19642353 0.2623928 0.22996953 -0.0659112 0.17748038 -0.080100305
-0.019155242 -0.053884998 0.18268383 0.28640202 0.23448053 0.05763602 0.14079937 0.19103414
0.2306607 0.06822548 0.27209195 0.26516107 -0.0038025768 0.048564114 0.18758418 -0.00021438129
0.2712534 0.23609513 0.25539678 0.24713643 0.23215945 0.23593305 0.3013529 0.19623475

decoder.linear2.weight f4 [10, 32]
00000000: c5d8 9dbf e115 35bc 98b4 763e eba0 a13e
00000010: ab80 ca3e 73ce dabd d6d7 bf3e 7d86 c6bd
00000020: 55d9 04be 29da 31bd d648 d63e 2fdc c03e
00000030: 278d 523e b9a0 92bd e776 72bf d960 803e
00000040: bd5d c53e e3d8 fcbe f6e7 a23e 59ab e73e
00000050: abf6 72bf 602c 5fbf 6d10 fa3e cf4d be3a
00000060: d16b 833e 4950 c13e 0149 b63e cbe0 9c3e
00000070: 29fa ac3e 2466 653e 21b7 3b3e 4360 973e
00000080: e521 9ebf cc56 123d 36fa 863e be87 b63e
00000090: 3659 cb3e b601 663d a0c7 c83e 0141 7e3d
000000a0: 0aed 17be 9400 8f3d 9a08 d83e 884d 463e
000000b0: 51d6 ca3e 6150 cf3c 7a19 7fbf 1abb 1b3e
000000c0: b962 8d3e 3856 09bf b31d a93e 72df a73e
000000d0: 43e9 81bf 7c5b 81bf 9a6f c13e ed8b 30be
000000e0: 9adb d33e efe1 833e 08ab 163e ad3a ec3e
000000f0: e698 6d3e 7e1c 843e a34e e63e 4c55 ed3e
00000100: 8691 97bf 3840 ccbd b1f0 ae3e 17f5 863e
00000110: 9603 613e 0801 29be 625c c93e 4cb8 ec3c
00000120: 180a bb3d 6935 eabd 5016 983e 6e17 903e
00000130: d739 d13e cfc3 1ebd 564c 82bf d954 d43e
00000140: 2ebe 843e 84bf 17bf 1d04 da3e 1210 703e
00000150: 321d 4abf d86f 88bf f5dd c73e 4483 1cbd
00000160: c4fb 7a3e e88b 5f3e 8b89 823e e04a 9c3e
00000170: cc60 d73e 4696 e93e 1fec b93e 00f7 be3e
00000180: 85c3 a2bf be38 85bc 9f96 323e 6067 ce3e
00000190: 5225 eb3e 111b ecbd 4739 a43e fc25 9e3d
000001a0: b451 0f3e 2925 c7bd fd4a 973e 3328 713e
000001b0: 82eb e33e 9876 8a39 958b 84bf 8e0c e23e
000001c0: 4944 ae3e 11a8 bebe 031b c33e fae1 513e
000001d0: eedc 73bf 3899 70bf c3d8 9c3e c7c1 cfbd
000001e0: 3223 a73e f2ff 9e3e 7605 333e b422 2a3e
000001f0: 3882 cf3e 3b06 d83e b99c b53e 293b d03e
00000200: 41cc a5bf 9aae 743d 4fab f13e 18ec 8d3e
00000210: 6248 a83e 45fb bfbd 4a05 4d3e 7fa0 9e3d
00000220: b4f0 f0bd e5e2 a1bd d925 e13e 39bf 583e
00000230: fc20 313e e7bc ea3d be6d 91bf 40da 213e
00000240: 05a7 b03e 10b3 02bf 0c9e e03e 3dcb 8c3e
00000250: 9e42 83bf f068 68bf fd1a b23e f092 cc3d
00000260: cc03 893e 98a6 bc3e 91a5 fc3e 2f35 f33e
00000270: e0ad b13e ed05 d73e 2c52 a53e b3b3 593e
00000280: 2dfe 97bf faa7 0d3e bc14 f73e 70c9 1f3e
00000290: 78d1 a73e 0981 143e 3a3d 393e d268 fa3d
000002a0: be8e 9f3d 07fa 183e 4880 b53e cdc0 a43e
000002b0: a91e f83e 097f b33d 0213 9dbf 6ba6 e93e
000002c0: cc9d b73e 92bb 2cbf 1d05 943e 99e6 2c3e
000002d0: 6fcd 68bf f0d9 63bf 1cae 663e 0255 52bd
000002e0: ae54 ca3e 0e12 be3e fed0 b73e 980d be3e
000002f0: 5e62 d23e c5c2 db3e 851d 4e3e 18be 853e
00000300: fbfd b2bf 3bab 7fbd 9951 ae3e 9cdd d33e
00000310: 5aea a83e b86c 303e 6c8d ec3e d2f7 86bd
00000320: 83e0 0ebd 1320 0f3d c2e3 813e c128 e63e
00000330: 0b50 633e 7747 c1bd ceb4 a1bf 3c2e d33e
00000340: e8eb ea3e 6ac9 debe 7aea 5c3e f70d ca3e
00000350: ba4f 6abf 7865 85bf 1cc0 423e 1386 fabd
00000360: 933f 743e 616b 973e 5ffb cc3e f65d 923e
00000370: a6f0 b53e 0ea4 823e ff09 593e ff08 db3e
00000380: 517a b2bf 2443 2a3e 7e3e c13e 8bac 963e
00000390: 51c8 653e 6892 6dbd 5e4b 2f3e 3613 1dbe
000003a0: 5958 de3d 1723 c9bd 5371 be3e c171 9d3e
000003b0: 5e16 cd3e 863f 71bd f78b 9fbf b2d4 6a3e
000003c0: 7678 713e 41db 23bf 7276 5f3e cc18 d13e
000003d0: 5ade 87bf 382b 73bf 09c2 363e 8c2c 2abe
000003e0: 1e7a 673e 93ed dd3e f9f0 fc3e 592a dd3e
000003f0: cdb5 c53e 61c6 a73e 7388 f23e c820 e33e
-1.2331778 -0.01105258 0.24092329 0.31568083 0.3955129 -0.10683908 0.37469357 -0.0969362
-0.1297353 -0.043420944 0.41852444 0.37667987 0.20561658 -0.07159562 -0.9471268 0.2507389
0.3854808 -0.4938422 0.31817597 0.45247915 -0.94907635 -0.87177086 0.48840657 0.0014519038
0.25668195 0.37756565 0.35602573 0.30640253 0.33784607 0.22402245 0.18331577 0.2956563
-1.2354094 0.035727307 0.2636277 0.35650438 0.397165 0.056153975 0.39214802 0.06207371
-0.14836517 0.06982532 0.42194062 0.19365513 0.39616635 0.025306882 -0.9964825 0.15208092
0.27614382 -0.53647184 0.3303047 0.32787663 -1.0149311 -1.0106044 0.37780458 -0.17240877
0.4137848 0.2575831 0.1471368 0.46138516 0.23202857 0.25802988 0.4498187 0.4635414
-1.1841285 -0.09973186 0.34168008 0.26358864 0.21974024 -0.165043 0.39328295 0.028896473
0.091327846 -0.114359684 0.29704523 0.28142875 0.4086444 -0.038760956 -1.0179546 0.41470984
0.25926346 -0.59276605 0.42581263 0.2344363 -0.789508 -1.0659132 0.39036527 -0.038211122
0.24510103 0.21830714 0.25495562 0.30525875 0.42066038 0.45622462 0.3631296 0.3729782
-1.2715918 -0.016262408 0.1744027 0.40313244 0.4592691 -0.115286 0.3207495 0.07722089
0.13996011 -0.097238846 0.295494 0.23550491 0.44515616 0.0002640977 -1.0355097 0.44150203
0.34036472 -0.372376 0.38106546 0.2049636 -0.95258987 -0.93983793 0.30634126 -0.10144382
0.3264404 0.31054646 0.17482552 0.166148 0.40529037 0.42192253 0.35471132 0.40670136
-1.2952958 0.059736826 0.4720101 0.27719188 0.32867724 -0.09374098 0.20021549 0.07745456
-0.117646605 -0.07904605 0.43974188 0.21166696 0.17297739 0.114618115 -1.1361616 0.15805912
0.34502426 -0.5105448 0.4387058 0.27498809 -1.0254705 -0.9078512 0.34786215 0.099889636
0.2676071 0.3684585 0.49345067 0.47501513 0.3470297 0.4199671 0.32289255 0.21259956
-1.1874443 0.13833609 0.48258007 0.15604186 0.32777 0.14502348 0.18089762 0.12227024
0.07790898 0.14939128 0.35449433 0.32178345 0.48460892 0.087644644 -1.2271426 0.4563478
0.35862577 -0.6747371 0.2891015 0.16884841 -0.90938467 -0.8900442 0.22527355 -0.0513506
0.3951773 0.3712315 0.35901636 0.37119746 0.41090673 0.42922035 0.20128448 0.26121593
-1.3983759 -0.062419157 0.3404663 0.41380012 0.32991296 0.17228973 0.46201646 -0.06590237
-0.03488208 0.034942698 0.25369078 0.44952968 0.22198503 -0.09437459 -1.2633302 0.41246212
0.45883107 -0.43513042 0.2157382 0.3946378 -0.91527903 -1.0421591 0.19018596 -0.12232604
0.23852377 0.2957411 0.4003553 0.28587312 0.35535163 0.2551579 0.2119522 0.427803
-1.3943578 0.16627175 0.3774299 0.29428515 0.22439696 -0.058000952 0.17118594 -0.1533936
0.10856695 -0.09821146 0.37195835 0.3075085 0.40056127 -0.05889847 -1.2464589 0.229327
0.23581108 -0.6400643 0.21822527 0.4083923 -1.0614731 -0.9498782 0.17847456 -0.16618556
0.22605178 0.43345317 0.49402598 0.4319637 0.38615265 0.3276854 0.47369727 0.44360948

decoder.linear2.bias f4 [10]
00000000: a4a0 383e 8ca0 343e 27b7 b63d abfb 063e
00000010: 3514 0fbd 0fc9 803e 42a5 573d 447f cf3d
00000020: 6be0 a0bc f74d d43d
0.1803003 0.17639369 0.08921652 0.13181941 -0.03493138 0.25153396 0.052647837 0.10131696
-0.01963826 0.10366433

exp_avg f4 [1, 1, 2, 10]
00000000: dc5e 45c2 d1a8 30c3 28a4 b942 a072 cd43
00000010: 6581 3144 62a0 8644 cea1 0745 dd40 2445
00000020: 7030 2d45 df2a 3a45 8e24 95c4 b9c2 83c4
00000030: 4cd4 09c4 21e9 a6c3 3a1e efc2 9529 9143
00000040: 4ddc a644 1c51 ba44 287b d644 c4c1 e444
-49.342636 -176.65944 92.82062 410.8955 710.0218 1077.012 2170.1128 2628.054
2771.0273 2978.6794 -1193.1423 -1054.0851 -551.31714 -333.82132 -119.55904 290.32486
1334.8844 1490.5347 1715.8486 1830.0552

exp_avg_sq f4 [1, 1, 2, 10]
00000000: 5245 764b c440 824b d53a 724b 5dad 4e4b
00000010: 7f34 484b 0f02 354b ba4b 684b 8a01 864b
00000020: 34cb 6f4b 39aa 6d4b 80c1 b14b 9436 b04b
00000030: af55 8f4b abc8 804b 0f9a 734b 14b2 354b
00000040: 0dba 3c4b 1283 2e4b d2c0 1c4b a962 114b
1.6139602e+07 1.707252e+07 1.5874773e+07 1.3544797e+07 1.3120639e+07 1.1862543e+07 1.5223738e+07 1.7564436e+07
1.5715124e+07 1.5575609e+07 2.3298816e+07 2.3096616e+07 1.8787166e+07 1.6879958e+07 1.5964687e+07 1.1907604e+07
1.2368397e+07 1.1436818e+07 1.0272978e+07 9.527977e+06

exp_avg f4 [1, 1, 2, 10]
00000000: 98a0 4a42 fe11 2dc3 c598 56c3 3caa 2442
00000010: 1f0d f043 b70c 1644 42e9 5f44 12d8 9e44
00000020: 7505 c944 37eb c244 ca03 6ac4 e844 73c4
00000030: 8c8f 93c4 578e a6c4 3d44 89c4 43ca 7bc4
00000040: 5cd5 87c4 f271 61c4 19d9 33c4 ad57 23c4
50.65683 -173.07028 -214.59676 41.166245 480.1025 600.19867 895.64465 1270.7522
1608.1705 1559.3505 -936.0592 -973.07666 -1180.4858 -1332.4481 -1098.1324 -1007.16034
-1086.6675 -901.7804 -719.39215 -653.36993

exp_avg_sq f4 [1, 1, 2, 10]
00000000: 9fbc 9f47 1bce 3448 bcee 6548 88d7 cb47
00000010: b16d c648 c664 6849 a86c 084a 82ca 4f4a
00000020: b916 a54a 2a53 8a4a 300b eb49 cd4b 024a
00000030: 2b79 454a 1155 844a bd35 3b4a 844e 1b4a
00000040: 8271 474a 3237 184a 7a76 c449 b516 ac49
81785.24 185144.42 235450.94 104367.06 406381.53 951884.4 2.235178e+06 3.4044485e+06
5.4096285e+06 4.532629e+06 1.925478e+06 2.1347712e+06 3.2354028e+06 4.3362645e+06 3.0672472e+06 2.544545e+06
3.2676805e+06 2.4939005e+06 1.6094232e+06 1.4097506e+06

exp_avg f4 [32, 164]
00000000: 97dd fcbf 7fc8 2fc1 c8e1 1fc0 41e5 31c1
00000010: d506 43c0 6298 28c1 26f5 6bc0 eddf 36c1
00000020: 4e22 83c0 1062 42c1 9dba 86c0 eb74 3ec1
00000030: bbd7 76c0 5aa7 3fc1 a511 6bc0 31ed 4fc1
00000040: 11f6 51c0 d5ea 5ac1 a6f8 35c0 ff94 57c1
00000050: 8b32 09c0 ab0f 50c1 b7aa fbbf f675 50c1
00000060: 9678 f6bf ef32 47c1 ba10 fabf 78ac 3bc1
00000070: bb9e 09c0 93c9 31c1 45d7 3ac0 7bda 1dc1
00000080: a1f4 69c0 818b 18c1 3680 85c0 d7a5 18c1
00000090: 2ed2 95c0 da7d 15c1 9d71 a7c0 00ad 1ac1
000000a0: 7a99 b2c0 bdac 29c1 3501 acc0 1d50 35c1
000000b0: fee3 a1c0 5a0c 3cc1 0dd5 89c0 4543 52c1
000000c0: 338b 65c0 1101 5bc1 febd 38c0 6224 54c1
000000d0: 09bf 16c0 1300 55c1 9788 ebbf 75da 50c1
000000e0: 3792 eabf d19b 42c1 1b0b 10c0 0638 38c1
000000f0: b3ca 42c0 1dc8 3ac1 3b7f 70c0 1a01 30c1
00000100: 1355 8bc0 9adc 25c1 c498 90c0 d8f9 2fc1
00000110: 1300 8dc0 5d08 38c1 fb17 82c0 31b8 42c1
00000120: c3d8 79c0 2c8a 4dc1 7b16 6dc0 48ad 4ec1
00000130: ff16 5cc0 7493 4bc1 a219 48c0 150c 45c1
00000140: 58aa 30c0 9838 41c1 d88d 26c0 df1c 40c1
00000150: aac0 29c0 dcc5 40c1 d0b8 2bc0 7434 49c1
00000160: df54 1ec0 9c38 4ec1 3495 09c0 4f38 4ec1
00000170: eee8 dbbf 129f 54c1 fa4a e1bf c29a 52c1
00000180: f602 fbbf 559f 4fc1 c972 0ec0 74e5 4bc1
00000190: 4fae 02c0 e15d 43c1 dcb3 f2bf c4db 3cc1
000001a0: f431 f4bf 9981 33c1 2a03 05c0 507e 2cc1
000001b0: c7f0 36c0 e213 2fc1 da09 6ac0 818e 32c1
000001c0: ee70 85c0 a9b4 34c1 9121 8dc0 9cbd 39c1
000001d0: 5dd1 8fc0 e79b 46c1 0954 8dc0 e6c8 4cc1
000001e0: 6d9a 71c0 405c 54c1 31c4 29c0 d70d 57c1
000001f0: 069b abbf b6ea 51c1 be10 7fbf 192c 49c1
00000200: 7f65 57bf 90a0 44c1 757a 5ebf b4e0 41c1
00000210: 1ca4 88bf 7cf4 36c1 d7d1 b1bf 7648 2bc1
00000220: 3c35 05c0 9732 28c1 a193 4bc0 1e52 26c1
00000230: fa5c 90c0 80d1 23c1 386f b4c0 eec3 2bc1
00000240: dd04 b5c0 fc99 3cc1 4609 b2c0 3b6f 3ec1
00000250: f513 a6c0 9752 3fc1 bd6f 98c0 d7df 3ec1
00000260: 5b32 87c0 7b49 38c1 911b 6ec0 f08c 2fc1
00000270: 32af 4ac0 76f2 24c1 ae4e 3ec0 b116 1fc1
00000280: 1647 51c0 c497 16c1 b1f7 55c0 8646 16c1
00000290: 0400 0000 0400 0000 0400 0000 0400 0000
000002a0: 0400 0000 0400 0000 0400 0000 0400 0000
000002b0: 0400 0000 0400 0000 0400 0000 0400 0000
000002c0: 0400 0000 0400 0000 0400 0000 0400 0000
000002d0: 0400 0000 0400 0000 0400 0000 0400 0000
000002e0: 0400 0000 0400 0000 0400 0000 0400 0000
000002f0: 0400 0000 0400 0000 0400 0000 0400 0000
00000300: 0400 0000 0400 0000 0400 0000 0400 0000
00000310: 0400 0000 0400 0000 0400 0000 0400 0000
00000320: 0400 0000 0400 0000 0400 0000 0400 0000
00000330: 0400 0000 0400 0000 0400 0000 0400 0000
00000340: 0400 0000 0400 0000 0400 0000 0400 0000
00000350: 0400 0000 0400 0000 0400 0000 0400 0000
00000360: 0400 0000 0400 0000 0400 0000 0400 0000
00000370: 0400 0000 0400 0000 0400 0000 0400 0000
00000380: 0400 0000 0400 0000 0400 0000 0400 0000
00000390: 0400 0000 0400 0000 0400 0000 0400 0000
000003a0: 0400 0000 0400 0000 0400 0000 0400 0000
000003b0: 0400 0000 0400 0000 0400 0000 0400 0000
000003c0: 0400 0000 0400 0000 0400 0000 0400 0000
000003d0: 0400 0000 0400 0000 0400 0000 0400 0000
000003e0: 0400 0000 0400 0000 0400 0000 0400 0000
000003f0: 0400 0000 0400 0000 0400 0000 0400 0000
-1.9755124 -10.986449 -2.4981556 -11.11847 -3.047292 -10.537203 -3.6868377 -11.429669
-4.0979376 -12.148941 -4.21028 -11.903544 -3.8569171 -11.978357 -3.672952 -12.995408
-3.2806437 -13.682332 -2.8433013 -13.473876 -2.14371 -13.003825 -1.9661473 -13.028799
-1.925555 -12.449935 -1.9536355 -11.729607 -2.1503131 -11.111712 -2.919389 -9.86584
-3.655556 -9.534059 -4.1719007 -9.540488 -4.6819067 -9.3432255 -5.232619 -9.667236
-5.581235 -10.604672 -5.3751473 -11.332059 -5.059081 -11.7530155 -4.307257 -13.141423
-3.586621 -13.68776 -2.8865962 -13.2588825 -2.3554099 -13.312518 -1.8401059 -13.053334
-1.8325871 -12.163041 -2.2506778 -11.513678 -3.0436218 -11.673856 -3.7577655 -11.000269
-4.354135 -10.366358 -4.518648 -10.998497 -4.406259 -11.502042 -4.0654273 -12.169969
-3.903855 -12.846233 -3.704497 -12.917305 -3.4389036 -12.723499 -3.1265645 -12.31545
-2.760397 -12.076317 -2.6024075 -12.007049 -2.6523843 -12.0483055 -2.683155 -12.575306
-2.4739301 -12.888821 -2.1497316 -12.888747 -1.718046 -13.288836 -1.7601006 -13.162783
-1.9610279 -12.976399 -2.225756 -12.743519 -2.041889 -12.21042 -1.8961139 -11.803654
-1.9077744 -11.21914 -2.078318 -10.780838 -2.858446 -10.942354 -3.6568513 -11.159791
-4.1700354 -11.2941065 -4.4103475 -11.608791 -4.494307 -12.413062 -4.416508 -12.799047
-3.7750504 -13.272522 -2.6525996 -13.440879 -1.3406684 -13.119802 -0.9963492 -12.573266
-0.84139246 -12.2892 -0.86905605 -12.117359 -1.0675082 -11.434689 -1.3892163 -10.705191
-2.0813742 -10.512351 -3.1808856 -10.395048 -4.5113497 -10.238647 -5.6385765 -10.735334
-5.6568437 -11.787594 -5.563632 -11.902156 -5.189936 -11.957664 -4.76364 -11.929648
-4.224897 -11.51794 -3.7204325 -10.971909 -3.166943 -10.309195 -2.9735522 -9.94304
-3.2699637 -9.412052 -3.343243 -9.392218 6e-45 6e-45 6e-45 6e-45
6e-45 6e-45 6e-45 6e-45 6e-45 6e-45 6e-45 6e-45
6e-45 6e-45 6e-45 6e-45 6e-45 6e-45 6e-45 6e-45
6e-45 6e-45 6e-45 6e-45 6e-45 6e-45 6e-45 6e-45
6e-45 6e-45 6e-45 6e-45 6e-45 6e-45 6e-45 6e-45
6e-45 6e-45 6e-45 6e-45 6e-45 6e-45 6e-45 6e-45
6e-45 6e-45 6e-45 6e-45 6e-45 6e-45 6e-45 6e-45
6e-45 6e-45 6e-45 6e-45 6e-45 6e-45 6e-45 6e-45
6e-45 6e-45 6e-45 6e-45 6e-45 6e-45 6e-45 6e-45
6e-45 6e-45 6e-45 6e-45 6e-45 6e-45 6e-45 6e-45
6e-45 6e-45 6e-45 6e-45 6e-45 6e-45 6e-45 6e-45
6e-45 6e-45 6e-45 6e-45 6e-45 6e-45 6e-45 6e-45

exp_avg_sq f4 [32, 164]
00000000: 26cb de41 fc11 b343 ef3d 0742 46af ac43
00000010: 669a 2542 d90a 9f43 79e6 4e42 eb8c ae43
00000020: bd20 5f42 3952 be43 48be 6342 8b36 b943
00000030: d513 4a42 9d78 b843 761e 3142 3359 ce43
00000040: 2e6f 1442 8ef8 da43 3032 0042 07b7 d843
00000050: 60c9 bc41 1e29 e343 c8c8 9d41 e6a4 e343
00000060: 703e 9641 a4c0 cc43 01fd a641 c66d bc43
00000070: 2cca af41 552f b343 ad45 e441 99a3 9e43
00000080: ca71 1942 cc57 8f43 00a8 4042 b6fc 8f43
00000090: 65cf 6d42 3c99 9343 e5c3 8b42 16c9 9743
000000a0: 4504 8f42 0071 a343 081a 8442 4e04 b443
000000b0: a68c 6942 d55a c543 0d88 3a42 4120 dd43
000000c0: f3b3 0d42 c301 ed43 a8ac d441 c9b1 ef43
000000d0: 8b79 ad41 d6d3 ea43 ce5b 9741 fe83 e243
000000e0: d374 af41 be17 cf43 541d d741 e684 bd43
000000f0: 2c45 1042 d12d b743 da67 3d42 873a a543
00000100: 0f43 6b42 ddbd 9743 491a 8642 8b73 9c43
00000110: fc86 8142 b8e8 a343 e02f 7b42 60b3 a743
00000120: 4734 7642 b233 b143 0bb1 7042 ca89 bd43
00000130: 12fd 6b42 ece0 c643 ee07 5e42 d907 c343
00000140: 37a0 4242 ab79 ca43 af15 1c42 4128 d643
00000150: 9a06 0142 6f4d cf43 23cc 0242 958e d143
00000160: 648f 0342 f0df de43 3764 0542 e399 dc43
00000170: 43ed 0442 e3a6 d343 754d 0542 ce7e d843
00000180: be90 f941 726c e043 67b8 d041 e0eb d843
00000190: de00 ae41 3151 ca43 b99c a241 987e c643
000001a0: cd36 ba41 b2d5 b643 23a2 ec41 1863 a043
000001b0: 1a60 1a42 f7d3 9943 9ede 4242 68b9 9d43
000001c0: dee5 5c42 463b a343 38b2 6642 3122 b043
000001d0: 00a9 5742 6c84 c843 030d 3842 8a86 dc43
000001e0: 57d4 0342 bae2 e943 c5a8 9a41 d99f f543
000001f0: a2fa 3f41 c779 f443 07af 1141 38a2 e543
00000200: bb8b 0641 c258 d743 ddef 0d41 cd10 c943
00000210: dae8 3541 872e b143 191f 8741 3be5 9843
00000220: d6f7 bc41 ad3e 8c43 1739 0e42 46a1 8843
00000230: bf57 4e42 fc6e 8343 0499 8242 d76c 8c43
00000240: b22a 8642 8369 a943 fa04 8442 aac7 b943
00000250: 36e2 6942 4b1e c043 0f74 4942 29ca c443
00000260: e21a 1d42 e81b c543 a604 f341 7301 c443
00000270: 25da c141 d6f9 b743 d261 d841 50b7 aa43
00000280: 6eef 0742 5fd7 a743 9cec 0f42 924a a843
00000290: 41b4 c52e 67de db2e 30f7 e02e 7e1e f62e
000002a0: 909a fa2e ea88 0b2f 34cb f82e e941 032f
000002b0: 2a9d d02e d1f9 e02e 8729 af2e e742 c42e
000002c0: fe4b a72e f7cb ac2e 5ee5 912e abb9 ad2e
000002d0: 229c 662e 59f2 772e fbf2 252e c533 1f2e
000002e0: 0aa3 e02d 1d23 2f2e 7851 572e e6c2 682e
000002f0: e7a1 4e2e 0a78 772e 1ed5 2a2e 9246 852e
00000300: 9f9c 412e 2a61 532e 02f8 632e 9f16 902e
00000310: 9b68 6a2e 545c a42e 068b 7d2e a049 9c2e
00000320: 7a8a 4a2e 0ac2 802e 60e2 122e cfc0 3f2e
00000330: 80b3 ee2d 5e3f 142e bdbe 662d d207 c12d
00000340: 5e9b 4b2d d264 982d 5c60 c32c 09c4 412d
00000350: 2924 3c2d 1376 7c2d a18c 852d a830 b32d
00000360: b1bc b32d d0d9 e02d 1de5 2b2d a3c0 9c2d
00000370: 8caf 332d b323 ac2d 1f26 7b2d 8cd6 9a2d
00000380: f8e7 662d 1f44 b72d e987 742d fa28 a12d
00000390: 6ce2 4c2d 1aeb 792d 4b37 812d 0987 982d
000003a0: 335b 922d 86c1 ae2d 5657 a42d b007 ab2d
000003b0: a889 832d 828e b12d cea8 bd2d 534a 022e
000003c0: 7c59 e72d 0226 0d2e 17c9 bd2d 048a 252e
000003d0: cdb2 b32d e96e 202e bd1a 2a2e d6f7 4f2e
000003e0: 639a 402e ce4b 942e a998 552e 22a7 912e
000003f0: 3761 2c2e cfe2 762e 75dc 4b2e 06c7 8a2e
27.849194 358.1405 33.810482 345.36932 41.40078 318.08475 51.72507 349.10092
55.78197 380.64236 56.93582 370.42612 50.519367 368.9423 44.279747 412.69687
37.108574 437.94183 32.04901 433.4299 23.598328 454.32123 19.723038 455.28827
18.780487 409.505 20.873537 376.8576 21.973717 358.36978 28.534021 317.2781
38.361122 286.6859 48.164062 287.9743 59.452534 295.19714 69.88261 303.57098
71.50834 326.8828 66.05084 360.03363 58.387352 394.70963 46.632862 442.25198
35.42573 474.01376 26.584305 479.38895 21.684347 469.65497 18.919827 453.0312
21.932043 414.1855 26.88932 379.03827 36.06755 366.35794 47.351418 330.45724
58.815487 303.4833 67.05134 312.90268 64.76364 327.8181 62.796753 335.40137
61.551052 354.40387 60.172894 379.07648 58.99714 397.7572 55.507744 390.0613
48.65646 404.95053 39.021175 428.31448 32.256447 414.60495 32.699352 419.11392
32.89003 445.7495 33.347866 441.20224 33.2317 423.3038 33.32564 432.99066
31.195675 448.84723 26.09004 433.84277 21.750423 404.6343 20.326525 396.989
23.276758 365.6695 29.579168 320.77417 38.59385 307.65598 48.7174 315.4485
55.22448 326.46307 57.67404 352.26712 53.91504 401.03455 46.012707 441.0511
32.957363 467.7713 19.332407 491.2488 11.99869 488.9514 9.105231 459.26733
8.409114 430.69342 8.87106 402.13126 11.369349 354.3635 16.890184 305.79086
23.621014 280.48965 35.55575 273.25995 51.58569 262.86707 65.29886 280.8503
67.08339 338.8243 66.00972 371.55988 58.47091 384.23666 50.36334 393.57938
39.276253 394.21802 30.37727 392.01132 24.231516 367.95184 27.047764 341.43213
33.983818 335.6826 35.981064 336.58258 8.990542e-11 9.9984736e-11 1.023025e-10 1.1192201e-10
1.13961396e-10 1.2690618e-10 1.13138304e-10 1.1937797e-10 9.486663e-11 1.0230717e-10 7.9654554e-11 8.924932e-11
7.60778e-11 7.857886e-11 6.6345804e-11 7.9001104e-11 5.243462e-11 5.6376546e-11 3.7732466e-11 3.6198395e-11
2.5538256e-11 3.982158e-11 4.89577e-11 5.2923797e-11 4.6982775e-11 5.6267914e-11 3.884281e-11 6.0606756e-11
4.4022227e-11 4.8062145e-11 5.18341e-11 6.55238e-11 5.329835e-11 7.474257e-11 5.7649018e-11 7.107137e-11
4.6052474e-11 5.8552344e-11 3.3397618e-11 4.359962e-11 2.7137181e-11 3.3707585e-11 1.3116339e-11 2.1945033e-11
1.15737125e-11 1.7325173e-11 5.5529314e-12 1.1014308e-11 1.0694592e-11 1.4350759e-11 1.5182801e-11 2.0371552e-11
2.043374e-11 2.556258e-11 9.771098e-12 1.7820695e-11 1.0213951e-11 1.956999e-11 1.4276163e-11 1.7603051e-11
1.3125494e-11 2.0834943e-11 1.3899972e-11 1.8321778e-11 1.1646333e-11 1.4206214e-11 1.4690157e-11 1.7340367e-11
1.6638779e-11 1.9867451e-11 1.8683426e-11 1.9443863e-11 1.4954107e-11 2.0185856e-11 2.1561777e-11 2.962459e-11
2.6301399e-11 3.2093446e-11 2.1576114e-11 3.763924e-11 2.0429347e-11 3.6478296e-11 3.8677273e-11 4.7286473e-11
4.379287e-11 6.7437264e-11 4.8566182e-11 6.623525e-11 3.9194616e-11 5.613537e-11 4.635266e-11 6.310867e-11

exp_avg f4 [32]
00000000: 8d0a 27c1 0400 0000 d681 b040 2be1 a640
00000010: c035 b840 0400 0000 69d5 ad40 0400 0000
00000020: 0400 0000 0400 0000 4392 c040 f51a 9b40
00000030: bb1d b540 0400 0000 f25f 10c1 98fc ae40
00000040: a397 a640 3932 5fc0 2d25 a640 d693 b140
00000050: cb8a d4c0 eda5 edc0 61b0 aa40 3694 20be
00000060: 64be ae40 b896 b140 4b2a a640 0468 b240
00000070: f407 c040 f984 b340 23e4 a640 388c c140
-10.440076 6e-45 5.515849 5.2149863 5.7565613 6e-45 5.432301 6e-45
6e-45 6e-45 6.017854 4.8470407 5.659879 6e-45 -9.023424 5.468334
5.2060103 -3.4874403 5.192038 5.5492964 -6.6419425 -7.4265046 5.3340306 -0.15681538
5.460741 5.5496483 5.1926627 5.575197 6.000971 5.609982 5.2153487 6.0483665

exp_avg_sq f4 [32]
00000000: 8197 8e43 2954 6a2f 9668 9842 4663 8542
00000010: bb58 a242 90f3 832f b8ec 8f42 34b0 932e
00000020: 8314 f036 5e4b c438 57c2 b142 6c32 6742
00000030: 7d50 9e42 acc2 5033 8c15 7343 a6ef 9542
00000040: eb5b 8442 e41d 0142 dd59 8242 29d7 9842
00000050: b040 ca42 7c9c 0543 fc81 8842 33f4 633d
00000060: 2f66 9442 513d 9942 be16 8642 6a98 9842
00000070: 8a77 b242 e5d7 9b42 e386 8542 fb80 b442
285.18362 2.1312076e-10 76.20427 66.69389 81.1733 2.4001823e-10 71.96234 6.716086e-11
7.1549453e-06 9.3600465e-05 88.87957 57.79924 79.1572 4.8605827e-08 243.08417 74.96806
66.17953 32.27919 65.175514 76.420235 101.12634 133.61127 68.253876 0.05565281
74.19958 76.61976 67.04442 76.29768 89.233475 77.92167 66.76345 90.251915

exp_avg f4 [10, 32]
00000000: 53e2 4940 0400 0080 0bd5 4c42 a373 5442
00000010: d7ae 4242 0400 0080 b518 5042 0400 0080
00000020: 0400 0080 0400 0080 9c93 4142 d96b 3742
00000030: fe2a 4642 0400 0080 fe21 3d40 129a 4c42
00000040: b92f 5542 2eca b63f 0d4a 5842 b143 4c42
00000050: 62de 1a40 e336 0640 df80 5242 04cc 2a3e
00000060: 040f 4a42 7020 4b42 32df 4942 7ee9 4a42
00000070: d882 4042 737e 4942 c181 4e42 a31f 3e42
00000080: 8d96 4440 0400 0080 1671 4442 8eeb 4b42
00000090: 1da6 3a42 0400 0080 8c86 4742 0400 0080
000000a0: 0400 0080 0400 0080 a4bd 3942 f0d3 2f42
000000b0: 970d 3e42 0400 0080 82d4 3c40 62fd 4342
000000c0: 9e5e 4c42 7e54 b63f 375d 4f42 32d0 4342
000000d0: 8c11 1740 7fe8 0140 ebeb 4942 28a0 2b3e
000000e0: afa5 4142 27d5 4242 079b 4142 968d 4242
000000f0: ca7e 3842 f529 4142 143a 4642 de71 3642
00000100: da43 3f40 0400 0080 b25a 3e42 4eb8 4542
00000110: bab6 3442 0400 0080 2a3f 4142 0400 0080
00000120: 0400 0080 0400 0080 ffda 3342 5347 2a42
00000130: e903 3842 0400 0080 11de 3c40 47ac 3d42
00000140: 6315 4642 119b b33f d7d1 4842 0798 3d42
00000150: fa94 1f40 8301 0640 39b7 4342 69f6 2e3e
00000160: 9656 3b42 d7b8 3c42 967f 3b42 c961 3c42
00000170: 0995 3242 6b19 3b42 7c09 4042 4cd1 3042
00000180: 1d8f 3840 0400 0080 51f5 3742 1d67 3f42
00000190: 95b8 2e42 0400 0080 9cf3 3a42 0400 0080
000001a0: 0400 0080 0400 0080 8cf2 2d42 72a7 2442
000001b0: 17f5 3142 0400 0080 36dd 3f40 b13e 3742
000001c0: e8bc 3f42 92b0 ba3f 564c 4242 154e 3742
000001d0: 7799 1a40 a142 0640 5158 3d42 0b87 303e
000001e0: bd0e 3542 c665 3642 5046 3542 1423 3642
000001f0: 3d83 2c42 d9e2 3442 63b6 3942 b911 2b42
00000200: 79f7 3d40 0400 0080 d876 3142 d8d7 3842
00000210: e295 2842 0400 0080 4685 3442 0400 0080
00000220: 0400 0080 0400 0080 3ef8 2742 2ef4 1e42
00000230: b5cc 2b42 0400 0080 ccf6 3840 afa6 3042
00000240: 8236 3942 2904 b63f 2e9c 3b42 29e6 3042
00000250: f7f7 1540 b504 0740 5edf 3642 5354 353e
00000260: 3db2 2e42 5bd8 2f42 be1e 2f42 a8ce 2f42
00000270: 645b 2642 0b8c 2e42 164c 3342 5a09 2542
00000280: aa6f 4540 0400 0080 9703 2e42 a751 3542
00000290: c258 2542 0400 0080 1b18 3142 0400 0080
000002a0: 0400 0080 0400 0080 84c4 2442 4be6 1b42
000002b0: 2889 2842 0400 0080 a32b 3340 8a3a 2d42
000002c0: 11b2 3542 a856 ab3f d3f2 3742 ae66 2d42
000002d0: 275b 1940 cdea 0b40 2764 3342 6eb5 313e
000002e0: eb4d 2b42 d464 2c42 2fd8 2b42 425f 2c42
000002f0: d714 2342 7635 2b42 2be1 2f42 8ac8 2142
00000300: 2390 3b40 0400 0080 6ca8 2a42 a9e9 3142
00000310: d63a 2242 0400 0080 58dd 2d42 0400 0080
00000320: 0400 0080 0400 0080 4eb6 2142 4913 1942
00000330: 4465 2542 0400 0080 ae64 3740 02eb 2942
00000340: 8763 3242 ac14 b13f 3394 3442 8528 2a42
00000350: 1c2c 1640 d5f8 0540 500f 3042 7447 323e
00000360: 2c25 2842 8b14 2942 be9d 2842 de34 2942
00000370: bc12 2042 7afb 2742 3c94 2c42 16c4 1e42
00000380: 0e40 3d40 0400 0080 0c83 2642 cf90 2d42
00000390: 1157 1e42 0400 0080 90ae 2942 0400 0080
000003a0: 0400 0080 0400 0080 65c1 1d42 e367 1542
000003b0: 9e80 2142 0400 0080 3e5c 3940 00b5 2542
000003c0: 7915 2e42 03f1 a43f af43 3042 600c 2642
000003d0: c97a 1040 99b1 0540 d3d6 2b42 8ade 313e
000003e0: f211 2442 d3f4 2442 fe94 2442 522b 2542
000003f0: 582c 1c42 52f2 2342 6468 2842 a5ea 1a42
3.1544387 -6e-45 51.20805 53.112926 48.670742 -6e-45 52.024128 -6e-45
-6e-45 -6e-45 48.39415 45.85532 49.541985 -6e-45 2.9551997 51.15046
53.296604 1.428045 54.072315 51.066105 2.4198232 2.0971 52.62585 0.16679388
50.514664 50.781677 50.467964 50.72802 48.127777 50.373486 51.626713 47.530895
3.071689 -6e-45 49.110435 50.980034 46.66222 -6e-45 49.881393 -6e-45
-6e-45 -6e-45 46.435196 43.95697 47.51327 -6e-45 2.9504704 48.997444
51.0924 1.4244535 51.84103 48.953316 2.360446 2.0298154 50.48039 0.16760314
48.4118 48.708157 48.401394 48.638268 46.123817 48.290974 49.556717 45.6112
2.9885163 -6e-45 47.58857 49.429985 45.178444 -6e-45 48.311684 -6e-45
-6e-45 -6e-45 44.963863 42.569653 46.00382 -6e-45 2.9510539 47.41824
49.520885 1.4031698 50.20492 47.398464 2.4934678 2.0938423 48.92893 0.17086186
46.834557 47.180508 46.874596 47.095493 44.645542 46.774822 48.009262 44.20439
2.883735 -6e-45 45.989567 47.850697 43.680256 -6e-45 46.7379 -6e-45
-6e-45 -6e-45 43.486862 41.16352 44.489346 -6e-45 2.9978766 45.811222
47.93448 1.4585135 48.574547 45.826252 2.4156168 2.0978167 47.336246 0.17239015
45.264393 45.59939 45.318665 45.534256 43.128162 45.22153 46.428112 42.767307
2.9682295 -6e-45 44.36606 46.210785 42.14637 -6e-45 45.13015 -6e-45
-6e-45 -6e-45 41.992424 39.738457 42.94991 -6e-45 2.8900633 44.162777
46.30323 1.422002 46.90252 44.224766 2.3432596 2.1096623 45.718132 0.17707948
43.67406 43.961285 43.78002 43.951813 41.58925 43.63676 44.824303 41.259132
3.0849404 -6e-45 43.503506 45.32974 41.336678 -6e-45 44.27354 -6e-45
-6e-45 -6e-45 41.19191 38.974895 42.13394 -6e-45 2.7995384 43.307167
45.423893 1.338582 45.987133 43.350273 2.3961885 2.186206 44.847805 0.17354366
42.82609 43.098465 42.961117 43.093025 40.77035 42.802208 43.96989 40.44584
2.9306724 -6e-45 42.664474 44.478184 40.557457 -6e-45 43.466156 -6e-45
-6e-45 -6e-45 40.428032 38.268833 41.348892 -6e-45 2.86552 42.4795
44.597195 1.3834434 45.144726 42.53957 2.3464422 2.0933125 44.014954 0.1741007
42.0363 42.27006 42.154045 42.30163 40.018295 41.995583 43.14476 39.69149
2.9570346 -6e-45 41.627975 43.391415 39.585026 -6e-45 42.42047 -6e-45
-6e-45 -6e-45 39.43886 37.35145 40.375603 -6e-45 2.896255 41.426758
43.52097 1.2886051 44.066097 41.512085 2.2574942 2.0889647 42.95979 0.17370048
41.017525 41.239086 41.1455 41.292305 39.043304 40.98664 42.101944 38.729145

exp_avg_sq f4 [10, 32]
00000000: 27ed 6241 f9a6 2230 81f8 ad45 3eaf bc45
00000010: a957 9d45 0104 4c2f 286c b445 b2f5 4c2e
00000020: f04c e037 19ab c238 9ed4 9b45 4f67 8c45
00000030: 156c a345 4203 8e34 29f5 e841 983c ac45
00000040: c975 bd45 eef7 5140 c7ff c145 91a1 ac45
00000050: 17bf 0b41 dc0f 0841 2095 b845 f316 593e
00000060: 7e2b a945 1295 aa45 a6ae a945 f93e ab45
00000070: ccc8 9945 87a5 a845 15d7 b145 4365 9645
00000080: e290 5f41 f216 2230 9632 a845 6f83 b645
00000090: cb18 9845 bc6a 4c2f 6182 ae45 f044 4c2e
000000a0: 511e e137 ed47 c138 95b2 9645 56c3 8745
000000b0: d808 9e45 434f 8d34 0c06 e741 996d a645
000000c0: be33 b745 5436 5240 bb8b bb45 82de a645
000000d0: 9d2a 0841 643b 0441 da85 b245 be54 573e
000000e0: 678b a345 90ef a445 071f a445 039b a545
000000f0: 75a3 9445 350b a345 8308 ac45 6e77 9145
00000100: d30a 6341 d40c 2430 f3ca a645 5a06 b545
00000110: 9cc2 9645 5824 4e2f 4b09 ad45 bae0 4b2e
00000120: 67b5 dd37 518e c338 4163 9545 cc98 8645
00000130: 2cb0 9c45 4ef9 8c34 44e5 e441 feec a445
00000140: c0b4 b545 d4e8 4e40 83f1 b945 ed6e a545
00000150: 4827 1141 76e2 0a41 8e11 b145 1064 523e
00000160: b31a a245 9680 a345 17c2 a245 8138 a445
00000170: db4c 9345 4fab a145 3b98 aa45 9743 9045
00000180: 13e2 5f41 c875 2230 2930 a445 e74b b245
00000190: 4370 9445 64cc 4c2f b372 aa45 39e7 492e
000001a0: 3ad1 de37 81e1 c438 df1d 9345 1d84 8445
000001b0: 0152 9a45 5cfe 8c34 ff44 e441 fe57 a245
000001c0: b103 b345 56a6 5340 6c21 b745 46de a245
000001d0: 328f 0c41 1bdc 0b41 9364 ae45 5b5c 513e
000001e0: b59e 9f45 0bf2 a045 0148 a045 afb5 a145
000001f0: ebfc 9045 df32 9f45 38fe a745 b70d 8e45
00000200: 0a87 6341 5ab8 2330 100e a145 fbe9 ae45
00000210: 5299 9145 366f 4e2f aa3b a745 2a0a 4b2e
00000220: 414e e037 4818 c938 b153 9045 52f9 8145
00000230: 9265 9745 baf6 8c34 da20 db41 fb36 9f45
00000240: 98a1 af45 1fbb 5140 29a1 b345 59bc 9f45
00000250: ffc5 0541 e0d1 0941 311d ab45 3abd 493e
00000260: 7296 9c45 d4d3 9d45 2642 9d45 efa1 9e45
00000270: 4e39 8e45 a427 9c45 bcce a445 244e 8b45
00000280: 2234 6c41 98a0 2230 ddaf a045 0077 ae45
00000290: 8d37 9145 4c6b 4d2f 9dca a645 b0a0 4b2e
000002a0: c8ee e137 7dcd c838 faef 8f45 7f9f 8145
000002b0: 3302 9745 ad40 9034 1b7d d541 85ce 9e45
000002c0: 0d2f af45 6946 4d40 d323 b345 5255 9f45
000002d0: 7cf1 0541 5ae9 0c41 70b5 aa45 e5d1 4e3e
000002e0: 112c 9c45 286c 9d45 ebe1 9c45 033f 9e45
000002f0: cbdc 8d45 c5c5 9b45 2769 a445 7aee 8a45
00000300: b5de 5f41 067d 2330 fa47 9e45 aadb ab45
00000310: 670c 8f45 526c 4d2f 404e a445 b21d 4c2e
00000320: 0645 e937 7510 cb38 94ce 8d45 295e 7f45
00000330: 12c5 9445 b51d 9334 db0c d841 d772 9c45
00000340: dc98 ac45 a6ab 5240 d67e b045 fcf7 9c45
00000350: e808 ff40 2201 0741 5730 a845 973f 4e3e
00000360: d2e3 9945 361a 9b45 6a85 9a45 93e7 9b45
00000370: e6c4 8b45 f47a 9945 25fa a145 63df 8845
00000380: efb1 6241 c476 2330 cb4b 9d45 13c9 aa45
00000390: 132b 8e45 c0f9 4d2f 744f a345 5f6b 4b2e
000003a0: 6871 ee37 f870 d038 04ed 8c45 6bbf 7d45
000003b0: 84de 9345 78b7 9234 323f dc41 447c 9b45
000003c0: 108b ab45 f00a 5040 a764 af45 79fa 9b45
000003d0: ca51 f040 0bd9 0241 5a2e a745 068b 4d3e
000003e0: 35f7 9845 de26 9a45 318e 9945 94f7 9a45
000003f0: 96ee 8a45 268d 9845 3e00 a145 9104 8845
14.1828985 5.917254e-10 5567.063 6037.9053 5034.9575 1.8555114e-10 5773.5195 4.660245e-11
2.6738708e-05 9.28251e-05 4986.577 4492.9136 5229.5103 2.6451931e-07 29.119707 5511.574
6062.723 3.2807574 6207.972 5524.196 8.734153 8.503872 5906.6406 0.2120016
5413.4365 5458.634 5429.831 5479.8716 4921.0996 5396.691 5690.8853 4812.6577
13.972872 5.8967864e-10 5382.323 5840.429 4867.099 1.8591612e-10 5584.2974 4.644546e-11
2.6836207e-05 9.2163544e-05 4822.3228 4344.417 5057.1055 2.6320967e-07 28.877953 5325.6997
5862.468 3.284566 6001.4663 5339.8135 8.510404 8.2645 5712.7314 0.2102842
5233.4253 5277.9453 5251.8784 5299.3765 4756.432 5217.401 5505.064 4654.9287
14.190143 5.968108e-10 5337.3687 5792.794 4824.326 1.8748503e-10 5537.1616 4.6356453e-11
2.6429725e-05 9.324833e-05 4780.4067 4307.0996 5014.0215 2.6258425e-07 28.611946 5277.624
5814.5938 3.2329607 5950.189 5293.8657 9.07209 8.680288 5666.1943 0.20545983
5187.3374 5232.073 5208.261 5255.063 4713.607 5173.4136 5459.029 4616.4487
13.992694 5.9102634e-10 5254.02 5705.488 4750.0327 1.8626306e-10 5454.3374 4.5907476e-11
2.6561891e-05 9.388012e-05 4707.734 4240.514 4938.2505 2.6262103e-07 28.53369 5194.999
5728.4614 3.3070273 5860.1777 5211.784 8.78496 8.741237 5580.572 0.20445387
5107.8384 5150.2554 5129.0005 5174.7104 4639.6147 5094.359 5375.7773 4545.7144
14.2204685 5.9561034e-10 5153.758 5597.2476 4659.165 1.8775101e-10 5351.458 4.6165884e-11
2.673932e-05 9.5889496e-05 4618.4614 4159.165 4844.6963 2.625655e-07 27.39104 5094.8726
5620.199 3.277046 5748.145 5111.5435 8.360839 8.613739 5475.649 0.1970109
5010.8057 5050.4785 5032.2686 5076.2417 4551.163 4996.955 5273.842 4457.7676
14.762728 5.9163474e-10 5141.983 5582.875 4646.944 1.8682761e-10 5337.3267 4.6299575e-11
2.6933281e-05 9.575018e-05 4605.997 4147.937 4832.275 2.6869148e-07 26.686087 5081.815
5605.8813 3.2074225 5732.478 5098.665 8.371456 8.806971 5462.6797 0.20197256
4997.5083 5037.5195 5020.2397 5063.8765 4539.599 4984.721 5261.144 4445.8096
13.991872 5.9476724e-10 5064.997 5499.458 4577.5503 1.8683124e-10 5257.7812 4.6410605e-11
2.7807906e-05 9.68286e-05 4537.8223 4085.885 4760.634 2.7402498e-07 27.006277 5006.355
5523.1074 3.2917266 5647.8545 5022.998 7.969837 8.437777 5382.0425 0.20141445
4924.4775 4963.2764 4944.677 4988.947 4472.6123 4911.369 5183.268 4379.9233
14.168441 5.946783e-10 5033.474 5465.1343 4549.3843 1.873337e-10 5225.9316 4.625222e-11
2.842462e-05 9.939255e-05 4509.627 4059.9636 4731.8145 2.732811e-07 27.530857 4975.533
5489.383 3.2506676 5612.5815 4991.309 7.509984 8.177989 5349.794 0.20072564
4894.901 4932.8584 4913.774 4958.9473 4445.823 4881.6436 5152.0303 4352.571

exp_avg f4 [10]
00000000: 28d3 f33f 6de9 e93f 4279 e23f 37f1 da3f
00000010: c1cd d23f 5226 ce3f 7706 ca3f 6390 c43f
00000020: 2354 c23f a337 bf3f
1.9048815 1.8274361 1.7693255 1.7104863 1.6469041 1.6105444 1.5783223 1.5356563
1.5181926 1.4938854

exp_avg_sq f4 [10]
00000000: 6f5e ef40 aa4e e740 0f4a e540 88a7 e140
00000010: d840 dd40 56b5 dc40 686e d940 3633 d840
00000020: a034 d940 e6c8 da40
7.4802775 7.2283525 7.1652904 7.0517006 6.9141655 6.8971357 6.7947273 6.7562513
6.787674 6.8370237
