code/2021-04-12_18-17.pth (torch, 20531 bytes, 18 tensors)

encoder.maxpool_conv.0.0.weight f4 [1, 1, 2, 50]
00000000: 379f 7ebd 97a6 7cbd bbd3 353d 1fec 9dbd
00000010: cfb0 dd3b ca7c 973c 9d0c 7dbc 487f c4bd
00000020: c96d c2bd 63c9 2b3d cc6d 573d 4445 8ebd
00000030: f7cc 6bbd a51d eabd 1d91 c3bb 6178 73bd
00000040: e375 aabd 33d0 86bc dfb2 f5bc 0a63 013d
00000050: 3128 84bd c14c 04bd 210f bdbd f065 8ebd
00000060: 736c 4dbd db66 9dbd 8981 52bd c73c c6bd
00000070: 6669 d0ba 6e6c d73c 8ed4 08bb d22b cdbd
00000080: 6378 11be ed7f 08be 16a8 76bd 45e9 a83a
00000090: 2ec4 6fbd 6a35 efbc 4215 86bd 9fdb 15bd
000000a0: 6a12 1c3d 387d 8e3a 789d e9bc 764d ecbc
000000b0: fe97 023d 6888 d93c 8eb0 313d b803 753b
000000c0: 758c ebbd eb0b a7bd 7bb3 a33d c0aa 3d3d
000000d0: 0f33 fabb dafc ca3d 2823 f43d 4b27 b43d
000000e0: 0540 143d 08d3 b53c d5f9 9e3d 8a5e 84bc
000000f0: 87d1 783d 5e45 b93a d764 1fbd d5a9 973b
00000100: 11c8 2abb 15bd a6bb 2911 8d3d 5c47 b63d
00000110: 01b2 a63d 8b16 3bbd 26b0 5a3c 011b 813c
00000120: 01e2 8dbc f1c4 f33d 0fac b13d ec12 c43d
00000130: 0ed8 9e3d b679 a4bc 8c28 7abc 8068 253b
00000140: 041a 4fbd 5b45 553d 6830 9d3d bac7 9d3a
00000150: 556a 1cbd 25c0 a83d f770 663d ee5e 033e
00000160: 362d 053e 668d a739 a068 af3c 1bdb 42bc
00000170: 7596 2a3d f9e8 d63b a230 96bc 4816 d93d
00000180: d3a9 103b 2cdd 653d dfe9 a53d 396c 123e
-0.062163558 -0.06168231 0.044391375 -0.07711052 0.006765462 0.018492121 -0.015444902 -0.095945895
-0.09493596 0.041940104 0.052594945 -0.06946805 -0.057568517 -0.114314355 -0.0059682266 -0.059440974
-0.08323266 -0.016456699 -0.029992519 0.03158859 -0.064529784 -0.03229976 -0.09231401 -0.06953037
-0.050152253 -0.07685634 -0.051393066 -0.09679561 -0.0015900552 0.02629682 -0.0020878646 -0.10018124
-0.1420608 -0.1333005 -0.060218893 0.0012886903 -0.0585367 -0.029200274 -0.06547023 -0.0365864
0.0381035 0.0010871058 -0.02851747 -0.02884553 0.031883232 0.026554301 0.043381266 0.003738625
-0.115013994 -0.0815657 0.079932176 0.046305418 -0.007635481 0.09911509 0.11920768 0.08796557
0.036193866 0.022195354 0.077624954 -0.016158361 0.060746696 0.0014135053 -0.038914528 0.0046284
-0.002605919 -0.0050884583 0.06888039 0.089003295 0.0813942 -0.045675796 0.013347661 0.015759947
-0.017319681 0.11902798 0.08675396 0.095739216 0.07756053 -0.020077568 -0.015268456 0.0025239289
-0.05056192 0.052068096 0.076752484 0.0012037673 -0.038187344 0.08239774 0.056260075 0.12829182
0.13005528 0.00031958072 0.021412194 -0.011893059 0.041647393 0.006558534 -0.018333737 0.10599953
0.002207388 0.05611913 0.08101248 0.14299096

encoder.maxpool_conv.2.0.weight f4 [1, 1, 2, 50]
00000000: 0490 8b3c b471 f03c eaf1 adba 435e 263c
00000010: 41f3 3e3c 95da 13bb 9c8b b73c cc2d d3bc
00000020: bd75 0e3d 26fe 56bc 71df 6b3c 5a80 7ebb
00000030: b912 eb3c 7e87 42bd 07d6 3e3c b6a5 313c
00000040: b423 9bbb ff5d 8a3b e4d2 a1bc 7da1 3f3c
00000050: c643 183c 659e 8fbc 77df 6c3d cdf0 f2bc
00000060: cb7d b53c d639 4e3d 34f1 18bc a43c 103d
00000070: 927f c23c 7488 46bd 3766 c63c 9504 0d3b
00000080: d344 163c c11b bebc d0c5 113d b3a4 493c
00000090: de4e 7cbd 69cf 803d 0e8f 00bc afa7 b1bc
000000a0: 6262 1ebc c3d1 ab3c 8e29 52bd 0b78 b63c
000000b0: b329 c6bc e644 3a3d ef01 8bbd 9665 2d3d
000000c0: 57a6 33ba e8db c83d a975 82bd 6785 86bd
000000d0: 6e26 0cbc 22ec c8bd 23af fdbd 1c56 ddbd
000000e0: a7b9 35be baf3 40be a3db 32be 9ce3 36be
000000f0: 6a63 42be 77dd 14be db8a 3fbe 6500 09be
00000100: 2591 2cbe 80b2 c3bd 2f1b f7bd 59eb bfbd
00000110: 4ca7 ecbd 1793 eebd 4bec 1ebe b3b9 0ebe
00000120: 93a5 66be 0afd 45be bf33 5abe 9805 70be
00000130: 8fb0 90be 30b7 7abe 07fe 88be 82d4 3bbe
00000140: 8865 44be adb8 e2bd 117b 17be 843b b9bd
00000150: 342c 96bd fa1d f5bb 92d2 0dbb cf34 1cbd
00000160: 95c1 9b3b d200 88bc 9e66 9fbc 30e5 93bc
00000170: 6514 c4bb 49ea 9cbd f6a5 023d 07bf 7ebd
00000180: de2a b83c e938 9a3a 048d 603d 8047 5e3d
0.017036445 0.029351093 -0.0013270949 0.01015431 0.011654676 -0.0022560705 0.022405438 -0.025778674
0.034780253 -0.013122117 0.014396534 -0.0038833828 0.028695451 -0.047492497 0.011647708 0.010842731
-0.0047344808 0.004222631 -0.01975388 0.011696217 0.009293502 -0.017531583 0.0578303 -0.029655838
0.02215471 0.050348125 -0.009334851 0.03521408 0.02374247 -0.048469976 0.024218662 0.0021517624
0.009171682 -0.023206593 0.03558904 0.012307334 -0.06159865 0.0628956 -0.007846607 -0.021686403
-0.009667011 0.020974046 -0.05130916 0.022274038 -0.024189806 0.045475863 -0.06787478 0.042333208
-0.00068530947 0.09807569 -0.06370098 -0.06568413 -0.008554084 -0.09810664 -0.1238692 -0.1080744
-0.17746602 -0.18842974 -0.17466597 -0.17860264 -0.18983236 -0.14537607 -0.18705313 -0.13379057
-0.16852243 -0.095555305 -0.12065732 -0.09371061 -0.11555347 -0.11649149 -0.15519826 -0.13938026
-0.22524099 -0.19334808 -0.21308802 -0.23439634 -0.28259704 -0.24483943 -0.26756307 -0.18342784
-0.19179356 -0.1107038 -0.1479304 -0.09044555 -0.0733265 -0.00748038 -0.0021640402 -0.0381363
0.0047533014 -0.016601954 -0.019458111 -0.018053621 -0.0059838765 -0.07661874 0.031896554 -0.062193897
0.022481378 0.0011766228 0.054821983 0.054267406

decoder.linear1.weight f4 [32, 4]
00000000: 6564 ce3f 5f5e 59be e121 2f3f 3f92 e2bd
00000010: 8e66 ba3f 420d 1ebf 4797 803f f465 4d3e
00000020: 412c b33f 2d24 3abf c90f ae3f face c1bd
00000030: 3a18 85bd 9cdc a8be 6a76 bbbe bdc4 59be
00000040: b4df c13f d508 0abf 17d7 563f 3057 76be
00000050: 929d 4b3f 42e9 bebe 3144 b03f 32d6 eabe
00000060: 86d2 cc3f bb35 c2be 1a56 aa3f 4030 f1be
00000070: dd7f 9e3f 43a4 6cbe e7e1 c53f 5aca 19bf
00000080: 85b3 b93f a858 46be 3402 983f 9e3c efbc
00000090: fa7b 473f 1f4a debd 2e06 bd3f 62f6 943c
000000a0: 822f c83f 73d7 35bd 6a8b a03f 128c 0b3e
000000b0: 07d2 5abe 52c2 7cbd c5d2 dcbe 99ca 0f3e
000000c0: fc13 a33f 0dab eabe e92a 863f bd8d 483e
000000d0: 12e5 5e3e c9aa fabe 5055 02bf 3749 7f3e
000000e0: 7c71 473f e701 803e acc5 c83f faf7 b6bc
000000f0: ddc4 a2be ca5e 103f 3ea0 c03e 8e45 bc3e
00000100: 8393 24be 9623 013e addd 783e 09a0 b23e
00000110: e265 babe 14a4 16be f674 84be 588b 9c3d
00000120: f8bb a7be a886 d2bd 4ace e6be c0f7 173d
00000130: de84 c03f 19d9 e9be aab3 b33f de72 0abf
00000140: c00e 8abc d07c a5bd 9210 cbbe 5846 7abe
00000150: 329b fbbe a819 e5bd f603 a4be d46a 37be
00000160: 7c93 983f d9f4 9fbe 3fa8 bd3f 2a57 1bbe
00000170: 6435 45be 66e9 e3be 0beb 883d 28af 40be
00000180: 3f0c 993e 9978 273f 651a 38be 92f3 293f
00000190: 6bc7 cf3f 4338 d8be 4526 bf3f 9c0e 24bf
000001a0: 7b69 9bbe 0072 ce3e f559 893c d9cf 343e
000001b0: ba8c 5f3f ba7f 91be 3103 be3f 0bd6 b8be
000001c0: 009a 3f3e 77ed 4ebe 84a0 4cbe 9d83 623e
000001d0: b7bb 1f3d fb74 253e 9c63 ecbe 4d60 e43e
000001e0: 4910 d03f 0538 603e 5b46 ab3f 3f4b 7fbe
000001f0: 26ce a7be e8fc bd3d 6376 b1be d974 3a3e
1.6124388 -0.21227406 0.6841107 -0.110630505 1.4562547 -0.6173898 1.0046166 0.20058423
1.399788 -0.7271145 1.3598567 -0.09463306 -0.064987615 -0.32980812 -0.3661378 -0.21266456
1.5146394 -0.53919727 0.8392195 -0.24056697 0.7953731 -0.37287337 1.377081 -0.45866543
1.6001747 -0.37931618 1.3307526 -0.47107124 1.2382771 -0.23109536 1.5459565 -0.6007439
1.450791 -0.19369757 1.1875672 -0.02920371 0.7792355 -0.10853981 1.4767511 0.01818389
1.5639498 -0.04439492 1.2542546 0.13627651 -0.21369182 -0.061708756 -0.43129554 0.14042129
1.2740474 -0.45833626 1.0481845 0.19585319 0.21767071 -0.48958424 -0.50911427 0.24930273
0.7790754 0.2500145 1.5685325 -0.022335041 -0.3179082 0.56394637 0.37622255 0.36771816
-0.16071896 0.12611231 0.24303313 0.34887722 -0.36405855 -0.14711028 -0.25870484 0.07643765
-0.32760596 -0.1027959 -0.4507926 0.037101507 1.5040548 -0.45673445 1.4039204 -0.54081523
-0.016852736 -0.08080447 -0.3966108 -0.24440897 -0.49141842 -0.11186534 -0.32034272 -0.17911845
1.1920009 -0.3124149 1.481697 -0.15169969 -0.19258648 -0.44514006 0.06685456 -0.18816817
0.29892156 0.6541839 -0.17978819 0.66387284 1.6232733 -0.42230424 1.4933554 -0.6408479
-0.30353913 0.4032135 0.016766528 0.17657413 0.87324107 -0.2841776 1.4844724 -0.36100802
0.1871109 -0.20207773 -0.19983107 0.22120519 0.03899738 0.16157906 -0.46169746 0.44604722
1.625497 0.2189637 1.3380846 -0.24931048 -0.32774466 0.09276754 -0.34660634 0.18208636

decoder.linear1.bias f4 [32]
00000000: 7ab4 a73f 616d 883f ca3c 803f 9df6 083e
00000010: de86 8a3f be53 aa3f fe00 633f 54f1 673f
00000020: 1cd4 433f 6541 b73f 1f15 253f 5e5b 88bd
00000030: 925c b73f 1387 1a3e a6ff 7d3f d15a 60be
00000040: bee2 96be 349b dcbe e891 b3bd edf6 5c3f
00000050: 7a17 9fbe bcec 01be a93e b03f a442 93bd
00000060: 778b d7be 84a7 133f ff49 3cbe 2312 9e3f
00000070: 89fb 2bbe 3462 443e 10e5 8c3f 085e 19be
1.3101952 1.065838 1.0018551 0.13375326 1.0822408 1.3306806 0.8867339 0.9060261
0.7649553 1.4316832 0.64485353 -0.06658052 1.4325125 0.15090589 0.99218214 -0.21909644
-0.29469866 -0.4308716 -0.08768064 0.8631428 -0.310726 -0.12687963 1.3769122 -0.07190445
-0.4209859 0.57677484 -0.18387602 1.2349285 -0.16795172 0.19178087 1.1007404 -0.14977276

decoder.linear2.weight f4 [10, 32]
00000000: 03c9 803f 89b1 7d3f 9261 8c3f 1832 273d
00000010: 0620 9d3f fe6d 813f 9e6f 7f3f 9864 8d3f
00000020: 5d44 783f 2ea7 8a3f 6173 783f 4d8f eabd
00000030: d16b 5e3f 0002 aa3c 9837 7a3f 89ff 5abe
00000040: 9a21 70be 24d7 7cbb 135d 2b3e d813 863f
00000050: 0e89 40bc 9e44 01be e14d 933f 1dbc ccbd
00000060: c4bd e3bd cc77 643f 260b abbd f847 963f
00000070: d648 12be 2ad5 013b 72f3 933f 2ecb 6c3d
00000080: 8a9a 833f e69a 933f 9452 933f c5ef 4bba
00000090: f204 8b3f 7b4d 733f 0528 8a3f 3ee7 843f
000000a0: a50e 9d3f 8f6e 8c3f feaa 683f 2604 9e3d
000000b0: 63e2 923f a655 8dbd 6d02 753f dcf1 95be
000000c0: acce 35be c41b d03c 05a4 33be f45d 5c3f
000000d0: f209 ce3d b5bd 163e c0b9 893f c60c 0cbe
000000e0: de4d 10be c56c 853f 1ab7 aabd 11f5 7c3f
000000f0: 753e e93d e7a1 93bd 4cd2 773f ec4b 273e
00000100: b7e3 913f abb4 843f 5dc8 913f 51b7 983c
00000110: 59cd 913f bf03 8a3f 4130 903f da69 583f
00000120: 3de6 963f d557 6e3f bdaa 8e3f 1b26 cbbc
00000130: 6a5b 7f3f de23 13bd ea3b 963f b967 0cbe
00000140: 606d c0bd be94 043e 9359 20be e4ac 523f
00000150: 3478 d3bd 44b1 303c 8c3d 773f b6ae ae3d
00000160: a2a3 9ebe b30e 7a3f ec23 2c3e baf0 823f
00000170: 34cf e43d 1f1b 253e d7be 8c3f 144e 65bd
00000180: fa86 703f 3ada 893f 25a2 603f 7f4a 1c3e
00000190: fa0e 8c3f 6e11 6d3f 06dd 8c3f b14f 933f
000001a0: a6cb 8e3f 68b8 813f 6c09 893f e2b2 edbd
000001b0: 17a1 7d3f 5a7c 153d df48 8f3f 2656 93be
000001c0: 553b 3fbe 9a76 bcba bd6f f53b 7c4b 823f
000001d0: e407 ac3d 76ea c83d d1ec 793f ec4f 9d3d
000001e0: 8370 1fbe 0ca8 903f 2085 6c3d 0091 983f
000001f0: e792 f8bd a5e2 fabd 4fb0 743f 4d78 75bd
00000200: 9e97 733f e4db 6f3f 82d8 833f 4cc0 443b
00000210: be20 853f 28ca a13f 153d 783f e4d8 713f
00000220: 0ab3 773f dff6 8f3f 8ece 9a3f a4c2 3f3c
00000230: 2bad 973f 83de 22be 3cfc 7d3f 1514 3cbe
00000240: 2a80 73bc 9a0e d3bc c00e f63d 08cf 643f
00000250: 5980 04be 95e1 2b3e eb4a 603f e1e7 5cbd
00000260: 58a9 82be 859f 833f d3d6 87bc 28ce 9a3f
00000270: 1278 1cbe f2fd 9a3c f940 963f 501b f63c
00000280: d9c2 733f 4a10 753f 12e9 863f 7ec3 e93b
00000290: 89da 9c3f 4018 733f edc4 7c3f f4f6 943f
000002a0: ab3a 703f c7af 913f 773d 903f a7ed da3d
000002b0: 0a55 923f 4ed3 273e 2780 813f db74 943c
000002c0: 0625 91be 6052 073d 9437 863d 4d1e 803f
000002d0: b22e 183e 1b25 493d 993f 843f 96a5 0a3e
000002e0: 560b 47be d9e6 833f 27d7 0cbc 143f 773f
000002f0: 01d0 9abd 02d6 ce3d a3b4 893f d400 04be
00000300: 53ee 9b3f e77f 953f 8fcc 6f3f 39fa e4bc
00000310: 11e9 7d3f 3ba4 9c3f 7d74 633f b13c 983f
00000320: e844 9e3f 4d93 803f 6674 723f 8f72 963d
00000330: 5f56 883f c7fa 013e c510 8d3f edc0 1bbe
00000340: f712 32be cb2a edbd 4225 913d 8da9 993f
00000350: dfa2 e0bb ea6b efbd 3ab0 693f 9366 ecbc
00000360: 7e29 76be 2ef1 633f 83d1 0e3e fce3 693f
00000370: b651 9ebd aa11 673d d3c8 713f 4f68 1ebe
00000380: 2964 973f d613 953f 99fb 6b3f ff6a 43bc
00000390: e14d 883f e237 843f 4205 8b3f be21 9a3f
000003a0: 1cb6 8c3f e14a 693f efc2 6b3f 8157 06bd
000003b0: f1db 813f e12d 18be 9255 863f fedb eabd
000003c0: 1422 d1bb 97b0 27be 22d2 1ebd acf8 923f
000003d0: 8904 f3bd 27ed d13d e373 803f 2a86 4f3d
000003e0: 0134 f2bd c5bc 9b3f e685 353e e902 6c3f
000003f0: 7a52 ccbb 8fa1 393c 8894 553f ec2c 283e
1.0061344 0.9909902 1.0967276 0.040819257 1.2275398 1.0111692 0.9977969 1.1046324
0.96979314 1.0832269 0.97051054 -0.11453114 0.86883265 0.020752907 0.9774108 -0.21386541
-0.23450318 -0.0038580382 0.16734724 1.0474806 -0.011751426 -0.12623832 1.1508142 -0.09996817
-0.11120179 0.89245296 -0.08351736 1.1740713 -0.14285597 0.0019810894 1.1558669 0.057810955
1.0281537 1.1531646 1.1509576 -0.0007779564 1.0860884 0.950401 1.0793463 1.038307
1.2270094 1.097124 0.90885913 0.07715635 1.1475338 -0.06901102 0.95706826 -0.29286087
-0.1775462 0.025403865 -0.17543037 0.8608086 0.10060491 0.14720805 1.0759811 -0.13676748
-0.14092204 1.0423819 -0.08335705 0.9881144 0.11388866 -0.07208615 0.9680526 0.16337556
1.1397618 1.0367635 1.1389271 0.0186421 1.1390792 1.0782393 1.1264726 0.84536517
1.1789013 0.9310277 1.1145855 -0.024798444 0.9974886 -0.035922877 1.1737034 -0.13711442
-0.093958616 0.12947366 -0.1565917 0.8229506 -0.10325661 0.010784451 0.9657829 0.08529417
-0.30984217 0.9767868 0.16810578 1.0229714 0.11172333 0.16123627 1.099574 -0.055982664
0.9395596 1.0769722 0.8774741 0.15262793 1.094207 0.9260472 1.1004951 1.1508695
1.1155899 1.0134401 1.0706 -0.11606385 0.9907393 0.036495544 1.1194113 -0.28776664
-0.18674977 -0.0014378608 0.007490127 1.0179286 0.083999425 0.09810345 0.9762698 0.076812595
-0.15570264 1.1301284 0.057744145 1.191925 -0.121373944 -0.1225026 0.95581526 -0.05992918
0.95153224 0.936949 1.0300448 0.0030021844 1.0400617 1.2639818 0.96968204 0.94471574
0.96757567 1.1247214 1.2094285 0.011704121 1.1849722 -0.15905194 0.99213004 -0.18367036
-0.0148621 -0.025763799 0.12014532 0.89378405 -0.12939586 0.16785271 0.87614316 -0.053932074
-0.25519824 1.0283056 -0.016581928 1.2094164 -0.15280178 0.018919919 1.1738578 0.03004232
0.9521919 0.9572798 1.0539877 0.0071339 1.2254192 0.9495888 0.98737985 1.1637864
0.9383952 1.1381768 1.1268758 0.1068986 1.1432202 0.163892 1.0117234 0.018122127
-0.2834856 0.033037543 0.065535694 1.0009247 0.14861563 0.049107652 1.0331908 0.13539729
-0.19437918 1.0304824 -0.008596218 0.96580625 -0.07559205 0.100994125 1.0758251 -0.12890941
1.2182106 1.1679658 0.93671507 -0.027951347 0.99183756 1.2237619 0.8884962 1.1893522
1.2364779 1.0044953 0.9470886 0.07346069 1.0651358 0.1269332 1.1020743 -0.15210314
-0.17390047 -0.11580428 0.070871845 1.2004868 -0.0068553532 -0.11690505 0.91284525 -0.028857505
-0.24039266 0.89039886 0.1394711 0.913635 -0.07730429 0.05641333 0.9444706 -0.15469478
1.1827441 1.1646678 0.9218078 -0.011927365 1.0648767 1.0329554 1.086098 1.2041547
1.0993075 0.9112988 0.9209432 -0.032798294 1.0145246 -0.14861251 1.0494864 -0.114677414
-0.0063822363 -0.16375957 -0.038774617 1.1482139 -0.118660994 0.10250311 1.0035366 0.05066506
-0.11826325 1.2166983 0.1772686 0.9219194 -0.006235418 0.0113300225 0.83429766 0.16423386

decoder.linear2.bias f4 [10]
00000000: e949 3c3f 7b73 273f 3a22 233f 144e 3c3f
00000010: 7ac9 3e3f 7cec 313f d689 4f3f 28dc 1b3f
00000020: dcc8 473f fd9d 163f
0.7355028 0.65410584 0.637241 0.7355664 0.7452618 0.6950147 0.81069696 0.60882807
0.7804086 0.5883482

exp_avg f4 [1, 1, 2, 50]
00000000: 4fb7 2b44 3dfc 2c44 92db 2c44 c132 2d44
00000010: a7ac 2d44 9fff 2a44 63c0 2c44 1544 2d44
00000020: 6640 2c44 e95c 2c44 676b 2b44 6bab 2944
00000030: 2e89 2944 b875 2744 0efd 2444 344c 2144
00000040: 0dab 1b44 ff01 1544 46f4 0c44 cde4 0644
00000050: 60e2 ff43 8e83 ef43 36ca e143 badc d743
00000060: e912 cc43 d62a bb43 7126 a043 cb75 8e43
00000070: de6d 8443 f85d 6e43 87bb 4c43 2da7 1643
00000080: 9008 c542 4618 6742 0890 0c42 df57 cf41
00000090: e363 2ec1 9053 17c2 87b0 94c2 98e9 f0c2
000000a0: d4f5 14c3 ed23 31c3 adc2 46c3 7306 5ac3
000000b0: a18c 69c3 f3ac 72c3 038f 7dc3 8855 83c3
000000c0: 5f5d 8bc3 ad8f 8ac3 73fb 3544 c00b 3644
000000d0: 4993 3644 32e0 3544 ee4a 3544 b566 3144
000000e0: 3e75 3444 dcc1 3544 e83d 3644 2d7a 3444
000000f0: 8481 3344 1957 3344 4641 3344 2ad6 3044
00000100: a127 2e44 b6ea 2944 51be 2444 6d25 1e44
00000110: dbf3 1544 aa1d 1044 620e 0944 db0d 0144
00000120: f435 f043 0c40 e443 93c8 d843 7a13 c943
00000130: 4c18 b443 768f a143 f80d 9443 a1bf 8443
00000140: 930a 6943 8b82 3943 eac3 0943 c8d1 b642
00000150: 6c7e 8142 2bbe 4a42 b1b8 9341 c574 cdc0
00000160: a199 2fc2 2d74 b1c2 5b3f edc2 8a69 12c3
00000170: b3df 25c3 ca46 35c3 a1c4 42c3 3edd 51c3
00000180: a539 65c3 93f2 70c3 dbce 74c3 80d8 6fc3
686.8642 691.9412 691.4308 692.793 694.6977 683.9941 691.00604 693.0638
689.0062 689.4517 685.67816 678.6784 678.14343 669.83936 659.954 645.1907
622.67267 596.0312 563.8168 539.575 511.76855 479.02777 451.57977 431.72443
408.14774 374.33466 320.30032 284.92026 264.85834 238.36707 204.73253 150.65303
98.51672 57.773705 35.140656 25.917906 -10.899386 -37.831604 -74.34478 -120.45624
-148.96027 -177.14034 -198.76045 -218.02519 -233.54933 -242.67558 -253.55864 -262.6682
-278.72946 -277.12247 727.9289 728.1836 730.30133 727.50305 725.1708 709.6048
721.8319 727.02905 728.9673 721.909 718.0237 717.3609 717.0199 707.3463
696.6192 679.66736 658.9737 632.5848 599.81024 576.4635 548.22473 516.2165
480.4215 456.50037 433.567 402.15216 360.18982 323.1208 296.10913 265.4971
233.0413 185.50993 137.76529 91.40973 64.74692 50.68571 18.465181 -6.420504
-43.90003 -88.726906 -118.62374 -146.41226 -165.87383 -181.27652 -194.76808 -209.86423
-229.22517 -240.94756 -244.80803 -239.8457

exp_avg_sq f4 [1, 1, 2, 50]
00000000: 20cc 8149 b6fc 7f49 6623 7d49 50af 7d49
00000010: 88c2 7b49 da75 7649 2405 6e49 3b4c 6449
00000020: 7694 5c49 2a19 5749 b04e 5149 8e43 4d49
00000030: ab06 4e49 9618 4e49 0337 4b49 b8fd 4349
00000040: 5d7a 3b49 62e4 3349 ab1a 2949 58c2 1f49
00000050: addf 1449 8b55 0d49 763e 0949 7096 0949
00000060: 50c5 0849 8d8e 0449 66cf ff48 e893 f748
00000070: 40ee f648 d575 f448 a5e8 f248 50bb ec48
00000080: 56d3 ee48 0d2e fb48 0ed8 0349 dc1c 0949
00000090: 9950 1349 ff2a 1f49 3764 2c49 e378 3e49
000000a0: 1db7 4949 a2f6 5a49 a9bb 6349 ed1e 6c49
000000b0: 86cd 7349 3fbc 7d49 5106 8449 d7f3 8549
000000c0: eccb 8849 dc87 8949 62b8 6b49 2d4e 6949
000000d0: 0166 6b49 5318 6f49 3954 7049 d6c6 6e49
000000e0: 4ad4 6949 0d6b 6649 9703 6449 e5fa 6549
000000f0: 4b3c 6649 6881 6849 1a84 7049 8812 7449
00000100: 882b 7349 53c2 6b49 d725 6749 208e 5f49
00000110: 51d0 5449 f8a5 4b49 f2a3 4149 7cba 3a49
00000120: 7947 3449 9e0c 3449 5c95 3149 2c7d 2d49
00000130: 47bb 2749 b316 2149 4efc 1a49 cf08 1349
00000140: 75d4 0c49 fa97 0249 9324 f948 d502 f548
00000150: c7cd f548 42cb f748 c578 ff48 ffd3 0649
00000160: 9bb2 0c49 a392 1749 4c7e 1f49 e33e 2949
00000170: 98df 2f49 7cb1 3449 6b47 3949 8890 3e49
00000180: 2c30 4549 f215 4649 82e3 4549 0290 4449
1.0633e+06 1.0485234e+06 1.0368544e+06 1.039093e+06 1.0312085e+06 1.0095016e+06 974930.25 935107.7
903495.4 881042.6 857323.0 840760.9 843882.7 844169.4 832368.2 802779.5
767909.8 736838.1 692650.7 654373.5 609786.8 578904.7 562151.4 563559.0
560213.0 542952.8 523899.2 507039.25 505714.0 500654.66 497477.16 484826.5
489114.7 514416.4 540032.9 561613.75 603401.56 651951.94 706115.44 780174.2
826225.8 896874.1 932794.56 967150.8 998616.4 1.03929994e+06 1.0815461e+06 1.0973389e+06
1.1206375e+06 1.1266515e+06 965510.1 955618.8 964192.06 979333.2 984387.56 978029.4
957764.6 943792.8 933945.44 941998.3 943044.7 952342.5 985153.6 999720.5
996024.5 965669.2 946781.44 915682.0 871685.06 834143.5 793151.1 764839.75
738423.56 737481.9 727381.75 710610.75 687028.44 659819.2 634820.9 602252.94
576839.3 534911.6 510244.6 501782.66 503406.22 507482.06 523206.16 552255.94
576297.7 620842.2 653284.75 693230.2 720377.5 740119.75 758902.7 780552.5
807682.75 811359.1 810552.1 805120.1

exp_avg f4 [1, 1, 2, 50]
00000000: 9a40 96c1 f5ec 71c1 2629 a6c0 1b04 1841
00000010: 7cec c541 5579 1442 b950 3842 11cd 5142
00000020: 8dbe 6742 35ad 8042 ed99 8c42 977d 9842
00000030: 444b 9c42 442e 9942 497e 9542 4fe7 9042
00000040: 8a61 8e42 0d29 8b42 52d4 8942 38b9 8742
00000050: f18b 7942 4b95 6942 d35d 6442 a5c9 6142
00000060: cc22 5042 7d3f 2542 66e3 e441 0d1b 8641
00000070: 1f6f 2b41 5326 0041 f686 0941 545a 3d41
00000080: 39ef 1c41 e587 dd40 ae91 b73f f2b5 62c0
00000090: 18da 953f 1523 4641 4a55 d241 6627 1b42
000000a0: 97b3 5142 ffde 8042 1962 9442 2e89 a442
000000b0: da12 ab42 6c8f a442 7c9b 9042 7886 7242
000000c0: a51e 5c42 d23f 4d42 5d89 42c2 71b9 34c2
000000d0: 6d43 25c2 dc27 14c2 0961 f7c1 0f00 bcc1
000000e0: a78d 8cc1 ed55 44c1 b12f e6c0 a365 47c0
000000f0: ffcb f63e 0719 9640 f86b 3a41 7b46 9e41
00000100: ea9b c941 afbe d441 f517 cf41 255c c441
00000110: af17 c741 4445 dc41 3fbc 0042 d3c9 0f42
00000120: 0eee 1342 146a 0f42 fd94 0642 f981 f641
00000130: b990 ca41 8b95 7e41 18a3 8540 57af 10c1
00000140: f660 b0c1 2ab7 0bc2 c5cc 3cc2 e00c 73c2
00000150: be58 9cc2 b0cd bbc2 3e3d cfc2 6deb dcc2
00000160: 9c04 e3c2 7891 e2c2 e56a e0c2 285d dfc2
00000170: d534 dec2 b620 dbc2 186f d5c2 15d2 cfc2
00000180: fe91 d0c2 9a8a d3c2 eff0 d3c2 9dc6 d3c2
-18.781544 -15.120351 -5.192523 9.501002 24.74047 37.11849 46.07883 52.45026
57.936085 64.338295 70.30064 76.24529 78.147 76.59036 74.74665 72.451775
71.190506 69.58018 68.91469 67.861755 62.38666 58.395794 57.091625 56.44692
52.03398 41.312 28.611034 16.763208 10.714629 8.0093565 8.595449 11.834553
9.808404 6.9228387 1.4341333 -3.542355 1.1707182 12.383565 26.291645 38.788475
52.42538 64.43554 74.1916 82.26793 85.53682 82.28012 72.30368 60.631317
55.029926 51.312325 -48.634144 -45.181095 -41.315845 -37.038925 -30.92238 -23.500029
-17.569166 -12.270978 -7.1933217 -3.1155784 0.48202512 4.690555 11.65136 19.784414
25.20113 26.593107 25.886698 24.544992 24.886564 27.533821 32.183834 35.947094
36.982475 35.853592 33.645496 30.813463 25.320665 15.9115095 4.176159 -9.042808
-22.047344 -34.92887 -47.19997 -60.762573 -78.173325 -93.90173 -103.61961 -110.459816
-113.509 -113.28412 -112.20878 -111.681946 -111.10319 -109.56389 -106.71698 -103.91032
-104.28514 -105.770706 -105.97057 -105.88792

exp_avg_sq f4 [1, 1, 2, 50]
00000000: 3395 3846 073a 3846 8aa8 3046 8a39 3d46
00000010: 6170 6c46 ec59 9846 0603 bb46 53ce da46
00000020: fe93 f946 ba10 0b47 5f77 1747 a50b 2147
00000030: 69ee 2547 e1da 2747 ec18 2947 fe87 2947
00000040: 7ebb 2747 9907 2547 afd0 2247 8bb4 1f47
00000050: ac91 1a47 8b8f 1347 5eff 0a47 bfea 0047
00000060: 2665 ed46 7db3 da46 5270 cb46 f3c8 bf46
00000070: 572d af46 48f1 9a46 f7ca 8546 12fd 6446
00000080: 97f5 4b46 b6e7 3c46 b390 3446 5565 3046
00000090: 31f1 2746 763f 2146 af40 2646 f25b 3546
000000a0: 61db 4d46 234a 6c46 13eb 8746 4dd2 9946
000000b0: 248a a046 126f 9b46 6672 8f46 daf6 8846
000000c0: d50e 8b46 9e83 8b46 d433 f646 996c cd46
000000d0: 9681 a146 29e8 6f46 8c66 2b46 315c f345
000000e0: dc2a b345 4cee 9045 1e51 8245 a07a 7b45
000000f0: fa6d 8145 ddb6 8b45 cf8a 9945 7778 ab45
00000100: 70a4 bb45 d482 c045 ea63 c045 a37c c045
00000110: 52a9 c245 16b8 c145 647c bc45 3a57 b845
00000120: 815a b845 0901 ba45 fe64 b945 6bdd b045
00000130: 26bc a245 674d 8f45 fa3a 7945 d928 6d45
00000140: c653 8e45 0120 c745 1abd 1446 c0c2 5e46
00000150: f7cf 9c46 47e3 cc46 0f0b f746 a56f 0d47
00000160: 8323 1a47 229e 2147 8cda 2747 2cce 2e47
00000170: 5240 3647 87ec 3d47 5635 4547 f5ce 4a47
00000180: 2a32 4f47 2464 5347 027f 5447 a967 5147
11813.3 11790.507 11306.135 12110.385 15132.095 19500.96 23937.512 28007.162
31945.996 35600.727 38775.37 41227.645 42478.41 42970.88 43288.92 43399.992
42939.492 42247.598 41680.684 40884.543 39569.67 37775.543 35583.367 33002.746
30386.574 27993.744 26040.16 24548.475 22422.67 19832.64 17125.482 14655.268
13053.397 12089.928 11556.175 11289.333 10748.298 10319.865 10640.171 11606.986
13174.845 15122.534 17397.537 19689.15 20549.07 19895.535 18361.2 17531.426
17799.416 17857.809 31513.914 26294.299 20672.793 15354.04 10969.637 7787.524
5733.3574 4637.787 4170.1396 4023.664 4141.747 4470.858 4913.351 5487.058
6004.5547 6160.3535 6156.4893 6159.5796 6229.165 6199.0107 6031.549 5898.9033
5899.313 5952.1294 5932.624 5659.6772 5207.5186 4585.6753 3987.686 3794.553
4554.4717 6372.0005 9519.275 14256.6875 20071.982 26225.639 31621.53 36207.645
39459.51 41374.133 42970.547 44750.17 46656.32 48620.527 50485.336 51918.957
53042.164 54116.14 54399.008 53607.66

exp_avg f4 [32, 4]
00000000: 8259 9642 4f38 1c40 fc50 9642 02d3 2040
00000010: 6a56 9742 e6ff 1c40 a84e 9742 bf94 2140
00000020: 0ffb 9442 9d8f 1a40 e4f3 9442 f5f4 1e40
00000030: 0400 0080 0400 0080 0400 0080 0400 0080
00000040: 6cf6 a042 7415 2740 49ee a042 4be5 2b40
00000050: 0719 9842 8549 1e40 4210 9842 eaf3 2240
00000060: 2dee 9342 d692 1940 e3e6 9342 c8f7 1d40
00000070: 603a 9742 a80e 1d40 a432 9742 829d 2140
00000080: f859 9d42 6e55 2340 ee51 9d42 c717 2840
00000090: ed98 9442 246a 1a40 b991 9442 9dcd 1e40
000000a0: 88b6 9642 aa19 1d40 1eae 9642 58ac 2140
000000b0: 0400 0080 0400 0080 0400 0080 0400 0080
000000c0: ceb2 9742 6207 1e40 3aaa 9742 b1ab 2240
000000d0: 0400 0080 0400 0000 0400 0080 0400 0000
000000e0: 9207 9742 451e 1d40 77ff 9642 48b3 2140
000000f0: 45eb 1cc0 c8b8 cabe b36e 1dc0 5e3f cfbe
00000100: afee 04c0 1884 bebe 0e61 05c0 bb47 c8be
00000110: 0000 0000 0000 0000 0000 0000 0000 0000
00000120: 0000 0000 0000 0000 0000 0000 0000 0000
00000130: b43c 9242 4503 1840 f532 9242 e0ab 1c40
00000140: 0000 0000 0000 0000 0000 0000 0000 0000
00000150: 0000 0000 0000 0000 0000 0000 0000 0000
00000160: 8558 8e42 ca54 1340 7552 8e42 537b 1740
00000170: 0000 0000 0000 0000 0400 0080 0000 0000
00000180: 4cf3 13c0 430b ccbe 13ed 13c0 06af d0be
00000190: c6d6 9342 f4d3 1940 fbcd 9342 c65f 1e40
000001a0: a082 8b3b f333 203b c009 8a3b f29e 253b
000001b0: b274 9742 af07 1d40 266e 9742 0073 2140
000001c0: 0400 0000 0400 0000 0400 0000 0400 0000
000001d0: a172 263c 2426 bd3b 4ed5 233c 0eab c13b
000001e0: 470e 9142 4fac 1640 5808 9142 f6cf 1a40
000001f0: 0400 0000 0400 0000 0400 0000 0400 0000
75.17482 2.4409368 75.15817 2.512879 75.66878 2.4531188 75.653625 2.5247037
74.49035 2.4150155 74.47635 2.483701 -6e-45 -6e-45 -6e-45 -6e-45
80.48129 2.6106844 80.4654 2.68587 76.04888 2.4732373 76.03175 2.5461373
73.96519 2.3995872 73.95095 2.4682484 75.61401 2.4540195 75.59891 2.5252385
78.67572 2.5520892 78.66002 2.6264513 74.29868 2.4127283 74.284615 2.4812996
75.35651 2.4546914 75.34007 2.526144 -6e-45 -6e-45 -6e-45 -6e-45
75.84923 2.4692006 75.83247 2.5417292 -6e-45 6e-45 -6e-45 6e-45
75.514786 2.4549725 75.498955 2.5265675 -2.4518597 -0.39594102 -2.4598815 -0.40478033
-2.077068 -0.37210155 -2.0840487 -0.39117226 0.0 0.0 0.0 0.0
0.0 0.0 0.0 0.0 73.11856 2.3751996 73.099525 2.4479904
0.0 0.0 0.0 0.0 0.0 0.0 0.0 0.0
71.17289 2.30205 71.16105 2.366902 0.0 0.0 -6e-45 0.0
-2.3117247 -0.39852342 -2.3113449 -0.40758532 73.91948 2.4035616 73.902306 2.4745955
0.004257515 0.0024445027 0.004212588 0.002527174 75.72792 2.453594 75.71513 2.522644
6e-45 6e-45 6e-45 6e-45 0.010159166 0.005772369 0.009999586 0.005910284
72.527885 2.354267 72.5163 2.418943 6e-45 6e-45 6e-45 6e-45

exp_avg_sq f4 [32, 4]
00000000: f35a 9b46 0261 a041 ee69 9b46 4fe2 9841
00000010: 460d 9d46 ff2b a241 c71c 9d46 1e94 9a41
00000020: a080 9746 2eb6 9c41 ae8f 9746 5e5a 9541
00000030: 3820 5536 93e9 d631 e76f 9134 e981 6232
00000040: 921b b246 665c b741 ed2c b246 50c5 ae41
00000050: e728 9f46 863d a441 3338 9f46 4498 9c41
00000060: 67b0 9546 dabd 9a41 50bf 9546 d97b 9341
00000070: f21c 9d46 fcd0 a141 5a2c 9d46 ca43 9a41
00000080: 4153 aa46 4b7b af41 f363 aa46 4042 a741
00000090: efcd 9646 de02 9c41 ebdc 9646 44b7 9441
000000a0: 1054 9c46 005f a141 2663 9c46 53dc 9941
000000b0: 89c2 ba2e 87fe 8933 4f3b 7e30 81c3 0835
000000c0: 2bd3 9e46 2080 a341 7ee2 9e46 95e4 9b41
000000d0: 1988 c037 f43f df35 c7ec 9e36 8169 f136
000000e0: 5062 9c46 48e1 a141 b271 9c46 5b52 9a41
000000f0: 2a98 6d41 b425 ee3e fcb4 6e41 a07f e13e
00000100: ead0 1841 bcdf d03e 7a4f 1941 1142 ca3e
00000110: 0000 0000 0000 0000 0000 0000 0000 0000
00000120: 0000 0000 0000 0000 0000 0000 0000 0000
00000130: 3253 9446 2f93 9841 0f61 9446 fd76 9141
00000140: 0000 0000 0000 0000 0000 0000 0000 0000
00000150: 0000 0000 0000 0000 0000 0000 0000 0000
00000160: ad93 8946 1a99 8e41 9da1 8946 4de4 8741
00000170: 0000 0000 0000 0000 401d 0a34 0000 0000
00000180: 804f 7041 1825 e23e 8bbb 6f41 c3b9 d63e
00000190: b8ad 9646 8361 9b41 3fbc 9646 0721 9441
000001a0: 9791 bf39 aa99 0d39 8014 ca39 3ed5 0a39
000001b0: ea59 9c46 a1bc a141 ab69 9c46 2127 9a41
000001c0: 3312 c037 94ee 8f36 c61e 9a36 438a 6237
000001d0: f739 b03a 3b77 093a cd5c 913a 2337 063a
000001e0: 47e3 8e46 63f8 9341 bcf1 8e46 5d0a 8d41
000001f0: bb6a c932 f64a 5935 6104 d033 2515 e435
19885.475 20.047367 19892.965 19.110502 20102.637 20.271482 20110.389 19.322323
19392.312 19.588955 19399.84 18.669125 3.1758227e-06 6.254774e-09 2.7089774e-07 1.31844695e-08
22797.785 22.920116 22806.463 21.846344 20372.451 20.53004 20380.1 19.574348
19160.201 19.342701 19167.656 18.435472 20110.473 20.227043 20118.176 19.2831
21801.627 21.935202 21809.975 20.907349 19302.967 19.5014 19310.459 18.589485
20010.031 20.171387 20017.574 19.23258 8.492857e-11 6.425858e-08 9.2488944e-10 5.0948444e-07
20329.584 20.437561 20337.246 19.486612 2.2951559e-05 1.6633408e-06 4.7363314e-06 7.194642e-06
20017.156 20.235 20024.848 19.290213 14.849649 0.4651314 14.919186 0.44042683
9.551004 0.40795696 9.581903 0.3950353 0.0 0.0 0.0 0.0
0.0 0.0 0.0 0.0 18985.598 19.071867 18992.53 18.1831
0.0 0.0 0.0 0.0 0.0 0.0 0.0 0.0
17609.838 17.824757 17616.807 16.986475 0.0 0.0 1.2862893e-07 0.0
15.019409 0.44168925 14.983287 0.419386 19286.86 19.422613 19294.123 18.516127
0.00036538832 0.00013504052 0.00038543716 0.00013240144 20012.957 20.217104 20020.834 19.269106
2.2896658e-05 4.2895063e-06 4.59314e-06 1.3502841e-05 0.0013445009 0.0005243902 0.0011090279 0.00051199103
18289.639 18.496283 18296.867 17.63006 2.3448015e-08 8.094788e-07 9.686551e-08 1.6993478e-06

exp_avg f4 [32]
00000000: 3892 b341 19bf b441 e9e8 b141 0400 0080
00000010: aa3a c041 eaab b541 96aa b041 c59e b441
00000020: 91ed bb41 3477 b141 c203 b441 0400 0080
00000030: 0032 b541 0400 0080 ec62 b441 c108 3fbf
00000040: b201 22bf 0000 0000 0000 0000 95ad ae41
00000050: 0000 0000 0000 0000 2bfb a941 0400 0080
00000060: 6c1d 34bf 9c94 b041 c825 a53a c6df b441
00000070: 0400 0000 9069 433b d638 ad41 0400 0000
22.446396 22.59331 22.238726 -6e-45 24.028645 22.708942 22.083294 22.577524
23.491 22.183205 22.501835 -6e-45 22.649414 -6e-45 22.548302 -0.7462273
-0.63283837 0.0 0.0 21.834757 0.0 0.0 21.24764 -6e-45
-0.70357394 22.072563 0.0012599761 22.609264 6e-45 0.0029817559 21.652752 6e-45

exp_avg_sq f4 [32]
00000000: 1dae e644 cb2a e944 672d e144 35b6 be38
00000010: e9cc 0445 992c ec44 6b80 de44 0fc3 e944
00000020: a58b fd44 b9d0 df44 7f1d e844 884b 0d35
00000030: 217e ec44 9103 4e39 f893 e744 e0a4 ad3f
00000040: 5dfd 5f3f 0000 0000 0000 0000 7c5c dc44
00000050: 0000 0000 0000 0000 921d cc44 f5e2 ae33
00000060: ab54 ae3f 14e4 df44 bc5c 0039 c22c e844
00000070: dfc4 8437 d8d3 0f3b bf5e d444 662f 9835
1845.441 1865.3373 1801.4188 9.093845e-05 2124.807 1889.3937 1780.0131 1870.0956
2028.3639 1790.5226 1856.9218 5.2636506e-07 1891.9415 0.0001964702 1852.624 1.3565941
0.87495977 0.0 0.0 1762.8901 0.0 0.0 1632.9241 8.1437896e-08
1.3619589 1791.1274 0.00012241577 1857.3987 1.5827301e-05 0.0021946337 1698.9608 1.1338677e-06

exp_avg f4 [10, 32]
00000000: b688 af41 8560 b541 91f1 c641 0400 0080
00000010: 5afc ad41 2bdc a641 1cdd cf41 13ac c641
00000020: e584 bb41 1eb7 af41 9190 c541 0400 0080
00000030: 8dba b341 0400 0080 ccc4 ad41 73ce 523e
00000040: 08d2 c83d 0000 0000 0000 0000 9e9f cd41
00000050: 0000 0000 0000 0000 b64c c941 0400 0080
00000060: 8d34 973e 1898 d541 0ff2 2f38 907d b141
00000070: 0400 0080 420e b937 fdba d741 0400 0080
00000080: 9d37 aa41 52df af41 dede c041 0400 0080
00000090: beac a841 a1c4 a141 6582 c941 2399 c041
000000a0: 81d4 b541 956a aa41 5a97 bf41 0400 0080
000000b0: ef4b ae41 0400 0080 c989 a841 dad4 543e
000000c0: fd3e cb3d 0000 0000 0000 0000 4353 c741
000000d0: 0000 0000 0000 0000 1d31 c341 0400 0080
000000e0: 89e7 983e f709 cf41 1386 0138 4716 ac41
000000f0: 0400 0080 33f6 cd37 8634 d141 0400 0080
00000100: 1450 a541 c9c7 aa41 3337 bb41 0400 0080
00000110: c2ba a341 ef02 9d41 d598 c341 15f1 ba41
00000120: 5896 b041 e189 a541 fa1d ba41 0400 0080
00000130: 1049 a941 0400 0080 d7c0 a341 7eea 613e
00000140: f55f d83d 0000 0000 0000 0000 fd72 c141
00000150: 0000 0000 0000 0000 e089 bd41 0400 0080
00000160: d730 a23e b5eb c841 c9f1 8f38 c50f a741
00000170: 0400 0080 198b 7338 2137 cb41 0400 0080
00000180: 1897 9f41 37de a441 92be b441 0400 0080
00000190: 2813 9e41 289b 9741 dcd3 bc41 0d7a b441
000001a0: 9274 aa41 c4cf 9f41 0da3 b341 0400 0080
000001b0: 3c6e a341 0400 0080 4310 9e41 0104 553e
000001c0: 79be cb3d 0000 0000 0000 0000 b5c2 ba41
000001d0: 0000 0000 0000 0000 dcfb b641 0400 0080
000001e0: 6b30 993e 06f7 c141 4d75 1db9 b14b a141
000001f0: 0400 0080 3231 d0b8 6427 c441 0400 0080
00000200: a80d 9b41 9827 a041 ea82 af41 0400 0080
00000210: a282 9941 1831 9341 c85b b741 a33b af41
00000220: 8e97 a541 fe42 9b41 238d ae41 0400 0080
00000230: ecc7 9e41 0400 0080 0997 9941 badc 5c3e
00000240: 3bb3 d33d 0000 0000 0000 0000 8f53 b541
00000250: 0000 0000 0000 0000 6ebb b141 0400 0080
00000260: de84 9f3e 354f bc41 3c95 0fb8 52a0 9c41
00000270: 0400 0080 c96d 51b7 5496 be41 0400 0080
00000280: 08b9 9641 b2ae 9b41 cf96 aa41 0400 0080
00000290: 7d33 9541 860e 8f41 2735 b241 e54e aa41
000002a0: 0af8 a041 95f0 9641 35b1 a941 0400 0080
000002b0: 325b 9a41 0400 0080 a752 9541 83c7 5b3e
000002c0: 106a d33d 0000 0000 0000 0000 af39 b041
000002d0: 0000 0000 0000 0000 98c3 ac41 0400 0080
000002e0: 39ee 9e3e a901 b741 71a3 adb8 6b3c 9841
000002f0: 0400 0080 1e96 74b8 a345 b941 0400 0080
00000300: d85a 9241 da2c 9741 6aaa a541 0400 0080
00000310: 6de7 9041 e4ee 8a41 bd0e ad41 d461 a541
00000320: fc48 9c41 6f8a 9241 86bb a441 0400 0080
00000330: f9e0 9541 0400 0080 6df1 9041 8e79 4d3e
00000340: 5adc c53d 0000 0000 0000 0000 2624 ab41
00000350: 0000 0000 0000 0000 86c0 a741 0400 0080
00000360: 3904 953e 66b9 b141 6b09 81b9 b3d4 9341
00000370: 0400 0080 a853 43b9 e0dc b341 0400 0080
00000380: 494f 8e41 c6ff 9241 0119 a141 0400 0080
00000390: a4eb 8c41 c017 8741 6f48 a841 d7ce a041
000003a0: d6f2 9741 3d73 8e41 5425 a041 0400 0080
000003b0: 7fb9 9141 0400 0080 84e0 8c41 3d51 413e
000003c0: a983 ba3d 0000 0000 0000 0000 b66c a641
000003d0: 0000 0000 0000 0000 c018 a341 0400 0080
000003e0: 34a8 8c3e e2d3 ac41 5921 f5b9 99bb 8f41
000003f0: 0400 0080 c287 c1b9 66da ae41 0400 0080
21.941753 22.672129 24.867952 -6e-45 21.748219 20.857504 25.982964 24.83402
23.43989 21.964413 24.69559 -6e-45 22.46609 -6e-45 21.721092 0.20586567
0.09805685 0.0 0.0 25.702938 0.0 0.0 25.162457 -6e-45
0.2953228 26.699265 4.1948686e-05 22.18631 -6e-45 2.2060358e-05 26.966303 -6e-45
21.277155 21.984043 24.108822 -6e-45 21.084347 20.22101 25.18867 24.074774
22.728762 21.302042 23.948902 -6e-45 21.787077 -6e-45 21.067278 0.20784321
0.099241234 0.0 0.0 24.915655 0.0 0.0 24.398981 -6e-45
0.29864147 25.879866 3.0880863e-05 21.510878 -6e-45 2.455255e-05 26.150646 -6e-45
20.6641 21.347551 23.401953 -6e-45 20.46619 19.626432 24.449625 23.367716
22.07341 20.692324 23.264637 -6e-45 21.160675 -6e-45 20.46916 0.22062108
0.10565177 0.0 0.0 24.181147 0.0 0.0 23.692322 -6e-45
0.31677887 25.115091 6.863807e-05 20.8827 -6e-45 5.806526e-05 25.401918 -6e-45
19.948776 20.608503 22.593052 -6e-45 19.759354 18.95076 23.603447 22.559595
21.30692 19.976448 22.454615 -6e-45 20.428825 -6e-45 19.75794 0.20802309
0.09948439 0.0 0.0 23.345072 0.0 0.0 22.872978 -6e-45
0.29919752 24.245617 -0.00015016385 20.161959 -6e-45 -9.927376e-05 24.519234 -6e-45
19.381668 20.019333 21.938923 -6e-45 19.188786 18.398972 22.919815 21.90412
20.699001 19.407711 21.818914 -6e-45 19.847618 -6e-45 19.198748 0.21568576
0.1033692 0.0 0.0 22.6658 0.0 0.0 22.216518 -6e-45
0.31156057 23.538675 -3.4232842e-05 19.578281 -6e-45 -1.2482932e-05 23.823402 -6e-45
18.840347 19.4603 21.323637 -6e-45 18.65014 17.882092 22.275953 21.288523
20.121113 18.867472 21.211527 -6e-45 19.294529 -6e-45 18.665358 0.21462826
0.10322964 0.0 0.0 22.028166 0.0 0.0 21.595505 -6e-45
0.31041124 22.87581 -8.279726e-05 19.029501 -6e-45 -5.831394e-05 23.159002 -6e-45
18.294357 18.8969 20.70821 -6e-45 18.113 17.366646 21.632196 20.672768
19.535637 18.317595 20.591564 -6e-45 18.73485 -6e-45 18.117884 0.200659
0.09661169 0.0 0.0 21.39265 0.0 0.0 20.969006 -6e-45
0.29104784 22.215527 -0.00024611814 18.478857 -6e-45 -0.00018627814 22.48285 -6e-45
17.788713 18.37489 20.137209 -6e-45 17.615059 16.886597 21.035368 20.100996
18.993572 17.806269 20.018227 -6e-45 18.215574 -6e-45 17.609627 0.18878646
0.091071434 0.0 0.0 20.803082 0.0 0.0 20.387085 -6e-45
0.2747208 21.603458 -0.00046754887 17.9666 -6e-45 -0.00036912976 21.85664 -6e-45

exp_avg_sq f4 [10, 32]
00000000: bc63 b044 977a bc44 af0b e544 75e8 8f38
00000010: 5f34 ae44 2fda 9f44 b296 fa44 775d e444
00000020: 3639 c944 de49 b044 72bb de44 e287 4332
00000030: 1e6e b944 7b43 ec39 18cf aa44 bb37 113e
00000040: 47ec d03c 0000 0000 0000 0000 e434 f544
00000050: 0000 0000 0000 0000 4c3e ea44 3245 842f
00000060: f6a7 983e ae69 0445 a4e9 2a3a 2909 b544
00000070: c7de c735 68ce 0b3b f045 0645 cc85 a233
00000080: ee4a ac44 3218 b844 3ab2 df44 6494 8f38
00000090: 8a26 aa44 0825 9c44 feb9 f444 7308 df44
000000a0: 9a89 c444 2334 ac44 378b d944 cf85 3f32
000000b0: 7e1f b544 7074 e739 fada a644 eb36 0e3e
000000c0: aab4 cc3c 0000 0000 0000 0000 0279 ef44
000000d0: 0000 0000 0000 0000 1ac8 e444 276c 862f
000000e0: e976 953e 984f 0145 77f0 2a3a 21d4 b044
000000f0: c73e c735 9961 0b3b 4123 0345 f21f a133
00000100: a45e a744 37d1 b244 1531 d944 8f37 8f38
00000110: b944 a544 4cb1 9744 2d94 ed44 b18c d844
00000120: 8be3 be44 ce49 a744 694a d344 770c 3f32
00000130: 42eb af44 e2c7 e639 7122 a244 701d 0d3e
00000140: 21ad cb3c 0000 0000 0000 0000 be7d e844
00000150: 0000 0000 0000 0000 6a20 de44 bdd6 842f
00000160: 1769 943e db0e fb44 611e 2a3a 18c1 ab44
00000170: e5e6 c635 696d 0a3b 259f fe44 124b 9e33
00000180: 1801 a644 9e5c b144 f47e d744 6544 8f38
00000190: 97ee a344 9b72 9644 48bf eb44 35db d644
000001a0: ff56 bd44 62eb a544 4192 d144 2cfd 3e32
000001b0: 1982 ae44 2a1e e739 fbc2 a044 f76b 053e
000001c0: 69fc bf3c 0000 0000 0000 0000 0eb0 e644
000001d0: 0000 0000 0000 0000 b967 dc44 5d5b 832f
000001e0: b53c 8c3e c41e f944 490e 2b3a de5d aa44
000001f0: ab31 c835 29f0 0a3b 10a9 fc44 7823 9e33
00000200: 83bd a644 9626 b244 c48d d844 7715 8f38
00000210: cea9 a444 7a12 9744 b5f2 ec44 62e7 d744
00000220: 8c32 be44 09a3 a644 e386 d244 8afd 3d32
00000230: 1f50 af44 c611 e739 1466 a144 f353 023e
00000240: 8110 bc3c 0000 0000 0000 0000 40d6 e744
00000250: 0000 0000 0000 0000 8482 dd44 4599 832f
00000260: 9916 893e f161 fa44 f3c7 2a3a 6a1e ab44
00000270: aeef c835 a3e9 0a3b 94f9 fd44 38fb 9b33
00000280: 72d9 a444 1c20 b044 e311 d644 a311 8f38
00000290: 78ca a244 585d 9544 2739 ea44 026e d544
000002a0: 0808 bc44 3cc0 a444 bf20 d044 57e6 3c32
000002b0: ac51 ad44 688a e639 b994 9f44 4bde ff3d
000002c0: 01c2 b83c 0000 0000 0000 0000 7e2c e544
000002d0: 0000 0000 0000 0000 b7f8 da44 73db 802f
000002e0: 8b9e 863e da7f f744 eb64 2b3a ee2c a944
000002f0: 44c5 c735 25c9 0a3b 830e fb44 ca1c 9e33
00000300: ed81 a344 93af ae44 2b50 d444 96bd 8d38
00000310: 6677 a144 1f27 9444 994c e844 4cae d344
00000320: b77d ba44 be67 a344 2c6b ce44 eb3e 3f32
00000330: b8e6 ab44 bd23 e539 2c47 9e44 fb43 f73d
00000340: 17e0 b13c 0000 0000 0000 0000 6b4b e344
00000350: 0000 0000 0000 0000 202c d944 99da 802f
00000360: 012d 823e 7477 f544 c1df 2b3a d5cb a744
00000370: 230f c935 9dc5 0a3b b2fc f844 efa3 9c33
00000380: 756e a244 4388 ad44 6fe5 d244 2702 8e38
00000390: 2167 a044 732e 9344 9cbe e644 e444 d244
000003a0: 7141 b944 7853 a244 2a0c cd44 dee5 3d32
000003b0: 2cc3 aa44 d568 e439 0a3d 9d44 dd93 f23d
000003c0: 04e9 ad3c 0000 0000 0000 0000 d8c6 e144
000003d0: 0000 0000 0000 0000 20b8 d744 34c6 822f
000003e0: 845e 7f3e d8d2 f344 45c4 2c3a 26b0 a644
000003f0: 6f00 c935 512b 0b3b 6250 f744 ebac 9c33
1411.1167 1507.8309 1832.3651 6.86207e-05 1393.6366 1278.8182 2004.7092 1826.9208
1609.7878 1410.3083 1781.8577 1.138139e-08 1483.4412 0.00045063705 1366.4717 0.14181416
0.02550329 0.0 0.0 1961.6528 0.0 0.0 1873.9468 2.4059826e-10
0.29815644 2118.605 0.00065198005 1448.2863 1.4891492e-06 0.0021332745 2148.371 7.5680504e-08
1378.3416 1472.7561 1789.5696 6.846411e-05 1361.2043 1249.1572 1957.8123 1784.264
1572.3 1377.6293 1740.3505 1.1148088e-08 1448.9841 0.00044146506 1334.843 0.13888137
0.024988491 0.0 0.0 1915.7815 0.0 0.0 1830.2532 2.4451305e-10
0.29192284 2068.9746 0.00065208174 1414.629 1.4844926e-06 0.002126789 2098.2034 7.5029575e-08
1338.9575 1430.538 1737.5338 6.82912e-05 1322.1476 1213.5405 1900.6305 1732.3966
1527.1107 1338.3064 1690.3253 1.1120497e-08 1407.3518 0.00044017943 1297.0763 0.13780761
0.024862828 0.0 0.0 1859.9294 0.0 0.0 1777.013 2.416324e-10
0.28986427 2008.4642 0.0006489512 1374.0342 1.4819349e-06 0.0021122342 2036.9733 7.3711035e-08
1328.0342 1418.8943 1723.9673 6.831511e-05 1311.4559 1203.5814 1885.9775 1718.8502
1514.7186 1327.3557 1676.5704 1.111702e-08 1396.0656 0.00044082227 1286.0931 0.13029467
0.023435788 0.0 0.0 1845.5017 0.0 0.0 1763.2413 2.389368e-10
0.27390066 1992.9614 0.0006525261 1362.9333 1.4915616e-06 0.0021200276 2021.2832 7.3639e-08
1333.9222 1425.2058 1732.4302 6.8227695e-05 1317.3064 1208.5774 1895.5846 1727.2307
1521.5796 1333.0948 1684.2152 1.1058896e-08 1402.5038 0.00044072996 1291.19 0.12727337
0.022957088 0.0 0.0 1854.6953 0.0 0.0 1772.0786 2.3937666e-10
0.26775053 2003.0607 0.000651478 1368.9504 1.4970917e-06 0.0021196387 2031.7993 7.2634464e-08
1318.7952 1409.0034 1712.559 6.8220565e-05 1302.3271 1194.917 1873.786 1707.4377
1504.251 1318.0073 1665.0233 1.09954135e-08 1386.5522 0.0004397214 1276.6476 0.12493571
0.022553446 0.0 0.0 1833.3904 0.0 0.0 1751.7723 2.3438992e-10
0.26292834 1979.9954 0.000653817 1353.404 1.4884067e-06 0.002117702 2008.4535 7.362685e-08
1308.0602 1397.4867 1698.5052 6.758717e-05 1291.7312 1185.2225 1858.3937 1693.4468
1491.9286 1307.242 1651.3491 1.1131969e-08 1375.21 0.0004370491 1266.2241 0.12073513
0.0217133 0.0 0.0 1818.3568 0.0 0.0 1737.3789 2.3438387e-10
0.2542496 1963.7329 0.0006556474 1342.3698 1.4980072e-06 0.0021174916 1991.8967 7.2941354e-08
1299.4518 1388.2582 1687.1698 6.7714886e-05 1283.2228 1177.4515 1845.9565 1682.1528
1482.045 1298.6084 1640.3801 1.1053514e-08 1366.0991 0.00043565655 1257.9075 0.11844609
0.021229275 0.0 0.0 1806.2139 0.0 0.0 1725.7539 2.3787694e-10
0.24938399 1950.5889 0.0006590526 1333.5046 1.4975793e-06 0.0021235535 1978.512 7.29577e-08

exp_avg f4 [10]
00000000: 5fbf 1b40 4941 1740 b824 1340 663b 0e40
00000010: 0d5e 0a40 6891 0640 acb4 0240 1114 fe3f
00000020: 0a68 f73f e05e f13f
2.4335554 2.3633597 2.2991161 2.2223754 2.1619904 2.102625 2.0422773 1.9849874
1.9328625 1.8857079

exp_avg_sq f4 [10]
00000000: 4d7c b041 6865 ac41 3874 a641 4148 a641
00000010: 30b0 a841 ac8f a641 d923 a541 f7da a341
00000020: 2f5d a441 dd6f a441
22.060694 21.549515 20.806747 20.78528 21.08603 20.820152 20.642504 20.481916
20.5455 20.55462
