code/2021-04-12_17-27_last.pth (torch, 20083 bytes, 18 tensors)

encoder.maxpool_conv.0.0.weight f4 [1, 1, 2, 50]
0	0xbc985b07	-0.018598093
1	0xbbe80af6	-0.007081385
2	0xbd2580ec	-0.040406153
3	0xbd4b011e	-0.049561612
4	0x3d9f8947	0.077898555
5	0x3cb3cc8f	0.021948127
6	0x3d20de56	0.039274536
7	0xbc4a914e	-0.012363745
8	0xbcb57d0d	-0.022154355
9	0xbce8fa8f	-0.028439788
10	0xbc9a906d	-0.018867696
11	0x3d121059	0.03566012
12	0x3d71a493	0.05899484
13	0xbb204c18	-0.0024459418
14	0x3defe219	0.117130466
15	0xbd03c75a	-0.03217254
16	0x3de81f3f	0.11334085
17	0x3d827ffa	0.06372066
18	0xbd0e0515	-0.034672815
19	0xbd8e9311	-0.069616444
20	0xbd4e9ab9	-0.050440524
21	0x3c499289	0.012303003
22	0x3c29e96c	0.0103705935
23	0xbda5039c	-0.08057329
24	0x3cbe0ad8	0.02319853
25	0xbd33c1b3	-0.043885898
26	0x3d4c58e7	0.04988947
27	0x3dc90c41	0.0981679
28	0xbd1faca1	-0.03898299
29	0x3ce92245	0.028458724
30	0x3dafb3ac	0.085791916
31	0xbc9b7c64	-0.018980213
32	0xbd3bbba1	-0.045833234
33	0xbd4e7df7	-0.0504131
34	0xbd663838	-0.056205958
35	0x3c8cc85b	0.01718538
36	0xbb6d068b	-0.003616723
37	0xbde9892e	-0.11403118
38	0x3cf472ba	0.029839862
39	0xbcc5ba5c	-0.024136715
40	0xbdd1efd9	-0.102508254
41	0xbd733f5e	-0.059386604
42	0xbc594d01	-0.013262988
43	0xbcee0b94	-0.029058255
44	0xbbf0286e	-0.0073290383
45	0xbc58dc3c	-0.013236102
46	0x3d97152a	0.073770836
47	0xbda2f005	-0.07955936
48	0xba623ea4	-0.000863055
49	0x3dc7cdee	0.09756075
50	0x3dc38955	0.095476784
51	0xbcc617cc	-0.02418127
52	0x3d443f56	0.047911964
53	0x3d1e1ba0	0.038600564
54	0x3d2dd3b6	0.04243823
55	0x3c1e4d53	0.00966199
56	0x3ddb181a	0.106979564
57	0x3cd56807	0.02605058
58	0x3e284dd5	0.1643594
59	0x3e036af6	0.12833771
60	0x3dec2864	0.115311414
61	0x3d2ca86c	0.042152807
62	0xbd93d66e	-0.072186336
63	0x3d9b1141	0.0757165
64	0x3dd54ef0	0.10415447
65	0x3d98219e	0.07428287
66	0xbd057699	-0.032583807
67	0x3dd645b9	0.10462517
68	0x3d4339ee	0.047662668
69	0xbb16bd7f	-0.0023001132
70	0x3d00b734	0.031424716
71	0xbd032971	-0.032021943
72	0x3da853d2	0.082191125
73	0x3d3b1c1b	0.0456811
74	0x3dd3aa61	0.103352316
75	0xbd735df9	-0.05941579
76	0xbc276bad	-0.010218543
77	0x3d6698d5	0.056298096
78	0x3cd16342	0.025560025
79	0xbd881bc9	-0.066459246
80	0x3da0217e	0.07818888
81	0xbb87a920	-0.0041400343
82	0x3baecc6e	0.0053344285
83	0x3c558dd4	0.013034303
84	0x3d6c1649	0.05763844
85	0x3d82f8b8	0.063950956
86	0xbd12be57	-0.035826053
87	0xbb44e953	-0.0030046299
88	0x3d42d9cc	0.04757099
89	0xbd6944e7	-0.056950476
90	0xbd8bf86a	-0.068344906
91	0x3d41eb6f	0.047343668
92	0xbd8b0b1e	-0.0678923
93	0x3dc4d0a6	0.09610109
94	0x3ce27571	0.027643891
95	0x3dd715ca	0.10502203
96	0x3d9926ec	0.07478127
97	0xbd3681fb	-0.044557553
98	0x3ca7904e	0.020454552
99	0x3daa094c	0.083025545

encoder.maxpool_conv.2.0.weight f4 [1, 1, 2, 50]
0	0xbbd430af	-0.00647553
1	0xbc7e05ea	-0.01550434
2	0xbdbd5e58	-0.0924651
3	0xbd354ef9	-0.044264767
4	0xbd19a30a	-0.037509
5	0x3d91d097	0.071198635
6	0xbc25dcad	-0.010123414
7	0xbbb7c58b	-0.0056082658
8	0xbd3b8c50	-0.04578811
9	0x3d710099	0.05883846
10	0x3d11d5b4	0.035604194
11	0x3dc54a07	0.0963326
12	0x3d42b218	0.047533125
13	0xbd9a0f9e	-0.0752251
14	0x3dd23903	0.1026478
15	0xbda118d6	-0.07866065
16	0x3cea78a6	0.028621983
17	0xbd850221	-0.06494547
18	0xbdca84e0	-0.09888625
19	0xbe160665	-0.14650877
20	0xbd77923a	-0.060442187
21	0x3bc30f75	0.0059527704
22	0xbd85f075	-0.06540004
23	0xbb4b7d65	-0.0031050083
24	0xbdadd602	-0.084880844
25	0x3ccaacc6	0.024740588
26	0xbd9068b0	-0.070512176
27	0xbda8d69f	-0.08244061
28	0x3c55d502	0.013051273
29	0xbc5c6320	-0.013451368
30	0x3dad052e	0.084482536
31	0xbd6e2ac4	-0.058146253
32	0x3d4d7c52	0.05016739
33	0x3d003e0e	0.03130918
34	0x3d7a94e9	0.061177168
35	0x3cbf56d9	0.023356842
36	0x3d312157	0.043244686
37	0xbd09dbea	-0.033656992
38	0x3c4ecf93	0.012622732
39	0xbce5abab	-0.02803596
40	0xbd87edda	-0.066371635
41	0x3b746b10	0.003729526
42	0xbd38954b	-0.045064252
43	0x3c92d159	0.01792209
44	0xbdf7ad25	-0.120935716
45	0x3ba357b4	0.0049848203
46	0xbd901566	-0.070353314
47	0x3d8168a6	0.06318788
48	0xbde179bc	-0.11009547
49	0xbd3d431a	-0.04620657
50	0x3b8a476d	0.0042199404
51	0x3d8e8c4e	0.06960355
52	0x3d59c094	0.053162172
53	0xbcfd2dbf	-0.030905602
54	0x3be35e89	0.0069387597
55	0x3d50e70f	0.051001605
56	0xbcc8dfd3	-0.02452079
57	0xbda34c3e	-0.079735264
58	0xbd458545	-0.0482228
59	0x3d42ada3	0.047528874
60	0xbd12e381	-0.035861496
61	0xbd239705	-0.039938945
62	0xbd13a983	-0.03605033
63	0x3c74e524	0.0149472095
64	0xbd22f571	-0.039784852
65	0x3cca0c3f	0.024664043
66	0x3a75c79b	0.0009375752
67	0xbd095aa5	-0.03353371
68	0xbd9ad262	-0.075596586
69	0xbc562f39	-0.013072782
70	0xbd34f478	-0.044178456
71	0xbd924173	-0.0714139
72	0xbba16b9b	-0.0049261576
73	0xbdb340d5	-0.087526
74	0xbda22789	-0.07917697
75	0xbd836b93	-0.064170025
76	0xbdf6b962	-0.12047078
77	0x3ce1877b	0.027530422
78	0xbdef294d	-0.116777994
79	0xbdb92366	-0.09039955
80	0xbd7a741a	-0.06114588
81	0xbb50f870	-0.0031886362
82	0xbd9afc60	-0.07567668
83	0x3d9048a2	0.070451036
84	0xbcade8fe	-0.021229263
85	0xba437991	-0.00074567745
86	0xbda2f64f	-0.07957136
87	0x3c0d512b	0.008625309
88	0x3dc6a5c4	0.09699586
89	0xbcb088c1	-0.021549584
90	0x3ca4fe56	0.020140808
91	0x3d6cacd2	0.057782
92	0xb8f3307e	-0.00011596175
93	0x3d9c8cbd	0.07644031
94	0x3ca2b96d	0.019863809
95	0x3dc7ad24	0.09749821
96	0x3ce3d30a	0.027810592
97	0x3b88347b	0.004156647
98	0x3bb258e9	0.005442728
99	0x3dcc017b	0.0996122

decoder.linear1.weight f4 [32, 4]
0	0xbef030ca	-0.46912223
1	0xbd2bc51f	-0.041936036
2	0x3eaba546	0.3352453
3	0xbe222500	-0.15834427
4	0x3e3a45c6	0.18190679
5	0x3e32794f	0.17429088
6	0xbeb0972c	-0.34490335
7	0x3e04d892	0.1297324
8	0x3ebcfc98	0.36911464
9	0xbbe0f0de	-0.006864651
10	0x3ebe716c	0.3719591
11	0x3dfe277f	0.12409877
12	0xbef80ad0	-0.4844575
13	0x3c87fe00	0.016600609
14	0x3e85c7f3	0.26129112
15	0xbefa2d70	-0.4886279
16	0xbee9a784	-0.45635617
17	0x3a816400	0.0009871721
18	0x3e5bbe88	0.214594
19	0xbeea94fe	-0.45816797
20	0x3f0c8e29	0.5490442
21	0xbc10abe5	-0.008830045
22	0xbe417224	-0.18891197
23	0xbe5de9e8	-0.2167126
24	0xbea5f917	-0.32416603
25	0x3c03323a	0.00800758
26	0x3f11fb6b	0.5702426
27	0xbdd5ff9c	-0.10449144
28	0xbe55a0ba	-0.20862094
29	0xbe7b86bc	-0.24563116
30	0x3eae25d1	0.34013227
31	0xbe68b2ae	-0.22724411
32	0xbef03ef8	-0.4692304
33	0xbe5b24e1	-0.21400787
34	0x3e0fb6ce	0.14034578
35	0x3d9207d7	0.071304016
36	0x3ea83f95	0.3286101
37	0x3eb046dd	0.34429064
38	0xbeeea260	-0.46608257
39	0x3f035f39	0.51317173
40	0x3e09c890	0.13455415
41	0x3ed0c780	0.40777206
42	0x3f17c725	0.59288245
43	0xbdfd1599	-0.12357635
44	0xbc79ea13	-0.015253562
45	0xbebfd149	-0.3746436
46	0x3e5de2f0	0.21668601
47	0x3bbaf512	0.005705484
48	0xbed16eb9	-0.40904787
49	0x3ef4cf91	0.4781461
50	0x3db58e2d	0.088650085
51	0x3d21e8bd	0.039528597
52	0xbf04c71f	-0.51866335
53	0xbd193e0f	-0.0374127
54	0x3e8ad500	0.2711563
55	0xbeceeace	-0.40413517
56	0x3e838889	0.25690106
57	0x3e9f97f0	0.31170607
58	0xbead4989	-0.33845165
59	0xbe11c75c	-0.14236206
60	0xbe29a270	-0.16565871
61	0x3cd9c0f0	0.026581258
62	0x3ec93f86	0.39306277
63	0xbeea04ce	-0.4570679
64	0xbc7f8320	-0.0155952275
65	0xbeb8dd39	-0.3610628
66	0xbf05af48	-0.5222058
67	0xbe46e1ec	-0.1942212
68	0x3ed7b73a	0.42131978
69	0x3e803b44	0.25045216
70	0x3f1e43a3	0.61821955
71	0xbeb11f32	-0.34594113
72	0xbea64ec7	-0.32481977
73	0xbe85aeb9	-0.26109865
74	0xbddc2c38	-0.107506216
75	0x3ef75ca2	0.4831286
76	0xbd8e15cb	-0.069377504
77	0x3ec752bc	0.3893031
78	0xbee9ce73	-0.4566532
79	0x3e962f93	0.2933317
80	0xbb71f0e3	-0.0036917261
81	0x3eb5901d	0.35461512
82	0xbe89aed8	-0.26891208
83	0x3e6b80b5	0.22998317
84	0xbef8d8b2	-0.48602825
85	0x3d36b036	0.04460164
86	0xbe6c0320	-0.23048067
87	0x3f1873eb	0.59551877
88	0xbca37b78	-0.019956335
89	0xbd3fbc53	-0.04681046
90	0xbed3cd65	-0.4136764
91	0x3eed0260	0.46290874
92	0x3dca6472	0.0988244
93	0x3e49efd4	0.19720393
94	0x3ef82fbe	0.48473924
95	0xbebdd0a4	-0.37073243
96	0x3eafc44f	0.3432946
97	0xbe7ad1e7	-0.24494134
98	0x3f09d665	0.53842765
99	0xbc37a7e4	-0.011209462
100	0x3ebb5807	0.36590597
101	0xbe2deedd	-0.1698565
102	0xbc71bc7d	-0.014754412
103	0x3c7b4836	0.015337041
104	0x3c43accc	0.011943053
105	0x3cf23b43	0.029569274
106	0xbea5248a	-0.3225444
107	0xbed30b0b	-0.41219363
108	0xbbae8880	-0.0053263307
109	0xbee78642	-0.45219618
110	0x3e88feed	0.26756993
111	0xbed73482	-0.42032248
112	0xbe7ac0c6	-0.244876
113	0x3dfd74ae	0.123757705
114	0xbebd95c8	-0.37028337
115	0x3e8bfb7a	0.273403
116	0x3d0531d3	0.03251822
117	0xbde1289e	-0.10994075
118	0xbea358ad	-0.31903592
119	0x3f21c304	0.63188195
120	0xbecc456e	-0.3989672
121	0x3e0198f0	0.12655997
122	0xbebd3dba	-0.36961156
123	0xbec13dcc	-0.3774246
124	0x3e8569cd	0.26057282
125	0x3dfad94c	0.12248477
126	0x3eb0316e	0.34412712
127	0x3e8c8913	0.2744833

decoder.linear1.bias f4 [32]
0	0xbdf0d3d2	-0.117591515
1	0xbc4971b8	-0.012295179
2	0x3ded653b	0.11591574
3	0xbef1fb22	-0.47261912
4	0xbee26aba	-0.4422205
5	0x3ebdfd0c	0.37107122
6	0x3e54ac19	0.20768775
7	0x3eb722c7	0.3576872
8	0xbe470bd2	-0.19438103
9	0x3e40c625	0.18825586
10	0xbebb5e61	-0.36595443
11	0xbe36cbf7	-0.17851244
12	0xbea3aecc	-0.31969297
13	0xbdeb347f	-0.11484622
14	0xbe73c739	-0.23806466
15	0x3ecec040	0.4038105
16	0x3efd9824	0.49530137
17	0xbdc8f8d4	-0.09813085
18	0x3ea219ac	0.3166021
19	0xbe2b602f	-0.1673591
20	0x3b09e47f	0.0021040735
21	0x3caec5eb	0.021334609
22	0x3d1609fe	0.036630623
23	0x3e8daebc	0.27672374
24	0x3eb364f9	0.35037974
25	0x3e9fe5aa	0.31229907
26	0x3ec0b12e	0.37635177
27	0xbee0ee36	-0.4393174
28	0x3eda0ca5	0.42587772
29	0x3e834fc0	0.25646782
30	0xbefa9562	-0.48942095
31	0xbdce18aa	-0.10063298

decoder.linear2.weight f4 [10, 32]
0	0xbe187dc4	-0.14891726
1	0xbdb11343	-0.08646252
2	0x3d9a77d0	0.07542384
3	0x3cc86c35	0.02446566
4	0x3e18e077	0.14929377
5	0xbe5eff61	-0.21777107
6	0xbe6bd1dc	-0.23029274
7	0xbe6218f3	-0.2207983
8	0xbd745273	-0.059648942
9	0x3e10d8aa	0.14145151
10	0xbd126e68	-0.035749823
11	0xbe026ca5	-0.12736757
12	0x3e42427c	0.18970674
13	0xbe1d9aed	-0.15391131
14	0x3e0a1abb	0.1348676
15	0xbe37290c	-0.17886752
16	0xbe6b8b77	-0.2300242
17	0xbe70e42a	-0.23524538
18	0x3e08a4bf	0.13344096
19	0x3e41ae23	0.18914084
20	0x3e4e8129	0.20166458
21	0x3ddd4efd	0.108060814
22	0x3e4a2d5f	0.1974387
23	0xbc8fcd3c	-0.017553918
24	0xbe434f65	-0.19073255
25	0xbcb9e4c7	-0.022692097
26	0xbe48290e	-0.19546911
27	0xbc5836b7	-0.013196639
28	0x3e2cd7df	0.16879223
29	0xbe27227f	-0.16321753
30	0x3db58166	0.088625714
31	0x3ded5d85	0.11590103
32	0x3d91331c	0.070898265
33	0x3e3fc6f1	0.18728234
34	0xbdbde3f6	-0.09271996
35	0x3d8db5ee	0.06919466
36	0x3e2e283a	0.17007533
37	0x3da6a895	0.08137623
38	0xbe50815e	-0.2036185
39	0xbdd52ad4	-0.104085594
40	0xbd945d18	-0.07244319
41	0x3e043d79	0.12914075
42	0xbd6b5df9	-0.057462666
43	0xbc71b13d	-0.01475173
44	0x3e3a9942	0.18222526
45	0x3e12fce0	0.14354277
46	0xbe1ec902	-0.15506366
47	0xbe233c62	-0.15941003
48	0xbe76d87b	-0.24106018
49	0xbe4f8f1c	-0.20269436
50	0x3da49be2	0.08037545
51	0x3e83c03b	0.25732598
52	0x3e503898	0.20334089
53	0x3dbeaae2	0.09309937
54	0x3eaa0d71	0.3321338
55	0xbde17f83	-0.11010649
56	0xbe171bfb	-0.14756767
57	0xbe7c71e2	-0.24652818
58	0xbe401e1a	-0.18761483
59	0xbe27f6d1	-0.16402747
60	0xbd3221e2	-0.043489344
61	0xbd46e338	-0.048556536
62	0x3d2e176a	0.0425028
63	0x3e10e512	0.14149883
64	0xbd714d5c	-0.058911666
65	0xbd0b621c	-0.03402911
66	0xbdeacb5e	-0.114645705
67	0xbde6d87f	-0.11271762
68	0x3defac54	0.11702791
69	0xbe248067	-0.16064607
70	0x3d6a09c2	0.057138212
71	0xbe69ea52	-0.22843292
72	0x3dcf0807	0.10108953
73	0x3e04bc06	0.1296235
74	0xbe51f12f	-0.2050216
75	0xbd017f39	-0.03161547
76	0x3e9cd316	0.30629796
77	0x3d45deb1	0.04830808
78	0x3e3ddab8	0.18540466
79	0xbdd75cc8	-0.105157435
80	0x3c7a9899	0.015295171
81	0x3d2fa614	0.042882994
82	0x3cfa9f6f	0.030593602
83	0x3e0c4d9a	0.13701478
84	0x3e6102df	0.21973751
85	0x3e4617c0	0.19344997
86	0x3e87d341	0.2652836
87	0xbe71e970	-0.23624206
88	0xbdaeb05e	-0.08529733
89	0xbe81ab52	-0.2532602
90	0xbe2bd9e2	-0.16782334
91	0x3ce5033d	0.027955646
92	0x3c58b825	0.013227497
93	0x3e43d510	0.19124246
94	0x3db63337	0.08896487
95	0x3d7f2308	0.062289268
96	0xbd8f9c89	-0.070122786
97	0xbca1077b	-0.019656887
98	0xbdba6a77	-0.09102338
99	0xbe1e3fea	-0.15454069
100	0xbd598c26	-0.05311217
101	0xbdd658d0	-0.104661584
102	0xbe59639c	-0.21229404
103	0xbd7adb38	-0.06124422
104	0xbc1bee80	-0.009517312
105	0xbc152ac4	-0.009104434
106	0x3d9b604c	0.075867265
107	0xbe31c374	-0.17359716
108	0x3e9e66e9	0.3093789
109	0x3d56c45d	0.05243336
110	0xbbf38466	-0.0074315546
111	0xbd84804e	-0.06469785
112	0xbe1dd7c2	-0.15414336
113	0x3ba0bdbb	0.00490543
114	0xbc915fa0	-0.017745793
115	0x3ea1d62e	0.3160872
116	0x3e14b118	0.14520681
117	0x3e728e4e	0.23687097
118	0x3eb4650e	0.3523335
119	0xbe3e10ca	-0.18561092
120	0xbe0958c1	-0.13412763
121	0xbe0056fc	-0.12533182
122	0xbcba2eb6	-0.022727352
123	0x3d6bb203	0.057542812
124	0x3e2570e4	0.16156346
125	0x3e584b4b	0.21122472
126	0x3e063445	0.13105877
127	0xbd0fc7ff	-0.03510284
128	0x3cd40465	0.025881002
129	0x3d783f2a	0.060607113
130	0xbde6bf98	-0.11267012
131	0xbe12121c	-0.1426472
132	0xbd364189	-0.044496093
133	0xbddbd774	-0.10734454
134	0xbe67ea59	-0.2264799
135	0x3d32ed45	0.04368331
136	0xbdae15d9	-0.08500261
137	0x3e0a8a80	0.13529396
138	0xbd960e13	-0.07326903
139	0xbdecdaaf	-0.11565148
140	0x3e9b26e9	0.30303124
141	0x3e0be135	0.13660128
142	0x3df70819	0.120620914
143	0xbe48489b	-0.19558947
144	0xbe7bb7d3	-0.24581842
145	0xbd0dd274	-0.034624532
146	0x3db1a5c7	0.08674198
147	0x3e23ecd2	0.16008309
148	0x3d5fad43	0.054608595
149	0x3ea0198e	0.31269497
150	0x3ec108b0	0.3770194
151	0xbe378d9e	-0.17925116
152	0xbd96ec07	-0.073692374
153	0xbe41f40e	-0.18940756
154	0xbb2acde4	-0.0026062662
155	0xbda7cb6b	-0.08193096
156	0x3d4048b5	0.04694434
157	0x3e138b33	0.14408569
158	0x3c4c6a69	0.012476542
159	0xbd56328b	-0.052294295
160	0xbe0fd2e1	-0.14045288
161	0x3cc2b6ea	0.02376886
162	0x3dd5ac5e	0.10433267
163	0xbe2851e3	-0.16437487
164	0xbdfcaf0e	-0.123380765
165	0x3d65f034	0.05613728
166	0xbd8603bf	-0.06543683
167	0xbe5f33d0	-0.21797109
168	0x3d1215c0	0.035665274
169	0x3d97d5e8	0.07413846
170	0xbe368f85	-0.17828186
171	0x3d16998a	0.03676752
172	0x3e6c50f0	0.2307775
173	0xbe2f5813	-0.17123441
174	0xbd219bf5	-0.039455373
175	0xbd96906e	-0.073517665
176	0xbe5a7d81	-0.21336938
177	0xbe6a78b5	-0.22897609
178	0x3e960fdb	0.29308972
179	0x3e97fef1	0.29686692
180	0x3d4c6d71	0.04990906
181	0x3e2e2f1c	0.17010158
182	0x3ead9d4c	0.3390907
183	0xbdfea380	-0.12433529
184	0xbe852331	-0.2600341
185	0xbe1d2400	-0.15345764
186	0xbe6919b8	-0.22763717
187	0xbe2757a6	-0.16342029
188	0x3dbb8c62	0.09157635
189	0x3d99a064	0.07501295
190	0x3e11642b	0.14198367
191	0x3d056be1	0.032573584
192	0xbd8fe228	-0.07025558
193	0x3e1ff9fe	0.15622708
194	0xbdd0f771	-0.10203446
195	0x3dd24200	0.10266495
196	0x3e241053	0.16021852
197	0x3becb718	0.007223975
198	0xbe53da39	-0.20688714
199	0x3d2a49de	0.04157435
200	0xbde59593	-0.1121017
201	0x3e4bc099	0.19897689
202	0xbe310815	-0.1728824
203	0xbe119703	-0.14217763
204	0x3de660f4	0.11248961
205	0xbd9a3f9f	-0.07531666
206	0xbd988871	-0.07447899
207	0xbe0329d6	-0.12808928
208	0xbe3adc67	-0.1824814
209	0xbe44a3d2	-0.19203117
210	0x3e93e23e	0.28883547
211	0x3e425b63	0.18980174
212	0x3e060bd0	0.13090444
213	0x3e24c5d9	0.16091098
214	0x3e38cbbd	0.1804647
215	0xbd28105a	-0.04103122
216	0xbe8aed62	-0.27134234
217	0xbe46abb2	-0.19401434
218	0xbe08274a	-0.13296238
219	0xbdce9a1d	-0.100879885
220	0x3e031165	0.12799604
221	0x3cb3a0f0	0.021927327
222	0xbdb005fe	-0.08594893
223	0x3de5173d	0.11186073
224	0x3cafc33c	0.0214554
225	0x3e160995	0.14652093
226	0xbe16e19c	-0.147345
227	0xbda38933	-0.07985153
228	0xbd097b28	-0.033564717
229	0xbd990edb	-0.074735366
230	0x3cc3e8f6	0.023914795
231	0xbddb0728	-0.10694724
232	0xbc4e3462	-0.012585731
233	0x3e5f18ed	0.21786852
234	0xbd6270c3	-0.05528332
235	0x3de04941	0.10951472
236	0x3e57cdba	0.21074572
237	0xbd19d12a	-0.03755299
238	0xbd4ea1b8	-0.050447196
239	0xbe199e77	-0.15001856
240	0xbd623a8a	-0.05523161
241	0xbe2d9a85	-0.16953476
242	0x3e57e0fc	0.21081918
243	0x3dca6f42	0.09884502
244	0xbd157141	-0.03648496
245	0x3e80ddd6	0.25169247
246	0x3e38dcf7	0.18053041
247	0xbe7c0869	-0.24612583
248	0xbdb435d7	-0.08799332
249	0x3ac2a8f9	0.0014851383
250	0xbdb814e6	-0.08988361
251	0xbe3b68bd	-0.18301673
252	0x3dfc7c24	0.123283654
253	0x3e76f3e5	0.24116476
254	0x3dcd8c44	0.10036519
255	0xbde09919	-0.10966701

decoder.linear2.bias f4 [10]
0	0x3c121851	0.00891693
1	0x3d034055	0.032043774
2	0xbda54557	-0.08069866
3	0xbdfda4c6	-0.12384944
4	0xbd503b55	-0.050837833
5	0xbd8b2632	-0.067943946
6	0xbdbff205	-0.093723334
7	0xbe3ebd66	-0.18626937
8	0xbe04a742	-0.12954429
9	0xbdc158c9	-0.094407625

exp_avg f4 [1, 1, 2, 50]
0	0x3ac50dd4	0.0015034028
1	0x3b36de67	0.0027903558
2	0x3b5a7d85	0.0033338976
3	0x3adf5855	0.0017039875
4	0x3b2ea6c5	0.0026649695
5	0x3c11a686	0.0088898
6	0x3c2160d1	0.009849743
7	0x3c340c89	0.010989317
8	0x3c4740a5	0.012161409
9	0x3c76a61a	0.01505425
10	0x3c6a9087	0.014316685
11	0x3c490da5	0.0122713195
12	0x3c6710d1	0.01410313
13	0x3c5ff89e	0.013670115
14	0x3c36c915	0.01115634
15	0x3c4880db	0.012237753
16	0x3c796cea	0.015223721
17	0x3c9494bd	0.01813733
18	0x3c9dc9fa	0.019261349
19	0x3ca37ca3	0.019956892
20	0x3cb18a70	0.021672457
21	0x3cd9a089	0.026565807
22	0x3cd70360	0.026246727
23	0x3cb2cbcc	0.021825694
24	0x3ca3d81b	0.020000508
25	0x3c86afad	0.01644119
26	0x3c66ae0b	0.014079581
27	0x3b84386c	0.0040350463
28	0x3af7802e	0.0018882805
29	0xbbab7155	-0.005232016
30	0xbc6ab4d7	-0.014325342
31	0xbc99f731	-0.018794628
32	0xbcc4dfd2	-0.024032507
33	0xbce1487a	-0.02750038
34	0xbcc62ca7	-0.024191214
35	0xbcb42db1	-0.021994444
36	0xbca039f6	-0.019558888
37	0xbc211ffd	-0.009834287
38	0xbc132440	-0.008980811
39	0xbc12e2be	-0.008965192
40	0xbbb5c2d5	-0.0055469074
41	0xba5b4f04	-0.0008365961
42	0x3ae3230d	0.0017329172
43	0x3bb6491f	0.005562916
44	0x3be690a4	0.0070362855
45	0x3c3df622	0.011594327
46	0x3c762748	0.015024014
47	0x3c9d9e13	0.019240415
48	0x3cf15574	0.029459693
49	0x3d03b76f	0.032157358
50	0xbc859a3e	-0.0163089
51	0xbc8aaa4c	-0.016926907
52	0xbc7c8542	-0.0154126305
53	0xbc7c62e1	-0.015404434
54	0xbc5a7af9	-0.013334983
55	0xbc1d1b23	-0.009588989
56	0xbc31ba60	-0.010847658
57	0xbc0921d9	-0.008369886
58	0xbbe76e8f	-0.00706274
59	0xbb538c26	-0.003227958
60	0xbb69536a	-0.0035602697
61	0xbbbd1269	-0.005770017
62	0xbba34949	-0.0049831015
63	0xbbaa165a	-0.005190653
64	0xbb7405f8	-0.0037235003
65	0x3b0bd1c9	0.0021334758
66	0x3b6ff7dc	0.0036616242
67	0x3b9737df	0.0046148147
68	0x3be7ce99	0.007074189
69	0x3c13eac0	0.009028137
70	0x3c1cd3a5	0.009571944
71	0x3c317ff8	0.010833733
72	0x3c3e5773	0.011617529
73	0x3c030696	0.007997176
74	0x3ba48705	0.0050209784
75	0x3b67367f	0.0035280285
76	0xbb176af6	-0.0023104525
77	0xbbcdaaab	-0.0062764487
78	0xbbf800e3	-0.007568465
79	0xbc970b1b	-0.018437913
80	0xbcf91eab	-0.030410131
81	0xbd196679	-0.03745124
82	0xbd32dfc5	-0.043670435
83	0xbd4bb2e7	-0.04973116
84	0xbd4b2dff	-0.049604412
85	0xbd34033a	-0.04394839
86	0xbd21366b	-0.039358538
87	0xbd049115	-0.032364924
88	0xbd0355af	-0.032064136
89	0xbcf03db1	-0.029326292
90	0xbcd97c40	-0.026548505
91	0xbcac9e2b	-0.021071514
92	0xbc49a8c2	-0.012308301
93	0xbbe2d012	-0.0069217766
94	0xbb9efefd	-0.0048521743
95	0xbad79be2	-0.0016449655
96	0x3b0a8965	0.0021139022
97	0x3c181611	0.009282605
98	0x3c8923a8	0.016740635
99	0x3c7cbf3d	0.015426454

exp_avg_sq f4 [1, 1, 2, 50]
0	0x3c745ffb	0.014915462
1	0x3c515d30	0.012778565
2	0x3c3bcecf	0.011462881
3	0x3c2e0a19	0.010622525
4	0x3c2a1799	0.010381603
5	0x3c2671ad	0.010158938
6	0x3c24b6bd	0.010053334
7	0x3c1caa6d	0.009562117
8	0x3c22e57a	0.009942407
9	0x3c3669b7	0.011133603
10	0x3c4515bd	0.012029109
11	0x3c47d781	0.012197376
12	0x3c4f54ed	0.012654525
13	0x3c508431	0.012726829
14	0x3c411724	0.011785302
15	0x3c40ac04	0.011759762
16	0x3c34ee16	0.011043092
17	0x3c20d1a2	0.009815605
18	0x3c1ff76c	0.00976358
19	0x3c1b3e0f	0.009475245
20	0x3c22d18a	0.009937653
21	0x3c2af5ec	0.010434609
22	0x3c3cdb17	0.011526844
23	0x3c504733	0.012712288
24	0x3c64e924	0.013971601
25	0x3c7dd483	0.015492561
26	0x3c8d4a2b	0.01724728
27	0x3c9a64f7	0.018846972
28	0x3cad9061	0.02118701
29	0x3cc2d8a7	0.023784949
30	0x3ccfb626	0.02535541
31	0x3cda9cb9	0.02668606
32	0x3ce175d2	0.027522001
33	0x3ceed674	0.029154994
34	0x3cf5497d	0.029942269
35	0x3cec48a6	0.028843235
36	0x3ceb446d	0.028719151
37	0x3ce975c6	0.028498542
38	0x3cf12295	0.029435435
39	0x3cf69cae	0.030104008
40	0x3cf9626c	0.030442439
41	0x3cf7d991	0.030255111
42	0x3cfcf289	0.030877369
43	0x3cff1330	0.031137079
44	0x3cf1e8ec	0.029530011
45	0x3ce7ed97	0.028311534
46	0x3cd64a3d	0.026158446
47	0x3cbf9766	0.023387622
48	0x3cbb8a98	0.022893235
49	0x3cb033dc	0.021509103
50	0x3c1034a3	0.008801612
51	0x3beeab96	0.007283638
52	0x3bc502b2	0.006012284
53	0x3b9d6285	0.004803004
54	0x3b830bd5	0.003999213
55	0x3b5b7741	0.003348783
56	0x3b409498	0.0029385444
57	0x3b304d33	0.0026901483
58	0x3b33381d	0.0027346679
59	0x3b4fa5c4	0.0031684497
60	0x3b5bec49	0.0033557585
61	0x3b635da6	0.003469327
62	0x3b4a76d7	0.0030893588
63	0x3b2914cd	0.0025799752
64	0x3b02e50e	0.0019972953
65	0x3b0bdfb8	0.0021343064
66	0x3afd8ccc	0.0019344329
67	0x3b0ee264	0.002180242
68	0x3b3d9f4a	0.0028934055
69	0x3b78e16c	0.0037976159
70	0x3bb0525d	0.005380912
71	0x3bcdf75b	0.0062855906
72	0x3c0062af	0.007836028
73	0x3c1e9ae8	0.009680487
74	0x3c51e86f	0.012811764
75	0x3c800d4d	0.015631342
76	0x3c9f5aa0	0.019452393
77	0x3cad564b	0.021159312
78	0x3cc95933	0.024578666
79	0x3ce14bb2	0.027501915
80	0x3cf207ee	0.029544797
81	0x3cf22563	0.029558843
82	0x3cfbc809	0.030735033
83	0x3d070c5f	0.032970782
84	0x3d0bd32c	0.034136936
85	0x3d03d03e	0.032181017
86	0x3d0057b1	0.03133363
87	0x3d024261	0.031801585
88	0x3d060599	0.032720182
89	0x3d07a0fb	0.033112507
90	0x3d06d8f7	0.032921758
91	0x3d0949c8	0.03351763
92	0x3d0ad041	0.033890013
93	0x3d0bcf86	0.034133457
94	0x3d04cc0e	0.032421164
95	0x3cf72ecd	0.030173684
96	0x3ce69ff2	0.02815244
97	0x3ccebbbd	0.025236005
98	0x3cc55406	0.024087917
99	0x3cb49b8a	0.022046823

exp_avg f4 [1, 1, 2, 50]
0	0x3d079200	0.03309822
1	0x3cd15129	0.025551395
2	0x3c9621cf	0.018326668
3	0x3c5f058e	0.013612164
4	0x3c87c736	0.016574483
5	0x3c9fa811	0.01948932
6	0x3c463e21	0.012099774
7	0x3b686a33	0.003546369
8	0x398dcd80	0.00027046725
9	0xba6f28ee	-0.00091232255
10	0x3a2c642c	0.0006576206
11	0xbb7e7d69	-0.0038832074
12	0xbc17559a	-0.009236718
13	0xbc2f4f0c	-0.010699999
14	0xbc2626d9	-0.010141098
15	0xbc0fc55e	-0.008775083
16	0xbba0fbd8	-0.0049128346
17	0xbb17ff26	-0.0023192852
18	0xb9484e90	-0.00019102753
19	0x3ab61512	0.0013891777
20	0x3b5d9db3	0.003381592
21	0x3b7a3b0b	0.0038182165
22	0x3b5de896	0.0033860556
23	0x3b615544	0.0034383098
24	0x3b0c140a	0.002137425
25	0x3aadfcd9	0.0013274207
26	0x39e6954f	0.00043980262
27	0x390e952f	0.0001359775
28	0x389ab481	7.376914e-05
29	0x3b109b65	0.0022065279
30	0x3b81d7a0	0.003962472
31	0x3b9d1b33	0.004794502
32	0x3c524958	0.012834869
33	0x3c865da2	0.01640207
34	0x3c92e9dc	0.017933778
35	0x3cae6f73	0.021293378
36	0x3cca4230	0.024689764
37	0x3ca9cd14	0.020727672
38	0x3c0c9bcf	0.00858207
39	0xbb083f8b	-0.0020789828
40	0xbaea7ee0	-0.0017890595
41	0x3a3f6178	0.0007300596
42	0x3a31f937	0.000678915
43	0xbae9cd6e	-0.0017837712
44	0xbb8e9ee2	-0.0043524364
45	0xbbc38adc	-0.005967481
46	0xbc43242f	-0.011910482
47	0xbc663ea5	-0.014053022
48	0xbc42169d	-0.011846212
49	0xbc5861bc	-0.013206895
50	0xbca758f1	-0.020428153
51	0xbc99c7eb	-0.018772086
52	0xbc8bd9b9	-0.017071592
53	0xbc54bd3c	-0.01298457
54	0xbbedbb34	-0.0072549824
55	0xbbe70da4	-0.0070511866
56	0xbc3e58f3	-0.011617887
57	0xbc414971	-0.011797295
58	0xbc35ecde	-0.011103837
59	0xbc50c1af	-0.01274149
60	0xbc2d30e1	-0.010570736
61	0xbc04c155	-0.008102735
62	0xbb9b5f2e	-0.004741571
63	0xbbcda08b	-0.0062752417
64	0xbc17a2c5	-0.009255116
65	0xbc0a0cf4	-0.00842594
66	0xbc0e740b	-0.008694659
67	0xbc12b753	-0.008954841
68	0xbc0c15b3	-0.008550095
69	0xbc009fea	-0.0078506265
70	0xbbeb3421	-0.007177845
71	0xbc0f58ca	-0.008749196
72	0xbc1cb79d	-0.009565261
73	0xbc26323c	-0.010143813
74	0xbc2010f7	-0.00976967
75	0xbc29fa69	-0.010374644
76	0xbc556dfb	-0.01302671
77	0xbc811d5d	-0.015761072
78	0xbca5415d	-0.02017277
79	0xbcc5e971	-0.024159165
80	0xbcbb2827	-0.022846295
81	0xbcb6b8ac	-0.022304855
82	0xbcc31649	-0.023814337
83	0xbcee9231	-0.029122444
84	0xbd102c2a	-0.035198368
85	0xbd1663d1	-0.036716286
86	0xbd162350	-0.03665477
87	0xbd0462d2	-0.032320805
88	0xbce5671a	-0.028003264
89	0xbcd7f47e	-0.0263617
90	0xbce1558b	-0.02750661
91	0xbcd97d20	-0.026548922
92	0xbceea0a3	-0.029129332
93	0xbd070fc7	-0.03297403
94	0xbd163102	-0.03666783
95	0xbd24fe28	-0.040281445
96	0xbd24e1bd	-0.040254343
97	0xbd25aab6	-0.040446006
98	0xbd38df1c	-0.04513465
99	0xbd4bc714	-0.049750403

exp_avg_sq f4 [1, 1, 2, 50]
0	0x3cc48e9a	0.023993779
1	0x3cb7555d	0.022379572
2	0x3caccaa3	0.021092718
3	0x3ca3a17f	0.019974468
4	0x3c98c82d	0.018650139
5	0x3c8f69ad	0.017506445
6	0x3c82bb05	0.015958318
7	0x3c62132e	0.013798518
8	0x3c4757a3	0.01216689
9	0x3c358ffa	0.01108169
10	0x3c2381cb	0.0099796755
11	0x3c0c8338	0.008576207
12	0x3bf701d2	0.007538059
13	0x3be0ae12	0.0068566883
14	0x3bcbeccd	0.006223297
15	0x3bbc601c	0.005748762
16	0x3bb1566d	0.005411914
17	0x3ba430fe	0.005010723
18	0x3b98f290	0.0046675876
19	0x3b98072f	0.004639528
20	0x3b96caaa	0.004601796
21	0x3b9b3119	0.0047360775
22	0x3ba5bffe	0.0050582876
23	0x3bb8964d	0.0056331516
24	0x3bd39610	0.006457098
25	0x3beb3583	0.00717801
26	0x3c073c95	0.00825419
27	0x3c17e321	0.00927046
28	0x3c29c80b	0.010362635
29	0x3c37cafe	0.011217831
30	0x3c43f7d5	0.011960943
31	0x3c507c9f	0.0127250245
32	0x3c607ae0	0.013701171
33	0x3c7bbe54	0.015365202
34	0x3c90922a	0.017647821
35	0x3ca7244d	0.020403052
36	0x3cc269de	0.023732122
37	0x3cdacb68	0.02670832
38	0x3cfd7e6d	0.030944074
39	0x3d0fcd06	0.035107635
40	0x3d201378	0.039081067
41	0x3d2f0fe3	0.04273976
42	0x3d428a2d	0.047495056
43	0x3d4d53b5	0.050128657
44	0x3d59cfd7	0.053176727
45	0x3d6cb3de	0.057788722
46	0x3d8266a5	0.06367234
47	0x3d891ebf	0.066953175
48	0x3d9029bb	0.070392095
49	0x3d8e75b2	0.06956042
50	0x3ce1b990	0.027554303
51	0x3cd4db01	0.025983335
52	0x3cd4a7d6	0.025958937
53	0x3cd1c6c9	0.025607483
54	0x3ccb4670	0.02481386
55	0x3cc20e05	0.023688326
56	0x3cae0f82	0.02124763
57	0x3c8867dd	0.016651088
58	0x3c5dd08d	0.013538492
59	0x3c32f463	0.010922524
60	0x3c181845	0.00928313
61	0x3c03958d	0.008031261
62	0x3c002d20	0.007823259
63	0x3bfd7f73	0.0077361404
64	0x3be3cce1	0.0069519137
65	0x3bd8e5a8	0.006619174
66	0x3bcd5572	0.0062662894
67	0x3ba3af0f	0.004995234
68	0x3b88a8ba	0.0041705044
69	0x3b746145	0.0037289422
70	0x3b5767f6	0.0032868362
71	0x3b411f27	0.002946803
72	0x3b3d4a33	0.0028883338
73	0x3b3cbfcc	0.0028800843
74	0x3b41aa67	0.002955103
75	0x3b50f094	0.0031881677
76	0x3b743930	0.0037265532
77	0x3b90a911	0.0044146855
78	0x3baf10a8	0.0053425618
79	0x3bcb72ef	0.0062087695
80	0x3bf11b4d	0.007357991
81	0x3c11bbcb	0.008894871
82	0x3c2b7272	0.010464298
83	0x3c4ca9d6	0.012491664
84	0x3c7c248d	0.015389574
85	0x3c9368bc	0.017994277
86	0x3cb04169	0.021515565
87	0x3cd1afbd	0.025596494
88	0x3cf005dd	0.02929967
89	0x3d038a55	0.032114346
90	0x3d110558	0.035405487
91	0x3d182f49	0.03715447
92	0x3d1fd46c	0.03902094
93	0x3d2394ef	0.039936956
94	0x3d2f259f	0.042760488
95	0x3d363268	0.044481665
96	0x3d3bbb24	0.045832768
97	0x3d3810c9	0.044937883
98	0x3d3eee4a	0.04661397
99	0x3d397434	0.045276836

exp_avg f4 [32, 4]
0	0x35fcafe0	1.882665e-06
1	0x36b95f47	5.5245214e-06
2	0x38264bc8	3.964806e-05
3	0x380da650	3.377191e-05
4	0xba847ea5	-0.0010108544
5	0xbb4aea97	-0.003096258
6	0xba860610	-0.0010225195
7	0xbb55299d	-0.0032526024
8	0x3a7f72a4	0.0009744561
9	0x3b2cb289	0.0026351532
10	0x3a83380a	0.0010011208
11	0x3b2e4ce8	0.0026596133
12	0x00000000	0.0
13	0x00000000	0.0
14	0x80000004	-6e-45
15	0x00000000	0.0
16	0x00000000	0.0
17	0x00000000	0.0
18	0x00000000	0.0
19	0x00000000	0.0
20	0x3a85ffe9	0.0010223362
21	0x3b1fcc5f	0.002438329
22	0x3a88b580	0.0010430068
23	0x3b17c369	0.0023157245
24	0x3b2acdb8	0.002606256
25	0x3bd95705	0.006632688
26	0x3b2ed7af	0.002667885
27	0x3bd06fdf	0.0063609923
28	0x3908027e	0.00012970899
29	0xb91ebcb9	-0.00015138359
30	0x372310e9	9.719494e-06
31	0xb9e16be5	-0.00042995732
32	0x80000004	-6e-45
33	0x00000004	6e-45
34	0x00000004	6e-45
35	0x00000004	6e-45
36	0xbaf98b33	-0.0019038677
37	0xbbad143d	-0.0052819536
38	0xbb040683	-0.0020145483
39	0xbbabbdec	-0.0052411463
40	0x3af7b8a9	0.0018899638
41	0x3bb723db	0.005588991
42	0x3af60d03	0.0018772188
43	0x3bb43fd8	0.005500775
44	0x00000004	6e-45
45	0x00000004	6e-45
46	0x00000004	6e-45
47	0x80000004	-6e-45
48	0xbbae1fef	-0.0053138654
49	0xbc23954b	-0.009984325
50	0xbbb35d4a	-0.0054737674
51	0xbc1980c7	-0.009369082
52	0x00000004	6e-45
53	0x80000004	-6e-45
54	0x00000004	6e-45
55	0x00000004	6e-45
56	0xb8a10ecd	-7.679835e-05
57	0xb9ad9674	-0.00033109228
58	0xb7b43d6a	-2.148627e-05
59	0xb99b26c4	-0.00029592786
60	0x3900b9ed	0.00012276294
61	0x3a85f99a	0.0010221482
62	0x38a2f188	7.769751e-05
63	0x3a70ea9e	0.0009190234
64	0x38814114	6.163321e-05
65	0xb94b4795	-0.00019386255
66	0x3911b783	0.00013896641
67	0xb8ff8692	-0.00012184413
68	0x3b11ff06	0.002227725
69	0x3ba2a9db	0.004964096
70	0x3b1dc339	0.002407266
71	0x3baaf6fc	0.005217431
72	0xbb2fbe16	-0.002681618
73	0xbbf4f8e9	-0.0074759615
74	0xbb34b030	-0.0027570836
75	0xbbf6c70b	-0.007531052
76	0xbb508b58	-0.0031821337
77	0xbc129a1a	-0.0089478735
78	0xbb4d43a4	-0.0031320835
79	0xbc05eb2b	-0.008173744
80	0xbaf9640e	-0.0019027011
81	0xbb94d1f2	-0.004541629
82	0xbb0800b8	-0.0020752382
83	0xbb883300	-0.0041564703
84	0xbbcc4c4d	-0.0062346817
85	0xbc51c35e	-0.012802927
86	0xbbdc6b15	-0.0067266324
87	0xbc547219	-0.012966656
88	0xbb9ab52a	-0.0047213035
89	0xbc46f9e0	-0.012144536
90	0xbb98af1c	-0.0046595465
91	0xbc3cdf5b	-0.0115278615
92	0x3b101519	0.0021985231
93	0x3baede8b	0.005336588
94	0x3b13884b	0.0022511657
95	0x3ba9608b	0.0051689795
96	0x3b18fb39	0.00233431
97	0x3ba7f39c	0.005125476
98	0x3b230095	0.0024872173
99	0x3ba5b207	0.005056623
100	0x3b1da091	0.0024052004
101	0x3ba3aa90	0.004994698
102	0x3b225e16	0.0024775318
103	0x3b9a350a	0.00470603
104	0xb925635f	-0.00015772645
105	0xb9f07c87	-0.00045869147
106	0x38cfe241	9.912672e-05
107	0xb95a8ab6	-0.00020841774
108	0x00000000	0.0
109	0x00000000	0.0
110	0x80000004	-6e-45
111	0x80000004	-6e-45
112	0xbaadac9d	-0.0013250295
113	0xbb7ec541	-0.0038874897
114	0xbabc1d07	-0.0014351913
115	0xbb7fb734	-0.003901911
116	0xbad77168	-0.0016436996
117	0xbb9c96c7	-0.0047787162
118	0xbae1fd5f	-0.0017241648
119	0xbba41388	-0.005007211
120	0x00000000	0.0
121	0x00000000	0.0
122	0x00000000	0.0
123	0x00000000	0.0
124	0xb9db8ae3	-0.00041874414
125	0xba286049	-0.0006423039
126	0xb9e49a77	-0.00043602634
127	0xb9be9dee	-0.0003635729

exp_avg_sq f4 [32, 4]
0	0x30d6051c	1.5572001e-09
1	0x321ebe8e	9.2401375e-09
2	0x3341ff7a	4.516867e-08
3	0x32d7ab9e	2.5107337e-08
4	0x37d687e3	2.5574065e-05
5	0x388012dc	6.1070285e-05
6	0x37dab13e	2.607016e-05
7	0x38800743	6.104868e-05
8	0x37d58d0c	2.5457259e-05
9	0x388a5301	6.5958135e-05
10	0x37db24ed	2.612403e-05
11	0x3889e869	6.575959e-05
12	0x00000000	0.0
13	0x00000000	0.0
14	0x2fdef8b6	4.0558285e-10
15	0x00000000	0.0
16	0x00000000	0.0
17	0x00000000	0.0
18	0x00000000	0.0
19	0x00000000	0.0
20	0x3811cd68	3.4761993e-05
21	0x38bb3c4f	8.928088e-05
22	0x3816b49d	3.5930996e-05
23	0x38bc0957	8.966278e-05
24	0x394a610d	0.00019300375
25	0x3a009e80	0.0004906431
26	0x39533111	0.00020140807
27	0x3a00d6bc	0.00049148104
28	0x3653e48b	3.157448e-06
29	0x36a11f24	4.801799e-06
30	0x3684da61	3.959329e-06
31	0x36ccdcc1	6.105373e-06
32	0x2d3ec727	1.084447e-11
33	0x2dfa2ceb	2.8441657e-11
34	0x30a7b2c0	1.2201653e-09
35	0x31848372	3.8566492e-09
36	0x390b3776	0.00013276734
37	0x39b61dc0	0.0003473591
38	0x390fc029	0.00013709128
39	0x39b55678	0.00034587434
40	0x38df8fe3	0.000106602696
41	0x39900d07	0.00027475526
42	0x38e685c3	0.0001099217
43	0x39910418	0.00027659605
44	0x31795089	3.6280048e-09
45	0x3066bb4a	8.3939666e-10
46	0x32e8c123	2.7096183e-08
47	0x32705af2	1.3990517e-08
48	0x3976bf97	0.00023531761
49	0x3a5c8f7f	0.00084137166
50	0x398624a2	0.00025585765
51	0x3a5acde4	0.000834672
52	0x2e02f35e	2.977473e-11
53	0x2dba9b58	2.1214738e-11
54	0x3027130a	6.07813e-10
55	0x2dc81242	2.2745476e-11
56	0x35c0afdb	1.4356295e-06
57	0x3708b193	8.147576e-06
58	0x3595cd8e	1.1161189e-06
59	0x36f5f623	7.330223e-06
60	0x386b673a	5.6124503e-05
61	0x38b48657	8.6080916e-05
62	0x38759dd7	5.855955e-05
63	0x38b8128e	8.77726e-05
64	0x3575164b	9.1302053e-07
65	0x368cf5e2	4.2009497e-06
66	0x35408a84	7.172714e-07
67	0x36db5483	6.536547e-06
68	0x3952f5bf	0.00020118708
69	0x39e2df87	0.0004327262
70	0x39594c99	0.00020723268
71	0x39e60ae7	0.0004387714
72	0x39133796	0.0001403972
73	0x39c97a2d	0.00038428736
74	0x391bf4ca	0.00014873143
75	0x39cbc8d2	0.000388688
76	0x39a795f9	0.0003196446
77	0x3a6cef4a	0.00090383424
78	0x39aec0c2	0.00033331482
79	0x3a6c044c	0.0009003326
80	0x39032593	0.00012507131
81	0x39b8eacb	0.0003527015
82	0x39090a34	0.00013069139
83	0x39b82da9	0.00035129234
84	0x3947f318	0.00019068678
85	0x3a2fd9cc	0.00067081745
86	0x39578344	0.00020552898
87	0x3a30aeba	0.00067399035
88	0x3a11b7af	0.0005558682
89	0x3ad5350c	0.001626642
90	0x3a183b6d	0.0005807195
91	0x3ad42b37	0.0016187195
92	0x39046aad	0.00012628241
93	0x39a2e34e	0.00031068403
94	0x39082eb6	0.00012987372
95	0x39a39031	0.00031197214
96	0x39161643	0.00014313408
97	0x39b994b9	0.00035396757
98	0x391b1c83	0.00014792573
99	0x39bc98b4	0.00035971927
100	0x390ab8e4	0.00013229583
101	0x39bd6883	0.00036126756
102	0x390fd6af	0.00013717519
103	0x39bd0a7d	0.00036056704
104	0x35aadcf2	1.273029e-06
105	0x3677e674	3.694001e-06
106	0x354b466e	7.572588e-07
107	0x3672997c	3.615015e-06
108	0x00000000	0.0
109	0x00000000	0.0
110	0x2ecad025	9.2228704e-11
111	0x2aedebef	4.226337e-13
112	0x383e7cb4	4.541567e-05
113	0x38f3eefc	0.00011631657
114	0x384113f6	4.6033376e-05
115	0x38f0ad28	0.00011476345
116	0x3886d56a	6.4293694e-05
117	0x39241283	0.00015647155
118	0x38886f53	6.505721e-05
119	0x3924a935	0.00015703293
120	0x00000000	0.0
121	0x00000000	0.0
122	0x00000000	0.0
123	0x00000000	0.0
124	0x3788bcf7	1.6300457e-05
125	0x38507e59	4.9708735e-05
126	0x378ec130	1.7017679e-05
127	0x384fc276	4.953375e-05

exp_avg f4 [32]
0	0x3865fff2	5.4836222e-05
1	0xbb0bd472	-0.0021336344
2	0x39c3d874	0.00037354568
3	0x80000004	-6e-45
4	0x00000000	0.0
5	0xba1b12ac	-0.0005915563
6	0xb851a2e5	-4.998119e-05
7	0xbb7a92a5	-0.003823438
8	0x00000004	6e-45
9	0xb88888bb	-6.5104534e-05
10	0x3b8de8a4	0.0043307114
11	0x00000004	6e-45
12	0xbbdff06c	-0.0068340804
13	0x00000004	6e-45
14	0xb952c817	-0.000201017
15	0xbb4158e5	-0.0029502448
16	0xbba83808	-0.0051336326
17	0x3b89b303	0.004202248
18	0xbaeacea0	-0.0017914362
19	0xbbbae851	-0.005703964
20	0x3aa6d3f3	0.0012727961
21	0xbb37ec5d	-0.0028064467
22	0x39f03067	0.0004581243
23	0xb65c54e5	-3.283197e-06
24	0xba3ad9b9	-0.000712778
25	0xba846f66	-0.0010104
26	0xbb85d5ec	-0.0040843394
27	0x80000004	-6e-45
28	0xb9b83394	-0.00035133644
29	0xbaeddf21	-0.0018148163
30	0x00000000	0.0
31	0xb8f9148e	-0.00011877074

exp_avg_sq f4 [32]
0	0x33361f60	4.2403713e-08
1	0x37e2b037	2.7023356e-05
2	0x356551e8	8.5428337e-07
3	0x2ef43403	1.11050745e-10
4	0x00000000	0.0
5	0x36ce213a	6.1431465e-06
6	0x361c46ae	2.3286952e-06
7	0x38c549f5	9.4074676e-05
8	0x308e3262	1.034618e-09
9	0x353f9c6d	7.1380674e-07
10	0x390559ea	0.00012717364
11	0x32672578	1.3454489e-08
12	0x39a2605f	0.0003097085
13	0x30a7c949	1.2208058e-09
14	0x3611d036	2.1727878e-06
15	0x38663a55	5.48906e-05
16	0x3977afb1	0.00023621206
17	0x39567667	0.00020452739
18	0x37f46e38	2.9138391e-05
19	0x39b8e089	0.00035262507
20	0x38af1202	8.3480045e-05
21	0x38c7d075	9.5278876e-05
22	0x383427ff	4.2952594e-05
23	0x36f4527c	7.281369e-06
24	0x3775536e	1.4622563e-05
25	0x37a74f40	1.9944855e-05
26	0x38ff70fa	0.00012180391
27	0x2dcfded1	2.3632126e-11
28	0x35923b93	1.0895186e-06
29	0x379d09b1	1.8720371e-05
30	0x00000000	0.0
31	0x37cad9b9	2.4181662e-05

exp_avg f4 [10, 32]
0	0x36cedba1	6.1648466e-06
1	0x3890e26b	6.908629e-05
2	0x37ca448f	2.4112202e-05
3	0x80000004	-6e-45
4	0x00000000	0.0
5	0x3ae52acb	0.0017484067
6	0x3a686f19	0.00088666525
7	0x3b025c60	0.0019891486
8	0x00000004	6e-45
9	0x3a488231	0.00076487946
10	0xba986aab	-0.0011628469
11	0x80000004	-6e-45
12	0xb8d6a702	-0.00010235423
13	0x80000004	-6e-45
14	0x390afbfb	0.00013254576
15	0x3b0ad186	0.0021182015
16	0x3b216492	0.0024626595
17	0xba652961	-0.00087418227
18	0x3b17c011	0.0023155252
19	0xb81c53e8	-3.7271442e-05
20	0xb911e86b	-0.0001391486
21	0x3a515217	0.00079849496
22	0x3a160298	0.00057224324
23	0x3a5cddb3	0.000842537
24	0x3ab70d6b	0.0013965791
25	0x3acf5ab4	0.0015819878
26	0x3afbd2c7	0.0019212597
27	0x80000004	-6e-45
28	0x3b2de20d	0.0026532442
29	0x3ae0576f	0.0017115901
30	0x00000000	0.0
31	0xba47a87f	-0.00076163554
32	0x36d6cd8b	6.4016253e-06
33	0xb97c0b6b	-0.00024036846
34	0xba3694e8	-0.0006964938
35	0x80000004	-6e-45
36	0x00000000	0.0
37	0x3aa1a4ef	0.0012332479
38	0x3a2bbe4f	0.00065514905
39	0x3af5d0ed	0.0018754281
40	0x80000004	-6e-45
41	0xba0dc04d	-0.0005407378
42	0xbac01a0e	-0.0014656202
43	0x80000004	-6e-45
44	0xb97408e5	-0.00023272967
45	0x00000004	6e-45
46	0x384edcdd	4.9319922e-05
47	0x3b03c3f8	0.002010582
48	0x3b1a9358	0.002358636
49	0xba9981cb	-0.0011711655
50	0x3af695fa	0.0018813007
51	0xb9bdbf40	-0.00036191382
52	0xba3fc9da	-0.000731615
53	0x39c9094c	0.00038344634
54	0x3976ee46	0.00023549152
55	0x39c1a047	0.00036931245
56	0x3a42c94b	0.00074305077
57	0x3a9201cb	0.001113945
58	0x3af0026c	0.0018311269
59	0x80000004	-6e-45
60	0x3afac5dd	0.0019132454
61	0x3a629334	0.0008643151
62	0x00000000	0.0
63	0xbabbf4b8	-0.00143399
64	0x36812eb3	3.849936e-06
65	0xba1adf26	-0.00059078855
66	0xbaabd212	-0.001310887
67	0x00000004	6e-45
68	0x00000000	0.0
69	0x3a339dda	0.000685183
70	0x39b71613	0.00034920927
71	0x3ad56af6	0.0016282487
72	0x80000004	-6e-45
73	0xbafa0055	-0.0019073585
74	0xbabb0edc	-0.0014271396
75	0x80000004	-6e-45
76	0xb9b65916	-0.0003478012
77	0x00000004	6e-45
78	0xb65e6dac	-3.3144415e-06
79	0x3adfd090	0.0017075706
80	0x3b0b971b	0.0021299783
81	0xbaa842d5	-0.00128373
82	0x3a8b2bb4	0.0010617883
83	0xba52c481	-0.00080401456
84	0xbaad8d80	-0.0013241023
85	0xb9a4127c	-0.0003129429
86	0xb98c4465	-0.0002675384
87	0xb895532d	-7.120366e-05
88	0x38a77fca	7.986983e-05
89	0x3a0f7c07	0.00054734986
90	0x3ad50d4b	0.0016254572
91	0x00000004	6e-45
92	0x3a55e1cc	0.00081589515
93	0xb986649f	-0.0002563344
94	0x00000000	0.0
95	0xbafd6308	-0.0019331882
96	0x35bd8cf2	1.4122618e-06
97	0xba6d8502	-0.0009060652
98	0xbaefc5dd	-0.0018293221
99	0x00000004	6e-45
100	0x00000000	0.0
101	0x39a0afb4	0.00030648487
102	0x355b6735	8.1734044e-07
103	0x3aa9d1db	0.0012956219
104	0x80000004	-6e-45
105	0xbb5003d0	-0.0031740554
106	0xbac8677d	-0.0015289631
107	0x80000004	-6e-45
108	0xba30126b	-0.00067166117
109	0x00000004	6e-45
110	0xb8ba1538	-8.8731234e-05
111	0x3ab840e3	0.0014057424
112	0x3af06add	0.0018342395
113	0xbab03231	-0.0013442693
114	0x399f1cdd	0.00030348348
115	0xbaad586a	-0.0013225202
116	0xbafe2336	-0.0019389156
117	0xba8523d9	-0.0010157778
118	0xba3ccdeb	-0.0007202315
119	0xb9ea107b	-0.00044644237
120	0xb9fb32ac	-0.00047912204
121	0x39102cdb	0.0001374962
122	0x3abae0d0	0.0014257673
123	0x00000004	6e-45
124	0xb972a5ee	-0.00023140732
125	0xbaa66bb8	-0.0012696898
126	0x00000000	0.0
127	0xbb1efda8	-0.0024260078
128	0x34d4a0e8	3.9605152e-07
129	0xba8f9116	-0.0010953273
130	0xbb1c64a9	-0.002386371
131	0x00000004	6e-45
132	0x00000000	0.0
133	0x3968093f	0.00022128689
134	0xb9385954	-0.00017580885
135	0x3a9e5515	0.00120798
136	0x80000004	-6e-45
137	0xbb84a117	-0.0040475237
138	0xbaed6a46	-0.0018113337
139	0x80000004	-6e-45
140	0xba5230fd	-0.0008018164
141	0x00000004	6e-45
142	0xb7b96059	-2.2098584e-05
143	0x3aaf7795	0.0013387079
144	0x3adff1a7	0.0017085568
145	0xbad76d97	-0.0016435859
146	0xb92cdd52	-0.00016485646
147	0xbae02b70	-0.0017102789
148	0xbb180468	-0.0023195986
149	0xbac68801	-0.0015146733
150	0xba8e8d6d	-0.0010875888
151	0xba1dc610	-0.00060185883
152	0xba69b97b	-0.00089158834
153	0xb8daba80	-0.000104297884
154	0x3aac4808	0.0013144026
155	0x00000004	6e-45
156	0xba28e443	-0.0006442705
157	0xbb040e05	-0.0020149958
158	0x00000000	0.0
159	0xbb4c4d0a	-0.0031173849
160	0xb63649ce	-2.7163073e-06
161	0xbaa5ae1a	-0.0012640387
162	0xbb2db7b4	-0.00265072
163	0x00000004	6e-45
164	0x00000000	0.0
165	0x37f5038d	2.920793e-05
166	0xb9eaac66	-0.00044760405
167	0x3a51b238	0.0007999274
168	0x80000004	-6e-45
169	0xbb98bebf	-0.0046614106
170	0xbafc114e	-0.0019231231
171	0x80000004	-6e-45
172	0xba883377	-0.0010391314
173	0x00000004	6e-45
174	0xb8a5a183	-7.897897e-05
175	0x3a813b55	0.0009859601
176	0x3ab25875	0.0013606685
177	0xbade1811	-0.0016944428
178	0xba345443	-0.0006879011
179	0xbb07b203	-0.0020705468
180	0xbb2aec7f	-0.0026080904
181	0xbafc5562	-0.001925152
182	0xbaacf036	-0.0013194147
183	0xba58cef9	-0.00082705874
184	0xbaa102ce	-0.0012284161
185	0xb9b41aa7	-0.00034352133
186	0x3a88efa7	0.0010447399
187	0x00000004	6e-45
188	0xbaa68a97	-0.0012706098
189	0xbb294066	-0.0025825738
190	0x00000000	0.0
191	0xbb5e5ccf	-0.003392983
192	0xb6031bbd	-1.9536667e-06
193	0xbab289cd	-0.001362139
194	0xbb2b6901	-0.0026155117
195	0x00000004	6e-45
196	0x00000000	0.0
197	0xb8a5fea3	-7.915243e-05
198	0xba042c8a	-0.0005042037
199	0x3a3e3117	0.000725524
200	0x80000004	-6e-45
201	0xbba88363	-0.0051426156
202	0xbaca1a0b	-0.0015419138
203	0x80000004	-6e-45
204	0xba84823e	-0.0010109616
205	0x00000004	6e-45
206	0xb8ca8a92	-9.657921e-05
207	0x3a6c05cb	0.0009003549
208	0x3aa1f41a	0.0012356073
209	0xbaa14e12	-0.0012306592
210	0xba9f7f1c	-0.0012168619
211	0xbb14211d	-0.0022602745
212	0xbb39976e	-0.002831902
213	0xbb1d13c2	-0.0023968075
214	0xbadca01d	-0.0016832385
215	0xba3d9aae	-0.0007232827
216	0xbaa4592c	-0.0012538782
217	0xba01f50b	-0.0004957474
218	0x3a80ac81	0.0009817035
219	0x00000004	6e-45
220	0xbaf85457	-0.0018946034
221	0xbb4f1fb2	-0.0031604585
222	0x00000000	0.0
223	0xbb58d973	-0.0033088594
224	0xb661021f	-3.3528847e-06
225	0xbab57f83	-0.0013847206
226	0xbb005e74	-0.0019587548
227	0x00000004	6e-45
228	0x00000000	0.0
229	0x38527220	5.017419e-05
230	0xb9c3712a	-0.00037277612
231	0x3a1a8fdc	0.00058960705
232	0x80000004	-6e-45
233	0xbba165de	-0.0049254736
234	0xba4351e2	-0.0007450861
235	0x80000004	-6e-45
236	0xba921cfd	-0.0011147555
237	0x00000004	6e-45
238	0xb8f7aff5	-0.00011810652
239	0x3a479a35	0.0007614226
240	0x3a918fde	0.0011105498
241	0xb9e3d58c	-0.0004345592
242	0xbad5eec4	-0.0016321768
243	0xbb1e6ccb	-0.0024173732
244	0xbb373092	-0.0027952534
245	0xbb3a4971	-0.0028425122
246	0xbafab2b1	-0.001912674
247	0xb9b2ade6	-0.0003408037
248	0xba466102	-0.0007567556
249	0xb9b5d4f2	-0.00034681667
250	0x3a58434a	0.0008249773
251	0x00000004	6e-45
252	0xbb1a8f99	-0.0023584126
253	0xbb57bb2d	-0.0032917962
254	0x00000000	0.0
255	0xbb2b9417	-0.0026180798

exp_avg_sq f4 [10, 32]
0	0x314e33fb	3.0006493e-09
1	0x37b3e93f	2.1447077e-05
2	0x39212149	0.00015366556
3	0x275b742f	3.0455339e-15
4	0x00000000	0.0
5	0x37e4353e	2.720451e-05
6	0x371cb51a	9.340491e-06
7	0x37dcffdb	2.6345186e-05
8	0x2eb6b13b	8.307884e-11
9	0x39bb3621	0.0003570775
10	0x38d06a8b	9.938058e-05
11	0x2fb80f77	3.3480393e-10
12	0x374fbe7f	1.2382515e-05
13	0x2f14059c	1.3462514e-10
14	0x35120e7f	5.4410333e-07
15	0x380e4cda	3.3927012e-05
16	0x38469cc2	4.735287e-05
17	0x38ae7b2b	8.3199084e-05
18	0x380dcdf1	3.3808818e-05
19	0x383cbdfc	4.499963e-05
20	0x38c70f62	9.491925e-05
21	0x382fe473	4.193601e-05
22	0x37cdf7d5	2.455331e-05
23	0x38000ca1	3.052934e-05
24	0x38841fec	6.3001964e-05
25	0x37c29edf	2.3200582e-05
26	0x37e5b9f5	2.738552e-05
27	0x29cd4bed	9.117e-14
28	0x38a08eb0	7.655972e-05
29	0x38f79ad7	0.00011806719
30	0x00000000	0.0
31	0x395645dd	0.00020434656
32	0x31408a1e	2.8018188e-09
33	0x379ced75	1.8707224e-05
34	0x391270cc	0.00013965665
35	0x28ff1369	2.8319105e-14
36	0x00000000	0.0
37	0x37985af9	1.8162174e-05
38	0x36e651fa	6.8640775e-06
39	0x37bb09ba	2.2296666e-05
40	0x2eecfb6f	1.0776701e-10
41	0x399f8533	0.00030426084
42	0x38c884cf	9.561481e-05
43	0x2fadf26b	3.1640765e-10
44	0x373e81ab	1.1355073e-05
45	0x2f42deda	1.772337e-10
46	0x34efbbac	4.4653768e-07
47	0x37e6be5f	2.7506785e-05
48	0x382b009e	4.0770152e-05
49	0x38a5eeb7	7.912277e-05
50	0x37b05b14	2.1023247e-05
51	0x38243c2d	3.915669e-05
52	0x38af80c7	8.368637e-05
53	0x380bc6bc	3.332527e-05
54	0x37a2afde	1.93938e-05
55	0x37cba2b2	2.4275247e-05
56	0x385acf7f	5.2168496e-05
57	0x378129a3	1.5397387e-05
58	0x37c5804a	2.354397e-05
59	0x2b2096f8	5.705293e-13
60	0x38483d7a	4.774097e-05
61	0x38bd4aab	9.02613e-05
62	0x00000000	0.0
63	0x3948cb42	0.00019149206
64	0x31283aba	2.44806e-09
65	0x378c4be3	1.6724638e-05
66	0x39073fee	0.00012898419
67	0x23fa64b6	2.7147707e-17
68	0x00000000	0.0
69	0x373ecb69	1.1372243e-05
70	0x36a034de	4.774526e-06
71	0x37a3d0a8	1.9528277e-05
72	0x2eecf590	1.0775658e-10
73	0x398b7745	0.0002660101
74	0x38c01ac1	9.160257e-05
75	0x300a8a5b	5.040072e-10
76	0x372aecd8	1.0187934e-05
77	0x2f1f5c76	1.4493814e-10
78	0x34be3412	3.5428144e-07
79	0x37bf81bd	2.2829388e-05
80	0x38176d02	3.6102727e-05
81	0x389fd76c	7.621836e-05
82	0x3750b88e	1.2440736e-05
83	0x3811f1b9	3.4795816e-05
84	0x389df1ce	7.531383e-05
85	0x37e970d2	2.78283e-05
86	0x37884323	1.6243726e-05
87	0x37a17abe	1.9249852e-05
88	0x38319763	4.234108e-05
89	0x371a6d46	9.2045575e-06
90	0x37ad8b71	2.068814e-05
91	0x2788ee5d	3.8006017e-15
92	0x37f028c7	2.8629218e-05
93	0x38946826	7.076589e-05
94	0x00000000	0.0
95	0x393e2542	0.00018133692
96	0x31a426c0	4.7774336e-09
97	0x377b5bc4	1.4982132e-05
98	0x38f55c92	0.00011699753
99	0x2a43c8fe	1.7389212e-13
100	0x00000000	0.0
101	0x36e8e306	6.940568e-06
102	0x3639123f	2.7577769e-06
103	0x37964c24	1.791685e-05
104	0x2ebda009	8.623153e-11
105	0x3972b7fa	0.00023147455
106	0x38b1cdf0	8.4783765e-05
107	0x308436d0	9.619843e-10
108	0x37228e02	9.689016e-06
109	0x3075113f	8.915499e-10
110	0x34e23eeb	4.214156e-07
111	0x37a46e32	1.9601637e-05
112	0x38109c8a	3.4478064e-05
113	0x389616b8	7.156789e-05
114	0x36f120f5	7.1861964e-06
115	0x38031e4d	3.1261054e-05
116	0x388dde7e	6.764846e-05
117	0x37c3061e	2.324866e-05
118	0x3764cc63	1.36374465e-05
119	0x3776b73e	1.4705407e-05
120	0x380d8b74	3.3746895e-05
121	0x36ae603d	5.1968077e-06
122	0x37a3711b	1.9483783e-05
123	0x2c50a997	2.965272e-12
124	0x3786d28f	1.6072094e-05
125	0x38660dc9	5.484911e-05
126	0x00000000	0.0
127	0x392f55b4	0.00016721227
128	0x315cfca2	3.2157819e-09
129	0x37503e28	1.2412238e-05
130	0x38d9e525	0.00010390048
131	0x299d6c89	6.9910284e-14
132	0x00000000	0.0
133	0x36b20e28	5.3064614e-06
134	0x36086540	2.0324514e-06
135	0x3792ccc4	1.7499908e-05
136	0x2eb848df	8.380296e-11
137	0x394880cc	0.00019121467
138	0x389b5539	7.40685e-05
139	0x30347345	6.5647426e-10
140	0x3709f69e	8.223256e-06
141	0x30163bff	5.465494e-10
142	0x34915aa3	2.7074302e-07
143	0x379a89b4	1.8422354e-05
144	0x38113239	3.4617467e-05
145	0x388933ca	6.5423155e-05
146	0x36a46659	4.8994957e-06
147	0x37db8b6a	2.6171754e-05
148	0x386d97b3	5.6646484e-05
149	0x37a41dbf	1.9564175e-05
150	0x373a4c47	1.1104224e-05
151	0x37478fe0	1.1894823e-05
152	0x37f4191e	2.9098763e-05
153	0x365d7c1b	3.3003805e-06
154	0x37a31515	1.9440931e-05
155	0x2ba73f2c	1.1883597e-12
156	0x371c7cd3	9.3273875e-06
157	0x382fc87f	4.1909978e-05
158	0x00000000	0.0
159	0x391c6a19	0.00014916844
160	0x3107cb35	1.9760595e-09
161	0x373ce34f	1.1258598e-05
162	0x38d63188	0.00010213541
163	0x28ff0d2d	2.8316401e-14
164	0x00000000	0.0
165	0x36cb1c7d	6.053188e-06
166	0x361f6c75	2.3755977e-06
167	0x37910152	1.7285962e-05
168	0x2ee32f4a	1.0331165e-10
169	0x393781a8	0.0001750054
170	0x38929241	6.9890644e-05
171	0x2fd20ea1	3.8209172e-10
172	0x3700d3bb	7.678692e-06
173	0x2f91b184	2.650148e-10
174	0x349d5505	2.930539e-07
175	0x379709c2	1.8005147e-05
176	0x381211a1	3.482553e-05
177	0x388bdd54	6.669262e-05
178	0x36bd0e10	5.634276e-06
179	0x37c6035f	2.360501e-05
180	0x38559cdd	5.0929248e-05
181	0x379a114b	1.8366283e-05
182	0x37269a5a	9.930309e-06
183	0x3758a010	1.2911871e-05
184	0x38067d7d	3.206496e-05
185	0x368ef769	4.260732e-06
186	0x37a38605	1.9493522e-05
187	0x2b00158f	4.5504654e-13
188	0x3721bd61	9.640441e-06
189	0x381e4e1e	3.7742888e-05
190	0x00000000	0.0
191	0x39153cc2	0.00014232381
192	0x30e8f34c	1.6949371e-09
193	0x3744178a	1.1687991e-05
194	0x38e44258	0.00010884245
195	0x290977b7	3.0523947e-14
196	0x00000000	0.0
197	0x37136037	8.784285e-06
198	0x367c0792	3.7555333e-06
199	0x3792033c	1.7406062e-05
200	0x2ea7732d	7.61474e-11
201	0x3944780e	0.0001873674
202	0x3893a641	7.0404734e-05
203	0x2f51c283	1.9077544e-10
204	0x370ac17d	8.270491e-06
205	0x2f81a25a	2.358032e-10
206	0x34a3159e	3.0376845e-07
207	0x379766cf	1.8048477e-05
208	0x3814bbc7	3.546083e-05
209	0x389572f0	7.1262824e-05
210	0x3719710d	9.145832e-06
211	0x37d91114	2.5876368e-05
212	0x385dd488	5.288844e-05
213	0x37b5c71a	2.1669595e-05
214	0x3744c42e	1.1728187e-05
215	0x378f9ffc	1.7121427e-05
216	0x382d3ea3	4.130475e-05
217	0x36ff0530	7.600196e-06
218	0x37a7afdd	1.9989844e-05
219	0x2b1c32ae	5.5492666e-13
220	0x37959987	1.7833676e-05
221	0x383f123f	4.555494e-05
222	0x00000000	0.0
223	0x3917e212	0.000144847
224	0x314967eb	2.930842e-09
225	0x3762a755	1.350961e-05
226	0x3903bc26	0.00012563224
227	0x2a20ee1e	1.4293468e-13
228	0x00000000	0.0
229	0x3753b3fc	1.2618486e-05
230	0x36cfed1b	6.1966834e-06
231	0x37910809	1.7289089e-05
232	0x2ed327a5	9.6022114e-11
233	0x3969521e	0.00022251203
234	0x38a13db4	7.688571e-05
235	0x301d8ae7	5.731366e-10
236	0x372b6c34	1.0217587e-05
237	0x301aabee	5.62692e-10
238	0x34b59dfb	3.3828823e-07
239	0x379b84c9	1.8539273e-05
240	0x3812d6cf	3.500917e-05
241	0x38a93339	8.068089e-05
242	0x375dc20e	1.3217808e-05
243	0x3806dbee	3.2152915e-05
244	0x388028ae	6.111093e-05
245	0x37f05d4d	2.8653676e-05
246	0x377da44c	1.51182285e-05
247	0x37cdaee9	2.4519353e-05
248	0x3873ef06	5.8158323e-05
249	0x37588445	1.29054e-05
250	0x37a621c8	1.9804473e-05
251	0x2c282041	2.389214e-12
252	0x37e6f960	2.753426e-05
253	0x387d3d09	6.0376744e-05
254	0x00000000	0.0
255	0x3926fa79	0.00015924302

exp_avg f4 [10]
0	0x3bb0eac5	0.0053990805
1	0x3b83e2bf	0.004024833
2	0x3b0bc66e	0.002132799
3	0x39ea1d91	0.00044653987
4	0xb94ceea3	-0.00019543855
5	0xbaa185be	-0.0012323183
6	0xbb056ec0	-0.0020360202
7	0xbb15688b	-0.0022797908
8	0xbb4d51e6	-0.0031329333
9	0xbb4cea32	-0.003126752

exp_avg_sq f4 [10]
0	0x397f4105	0.00024342917
1	0x3918d945	0.00014576789
2	0x389e172a	7.538342e-05
3	0x37f43b5c	2.9114708e-05
4	0x3721cfa0	9.644689e-06
5	0x37719328	1.4398982e-05
6	0x38280253	4.0056486e-05
7	0x389dd027	7.525115e-05
8	0x3905a2ae	0.00012744471
9	0x394a0ba5	0.00019268559
