code/2021-04-12_17-45_last.pth (torch, 20083 bytes, 18 tensors)

encoder.maxpool_conv.0.0.weight f4 [1, 1, 2, 50]
0	0xbcc2f77d	-0.023799652
1	0x3d510c82	0.05103732
2	0x3d8c36b2	0.0684637
3	0x3dbc29ec	0.091876835
4	0xbcd84c6b	-0.026403626
5	0xbddb4b4c	-0.10707721
6	0x3baf1c4a	0.0053439485
7	0xbd3c9894	-0.046043947
8	0xbcc19061	-0.023628416
9	0x3d4920d3	0.04910357
10	0x3d5d8a62	0.05408705
11	0xbd8cd577	-0.06876653
12	0x3c4b3d3c	0.012404736
13	0x3cd4563c	0.025920026
14	0xbd40001c	-0.046875104
15	0xbcfc98c4	-0.030834563
16	0x3d8748f5	0.06605712
17	0x3dc7391f	0.09727692
18	0xbcf1f8d8	-0.029537603
19	0xbc96b397	-0.018396182
20	0x3caa8735	0.020816425
21	0xbc4b9b83	-0.012427214
22	0xbdb69a90	-0.08916199
23	0x3ce5cdf9	0.028052317
24	0x3df39a69	0.11894686
25	0x3d1bafbd	0.038009394
26	0x3d904c22	0.07045771
27	0x3d7a09ec	0.06104462
28	0xbc9b43c7	-0.018953217
29	0xbdfe7c77	-0.124260835
30	0xbcfb686d	-0.030689443
31	0xbd6d7266	-0.057970427
32	0x3dc1c3c2	0.09461166
33	0x3b35ff6a	0.0027770647
34	0xbdc83830	-0.09776342
35	0xbd5d704a	-0.054062165
36	0x3c935d7f	0.017988918
37	0xbd1d4cc5	-0.03840329
38	0x3dc8b424	0.09799984
39	0xbd5d47eb	-0.054023664
40	0xbd7840d8	-0.060608715
41	0xbdb89862	-0.0901344
42	0x3bbe5845	0.0058088624
43	0xbcb2f13b	-0.021843543
44	0x3e091ce3	0.13389926
45	0xbdc127d6	-0.09431426
46	0xbd7be3ca	-0.061496533
47	0xbde65179	-0.112460084
48	0x3d5a6539	0.05331919
49	0x3e128be3	0.14311175
50	0xbd3d2614	-0.046178892
51	0x3da598c4	0.08085778
52	0x3d99bb6b	0.0750645
53	0xbd038db8	-0.032117575
54	0xbd9f6815	-0.07783524
55	0x3d95b7a5	0.07310418
56	0x3d5b371f	0.053519364
57	0xbceccf16	-0.02890734
58	0x3d6ffd18	0.05859098
59	0xbe09501c	-0.13409466
60	0xbd817116	-0.063203976
61	0xbc0ca636	-0.00858455
62	0x3d34ac21	0.044109467
63	0xbd5e1ccf	-0.054226693
64	0xbd3bdbb9	-0.04586384
65	0x3c454e06	0.012042528
66	0x3c8aaaa7	0.016927077
67	0xbd8473f3	-0.06467428
68	0x3d43586c	0.047691748
69	0x3b6943c3	0.0035593368
70	0xbc174f04	-0.009235147
71	0xbd0b272c	-0.033972904
72	0xbd6b06cf	-0.05737954
73	0xbc33ff0d	-0.010986102
74	0xbbc1e9b1	-0.0059177508
75	0x3dcb70c1	0.099336155
76	0x3d82c8c4	0.06385949
77	0x3c76fad4	0.0150744505
78	0x3d363760	0.044486403
79	0xbce5a9c3	-0.02803505
80	0xbd6544da	-0.055973865
81	0x3d88f6e7	0.06687718
82	0x3cd8769d	0.026423747
83	0xbd21dfd2	-0.039520092
84	0xbd635232	-0.05549831
85	0xbca58f39	-0.020209895
86	0x3c0979ec	0.008390885
87	0x3db63498	0.0889675
88	0xbd951257	-0.07278889
89	0xbd052652	-0.03250725
90	0xbdc52b6e	-0.09627424
91	0xbd355a34	-0.044275478
92	0x3da35bdd	0.07976506
93	0x3d16e6f2	0.03684134
94	0xbd3f1a33	-0.046655845
95	0x3d9d2942	0.07673885
96	0x3bfc286c	0.0076952484
97	0x3c902320	0.017594874
98	0x3dbe1e37	0.09283107
99	0x3dd0cbf3	0.1019515

encoder.maxpool_conv.2.0.weight f4 [1, 1, 2, 50]
0	0xbd78704f	-0.06065398
1	0x3d8f6000	0.070007324
2	0x3db53cc6	0.08849482
3	0xbd62a591	-0.055333678
4	0x3d76f6ee	0.060294084
5	0xbdd93e3d	-0.10607574
6	0x3d2d2dc7	0.042279985
7	0x3d611062	0.054947264
8	0xbce177a2	-0.027522866
9	0x3da2fca3	0.07958343
10	0x3d0a91f0	0.033830583
11	0xbcf7d6d8	-0.030253813
12	0x3d22c909	0.039742503
13	0x3d232e55	0.039839108
14	0xbcfb5146	-0.030678403
15	0x3c50cafb	0.012743707
16	0xbd2313b4	-0.039813712
17	0xbd1ffda0	-0.039060235
18	0xbcdab1b1	-0.026696058
19	0xbdc59e5c	-0.09649345
20	0x3cb58bc3	0.02216137
21	0xbb33ca0d	-0.0027433664
22	0xbd5c7620	-0.05382359
23	0xbe064eda	-0.13116017
24	0x3c818762	0.015811626
25	0x3d48d4c5	0.049031038
26	0x3cd87016	0.026420634
27	0x3d9d1190	0.076693654
28	0x3d503a54	0.050836876
29	0x3dbf175a	0.09330626
30	0x3d8c8758	0.06861752
31	0xbca0e2bf	-0.019639371
32	0x3db55f2f	0.088560455
33	0x3cd11e4f	0.025527148
34	0xbcde740f	-0.02715495
35	0xbce055d7	-0.027384682
36	0x3d1910eb	0.03736965
37	0x3db5f5cb	0.08884772
38	0x3dbabadd	0.091176726
39	0x3d5b54bb	0.053547602
40	0xbcd0e67f	-0.025500534
41	0x3dae7e52	0.085201874
42	0x39ee9aca	0.00045510224
43	0x3d0b94a1	0.03407729
44	0x3c84a882	0.016193632
45	0x3da233a9	0.0792001
46	0x3d9af897	0.07566946
47	0x3c99b12a	0.018761236
48	0x3dee0ac9	0.11623151
49	0x3e0e5fc0	0.13903713
50	0x3d8f9ef9	0.070127435
51	0xbd67ecf5	-0.056622464
52	0x3cb398c4	0.02192343
53	0xbd40fa71	-0.04711384
54	0x3dcc8f32	0.0998825
55	0xbcc1b1a5	-0.023644278
56	0x3d02d4f8	0.031941384
57	0x3ac35215	0.0014901782
58	0xbdd5a536	-0.10431902
59	0x3b4d8dca	0.003136503
60	0x3b7f9cab	0.0039003293
61	0xbd5b5afd	-0.05355357
62	0x3cc07cca	0.023497004
63	0xbcae6c74	-0.021291949
64	0xbd90a918	-0.07063502
65	0x3cd7d078	0.026344523
66	0x3b87932f	0.0041374187
67	0x3bc07d0a	0.005874281
68	0x3dd6ac9f	0.104821436
69	0xbbc7494f	-0.006081737
70	0xbc88f792	-0.016719613
71	0x3ddd51bd	0.10806606
72	0x3d9a9206	0.07547383
73	0xbd4100d1	-0.04711992
74	0xbb935bc2	-0.0044970224
75	0xbc32d547	-0.010915107
76	0xbda823ec	-0.082099766
77	0xbd923ebb	-0.07140871
78	0x3bab2e24	0.0052240063
79	0x3da137d0	0.078719735
80	0xbd915cd4	-0.07097784
81	0x3b7f127b	0.0038920927
82	0x3d8b2b63	0.06795385
83	0xbd8bac27	-0.06819945
84	0x3dc57146	0.09640746
85	0x3d89f719	0.06736583
86	0xbcf8be15	-0.030364076
87	0x3d83d7dc	0.06437656
88	0xbd059317	-0.03261098
89	0xbc323c9b	-0.010878707
90	0x3dd9d3b7	0.106360845
91	0x3dcff20b	0.10153588
92	0xbd3587cc	-0.04431896
93	0x3d0bfd4d	0.034177113
94	0x3b87e28d	0.00414688
95	0xbce37e90	-0.02777031
96	0x3da4bfac	0.08044371
97	0xbd3be278	-0.045870274
98	0xbd44e82f	-0.04807299
99	0x3e0ac462	0.13551477

decoder.linear1.weight f4 [32, 4]
0	0x3db2dabf	0.08733129
1	0x3f04febe	0.51951206
2	0x3e4a5b32	0.19761351
3	0xbeeed582	-0.4664727
4	0x3f04e5c3	0.5191309
5	0x3ec1aaf7	0.37825748
6	0x3f13d3b6	0.5774492
7	0x3ee20439	0.44143847
8	0xbe676c1c	-0.22599834
9	0xbe9c0e91	-0.30479863
10	0xbd9ae451	-0.07563079
11	0xbee0195b	-0.43769345
12	0xbe8f7d0e	-0.28025097
13	0xbd5fc330	-0.054629505
14	0xbe12c11c	-0.14331478
15	0xbeaefe05	-0.34178177
16	0xbebd9027	-0.37024042
17	0xbe56992e	-0.20956871
18	0xbebf6b5f	-0.37386605
19	0xbe770d39	-0.24126138
20	0x3dd0ea77	0.102009706
21	0x3eeb0fea	0.4591058
22	0x3e9bd16d	0.30433217
23	0xbe38ecd9	-0.180591
24	0x3e5b5344	0.21418482
25	0x3e70a957	0.23502098
26	0x3c597c65	0.013274287
27	0xbea74072	-0.32666355
28	0xbd8e1b5d	-0.06938813
29	0xbe3a2266	-0.18177184
30	0x3ef38fca	0.4757064
31	0x3e87dcc3	0.26535615
32	0xbd9d0def	-0.07668673
33	0x3eaa8333	0.33303222
34	0x3ea0e9f5	0.31428495
35	0xbd00f0f8	-0.031479806
36	0xbeaba01e	-0.33520597
37	0x3e8385fa	0.25688154
38	0xbee0aa77	-0.43880054
39	0xbeb64223	-0.35597333
40	0x3f1ab9b5	0.60439616
41	0x3f0b5fd4	0.544431
42	0x3d0e23e4	0.034702197
43	0xbd3d7191	-0.046250883
44	0xbe2d7c9b	-0.16942064
45	0x3d12119f	0.035661336
46	0x3e8dd832	0.27704006
47	0xbe98cf80	-0.2984581
48	0x3e22019c	0.15820926
49	0x3f038548	0.51375246
50	0xbf0e3de1	-0.5556317
51	0xbf5ee43f	-0.87067026
52	0xbd3dc234	-0.046327785
53	0x3eabb8ed	0.33539525
54	0xbee9464a	-0.4556144
55	0x3e9f2fab	0.31091055
56	0x3d3b84e1	0.04578102
57	0x3e3e0d40	0.18559742
58	0x3e9d44c3	0.30716524
59	0xbe8cf6b3	-0.27531967
60	0xbebfd0bc	-0.3746394
61	0x3f0bdc40	0.5463295
62	0x3f341382	0.70342267
63	0xbd84e1ad	-0.06488357
64	0x3d3fd3cb	0.04683284
65	0x3dc3756e	0.09543882
66	0x3ea49ffe	0.32153314
67	0x3e925108	0.28577447
68	0x3f11830d	0.5684059
69	0x3f01b931	0.50673205
70	0x3e801da9	0.2502263
71	0x3e6729f1	0.22574593
72	0xbca8e540	-0.020617127
73	0xbea63104	-0.3245927
74	0xbeb94ae0	-0.36189938
75	0xbe7f0598	-0.24904478
76	0x3ef01c63	0.46896657
77	0x3eb465a9	0.3523381
78	0xbee35732	-0.44402462
79	0x3f01daa1	0.50724226
80	0x3e190d8f	0.14946578
81	0xbd318674	-0.043341115
82	0x3ee97115	0.45594087
83	0x3e8916b6	0.2677514
84	0x3e0b5f77	0.13610636
85	0x3e7419db	0.23837988
86	0xbed357e0	-0.4127798
87	0xbed292a7	-0.41127512
88	0x3e49871e	0.1968045
89	0x3e23bb37	0.15989386
90	0xbe8c1379	-0.27358606
91	0xbe44837f	-0.19190787
92	0x3f17f62c	0.59360003
93	0x3f056d7b	0.5212018
94	0xbeb13252	-0.34608704
95	0x3ef5eb17	0.48030922
96	0xbdba0ddf	-0.09084677
97	0xbb002eae	-0.0019559073
98	0x3d60504c	0.054764077
99	0xbefa34e1	-0.48868468
100	0x3f144175	0.5791238
101	0xbe07883c	-0.13235563
102	0xbe01f18f	-0.12689804
103	0xbe169220	-0.1470418
104	0x3eb1161a	0.34587175
105	0x3e95c318	0.29250407
106	0x3db0417a	0.08606239
107	0xbf06013f	-0.5234565
108	0xbe281005	-0.16412361
109	0x3eb4b355	0.3529307
110	0xbebf649f	-0.37381455
111	0xbe9194a1	-0.28433707
112	0xbe855042	-0.26037794
113	0x3e121fed	0.14269991
114	0xbe83f6e7	-0.2577431
115	0xbe91868b	-0.2842296
116	0xbef7deb4	-0.48412097
117	0xbeb6aa5a	-0.35676843
118	0x3e36898b	0.17825906
119	0xbde46d7b	-0.11153694
120	0x3e4db13b	0.2008714
121	0x3e0bf643	0.1366816
122	0x3e844892	0.25836617
123	0x3f0740bb	0.52833146
124	0x3efdb923	0.4955531
125	0x3e91b513	0.2845846
126	0x3e555dcd	0.20836563
127	0xbf2daef8	-0.67845106

decoder.linear1.bias f4 [32]
0	0xbebba60a	-0.36650115
1	0xbd879487	-0.06620126
2	0x3ef43b3b	0.4770144
3	0x3eb1143f	0.3458576
4	0x3f158198	0.5840087
5	0xbebbb597	-0.3666198
6	0xbee1c949	-0.4409888
7	0xbe43d5d7	-0.19124542
8	0xbf037d0f	-0.513627
9	0x3f0ab03e	0.54175174
10	0xbe8a28da	-0.26984292
11	0x3f34d682	0.7063981
12	0xbe7b78b3	-0.24557762
13	0x3d9b443f	0.07581376
14	0x3da998dd	0.082811095
15	0xbea0ba95	-0.3139235
16	0xb9fe79ba	-0.0004853735
17	0xbd7353bc	-0.059406027
18	0xbe304728	-0.17214644
19	0xbecd1c4d	-0.40060654
20	0x3e68c9e0	0.22733259
21	0x3e11931a	0.14216271
22	0x3ec1672d	0.3777403
23	0x3ee9d6a2	0.45671564
24	0x3ee5cb50	0.44881678
25	0xbebfa274	-0.3742863
26	0xbf02154c	-0.50813746
27	0x3f1980cf	0.5996217
28	0x3e221e0e	0.15831777
29	0xbee39124	-0.4444667
30	0xba3a2e95	-0.0007102278
31	0xbefc096f	-0.49225947

decoder.linear2.weight f4 [10, 32]
0	0x3d8057d9	0.062667556
1	0xbd4c3d25	-0.049863
2	0xbe9892fe	-0.29799646
3	0xbdfc0a4c	-0.123066515
4	0xbe6b8aa3	-0.23002104
5	0x3e7d77b2	0.24752691
6	0x3ce6c158	0.028168365
7	0xbb010863	-0.0019688837
8	0x3e6df25d	0.23236986
9	0xbe8e8d52	-0.27842194
10	0x3e88e0b7	0.26733944
11	0xbeb9a3ec	-0.36257875
12	0xbe3ece1e	-0.18633315
13	0x3e636103	0.22204976
14	0xbde1b191	-0.11020196
15	0x3d51e730	0.05124587
16	0x3e355ca7	0.17711125
17	0x3d7d5dae	0.061856918
18	0xbca570a5	-0.020195315
19	0x3e4abb7e	0.19798085
20	0xbdafa820	-0.08576989
21	0xbe3b57be	-0.1829519
22	0x3dc06755	0.09394709
23	0x3e469d02	0.19395831
24	0xbe4ee338	-0.20203865
25	0x3e5ad32b	0.21369617
26	0x3dfc1c3c	0.12310073
27	0xbe86a5a6	-0.26298255
28	0xbeb6492e	-0.35602707
29	0xbdde64d0	-0.10859072
30	0x3e6b19e4	0.22959095
31	0xbc5b4b6c	-0.013384681
32	0xbb71b25b	-0.003687999
33	0x3e246469	0.16053928
34	0xbddc108d	-0.10745344
35	0xbdea2a7e	-0.11433886
36	0xbe7a9d59	-0.24474086
37	0x3e63ccfa	0.22246161
38	0xbdb605a1	-0.088877924
39	0xbd4fea11	-0.050760332
40	0xbd808054	-0.06274477
41	0xbeab27ee	-0.334289
42	0x3e099e4f	0.13439296
43	0xbe32522a	-0.17414156
44	0xbe27308c	-0.16327113
45	0xbe6327b4	-0.22183114
46	0x3c21d371	0.009877072
47	0x3e153567	0.14571153
48	0xbd5cd4a7	-0.05391374
49	0x3c8c3705	0.01711608
50	0x3b6eaf92	0.0036420566
51	0x3cb4bf57	0.022063894
52	0x3e7bbca3	0.24583678
53	0xbd8c0923	-0.0683768
54	0xbe3f3f7c	-0.18676561
55	0x3e4fb5f6	0.20284256
56	0xbe0e41b3	-0.1389225
57	0x3e50daff	0.2039604
58	0x3db08b64	0.08620337
59	0xbec96996	-0.39338368
60	0xbe16fc79	-0.14744748
61	0x3c027b7d	0.007964012
62	0x3ca5f995	0.020260612
63	0x3e2c68ab	0.16836803
64	0x3e6dca58	0.2322172
65	0x3e3bc256	0.18335852
66	0xbe105f84	-0.14098936
67	0xbdf22508	-0.118234694
68	0xbe4a3c11	-0.19749476
69	0x3e85838d	0.26076928
70	0x3e7e719e	0.24848029
71	0x3ddb2831	0.10701025
72	0x3e7546d6	0.23952803
73	0xbe81b77b	-0.25335297
74	0xbcf93e29	-0.030425148
75	0xbe0fb4c4	-0.140338
76	0xbda6ba26	-0.08140974
77	0xbe1023a0	-0.1407609
78	0xbdd69e46	-0.10479407
79	0x3e0b5a0b	0.13608567
80	0x3dd4c561	0.103892095
81	0x3e6ad200	0.22931671
82	0xbdd6541b	-0.104652606
83	0x3d0ef2cf	0.03489953
84	0xbc1bc524	-0.009507451
85	0xbd09d792	-0.03365285
86	0xbe63cd1f	-0.22246216
87	0x3d9f303e	0.07772873
88	0xbe026132	-0.1273239
89	0xbda5fff1	-0.081054576
90	0x3d0984a5	0.033573765
91	0xbe905897	-0.2819259
92	0xbdd62cca	-0.104577616
93	0xbbf5b0f5	-0.0074979016
94	0xbd72a29a	-0.0592371
95	0x3b006ca7	0.0019596012
96	0xbd0217a3	-0.031760823
97	0x3daae6ed	0.08344827
98	0xbe2902ad	-0.16504927
99	0xbde57953	-0.112047814
100	0xbe478d09	-0.19487394
101	0xbd8a8cfc	-0.06765172
102	0xbdd67707	-0.104719214
103	0x3dff3f04	0.12463191
104	0x3e2da2d1	0.16956641
105	0xbd8f90cf	-0.07010042
106	0x3e6f20d8	0.23352373
107	0xbe8c5dfd	-0.27415457
108	0xbd8d3a78	-0.06895918
109	0x3e1bcec2	0.1521559
110	0xbde23e6c	-0.11047062
111	0x3cebf2f3	0.02880237
112	0x3e347d4b	0.1762592
113	0x3dc2e3b4	0.09516087
114	0x3dc5713b	0.096407376
115	0x3e1ba172	0.15198305
116	0x3d0de940	0.034646273
117	0xbd9bd4e7	-0.07608967
118	0xbe23c3a1	-0.15992595
119	0x3d92d2c2	0.07169105
120	0x3dab7683	0.08372214
121	0xbdaa808f	-0.08325302
122	0xbdae5b08	-0.085134566
123	0xbde74ef7	-0.11294358
124	0xbc35cc94	-0.0110961385
125	0x3e25370e	0.16134283
126	0x3e54b81e	0.2077336
127	0xbe01c2e6	-0.12672004
128	0xbe2cbb0d	-0.16868229
129	0x3e1d204b	0.1534435
130	0xbdd7fad2	-0.10545887
131	0xbe5c4ee9	-0.21514477
132	0x3d4227a8	0.0474011
133	0x3d986480	0.07441044
134	0xbe72d010	-0.23712182
135	0x3de0563b	0.10953947
136	0x3dccf674	0.10007945
137	0x3c800fb8	0.015632495
138	0x3d52d301	0.05147076
139	0xbd90e501	-0.07074929
140	0xbd753b8d	-0.059871245
141	0x3e27bd4a	0.16380802
142	0x3e361028	0.177796
143	0x3d4c418c	0.049867198
144	0x3a6420a4	0.00087023736
145	0x3dedceff	0.11611747
146	0xbca9470a	-0.020663757
147	0x3e2d76af	0.16939805
148	0xbb8000ff	-0.0039063687
149	0xbe68288b	-0.22671716
150	0x3be5558d	0.006998724
151	0xbe19a2a6	-0.15003452
152	0xbe1b6034	-0.15173417
153	0x3c8b7c38	0.017027006
154	0xbdbbe9f2	-0.09175481
155	0xbe548a22	-0.20755818
156	0xbe7d9619	-0.24764289
157	0x3be1a644	0.0068862755
158	0x3e6c3f97	0.23071133
159	0xbe3e19f0	-0.18564582
160	0xbe1ce4bb	-0.15321629
161	0x3e2bbc0b	0.16770951
162	0xbc0ab876	-0.0084668305
163	0xbe039b76	-0.12852272
164	0xbdb244e4	-0.08704546
165	0x3d84cedb	0.06484767
166	0xbdd07101	-0.10177804
167	0x3e0c3554	0.13692218
168	0xbdae924b	-0.08523997
169	0xbde07773	-0.10960283
170	0x3dd1c093	0.10241809
171	0x3e206f6d	0.15667506
172	0xbd4c336c	-0.049853727
173	0x3d41fc74	0.0473599
174	0xbdbe996b	-0.09306606
175	0xbe60fde8	-0.21971858
176	0x3e002488	0.12513936
177	0x3df6849e	0.120370135
178	0x3de526c8	0.111890376
179	0x3d597ff0	0.053100526
180	0x3daacf2a	0.08340295
181	0xbdd14b1b	-0.10219403
182	0xbe1b4efd	-0.1516685
183	0xbe0479da	-0.12937108
184	0xbc3a83b3	-0.011383939
185	0xbe002fbc	-0.12518209
186	0xbd1c4b41	-0.038157705
187	0x3dc2885a	0.09498663
188	0x3cd1f3df	0.025628982
189	0xbe337fe1	-0.1752925
190	0x3e06dbd2	0.13169792
191	0xbe50cd36	-0.20390782
192	0xbd685b47	-0.056727674
193	0xbd8b8faa	-0.06814511
194	0xbdc1bc2a	-0.094597176
195	0xbcb3a6cf	-0.021930126
196	0x3bd85626	0.0066020666
197	0xbdefa606	-0.11701588
198	0xbd2026c3	-0.039099466
199	0x3e01390d	0.1261942
200	0xbe2a5709	-0.16634764
201	0xbbc967fc	-0.006146429
202	0x3d9a3a6e	0.07530676
203	0x3cd3ba62	0.02584571
204	0x3eac9904	0.33710492
205	0x3d205f63	0.039153468
206	0x3e183ea5	0.14867647
207	0x3c977976	0.018490534
208	0x3e07e3a4	0.13270432
209	0xbcd644db	-0.02615588
210	0x3e018d75	0.12651618
211	0xbdfd33bd	-0.12363384
212	0x3e59d07c	0.21270937
213	0x3c126c6c	0.008936983
214	0xbe273244	-0.16327769
215	0x3dc1be42	0.09460117
216	0xbe6127d8	-0.21987855
217	0xbd1ec628	-0.038763195
218	0x3b8428d3	0.004033187
219	0xbe172aae	-0.14762375
220	0xbe9f0474	-0.31058085
221	0xbc4d0963	-0.012514445
222	0x3e4688f4	0.19388181
223	0x3d28f507	0.0412493
224	0xbd966c7b	-0.0734491
225	0x3db5c9a4	0.088763505
226	0xbd86af6e	-0.06576429
227	0xbe128258	-0.14307535
228	0xbce3f2eb	-0.027825793
229	0xbe1fe122	-0.15613225
230	0xbd327de6	-0.043577097
231	0x3a79804e	0.0009517715
232	0xbe6ef6b1	-0.23336293
233	0xbd4eab71	-0.050456468
234	0x3dce35a1	0.10068823
235	0x3e4ba029	0.19885315
236	0x3e5c5719	0.215176
237	0x3e087e17	0.1332935
238	0xbc4c9460	-0.012486547
239	0x3db46d52	0.08809914
240	0x3e42d57e	0.19026753
241	0x3d047c4d	0.032345105
242	0x3e230e53	0.15923433
243	0x3d6482d0	0.055788815
244	0x3d740bb4	0.059581473
245	0x3c9935d0	0.018702418
246	0xbda02709	-0.07819945
247	0x3cd05d61	0.025435152
248	0xbdea9e56	-0.114559814
249	0xbe59df28	-0.21276534
250	0xbd070f5f	-0.032973643
251	0x3d82427d	0.06360338
252	0xbdf722b7	-0.12067168
253	0x3de58c53	0.11208405
254	0x3d7c0df5	0.061536748
255	0xbdaf2496	-0.085519

decoder.linear2.bias f4 [10]
0	0x3d54a91a	0.05191908
1	0xbe2fc924	-0.17166573
2	0xbd5696e1	-0.052389983
3	0xbe008a50	-0.12552762
4	0x3c66681c	0.014062908
5	0xbd8d759d	-0.069071986
6	0x3dcec863	0.100968145
7	0xbd2f7863	-0.04283942
8	0x3e32f934	0.17477876
9	0x3de0d17e	0.109774575

exp_avg f4 [1, 1, 2, 50]
0	0x3b1b5730	0.002370309
1	0x3b24d24d	0.0025149763
2	0x3b1d1a64	0.002397203
3	0x3b05feaf	0.0020445993
4	0x3b104a6e	0.002201702
5	0x3b27ab81	0.0025584402
6	0x3b22fa23	0.0024868331
7	0x3b2bca2c	0.0026213033
8	0x3b2c0cd8	0.0026252773
9	0x3b143845	0.0022616547
10	0x3b249dd4	0.0025118487
11	0x3b1a632f	0.0023557653
12	0x3b266cf4	0.002539453
13	0x3b4738a0	0.0030398741
14	0x3b467b6c	0.0030285968
15	0x3b51c5ca	0.003200876
16	0x3b67b2ec	0.0035354448
17	0x3b6febdc	0.003660909
18	0x3b60cf99	0.0034303425
19	0x3b8076b1	0.003920399
20	0x3b6e6779	0.0036377592
21	0x3b86b01e	0.0041103503
22	0x3b83aeb8	0.004018631
23	0x3b4fdf36	0.0031718737
24	0x3b8059f3	0.003916973
25	0x3b4c8045	0.0031204384
26	0x3b446e2e	0.0029972899
27	0x3b4ac637	0.00309409
28	0x3b57dfdf	0.0032939834
29	0x3b5ceb27	0.0033709498
30	0x3b5ddfda	0.003385535
31	0x3b551052	0.0032510948
32	0x3b424029	0.0029640293
33	0x3b2d4c9b	0.0026443365
34	0x3b2b830e	0.0026170644
35	0x3b1d4f4e	0.0024003568
36	0x3b14ec16	0.0022723726
37	0x3b08ddcc	0.0020884154
38	0x3ae7b738	0.0017678505
39	0x3abcb002	0.0014395716
40	0x3ac3b008	0.0014929781
41	0x3ae527b8	0.0017483151
42	0x3abdc43e	0.001447804
43	0x3acdf128	0.0015712129
44	0x3ad43d11	0.0016192516
45	0x3af45996	0.0018642421
46	0x3ac53011	0.0015044232
47	0x3a8cab4d	0.0010732204
48	0x3a97e26c	0.0011587865
49	0x3a1dc130	0.0006017862
50	0x3b0bb65f	0.0021318418
51	0x3b1c1a09	0.002381923
52	0x3b13b45b	0.002253792
53	0x3aeb347c	0.0017944719
54	0x3b052124	0.0020313943
55	0x3b14c4d5	0.002270033
56	0x3b14f727	0.0022730322
57	0x3b2881e6	0.002571219
58	0x3b216b29	0.0024630523
59	0x3b101117	0.0021982843
60	0x3b168ac8	0.0022970904
61	0x3b0939fe	0.0020939107
62	0x3b18aa5c	0.0023294901
63	0x3b47ddda	0.0030497224
64	0x3b3ae9b2	0.002852064
65	0x3b4576cb	0.003013062
66	0x3b5b57eb	0.0033469151
67	0x3b604f62	0.0034227003
68	0x3b5b2bb5	0.00334428
69	0x3b787b7d	0.0037915402
70	0x3b69e5c1	0.0035689923
71	0x3b83ebc2	0.0040259073
72	0x3b7cd48e	0.003857884
73	0x3b4110de	0.0029459517
74	0x3b73be9b	0.0037192467
75	0x3b3e9f16	0.0029086522
76	0x3b3c7620	0.0028756931
77	0x3b44f114	0.003005092
78	0x3b444b0b	0.0029951956
79	0x3b496832	0.0030732271
80	0x3b4b0b10	0.0030981936
81	0x3b45a44d	0.0030157745
82	0x3b35fd77	0.0027769485
83	0x3b2ee2cd	0.0026685477
84	0x3b1c5394	0.0023853527
85	0x3b0b0ba5	0.0021216657
86	0x3b116f63	0.0022191636
87	0x3afb9b0b	0.0019195987
88	0x3ad96283	0.0016585145
89	0x3aaf057e	0.0013353077
90	0x3aa375cb	0.0012471018
91	0x3acbf601	0.0015560986
92	0x3a9e76fb	0.0012089902
93	0x3aaa4d6d	0.0012993045
94	0x3aa42847	0.0012524211
95	0x3abbab87	0.0014318087
96	0x3a950a50	0.0011370871
97	0x3a40fbb9	0.00073617283
98	0x3a5343b5	0.00080591004
99	0x395f4f4f	0.00021296482

exp_avg_sq f4 [1, 1, 2, 50]
0	0x38ad8750	8.274487e-05
1	0x38bed569	9.099657e-05
2	0x38be0a66	9.061843e-05
3	0x38b70698	8.727348e-05
4	0x38bc3b01	8.975529e-05
5	0x38bebf68	9.095558e-05
6	0x38b3ecd2	8.579496e-05
7	0x38a5fa78	7.9144666e-05
8	0x38a0d0e1	7.668301e-05
9	0x389f7ebf	7.605319e-05
10	0x3898ac3e	7.2800074e-05
11	0x3899e4b1	7.3382056e-05
12	0x3893ccc4	7.047647e-05
13	0x389a7093	7.364261e-05
14	0x3892d845	7.002106e-05
15	0x38916133	6.9322436e-05
16	0x3896363c	7.162659e-05
17	0x388191f9	6.178389e-05
18	0x3871bae4	5.7632933e-05
19	0x385c054a	5.2457013e-05
20	0x38565dba	5.1108866e-05
21	0x38424cd6	4.6324763e-05
22	0x38265062	3.9652346e-05
23	0x3816ca61	3.5951267e-05
24	0x3817e6e9	3.6216257e-05
25	0x381e4fec	3.774457e-05
26	0x380bb959	3.33128e-05
27	0x380a8a2e	3.3030454e-05
28	0x38142de5	3.5328692e-05
29	0x38064959	3.20164e-05
30	0x3801acb9	3.0916857e-05
31	0x37f6d849	2.94262e-05
32	0x37f336f7	2.8993452e-05
33	0x37e9a9e9	2.7854885e-05
34	0x37dd34a9	2.6369775e-05
35	0x37ead493	2.7993961e-05
36	0x37db7d65	2.6165226e-05
37	0x37fcb18a	3.0123414e-05
38	0x380966ea	3.275919e-05
39	0x3807e381	3.2398388e-05
40	0x37f79b28	2.9516945e-05
41	0x38019a18	3.0899508e-05
42	0x37fcd8a0	3.0141615e-05
43	0x37f320dc	2.8983159e-05
44	0x37df9fb6	2.6658043e-05
45	0x37dd39b3	2.6372121e-05
46	0x37f0fe08	2.8728522e-05
47	0x3808cf99	3.2618267e-05
48	0x380a798f	3.3014974e-05
49	0x380c238d	3.341171e-05
50	0x38b958ee	8.838052e-05
51	0x38d03fb2	9.930077e-05
52	0x38c60c91	9.4437164e-05
53	0x38bdc766	9.049363e-05
54	0x38c25887	9.2671304e-05
55	0x38c27d48	9.273976e-05
56	0x38b49dc4	8.612455e-05
57	0x38a76275	7.9815196e-05
58	0x38a54179	7.880008e-05
59	0x38a38cca	7.79867e-05
60	0x38a02fdc	7.638309e-05
61	0x389e6d36	7.554369e-05
62	0x389c107f	7.441732e-05
63	0x38a0ab01	7.6612465e-05
64	0x3892fb1d	7.008596e-05
65	0x38954898	7.118395e-05
66	0x3893c563	7.0462724e-05
67	0x387fcac9	6.0985596e-05
68	0x38659f14	5.4746008e-05
69	0x385433be	5.0592927e-05
70	0x385274cb	5.0176674e-05
71	0x383d6a39	4.516004e-05
72	0x382139b6	3.843914e-05
73	0x3815b4e8	3.569285e-05
74	0x38186388	3.633232e-05
75	0x3819943f	3.6616108e-05
76	0x3809e148	3.2873155e-05
77	0x380ab6d2	3.307203e-05
78	0x381590e2	3.56593e-05
79	0x3805ab36	3.1869124e-05
80	0x380468ca	3.1568845e-05
81	0x38001b1c	3.0542826e-05
82	0x37fa92e0	2.9870716e-05
83	0x37eb17dc	2.8025293e-05
84	0x37e50fdc	2.7306312e-05
85	0x37ee0e96	2.8378603e-05
86	0x37e807ee	2.7660248e-05
87	0x38074d35	3.2258413e-05
88	0x3810024f	3.4334425e-05
89	0x380a3526	3.2951262e-05
90	0x37fe1382	3.0288244e-05
91	0x3805c37c	3.189173e-05
92	0x3806ceaf	3.214058e-05
93	0x37f9a6c9	2.9760778e-05
94	0x37e15f27	2.6866399e-05
95	0x37dde302	2.6450962e-05
96	0x37ef08c9	2.8495111e-05
97	0x38056e55	3.1812426e-05
98	0x38014cef	3.0827647e-05
99	0x3805b61b	3.187927e-05

exp_avg f4 [1, 1, 2, 50]
0	0x3a04c63f	0.00050649414
1	0x39d4aa42	0.00040562643
2	0x3a05335c	0.00050812005
3	0x394ac4d2	0.00019337542
4	0xb8bba081	-8.946751e-05
5	0xb8952a80	-7.11279e-05
6	0xb87c4138	-6.014222e-05
7	0x398c4c0b	0.00026759537
8	0x390612f0	0.0001278629
9	0x398a186f	0.00026339616
10	0x39e02a1e	0.0004275599
11	0x39ab3699	0.0003265634
12	0x3a0efa77	0.0005454192
13	0x3a194cda	0.00058479386
14	0x3a2f5799	0.0006688773
15	0x39f5310b	0.0004676658
16	0x3a42a4e2	0.0007425082
17	0x3a6c496b	0.00090136257
18	0x3a2de8da	0.0006634124
19	0x3a296ca7	0.0006463029
20	0x3a0dfa57	0.00054160267
21	0x3a1f5a3b	0.0006078814
22	0x39ad5777	0.00033062298
23	0xb8e99b10	-0.000111391884
24	0xb8c1a929	-9.234466e-05
25	0xb9734206	-0.00023198882
26	0xba0f113b	-0.00054575846
27	0xba071465	-0.00051528803
28	0xba19ab7c	-0.000586204
29	0xba9d4f8b	-0.0012001855
30	0xba9b9bac	-0.0011871955
31	0xb9eedbd4	-0.00045558682
32	0xba01917e	-0.00049426395
33	0xb8550901	-5.0791543e-05
34	0xb921c269	-0.0001542658
35	0xb8cc4f3d	-9.742237e-05
36	0xb9231ecc	-0.00015556364
37	0x3945c74c	0.00018861628
38	0x399c6090	0.00029826583
39	0x398f71e7	0.0002735995
40	0x39536651	0.00020160644
41	0x3a01aca7	0.00049466867
42	0x3a09ae9b	0.00052521535
43	0x39cb8d16	0.00038824294
44	0x39a79fb0	0.000319717
45	0x39d90b39	0.00041397827
46	0x3a04fe37	0.00050732814
47	0x38cd64bc	9.793925e-05
48	0x391252a9	0.00013954438
49	0xb8e0c649	-0.00010718086
50	0x39db5bc9	0.0004183932
51	0x3a131007	0.0005609993
52	0x3a1e1bab	0.00060313445
53	0x36c13817	5.758378e-06
54	0xb90f3dbb	-0.00013660539
55	0xb68a0653	-4.1134567e-06
56	0x390aba68	0.00013230147
57	0x39875c96	0.00025818188
58	0x38d3cc8f	0.00010099366
59	0x39ba127d	0.0003549046
60	0x3965b001	0.00021904708
61	0x39903932	0.00027508434
62	0x39e7acf6	0.0004418862
63	0x39e8113f	0.00044263338
64	0x39f4e3b0	0.00046708947
65	0x39e39d24	0.00043413893
66	0x3a186ca0	0.0005814526
67	0x3a4a5ffc	0.0007719991
68	0x3a25d46e	0.0006325905
69	0x3a2f7ac4	0.0006694014
70	0x3a06ba04	0.0005139413
71	0x3a0880d8	0.00052071875
72	0x399f9a27	0.00030441696
73	0xb933541f	-0.00017102108
74	0x38e5ebfc	0.000109635264
75	0x38518920	4.995719e-05
76	0xb9b10d55	-0.00033770004
77	0xb9b5063f	-0.00034527664
78	0xb9a0f794	-0.00030702038
79	0xba476bbf	-0.0007607303
80	0xba86e1f7	-0.0010290731
81	0xb99fef9d	-0.0003050537
82	0xba179a01	-0.0005783141
83	0x38c4f03f	9.3907576e-05
84	0xb9c68e9b	-0.00037871752
85	0xb9030b83	-0.00012497422
86	0xb90640ca	-0.00012803372
87	0x3965469c	0.00021865446
88	0x38f37309	0.0001160857
89	0x3985c591	0.00025514935
90	0x395fe852	0.00021353483
91	0x39eb52f8	0.0004488451
92	0x39f3432d	0.00046398622
93	0x39a21983	0.00030918056
94	0x39a6a989	0.000317883
95	0x39feb46c	0.0004858108
96	0x3a029204	0.00049808645
97	0x39858bab	0.00025471798
98	0x3981fec7	0.0002479462
99	0xb834da1e	-4.311848e-05

exp_avg_sq f4 [1, 1, 2, 50]
0	0x37054bd2	7.945071e-06
1	0x36ebeeeb	7.0313595e-06
2	0x36dcc01a	6.5788745e-06
3	0x36a92063	5.040363e-06
4	0x3674c1ea	3.6471706e-06
5	0x36689f92	3.4663576e-06
6	0x36e09f14	6.6942393e-06
7	0x37024788	7.7652585e-06
8	0x3702c9f9	7.795629e-06
9	0x36f0f9da	7.181644e-06
10	0x36b41e6e	5.3679605e-06
11	0x36b109d0	5.2761534e-06
12	0x36974836	4.508557e-06
13	0x3674c22e	3.647186e-06
14	0x36565994	3.1940626e-06
15	0x366c87a4	3.5245694e-06
16	0x36872751	4.0278906e-06
17	0x368f6763	4.273768e-06
18	0x3691d3a5	4.3459754e-06
19	0x368d9149	4.219041e-06
20	0x36500ecc	3.1003028e-06
21	0x36852ca0	3.968904e-06
22	0x36989278	4.547004e-06
23	0x364e34e1	3.0727172e-06
24	0x36979ef2	4.5186544e-06
25	0x36da4145	6.5045047e-06
26	0x36c65ebd	5.911889e-06
27	0x371e0bda	9.420293e-06
28	0x37511864	1.246305e-05
29	0x375a469e	1.3010254e-05
30	0x372b97b7	1.0227718e-05
31	0x3703222c	7.816165e-06
32	0x36c8a8a9	5.980099e-06
33	0x36cecbfe	6.1630262e-06
34	0x36b58d44	5.410666e-06
35	0x3690ac70	4.311609e-06
36	0x36c20407	5.7821194e-06
37	0x36efda4e	7.148169e-06
38	0x36e02f19	6.681203e-06
39	0x36ef57b4	7.132965e-06
40	0x37160911	8.942808e-06
41	0x371152d9	8.661963e-06
42	0x36aa88a5	5.0823023e-06
43	0x36ace97a	5.1531797e-06
44	0x36a525b8	4.9217742e-06
45	0x36b5cac2	5.4178245e-06
46	0x36a32840	4.8624643e-06
47	0x36adc38c	5.1785664e-06
48	0x36d060b5	6.2101412e-06
49	0x370cd677	8.394584e-06
50	0x370afab6	8.283814e-06
51	0x36dde88c	6.6133853e-06
52	0x36e5ef7c	6.8526115e-06
53	0x36977845	4.514152e-06
54	0x365f10c9	3.323936e-06
55	0x368712ab	4.0254868e-06
56	0x36e4a51c	6.8141508e-06
57	0x370e017b	8.464204e-06
58	0x36f5d7e8	7.326704e-06
59	0x36d1a2c3	6.2476333e-06
60	0x36b79ffc	5.4724496e-06
61	0x36b4dbae	5.389992e-06
62	0x36931e7c	4.3844902e-06
63	0x36599c7f	3.2426613e-06
64	0x36505bab	3.1047773e-06
65	0x36787bdb	3.7026973e-06
66	0x368e32e7	4.2378556e-06
67	0x369749b4	4.508731e-06
68	0x36a2f4a1	4.856455e-06
69	0x368b2f53	4.148032e-06
70	0x365372f7	3.1508368e-06
71	0x36bf00db	5.692343e-06
72	0x3691a908	4.3410146e-06
73	0x3649c26f	3.006451e-06
74	0x368fd7f2	4.2868714e-06
75	0x36d8908a	6.454128e-06
76	0x36c0746e	5.7356e-06
77	0x3716df66	8.992711e-06
78	0x373d5453	1.1284911e-05
79	0x374f3013	1.2349355e-05
80	0x370e85b8	8.494993e-06
81	0x37017d70	7.718205e-06
82	0x36c9d9e8	6.0156344e-06
83	0x36d6737b	6.3911407e-06
84	0x36a9d9b7	5.061938e-06
85	0x36927a0d	4.3653476e-06
86	0x36c5048c	5.871587e-06
87	0x36f9e1ce	7.4470654e-06
88	0x36ceb72d	6.160603e-06
89	0x36d313d7	6.2905997e-06
90	0x3724db09	9.82616e-06
91	0x37180618	9.061325e-06
92	0x36a205bd	4.8286443e-06
93	0x36acdd66	5.1517736e-06
94	0x36a9a4b6	5.0557674e-06
95	0x36ac2db4	5.13132e-06
96	0x36a4128d	4.8897405e-06
97	0x36aa144c	5.0687577e-06
98	0x36cf5d31	6.1799296e-06
99	0x370d7d51	8.433432e-06

exp_avg f4 [32, 4]
0	0x38280ebb	4.006804e-05
1	0x380aca4f	3.309018e-05
2	0x382cd146	4.1202897e-05
3	0x37c03d6f	2.291679e-05
4	0x37ae6ca8	2.0793013e-05
5	0x37da206f	2.6002728e-05
6	0x36fc44f3	7.518212e-06
7	0x3753abe8	1.2616605e-05
8	0x3689d5fb	4.1078288e-06
9	0x36291444	2.5194759e-06
10	0x36f384d8	7.2574294e-06
11	0x368ed987	4.2572533e-06
12	0x3629e879	2.531828e-06
13	0xb449f266	-1.8807768e-07
14	0x35e99cfb	1.740554e-06
15	0x3601e406	1.9355225e-06
16	0x34e0c357	4.186538e-07
17	0x35f1b0a3	1.8007307e-06
18	0x35c14502	1.4399704e-06
19	0x3698bf48	4.552221e-06
20	0x38b52f74	8.6395914e-05
21	0x37f66c5c	2.9375944e-05
22	0x388c3ed0	6.68742e-05
23	0x37bf983f	2.283987e-05
24	0x37b7f306	2.1928467e-05
25	0x3784bedf	1.5824507e-05
26	0x376b51cf	1.4026139e-05
27	0x368fe845	4.288772e-06
28	0xb7157ccc	-8.910149e-06
29	0x36cf5cc0	6.1798783e-06
30	0xb6a14c35	-4.8070456e-06
31	0x372cc549	1.0297933e-05
32	0x385ebcd6	5.310479e-05
33	0x3819ebe8	3.6697747e-05
34	0x386720f8	5.5105396e-05
35	0x383737af	4.368246e-05
36	0x3653cc47	3.1560355e-06
37	0xb6629a1f	-3.3766335e-06
38	0x36d666b0	6.3896514e-06
39	0x36da65cf	6.5087584e-06
40	0x386c64e4	5.6360746e-05
41	0x3789b91b	1.641787e-05
42	0x38343cdb	4.297202e-05
43	0x3765c826	1.3696064e-05
44	0xb8d58d79	-0.00010182983
45	0xb842001e	-4.6253313e-05
46	0xb8890e94	-6.5353845e-05
47	0xb79673ae	-1.7935261e-05
48	0x36a4d4ea	4.9123673e-06
49	0x36eca720	7.052804e-06
50	0x34fd3cba	4.7169107e-07
51	0xb54e44f9	-7.684135e-07
52	0xb77e24f8	-1.5148187e-05
53	0xb7792f53	-1.4852575e-05
54	0xb6d94417	-6.4750307e-06
55	0xb6ecf6a1	-7.0620595e-06
56	0xb7607716	-1.3379167e-05
57	0xb625e64c	-2.4720966e-06
58	0xb7e010fa	-2.6710786e-05
59	0xb788c484	-1.6303973e-05
60	0x371105e1	8.644042e-06
61	0x363b9dfc	2.795713e-06
62	0x36fcea0e	7.537433e-06
63	0x3725af9f	9.875656e-06
64	0x36e8d387	6.938764e-06
65	0x36282371	2.505458e-06
66	0x37bc04a2	2.2413504e-05
67	0x37edf5ea	2.8367114e-05
68	0x37b4b87e	2.1543583e-05
69	0x37c50d41	2.3490402e-05
70	0x374feda8	1.2393495e-05
71	0x37418cb4	1.1536456e-05
72	0x00000000	0.0
73	0x00000000	0.0
74	0x00000000	0.0
75	0x00000000	0.0
76	0x381ecad9	3.7859052e-05
77	0x37918705	1.734822e-05
78	0x380a5df8	3.298928e-05
79	0x3744c544	1.172844e-05
80	0x372e45eb	1.0387487e-05
81	0x36e47c97	6.8094337e-06
82	0x35bdcbbe	1.4140894e-06
83	0xb6c635b8	-5.9071135e-06
84	0x37a3e0c2	1.9535775e-05
85	0x37ac7eb9	2.0563008e-05
86	0x370bdc70	8.33637e-06
87	0x372e4a2e	1.03884795e-05
88	0x363a2b6b	2.7741432e-06
89	0xb749c543	-1.2026462e-05
90	0x36a3a359	4.8767947e-06
91	0x35b22e7f	1.3275566e-06
92	0x3881d747	6.191298e-05
93	0x37a5e6a1	1.9776928e-05
94	0x37db5ddb	2.615054e-05
95	0xb6e6be4e	-6.8766885e-06
96	0xb8139487	-3.5185858e-05
97	0xb758f80e	-1.2932358e-05
98	0xb7b07d47	-2.1039172e-05
99	0x35505941	7.761592e-07
100	0x38ca4d6a	9.64653e-05
101	0x37a12fb1	1.9214904e-05
102	0x389b9cfa	7.420215e-05
103	0x379f1df3	1.8968223e-05
104	0x387fde98	6.1004044e-05
105	0x37a9c941	2.0240086e-05
106	0x3826b283	3.9743736e-05
107	0x3711c87a	8.689351e-06
108	0x3760e926	1.34057245e-05
109	0x3713d81a	8.812198e-06
110	0xb7453079	-1.1753401e-05
111	0x36e6576a	6.8647105e-06
112	0x3698724c	4.543259e-06
113	0xb6819c44	-3.8626913e-06
114	0xb481ee6b	-2.4201594e-07
115	0xb513d8f8	-5.50775e-07
116	0x00000000	0.0
117	0x222f5597	2.3762233e-18
118	0x2c032dbc	1.8641607e-12
119	0x2bd33b8c	1.5008979e-12
120	0x37d82487	2.5766216e-05
121	0x366927a0	3.474277e-06
122	0x37766df4	1.4688343e-05
123	0x37c732fa	2.3746386e-05
124	0x3840be86	4.5953806e-05
125	0x37920f88	1.7411789e-05
126	0x3812a208	3.4960016e-05
127	0x3483ec98	2.4572796e-07

exp_avg_sq f4 [32, 4]
0	0x32fe415e	2.9599217e-08
1	0x32e434c7	2.6566694e-08
2	0x3222ca50	9.475642e-09
3	0x320014e6	7.455332e-09
4	0x32eb0cbb	2.736339e-08
5	0x32c3ccce	2.2794122e-08
6	0x32aa9072	1.985629e-08
7	0x327a5e35	1.4573335e-08
8	0x2f9b793a	2.8280472e-10
9	0x2e4cd725	4.6575317e-11
10	0x2f93d9b5	2.6893834e-10
11	0x2efa13ea	1.1372221e-10
12	0x2f2021ef	1.4563971e-10
13	0x2edf9b42	1.0168445e-10
14	0x2fd267e5	3.82726e-10
15	0x2ef3846f	1.10738856e-10
16	0x2f4aaf67	1.8434108e-10
17	0x2e8c61a8	6.38381e-11
18	0x2f31356e	1.6117038e-10
19	0x2f2f92ec	1.5968354e-10
20	0x340017ba	1.192956e-07
21	0x33d8844b	1.0082348e-07
22	0x33810de0	6.0095545e-08
23	0x335248ac	4.896053e-08
24	0x3303305f	3.0544808e-08
25	0x32dc2c71	2.563158e-08
26	0x31a004d3	4.6571613e-09
27	0x31167f2f	2.1900168e-09
28	0x3216230c	8.739118e-09
29	0x31f5da13	7.1552306e-09
30	0x32279d49	9.756442e-09
31	0x31e34640	6.614556e-09
32	0x33f3babf	1.1349538e-07
33	0x33ef829d	1.1153063e-07
34	0x335e4c9e	5.1758086e-08
35	0x336a22e1	5.4514093e-08
36	0x3187ff72	3.958058e-09
37	0x31711469	3.5081718e-09
38	0x30075bb4	4.924303e-10
39	0x2fbfb3f5	3.4870565e-10
40	0x33a56189	7.701153e-08
41	0x338bdb9d	6.512639e-08
42	0x330b2ff3	3.240707e-08
43	0x330c552a	3.2673746e-08
44	0x34082237	1.2678434e-07
45	0x33e88ed8	1.0829325e-07
46	0x336c1589	5.4967618e-08
47	0x33583aa6	5.034476e-08
48	0x33b37940	8.357392e-08
49	0x3382c798	6.0899026e-08
50	0x3026fb1a	6.0747285e-10
51	0x2fa46e08	2.9909608e-10
52	0x334b64f1	4.7356426e-08
53	0x334f943e	4.833077e-08
54	0x329842be	1.772548e-08
55	0x329ec512	1.8483238e-08
56	0x336a8b5f	5.4609128e-08
57	0x3344b4c4	4.579921e-08
58	0x3283b342	1.5331924e-08
59	0x3285c252	1.5571604e-08
60	0x33703d91	5.593535e-08
61	0x3345ca61	4.60517e-08
62	0x32917f98	1.6938245e-08
63	0x3254066b	1.2341483e-08
64	0x33aeddbb	8.142839e-08
65	0x3394a419	6.921636e-08
66	0x32d75528	2.5068019e-08
67	0x32dacd6a	2.5471952e-08
68	0x32c29a5e	2.265477e-08
69	0x32a31d7c	1.8989105e-08
70	0x3278ddd7	1.44859404e-08
71	0x32250b33	9.6068105e-09
72	0x00000000	0.0
73	0x00000000	0.0
74	0x00000000	0.0
75	0x00000000	0.0
76	0x335fdc4b	5.212159e-08
77	0x333b4d8f	4.360987e-08
78	0x328b3b98	1.620883e-08
79	0x328d7b29	1.6470567e-08
80	0x32dcc105	2.5699146e-08
81	0x32c01dc9	2.2365287e-08
82	0x322eb06c	1.0168247e-08
83	0x322dc5d6	1.0114908e-08
84	0x32b72ff1	2.1325805e-08
85	0x32aad157	1.9885801e-08
86	0x31803c1b	3.7321235e-09
87	0x31a7ca27	4.8833217e-09
88	0x3302f26a	3.0488458e-08
89	0x32d5f90f	2.4909722e-08
90	0x32867faf	1.5657717e-08
91	0x322e9ce9	1.016381e-08
92	0x33a75ddd	7.793617e-08
93	0x33845811	6.162748e-08
94	0x32c7c8a8	2.3257897e-08
95	0x32b95546	2.1575612e-08
96	0x32512f87	1.2176208e-08
97	0x320cbe23	8.192305e-09
98	0x31151395	2.1693485e-09
99	0x305538d5	7.756971e-10
100	0x33e1aaf5	1.0508476e-07
101	0x33aa7054	7.936674e-08
102	0x32b1daac	2.0704952e-08
103	0x3291d594	1.6977346e-08
104	0x33ae7b45	8.124929e-08
105	0x3386cca3	6.2770845e-08
106	0x32352150	1.0543161e-08
107	0x321e13e0	9.2013295e-09
108	0x33dbaa66	1.02289775e-07
109	0x33c1e566	9.02899e-08
110	0x329f9f12	1.8582373e-08
111	0x32a595ca	1.9276644e-08
112	0x2efaa9fe	1.13988805e-10
113	0x2ef30787	1.1051698e-10
114	0x2d689fa2	1.3223119e-11
115	0x2ce9c28d	6.6438578e-12
116	0x00000000	0.0
117	0x27901137	3.9986693e-15
118	0x2b855459	9.47363e-13
119	0x2b3cb9f2	6.704907e-13
120	0x33a393c1	7.617155e-08
121	0x33901b85	6.710528e-08
122	0x330e90c5	3.319362e-08
123	0x330bb789	3.2530384e-08
124	0x338e8a31	6.637527e-08
125	0x335d1042	5.147036e-08
126	0x3252316d	1.2234847e-08
127	0x3212af08	8.538116e-09

exp_avg f4 [32]
0	0x37c6c03c	2.3692955e-05
1	0xb6c51145	-5.873068e-06
2	0xb6c20d6c	-5.783213e-06
3	0x3601a32d	1.9317479e-06
4	0xb5cf6116	-1.5450958e-06
5	0x382e0672	4.1490835e-05
6	0x373a3dea	1.1100879e-05
7	0xb6b677b4	-5.437958e-06
8	0x3802a156	3.114467e-05
9	0x36d01f61	6.202536e-06
10	0x37c752b5	2.3761162e-05
11	0xb858c6d0	-5.168357e-05
12	0x36cc1f5e	6.0833254e-06
13	0x354899b9	7.47295e-07
14	0xb79f2dac	-1.8975545e-05
15	0xb60fb9e9	-2.1416874e-06
16	0xb6b7d46e	-5.478555e-06
17	0xb62de1f8	-2.591054e-06
18	0x00000000	0.0
19	0x379f1c68	1.8967505e-05
20	0xb704a379	-7.905875e-06
21	0x354e4be0	7.685139e-07
22	0x379b021e	1.8478426e-05
23	0x37b3242c	2.1355307e-05
24	0xb6d134cc	-6.2348317e-06
25	0x3859543e	5.181529e-05
26	0x37f61bf3	2.93385e-05
27	0xb7c2373b	-2.315232e-05
28	0x35fe30fb	1.893873e-06
29	0x2ad911ab	3.8559203e-13
30	0x35c1ec6c	1.4448428e-06
31	0x37e47540	2.7234317e-05

exp_avg_sq f4 [32]
0	0x31864a29	3.9083443e-09
1	0x31b262db	5.1917204e-09
2	0x31930f61	4.2800115e-09
3	0x31abc52f	4.999172e-09
4	0x319f4426	4.6352566e-09
5	0x32a50366	1.9210074e-08
6	0x31456bb4	2.8728495e-09
7	0x31563a82	3.1174356e-09
8	0x32949af2	1.7299929e-08
9	0x31e8baa0	6.7733055e-09
10	0x322f431e	1.0201601e-08
11	0x32a28b3b	1.8922597e-08
12	0x31c7f2fa	5.8192855e-09
13	0x318cf928	4.102862e-09
14	0x320e1de5	8.272285e-09
15	0x320ed44b	8.313758e-09
16	0x32557194	1.24240565e-08
17	0x31802171	3.729092e-09
18	0x00000000	0.0
19	0x31d5c860	6.221896e-09
20	0x313550c5	2.6384879e-09
21	0x315a7e0e	3.179483e-09
22	0x31b6709f	5.3097007e-09
23	0x3202f25f	7.622105e-09
24	0x31a933c7	4.9244337e-09
25	0x32520ca6	1.2226485e-08
26	0x3215a66a	8.71078e-09
27	0x32ed6821	2.7637784e-08
28	0x31d37106	6.1537575e-09
29	0x293a7828	4.1404515e-14
30	0x324874ff	1.1668134e-08
31	0x320b3c21	8.104537e-09

exp_avg f4 [10, 32]
0	0xb71d3366	-9.369896e-06
1	0x39276bab	0.0001596647
2	0x379304ce	1.7526003e-05
3	0x372f8385	1.0461435e-05
4	0x378e34b3	1.695226e-05
5	0x37b51d8e	2.1590644e-05
6	0xb75e7355	-1.3259084e-05
7	0x381335d4	3.5097662e-05
8	0xb6b656b0	-5.4341144e-06
9	0x378b22a3	1.658622e-05
10	0x38ab127b	8.157358e-05
11	0x38a2d434	7.764288e-05
12	0x367a4057	3.7290354e-06
13	0xb6db21ea	-6.5306567e-06
14	0x385128c5	4.9867453e-05
15	0x366ff9c1	3.5759151e-06
16	0x385a5638	5.2055548e-05
17	0x3903092d	0.00012496552
18	0x00000000	0.0
19	0x36a13c57	4.8051984e-06
20	0x38e78fcb	0.00011041722
21	0x369737d7	4.5066513e-06
22	0x38080d73	3.2437452e-05
23	0x38f598a5	0.000117109426
24	0x37faa885	2.9880795e-05
25	0x381b1a21	3.6979214e-05
26	0x35181ca6	5.66661e-07
27	0x37a3c259	1.9521614e-05
28	0x3697d8ce	4.52539e-06
29	0x28ae9de0	1.9386348e-14
30	0x389cc0d7	7.474579e-05
31	0x38130bdc	3.5058576e-05
32	0x37a41157	1.9558398e-05
33	0x3901567a	0.00012334614
34	0x3758c984	1.2921522e-05
35	0x36b73f63	5.461204e-06
36	0x36f17f35	7.1971685e-06
37	0x3812324f	3.4855966e-05
38	0x370dd92e	8.454821e-06
39	0x36323364	2.655398e-06
40	0x366639c3	3.4306292e-06
41	0x36c159d6	5.7623065e-06
42	0x38c55dd5	9.4111696e-05
43	0x3842f0cf	4.6477475e-05
44	0x354dc2e4	7.6652054e-07
45	0x36b19461	5.2922846e-06
46	0x3836662b	4.3487333e-05
47	0x3689ab89	4.1028875e-06
48	0x38079fef	3.2335458e-05
49	0x38ec0d24	0.000112558046
50	0x00000000	0.0
51	0x380cb911	3.3550958e-05
52	0x388a9a5a	6.609103e-05
53	0xb528789d	-6.276039e-07
54	0x37fc8554	3.0102827e-05
55	0x38e06872	0.00010700607
56	0x37e22baa	2.6961632e-05
57	0x3813691e	3.514543e-05
58	0x37e3b405	2.7144337e-05
59	0x36e714b7	6.886748e-06
60	0x360707d7	2.012113e-06
61	0x290dc152	3.1475968e-14
62	0x384f6082	4.9442526e-05
63	0x385f4a7b	5.323671e-05
64	0x37c8d960	2.3943081e-05
65	0x38e225fd	0.00010783596
66	0x36a6d65f	4.9721416e-06
67	0x368b3d72	4.149676e-06
68	0x367c6aca	3.7613086e-06
69	0x383a0e8d	4.4359407e-05
70	0x36c11351	5.754097e-06
71	0x37d1e736	2.5022407e-05
72	0x37cf2736	2.4694582e-05
73	0x36ad0e59	5.157472e-06
74	0x388309f8	6.2484236e-05
75	0x3778c01f	1.4826684e-05
76	0x3649f318	3.0092833e-06
77	0x3700b002	7.6703745e-06
78	0x37e086c7	2.6765641e-05
79	0x38846cab	6.3144915e-05
80	0x383469b7	4.30138e-05
81	0x38b978ed	8.8440116e-05
82	0x00000000	0.0
83	0x380cbb4e	3.3553042e-05
84	0x384f28d5	4.9390674e-05
85	0x3677b22e	3.6909582e-06
86	0x36dba233	6.545591e-06
87	0x3898b79f	7.282127e-05
88	0xb64799e8	-2.9742896e-06
89	0x35ea1bef	1.7442488e-06
90	0x373ccfe6	1.1254078e-05
91	0x36cc66cf	6.0916423e-06
92	0x363d01e9	2.8164307e-06
93	0x297ce88f	5.6156953e-14
94	0x3877319c	5.893559e-05
95	0x377b3dd7	1.4975164e-05
96	0x35802e0e	9.550147e-07
97	0x382c1690	4.102901e-05
98	0xb659cdc8	-3.24553e-06
99	0xb5e5b21b	-1.7113665e-06
100	0xb64dbc30	-3.065692e-06
101	0x37679726	1.3803865e-05
102	0xb6002ba0	-1.909888e-06
103	0x375bffd4	1.3112982e-05
104	0x376a78d9	1.3975624e-05
105	0xb64ad99d	-3.0227013e-06
106	0x37525ca3	1.2538544e-05
107	0xb7bc65a4	-2.2458677e-05
108	0x36150803	2.2207394e-06
109	0x375f2b07	1.3301854e-05
110	0xb720b643	-9.579179e-06
111	0x3801978a	3.089713e-05
112	0x37cd9c90	2.451081e-05
113	0x3802034a	3.099748e-05
114	0x00000000	0.0
115	0x3815ace3	3.568538e-05
116	0x373eca7b	1.1372026e-05
117	0x35230092	6.072306e-07
118	0xb753d102	-1.26252435e-05
119	0x382b8bb6	4.0899693e-05
120	0xb78f6147	-1.7092227e-05
121	0xb7da883b	-2.6051062e-05
122	0xb7730d7b	-1.4487067e-05
123	0xb6700fab	-3.5771907e-06
124	0xb51244e7	-5.4489504e-07
125	0x295bf00d	4.883598e-14
126	0x3827f6fb	4.004592e-05
127	0xb806bc66	-3.212355e-05
128	0x361f420b	2.3731288e-06
129	0xb704193e	-7.87369e-06
130	0xb711026a	-8.643236e-06
131	0xb5d2d194	-1.5707215e-06
132	0xb68ae05f	-4.1388407e-06
133	0xb6227da5	-2.4213016e-06
134	0x35ba3dbf	1.387605e-06
135	0xb79dcfce	-1.8812625e-05
136	0xb696e9cd	-4.4975664e-06
137	0xb65fdd82	-3.3358524e-06
138	0x376d00dd	1.4126502e-05
139	0xb8087319	-3.253212e-05
140	0x35933de8	1.097037e-06
141	0x369f9a55	4.756536e-06
142	0xb782acc4	-1.5577658e-05
143	0xb7d7899f	-2.5694082e-05
144	0xb704df56	-7.919813e-06
145	0x36b3b2ae	5.3554168e-06
146	0x00000000	0.0
147	0x373375f3	1.0696694e-05
148	0xb7ac5190	-2.0541978e-05
149	0xb614bc27	-2.2163238e-06
150	0x33fcbdc8	1.17691854e-07
151	0x37a3c238	1.9521554e-05
152	0xb78ac272	-1.6541428e-05
153	0xb42b22ba	-1.593825e-07
154	0x364c92af	3.048375e-06
155	0xb66a649a	-3.4927275e-06
156	0xb55bf14c	-8.193499e-07
157	0x2972a117	5.3874518e-14
158	0x34641355	2.1241188e-07
159	0x3686736e	4.006949e-06
160	0xb589e2dd	-1.0273321e-06
161	0x37953f59	1.7791683e-05
162	0xb7633d96	-1.35445935e-05
163	0xb71c5e78	-9.32032e-06
164	0xb782c98d	-1.5591062e-05
165	0x352769a8	6.23661e-07
166	0xb3bef3bb	-8.891899e-08
167	0x371d851a	9.388919e-06
168	0x34e84609	4.3264325e-07
169	0xb7578bdb	-1.2847561e-05
170	0x363bb1e1	2.796871e-06
171	0xb79e2c3c	-1.8855666e-05
172	0x3554c067	7.9256137e-07
173	0x35d65b2f	1.597078e-06
174	0xb65b279c	-3.2656599e-06
175	0x36a18f32	4.814844e-06
176	0x370d2a31	8.414078e-06
177	0x373f31e4	1.1396103e-05
178	0x00000000	0.0
179	0x35ecbf60	1.7639068e-06
180	0x369ab71c	4.6108744e-06
181	0xb60814b8	-2.027764e-06
182	0xb722c40c	-9.701598e-06
183	0x35854894	9.930395e-07
184	0xb7795f62	-1.4863765e-05
185	0x360461ed	1.9726533e-06
186	0xb419b7a1	-1.4316039e-07
187	0xb78b6387	-1.6616437e-05
188	0xb62ea1bb	-2.602216e-06
189	0x287d6f2c	1.4068428e-14
190	0x37621a2d	1.3476744e-05
191	0x35a57ef0	1.2330402e-06
192	0x336939af	5.4302003e-08
193	0xb7f76804	-2.949313e-05
194	0xb72ae823	-1.0186838e-05
195	0xb6a4fa98	-4.916754e-06
196	0xb73b48ba	-1.1163002e-05
197	0xb7032073	-7.815764e-06
198	0x3582c497	9.74297e-07
199	0xb63b459e	-2.7905694e-06
200	0xb6916073	-4.332565e-06
201	0xb7249c60	-9.811571e-06
202	0xb7919a58	-1.7357219e-05
203	0xb7919708	-1.7355676e-05
204	0xb5025271	-4.854874e-07
205	0xb6ef5cc9	-7.1335567e-06
206	0xb6e83607	-6.9204284e-06
207	0xb715e304	-8.933948e-06
208	0xb6fdb92a	-7.5615435e-06
209	0xb7f7e5a3	-2.9551627e-05
210	0x00000000	0.0
211	0xb727001d	-9.954002e-06
212	0xb78da830	-1.6886828e-05
213	0xb7178ee1	-9.033568e-06
214	0xb78633d2	-1.5998176e-05
215	0xb83651d8	-4.3468404e-05
216	0xb73e8251	-1.1355224e-05
217	0x363b4b26	2.7908914e-06
218	0x361c5c8d	2.3299683e-06
219	0xb783c8b5	-1.5709878e-05
220	0xb51a31cd	-5.744194e-07
221	0x288aa98e	1.539461e-14
222	0xb7717547	-1.4392025e-05
223	0x36b9b688	5.534679e-06
224	0xb68db298	-4.2229185e-06
225	0xb8843146	-6.3034284e-05
226	0xb6f8b730	-7.412302e-06
227	0x35d82087	1.6102721e-06
228	0x3632876b	2.660289e-06
229	0xb754436c	-1.2651883e-05
230	0x35eb6341	1.7537751e-06
231	0xb6a045ee	-4.7765125e-06
232	0xb7029258	-7.782677e-06
233	0x36ab42e5	5.1039847e-06
234	0xb81221e7	-3.4840687e-05
235	0xb7cdb571	-2.4522395e-05
236	0x358a83bd	1.0320142e-06
237	0xb752535d	-1.2536385e-05
238	0xb78b4f03	-1.6606884e-05
239	0xb7aa2f35	-2.0287562e-05
240	0xb7c076e6	-2.294355e-05
241	0xb85ef281	-5.3154774e-05
242	0x00000000	0.0
243	0xb7e86249	-2.7702323e-05
244	0xb8167369	-3.587027e-05
245	0x35586aca	8.062167e-07
246	0xb740e561	-1.1497498e-05
247	0xb86b293c	-5.606677e-05
248	0xb76bedb9	-1.4062441e-05
249	0x35f7f12b	1.8473123e-06
250	0x36297ced	2.5255679e-06
251	0xb60e8b28	-2.1240648e-06
252	0x35e30dd5	1.6916844e-06
253	0x28834b9f	1.4576717e-14
254	0xb80b5cd5	-3.322664e-05
255	0x366f19ff	3.5628907e-06
