code/2021-04-12_19-15_last.pth (torch, 80051 bytes, 18 tensors)

encoder.maxpool_conv.0.0.weight f4 [1, 1, 2, 10]
0	0xbcd5eb90	-0.026113302
1	0xbe06eac7	-0.13175498
2	0x3ddfc057	0.10925358
3	0xbdbec8ad	-0.093156196
4	0xbd97b132	-0.07406844
5	0x3e520261	0.2050872
6	0x3e785625	0.24251612
7	0xbccc007d	-0.024902577
8	0xbe19f030	-0.1503303
9	0xbca11639	-0.019663917
10	0x3e2282b5	0.15870173
11	0xbde766ed	-0.112989284
12	0xbe4eadaa	-0.20183435
13	0xbdfd9868	-0.12382585
14	0x3e7c09b7	0.24613081
15	0x3d5840ba	0.052796103
16	0x3c278214	0.010223884
17	0x3e3ea276	0.18616661
18	0xbe474d63	-0.19463114
19	0xbd78ef84	-0.060775295

encoder.maxpool_conv.2.0.weight f4 [1, 1, 2, 10]
0	0xbde4ff93	-0.111815594
1	0x3d5ba26b	0.05362169
2	0x3df83260	0.12118983
3	0xbe06781d	-0.13131757
4	0x3da3c967	0.07997399
5	0x3e540f58	0.20708978
6	0xbe31310f	-0.1730387
7	0x3dae8c18	0.085228145
8	0xbe1991c9	-0.14997019
9	0xbd24c823	-0.040229928
10	0x3d748c0a	0.059703864
11	0xbccd8a17	-0.02509026
12	0x3c6e18b7	0.01453226
13	0xbdd7800f	-0.10522472
14	0x3e344c73	0.17607288
15	0xbd1a7b35	-0.037715156
16	0xbe3229ab	-0.17398708
17	0x3dbe0281	0.09277821
18	0xbe76de0f	-0.24108146
19	0xbd829784	-0.063765556

decoder.linear1.weight f4 [32, 164]
0	0x3df8cae2	0.12148072
1	0x3e479961	0.19492103
2	0x3d628460	0.055302024
3	0x3dd1834c	0.10230121
4	0x3c31cbe8	0.010851838
5	0xbc6c771f	-0.014432698
6	0xbc4d0308	-0.01251293
7	0xbd29964b	-0.041403096
8	0xbeae7999	-0.34077147
9	0xbe46f990	-0.19431138
10	0xbe4a64ec	-0.19765061
11	0xbe5dd931	-0.21664883
12	0x3e1e02fb	0.15430824
13	0x3dc8b807	0.098007254
14	0x3e813245	0.25233665
15	0x3e638c6f	0.2222154
16	0x3e40cd36	0.18828282
17	0x3dba1c0f	0.09087383
18	0xbd2da0b2	-0.04238958
19	0xbd5fcb39	-0.054637168
20	0xbd4a3526	-0.049367093
21	0xbdf605cc	-0.120128244
22	0x3d56a811	0.052406374
23	0x3cdb6e31	0.026785942
24	0xbca8a853	-0.020588076
25	0xbda6c9a8	-0.081439316
26	0x3dd02ad6	0.1016442
27	0x3dce720b	0.10080346
28	0xbc90b1ac	-0.017662846
29	0x3d300f28	0.042983204
30	0x3d470b05	0.048594493
31	0x3d9182e9	0.07105047
32	0x3e316af5	0.17325957
33	0x3e96038e	0.29299587
34	0x3d248687	0.040167358
35	0xbdabf766	-0.08396797
36	0xbea5a0fb	-0.3234938
37	0xbe593dcd	-0.21214981
38	0xbe1f659c	-0.15566105
39	0xbdb03fe8	-0.08605939
40	0xbcf13cb7	-0.029447896
41	0x3d41dbe6	0.047328852
42	0xbc91915e	-0.017769512
43	0xbc3b4b96	-0.011431595
44	0x3e7255ac	0.23665494
45	0x3dcaf2e3	0.09909608
46	0x3e377233	0.17914657
47	0x3d2b10b2	0.04176397
48	0xbe368806	-0.17825326
49	0xbe636494	-0.22206336
50	0xbd82ae5d	-0.063809134
51	0xbe013204	-0.12616736
52	0x3cf7da5e	0.030255493
53	0xbddf9805	-0.10917667
54	0xbcc6da5b	-0.024274042
55	0x3d02f33f	0.03197026
56	0x3dc6ab6b	0.09700664
57	0x3e0dd1c0	0.13849545
58	0x3e9fb860	0.31195354
59	0x3e1b68d6	0.1517671
60	0xbd189506	-0.037251495
61	0xbd2c9fcb	-0.042144578
62	0x3dde7184	0.10861495
63	0x3e028c00	0.12748718
64	0x3d2ba962	0.041909583
65	0xbd4d6ce9	-0.050152693
66	0xbe564086	-0.20923051
67	0xbe89dd5e	-0.26926702
68	0xbe23e542	-0.16005424
69	0xbe02d0e0	-0.12774992
70	0x3df1d7bd	0.11808727
71	0x3e18d5c4	0.14925295
72	0x3dfae724	0.12251118
73	0x3e06b672	0.13155535
74	0xbd2305a7	-0.039800312
75	0xbc0f8d48	-0.008761711
76	0xbcb2a76a	-0.021808345
77	0x3cb70bea	0.022344548
78	0x3ddc0e8f	0.10744964
79	0xbcd17d48	-0.025572434
80	0xbe12d147	-0.14337645
81	0x3d33d7d2	0.043906994
82	0xbdd6fd30	-0.104975104
83	0xbdb66475	-0.089058794
84	0x3b85a6be	0.004078715
85	0xbe141127	-0.14459668
86	0x3da28a3a	0.07936521
87	0x3d2f3de7	0.042783644
88	0x3ae8f398	0.0017772792
89	0x3da0247c	0.07819459
90	0xbdfcbff2	-0.12341298
91	0xbe3ace76	-0.18242821
92	0xbdafc017	-0.0858156
93	0xbd8548f0	-0.06508052
94	0xbd8c0e74	-0.06838694
95	0x3cd147f2	0.025547002
96	0xbdaadabb	-0.08342501
97	0xbe10c2fc	-0.1413688
98	0x3dc26fd6	0.09493987
99	0xbc493d7e	-0.012282727
100	0x3c71f5bd	0.014768061
101	0x3e660a2e	0.2246482
102	0xbe096254	-0.13416415
103	0x3c1f1860	0.009710401
104	0xbd3eb1da	-0.04655633
105	0xbe875b43	-0.26436815
106	0x3e39085b	0.18069594
107	0x3e9551da	0.2916401
108	0x3c934634	0.017977811
109	0x3e61d0b5	0.22052272
110	0x3e208fa7	0.15679799
111	0xbd1048d4	-0.035225704
112	0x3da6c8a5	0.08143739
113	0xbda37a87	-0.079823546
114	0xbd52de2c	-0.05148141
115	0x3dec74c3	0.11545708
116	0x3db32a5c	0.08748314
117	0xbdaf8299	-0.085698314
118	0xbe12e464	-0.14344937
119	0xbe8399f9	-0.2570341
120	0xbe8cab66	-0.27474517
121	0xbdc4a6e7	-0.096021466
122	0x3d1f4c3b	0.03889106
123	0xbc9557c4	-0.018230326
124	0x3daf77c8	0.08567768
125	0xbd2d0ad6	-0.042246662
126	0xbe161f7c	-0.14660448
127	0xbbe5a920	-0.0070086867
128	0xbe204767	-0.15652238
129	0xbdc562a3	-0.09637954
130	0xbda570e9	-0.080781765
131	0xbe29b6cc	-0.16573638
132	0xbdb7915b	-0.08963271
133	0xbc66b2cd	-0.014080715
134	0xbe45e325	-0.1932493
135	0xbd8beb52	-0.06831993
136	0xbd7fe1b2	-0.0624711
137	0xbdfea12e	-0.12433086
138	0x3e4aac32	0.1979225
139	0x3d38190b	0.044945758
140	0x3b961334	0.004579926
141	0x3d060043	0.032715093
142	0xbd9b21a6	-0.07574777
143	0xbc696819	-0.01424601
144	0xbe13198d	-0.14365216
145	0xbe1a7e23	-0.1508718
146	0xbe385d78	-0.18004405
147	0xbd51ca17	-0.05121812
148	0x3c8b49b1	0.017002912
149	0x3da9b7d5	0.08287016
150	0x3e57378a	0.2101728
151	0x3e0bde40	0.13659
152	0x3e1faebf	0.15594004
153	0x3e465afd	0.19370647
154	0x3e99013a	0.29883748
155	0x3e61934c	0.22028846
156	0x3e0036f2	0.1252096
157	0x3d1968cf	0.03745347
158	0xbd35d85f	-0.0443958
159	0xbe8314a0	-0.25601673
160	0xbe3099c9	-0.17246164
161	0xbe1afc89	-0.15135397
162	0xbe939d10	-0.28830767
163	0xbe5827f9	-0.21108998
164	0x3e3be2c3	0.18348221
165	0x3e421d36	0.18956456
166	0xbdb812e3	-0.08987977
167	0xbd2ba86b	-0.041908663
168	0xbe00cf2b	-0.12579028
169	0xbe2bce97	-0.16778027
170	0xbdae5eec	-0.08514199
171	0xbdb4a697	-0.08820837
172	0xbd66c915	-0.05634411
173	0x3ce4cfae	0.02793106
174	0x3d87f778	0.06638998
175	0xbc8c3c7b	-0.017118683
176	0x3da1a85a	0.07893439
177	0x3e191e0b	0.14952867
178	0xbdab69b8	-0.083697736
179	0x3dc8740a	0.09787758
180	0x3e062208	0.1309892
181	0x3e093604	0.13399512
182	0x3eaf9fa4	0.34301484
183	0x3e2f1985	0.17099579
184	0xbcb95c94	-0.022627153
185	0x3dd64899	0.10463066
186	0xbde21df7	-0.110408716
187	0xbd983213	-0.07431426
188	0x3e305ba2	0.17222455
189	0x3e45cf1e	0.1931729
190	0x3d598f48	0.05311516
191	0xbd538de1	-0.05164898
192	0xbdf8f4c6	-0.12156062
193	0xbe47161e	-0.19442031
194	0xbc8f0ad6	-0.017461222
195	0xbd8bf8d2	-0.06834568
196	0xbd137d82	-0.036008365
197	0x3cb084ae	0.021547642
198	0xbe876245	-0.2644216
199	0xbe2bb1ad	-0.16766997
200	0xbe80fe90	-0.25194216
201	0xbe69699e	-0.22794196
202	0xbead900f	-0.3389897
203	0xbe68ea7b	-0.22745697
204	0xbe5a1c1c	-0.21299785
205	0xbe60f0dc	-0.2196688
206	0x3cb6fafd	0.022336477
207	0x3d048418	0.032352537
208	0x3d524859	0.051338527
209	0xbd805827	-0.06266814
210	0x3e34dc81	0.1766224
211	0x3e60ee2e	0.21965858
212	0x3e3b056c	0.18263787
213	0x3dd912cc	0.10599288
214	0x3db66870	0.089066386
215	0xbd91368c	-0.07090482
216	0xbe0ae8c3	-0.13565354
217	0xbddc1bd5	-0.10747496
218	0x3dc2a745	0.095045604
219	0x3d9ee2d4	0.07758108
220	0x3e1e7cbc	0.1547727
221	0xbc02ab71	-0.007975445
222	0xbc402110	-0.011726633
223	0xbc04224e	-0.0080648195
224	0x3d91e5b7	0.07123893
225	0x3e613364	0.2199226
226	0x3e35d03b	0.17755215
227	0x3d46698d	0.048440505
228	0xbe223d70	-0.15843749
229	0xbe04fbc3	-0.12986664
230	0x3dd3cacc	0.10341415
231	0x3c7da2fb	0.015480752
232	0xbde0f66e	-0.10984503
233	0xbe0e8159	-0.1391653
234	0x3d6690c3	0.0562904
235	0x3d13a8c6	0.036049627
236	0x3e195116	0.14972338
237	0x3dc801f1	0.09765995
238	0xbe88e6f7	-0.26738712
239	0xbe8b2a02	-0.27180487
240	0xbd384772	-0.04499001
241	0xbc1cfae6	-0.009581303
242	0xbdbe03fc	-0.09278104
243	0xbdbe95d0	-0.09305918
244	0x3ca5ae5a	0.020224739
245	0xbe2f2680	-0.1710453
246	0xbc23e5f8	-0.010003559
247	0xbd9fddaf	-0.07805955
248	0xbe1716a5	-0.14754732
249	0x3aef713f	0.0018268003
250	0xbd18f369	-0.03734151
251	0x3dd82591	0.1055404
252	0x3cfe46b0	0.031039566
253	0x3cdd5007	0.0270157
254	0x3e0b88e6	0.13626441
255	0x3d23da98	0.04000339

decoder.linear1.bias f4 [32]
0	0xbc76db76	-0.015066972
1	0x3c0ec134	0.008713055
2	0x3e9908e4	0.29889596
3	0x3ea57a77	0.32319996
4	0x3ebcd762	0.36883074
5	0x3c9cc011	0.019134553
6	0xbd4f176d	-0.05055945
7	0x3e8aa5a9	0.27079514
8	0xbd5bddde	-0.053678386
9	0x3eb446fb	0.35210404
10	0xbdb31605	-0.08744434
11	0x3ebaff9c	0.3652314
12	0x3eb05daa	0.3444646
13	0xbdfa2712	-0.12214483
14	0x3e78c4ad	0.24293776
15	0x3e7d0054	0.24707156
16	0x3c660644	0.01403958
17	0x3ece185b	0.40252957
18	0x3d2e96a1	0.04262412
19	0x3eac7b85	0.33687988
20	0x3c1b912c	0.009495061
21	0x3ec237f8	0.37933326
22	0x3e894a5a	0.26814538
23	0xbb6c53b4	-0.0036060633
24	0x3eba2ea1	0.363637
25	0x3db309be	0.087420925
26	0xbde29927	-0.11064368
27	0x3d26ed63	0.040753733
28	0xbc895bbc	-0.016767375
29	0x3ea43e82	0.3207894
30	0x3d590ede	0.052992694
31	0x3eaedbea	0.34152156

decoder.linear2.weight f4 [10, 32]
0	0x3db4cdf4	0.08828345
1	0xbf606649	-0.87656075
2	0x3edfaac8	0.43684983
3	0x3eca862a	0.39555484
4	0x3e90f0cf	0.28308722
5	0xbf0a3227	-0.53982776
6	0x3e88b686	0.26701754
7	0x3eb66b3d	0.3562869
8	0xbf318b50	-0.693532
9	0x3ec88c3f	0.391695
10	0xbea7278e	-0.32647365
11	0x3e98fd1b	0.29880604
12	0x3e9b2354	0.3030039
13	0xbf2c047e	-0.67194355
14	0x3ecdb1eb	0.40174803
15	0x3eb7ca0d	0.3589634
16	0xbf301799	-0.6878601
17	0x3e5c6309	0.21522154
18	0xbf35dc6b	-0.71039456
19	0x3e9225c6	0.28544444
20	0xbf108d1b	-0.5646531
21	0x3ef43812	0.47699028
22	0x3e972715	0.29522005
23	0xbf04345b	-0.5164239
24	0x3e1ade55	0.15123875
25	0xbe90a46d	-0.28250447
26	0xbefa24af	-0.48856112
27	0x3d26dd7e	0.040738575
28	0xbf0a249a	-0.539621
29	0x3eeba378	0.46023154
30	0xbe07397c	-0.13205522
31	0x3edb500a	0.42834502
32	0xbf1b6cbc	-0.6071279
33	0xbf416434	-0.7554352
34	0x3eeb7dd9	0.45994452
35	0x3eb0160f	0.3439183
36	0x3e766596	0.2406219
37	0xbebcb363	-0.3685561
38	0xbe87de0d	-0.265366
39	0x3e488b46	0.19584379
40	0xbf1ba350	-0.6079607
41	0x3ec6a617	0.38798591
42	0xbf058047	-0.5214886
43	0x3eb4839f	0.3525667
44	0x3ee09256	0.43861645
45	0xbeb63b87	-0.3559229
46	0x3eb2e9f4	0.34944117
47	0x3e52f7ce	0.20602342
48	0xbf1b57ea	-0.6068102
49	0x3edd58fe	0.43231958
50	0xbef1bb8d	-0.47213402
51	0x3edcbb9b	0.43111882
52	0xbf3c9815	-0.7366956
53	0x3e5df242	0.21674445
54	0x3ed9fa6a	0.42573863
55	0xbea54377	-0.32278034
56	0x3ee7e73d	0.45293608
57	0xbdcbb545	-0.09946684
58	0xbef6a681	-0.48173907
59	0x3e38870c	0.18020266
60	0xbea855e9	-0.32878044
61	0x3ea8e697	0.32988426
62	0xbe1850ce	-0.14874575
63	0x3e76519c	0.24054569
64	0xbefb90e9	-0.49133995
65	0xbf46acb2	-0.7760726
66	0x3e184291	0.14869143
67	0x3e9fbdc9	0.31199482
68	0x3ecbeab2	0.39827496
69	0x3db646ca	0.08900221
70	0xbec54b8e	-0.38534206
71	0x3e863029	0.26208618
72	0xbf31a566	-0.69393003
73	0x3e9d5e8c	0.30736196
74	0xbf0d05a1	-0.55086714
75	0x3ef1de3b	0.4723986
76	0x3ef090f1	0.46985582
77	0xbec32fc9	-0.38122395
78	0x3ebf1715	0.37322298
79	0x3ef6a43b	0.48172173
80	0xbf2f80dd	-0.68556005
81	0x3eb7c0bb	0.3588923
82	0xbeb54bfa	-0.35409528
83	0x3eb6ed20	0.35727787
84	0xbf036e76	-0.51340425
85	0x3e203243	0.15644173
86	0x3eee77c6	0.46575755
87	0xbe6a294c	-0.22867316
88	0x3eaf725f	0.34266946
89	0x3e03f2a8	0.12885535
90	0xbf15878f	-0.5840997
91	0x3eb4d852	0.3532129
92	0x3c6d042a	0.014466325
93	0x3e241871	0.16024949
94	0x3dc22b1c	0.09480879
95	0x3ed773a9	0.4208043
96	0xbf029d62	-0.510214
97	0xbf36592a	-0.71229804
98	0x3e9bc96f	0.3042712
99	0x3ed74cf0	0.42050886
100	0x3eedf4fa	0.46475965
101	0x3e5b8575	0.21437629
102	0xbf0f1ef4	-0.55906606
103	0x3ec7c9f3	0.39021263
104	0xbf0d5835	-0.5521272
105	0x3ea4a6ba	0.32158452
106	0xbf068e10	-0.5256052
107	0x3ea40c63	0.320407
108	0x3e8c86e4	0.27446663
109	0xbe95e5fe	-0.29277033
110	0x3ea5aa86	0.32356662
111	0x3ed49fc0	0.4152813
112	0xbf28e03f	-0.6596717
113	0x3ed685f0	0.4189906
114	0xbec645db	-0.3872517
115	0x3e88f120	0.26746464
116	0xbf04c9bf	-0.5187034
117	0x3e709a07	0.23496257
118	0x3ecc678e	0.39922756
119	0xbe36442b	-0.17799442
120	0x3ebd86d5	0.3701693
121	0x3ea528b0	0.32257605
122	0xbf207bdf	-0.6268901
123	0xbe6b59ee	-0.22983524
124	0xbcc1207e	-0.023575064
125	0x3e9f3c03	0.31100473
126	0xbe077517	-0.1322826
127	0x3e672d7e	0.22575948
128	0xbe698420	-0.22804308
129	0xbf02e4eb	-0.5113055
130	0x3e47d3ad	0.19514342
131	0x3ee48f09	0.44640377
132	0x3edb4c70	0.42831755
133	0xbce70915	-0.028202573
134	0xbebf4357	-0.37356064
135	0x3e868e79	0.26280573
136	0xbf028270	-0.5098028
137	0x3e420991	0.18948962
138	0xbf147d41	-0.5800362
139	0x3eec2709	0.4612353
140	0x3e9ab02c	0.30212533
141	0xbed360f8	-0.4128492
142	0x3f01632e	0.5054196
143	0x3e54d77b	0.20785324
144	0xbf164fe4	-0.58715653
145	0x3eecab8a	0.46224624
146	0xbf2fdfc2	-0.687008
147	0x3e521d56	0.20519003
148	0xbe8ff58f	-0.28117034
149	0x3ed8c63b	0.42338738
150	0x3ec7c79a	0.3901947
151	0xbdf038d2	-0.117295876
152	0x3e85f92c	0.26166666
153	0x3ea2f53e	0.3182773
154	0xbf0bd410	-0.54620457
155	0xbea27ddc	-0.31736648
156	0xbe4fd9ef	-0.20297979
157	0x3e57fba8	0.21092093
158	0xbd2d3273	-0.04228444
159	0x3f03479f	0.5128116
160	0xbf020e61	-0.5080319
161	0xbf1cf913	-0.6131756
162	0x3e8220ca	0.2541564
163	0x3ef91a10	0.48652697
164	0x3e7cd70e	0.24691412
165	0xbe0ea6b8	-0.13930786
166	0xbe7568cd	-0.2396576
167	0x3e6adfc4	0.22936922
168	0xbec0f5b5	-0.3768746
169	0x3eca9263	0.3956481
170	0xbf11f997	-0.5702147
171	0x3ee93469	0.45547798
172	0x3e4740d9	0.19458331
173	0xbec5b6b6	-0.3861596
174	0x3ee7f06d	0.45300618
175	0x3ec4d8cf	0.38446662
176	0xbf1576db	-0.58384484
177	0x3e53a29b	0.20667498
178	0xbf132161	-0.5747281
179	0x3eb9f561	0.36320022
180	0xbf2e7342	-0.6814462
181	0x3e58864e	0.21144983
182	0x3ea3507a	0.31897336
183	0x3cc7c668	0.0243866
184	0x3eaa8211	0.33302358
185	0x3ef05660	0.469409
186	0xbf0a22cf	-0.53959364
187	0xbedc19da	-0.42988473
188	0xbf39783c	-0.7244909
189	0x3f064378	0.524467
190	0x3e338e11	0.17534663
191	0x3eccbc3c	0.3998736
192	0xbf060080	-0.5234451
193	0xbf1aa035	-0.60400707
194	0x3eec645e	0.46170324
195	0x3ea5c9a6	0.32380408
196	0x3eabdbea	0.3356622
197	0xbe2ad34e	-0.16682169
198	0xbed0812e	-0.40723556
199	0x3ee0a900	0.43878937
200	0xbe9fd588	-0.312176
201	0x3e09a2ac	0.1344096
202	0xbf12741d	-0.57208425
203	0x3ed9593a	0.42450887
204	0x3eceb474	0.4037205
205	0xbec1cee5	-0.3785316
206	0x3e97f0e5	0.29675975
207	0x3ef00595	0.4687926
208	0xbf19a061	-0.60010344
209	0x3e5be009	0.21472181
210	0xbf0d8bfd	-0.5529173
211	0x3e720419	0.23634376
212	0xbf5b4be7	-0.8566269
213	0x3ebd7065	0.36999813
214	0x3e6e3e10	0.23265862
215	0x3e592d9c	0.21208805
216	0x3ee1bf61	0.44091323
217	0x3eab6b93	0.3348051
218	0xbf0ea2e9	-0.5571733
219	0xbef5e894	-0.48029006
220	0xbf1d9a5e	-0.6156367
221	0x3ee3ce12	0.44493157
222	0xbd9445a8	-0.072398484
223	0x3e418fe9	0.18902554
224	0xbee6b07b	-0.4505652
225	0xbf60e0bd	-0.87842923
226	0x3edb1a3a	0.42793447
227	0x3e01e788	0.12685978
228	0x3e420044	0.18945414
229	0xbd83ea6a	-0.06441195
230	0xbeee5710	-0.46550798
231	0x3ee422d1	0.44557813
232	0xbe86ae18	-0.26304698
233	0x3ea09590	0.31364107
234	0xbf2975a5	-0.66195136
235	0x3eddebfa	0.43344098
236	0x3ebc9252	0.36830384
237	0xbeb6521c	-0.3560952
238	0x3ec56a48	0.3855765
239	0x3ee10ef6	0.43956727
240	0xbf28adf5	-0.6589044
241	0x3edd1428	0.4317944
242	0xbefa9164	-0.4893905
243	0x3e917f71	0.28417543
244	0xbf4bdca1	-0.7963353
245	0x3ebf91d4	0.37415946
246	0x3ee563d5	0.44802728
247	0x3e90604d	0.28198472
248	0x3ed5c9bd	0.41755477
249	0x3e18b706	0.14913568
250	0xbf1ce0fc	-0.612808
251	0xbed014b9	-0.4064081
252	0xbf27a555	-0.6548665
253	0x3e590ffa	0.21197501
254	0xbc85174d	-0.016246462
255	0x3e039459	0.12849559

decoder.linear2.bias f4 [10]
0	0x3e72ec96	0.23723063
1	0x3e37f344	0.17963892
2	0x3e8db30f	0.27675673
3	0x3ea6b32e	0.32558578
4	0x3daac8aa	0.08339055
5	0x3e7dea36	0.24796376
6	0x3d00c4fe	0.031437866
7	0x3d9af889	0.075669356
8	0x3d8f7a15	0.07005707
9	0x3e10462d	0.1408927

exp_avg f4 [1, 1, 2, 10]
0	0xc361f452	-225.95438
1	0xc35f99ee	-223.60129
2	0xc3526c0b	-210.42204
3	0xc348a4f5	-200.64436
4	0xc3371ea8	-183.11975
5	0xc320cc43	-160.7979
6	0xc33f9bcc	-191.60858
7	0xc32a3402	-170.20316
8	0xc2fcd6d2	-126.41957
9	0xc335d1bc	-181.81927
10	0xc37acf2e	-250.8093
11	0xc370b05a	-240.68887
12	0xc35f4a9e	-223.29147
13	0xc356c6a6	-214.77597
14	0xc3460da0	-198.05322
15	0xc33725ba	-183.14737
16	0xc34fe619	-207.89882
17	0xc337e0ee	-183.87863
18	0xc3142b48	-148.16907
19	0xc3429f8d	-194.62325

exp_avg_sq f4 [1, 1, 2, 10]
0	0x488a85b9	283693.78
1	0x488f3421	293281.03
2	0x48877f8a	277500.3
3	0x4881300f	264576.47
4	0x48816101	264968.03
5	0x488523d0	272670.5
6	0x4888679f	279356.97
7	0x488ea9eb	292175.34
8	0x4895d086	306820.2
9	0x4889831b	281624.84
10	0x4890a62d	296241.4
11	0x48934627	301617.22
12	0x4887f48c	278436.38
13	0x4883d753	270010.6
14	0x4881ef75	266107.66
15	0x4884fadf	272342.97
16	0x488965d0	281390.5
17	0x488c0a70	286803.5
18	0x4890fe96	296948.7
19	0x48870427	276513.22

exp_avg f4 [1, 1, 2, 10]
0	0x42160b2d	37.510914
1	0x42100142	36.00123
2	0x4101c06e	8.10948
3	0xc14aa1c2	-12.664492
4	0xc288ba0c	-68.36337
5	0xc230069d	-44.00646
6	0xc19f3f4e	-19.90591
7	0xc1eeb981	-29.840578
8	0xc231d01d	-44.453236
9	0xc21aff7b	-38.749493
10	0x421272b9	36.612034
11	0x41f3a8f5	30.457499
12	0x40f93041	7.7871404
13	0xc1a9593d	-21.168573
14	0xc291be91	-72.8722
15	0xc204f0c4	-33.235123
16	0xc17896f1	-15.536851
17	0xc2138e14	-36.88875
18	0xc2351968	-45.27481
19	0xc1ed3782	-29.652103

exp_avg_sq f4 [1, 1, 2, 10]
0	0x45e01e60	7171.797
1	0x460be6c4	8953.691
2	0x45e61437	7362.527
3	0x45fdb6dc	8118.8574
4	0x46898cd2	17606.41
5	0x4633ae4f	11499.577
6	0x45ce7e3e	6607.7803
7	0x459c6c23	5005.517
8	0x45bc8296	6032.323
9	0x45dce235	7068.276
10	0x45de4849	7113.0356
11	0x4616d3a4	9652.91
12	0x460053f9	8212.993
13	0x460e549e	9109.154
14	0x469983b0	19649.844
15	0x4627cf65	10739.849
16	0x45a948f1	5417.1177
17	0x45b402ed	5760.3657
18	0x45c90440	6432.5312
19	0x45c28f1a	6225.8877

exp_avg f4 [32, 164]
0	0xbe7c713d	-0.24652572
1	0xbe824734	-0.2544495
2	0xbe7c5c69	-0.24644627
3	0xbe81e4f2	-0.25369984
4	0xbe1342ff	-0.14381026
5	0xbe08cc44	-0.13359171
6	0xbdd65127	-0.10464697
7	0xbddaff64	-0.10693243
8	0xbd95063f	-0.07276582
9	0xbd6792de	-0.056536548
10	0xbdc45027	-0.095856
11	0xbdbd4f21	-0.09243608
12	0xbdd82ae0	-0.10555053
13	0xbe07a9e3	-0.132484
14	0xbe8dece8	-0.27719808
15	0xbe9a8148	-0.3017676
16	0xbe6fd27b	-0.23420136
17	0xbe6b8ff8	-0.23004138
18	0xbe1c50d0	-0.15265203
19	0xbe344c87	-0.17607318
20	0xbdfa351f	-0.12217163
21	0xbe079f06	-0.13244256
22	0xbe063287	-0.13105212
23	0xbdae1846	-0.085007235
24	0xbddf0dad	-0.1089128
25	0xbe087ab9	-0.13328065
26	0xbe4ff0aa	-0.2030665
27	0xbe6557c4	-0.22396761
28	0xbe7bf038	-0.24603355
29	0xbe6df74a	-0.23238865
30	0xbe5bfe09	-0.21483625
31	0xbe6b9d0d	-0.23009129
32	0xbe37da9b	-0.17954485
33	0xbe3fe067	-0.18737946
34	0xbdb977cf	-0.09056055
35	0xbd77eacf	-0.060526665
36	0xbd68e896	-0.056862436
37	0xbd492600	-0.049108505
38	0xbdf8ab6e	-0.121420726
39	0xbdffe223	-0.12494304
40	0xbe1c5a05	-0.15268715
41	0xbe25d136	-0.16193089
42	0xbe475438	-0.1946572
43	0xbe5b6a81	-0.21427347
44	0xbe9263da	-0.28591806
45	0xbe930538	-0.2871492
46	0xbe49fecc	-0.19726104
47	0xbe43f14e	-0.19135019
48	0xbdf77d38	-0.120844305
49	0xbdc76a94	-0.09737125
50	0xbdf88799	-0.12135238
51	0xbde5106f	-0.11184775
52	0xbdebeeb1	-0.11520136
53	0xbe0003b1	-0.12501408
54	0xbe0c8a7f	-0.13724707
55	0xbe24f187	-0.1610776
56	0xbe630093	-0.22168188
57	0xbe753be9	-0.23948635
58	0xbe7ffa72	-0.24997881
59	0xbe588d27	-0.21147595
60	0xbdfd7176	-0.123751566
61	0xbdf345ba	-0.11878534
62	0xbdd7ffa4	-0.105468065
63	0xbdf9c8ed	-0.12196527
64	0xbe1dad3e	-0.15398118
65	0xbe15d607	-0.14632426
66	0xbdf45708	-0.119306624
67	0xbdee4ca6	-0.11635713
68	0xbe100ef6	-0.14068207
69	0xbe31063a	-0.17287531
70	0xbe791919	-0.2432598
71	0xbe710fb3	-0.23541145
72	0xbe5538bb	-0.20822422
73	0xbe5009d5	-0.2031625
74	0xbde6b320	-0.11264634
75	0xbdfbe6b8	-0.122998655
76	0xbe410d20	-0.18852663
77	0xbe22cd65	-0.15898664
78	0xbe3d29e4	-0.18473011
79	0xbe1d1ae2	-0.15342286
80	0xbe18252e	-0.14857933
81	0xbe33dfd9	-0.1756586
82	0xbe2a8510	-0.16652322
83	0xbe2ff61e	-0.1718373
84	0xbe322167	-0.17395554
85	0xbe22cfc2	-0.15899566
86	0xbe35e063	-0.17761378
87	0xbe375f3a	-0.1790742
88	0xbe184f44	-0.14873987
89	0xbe1d10d9	-0.15338458
90	0xbe00c1f0	-0.12573981
91	0xbde22343	-0.11041882
92	0xbe0d962d	-0.13826819
93	0xbe1a0467	-0.15040742
94	0xbe2b83a4	-0.16749436
95	0xbe2094de	-0.15681788
96	0xbe0f45ab	-0.1399142
97	0xbe09fbb3	-0.13474922
98	0xbe202168	-0.15637743
99	0xbe2575c0	-0.161582
100	0xbe3bdf19	-0.18346824
101	0xbe2764cb	-0.16347043
102	0xbddfcd81	-0.10927869
103	0xbdff9a08	-0.12480551
104	0xbdd5d2f7	-0.10440629
105	0xbde4c1c5	-0.11169771
106	0xbe1ac729	-0.15115036
107	0xbe2db959	-0.16965236
108	0xbe10425a	-0.14087811
109	0xbe1dd6ca	-0.15413967
110	0xbe2debf1	-0.16984536
111	0xbe21c2d0	-0.15796971
112	0xbe4a6496	-0.19764933
113	0xbe4b8bf7	-0.19877611
114	0xbe2bf327	-0.16791974
115	0xbe46f00a	-0.19427505
116	0xbe2175c8	-0.15767586
117	0xbe0d5441	-0.13801672
118	0xbdfa05f8	-0.1220817
119	0xbdef60e4	-0.11688402
120	0xbddd19e9	-0.107959576
121	0xbe0f1db5	-0.13976176
122	0xbe151955	-0.14560445
123	0xbe17ff2c	-0.14843434
124	0xbe1db542	-0.15401176
125	0xbe1e3fe4	-0.1545406
126	0xbe333569	-0.17500843
127	0xbe39f827	-0.18161069
128	0xbe0b1f4d	-0.13586159
129	0xbe236fce	-0.15960619
130	0xbe02223d	-0.12708373
131	0xbe1337b8	-0.14376724
132	0xbe10abbc	-0.14128011
133	0xbe0c9f64	-0.13732678
134	0xbe189c62	-0.14903405
135	0xbe24767e	-0.16060826
136	0xbe1198b0	-0.14218402
137	0xbe1f3e8d	-0.15551205
138	0xbe2a765a	-0.1664671
139	0xbe3ad506	-0.18245324
140	0xbe53e839	-0.20694055
141	0xbe3f2124	-0.18664986
142	0xbdfb546d	-0.12271962
143	0xbe096974	-0.13419133
144	0xbde1b185	-0.11020187
145	0xbde03dd4	-0.10949293
146	0xbddf314e	-0.10898076
147	0xbddab618	-0.10679263
148	0xbe2b9c50	-0.16758847
149	0xbe3daa88	-0.18522084
150	0xbe581ba4	-0.21104294
151	0xbe6ac0a0	-0.22925043
152	0xbe872303	-0.263939
153	0xbe867480	-0.26260757
154	0xbe7b3ed0	-0.2453568
155	0xbe6c51eb	-0.23078124
156	0xbe0ed6c4	-0.13949114
157	0xbdf5177e	-0.119673714
158	0xbdc29f74	-0.095030695
159	0xbdadec4f	-0.08492338
160	0xbd5c8c90	-0.05384499
161	0xbd6723fe	-0.05643081
162	0xbdcec345	-0.100958385
163	0xbddab2fe	-0.10678671
164	0xbe92d324	-0.28676713
165	0xbe906a82	-0.2820626
166	0xbe79b78c	-0.24386424
167	0xbe72c25d	-0.23706956
168	0xbdc3024e	-0.09521924
169	0xbde7eb60	-0.11324191
170	0xbcd0576c	-0.025432311
171	0xbc2cfb9b	-0.010558034
172	0xbdfeefbc	-0.124480695
173	0xbe2116c0	-0.15731335
174	0xbe2a2582	-0.1661587
175	0xbe32cc11	-0.17460658
176	0xbe6f13b4	-0.2334736
177	0xbe712482	-0.23549083
178	0xbe755a22	-0.23960164
179	0xbe755934	-0.2395981
180	0xbeaab7a6	-0.33343238
181	0xbec3fc14	-0.38278258
182	0xbea8bbc6	-0.3295576
183	0xbea25e05	-0.31712356
184	0xbe5242ab	-0.20533244
185	0xbe3ff9da	-0.18747655
186	0xbe6b6310	-0.22987008
187	0xbe5d92ea	-0.21638075
188	0xbe876714	-0.2644583
189	0xbe83e6a5	-0.25761905
190	0xbe37da92	-0.17954472
191	0xbe5cbcf6	-0.21556458
192	0xbe3cce33	-0.18438034
193	0xbe4028cb	-0.18765561
194	0xbe7c7492	-0.24653843
195	0xbe67ea07	-0.22647868
196	0xbe3d6cf4	-0.18498594
197	0xbe33f7f7	-0.1757506
198	0xbdab5b14	-0.08366981
199	0xbdabc242	-0.08386661
200	0xbd9be3f2	-0.076118365
201	0xbdcc931b	-0.09988996
202	0xbdcac882	-0.09901525
203	0xbdc4035e	-0.09570955
204	0xbe119cf6	-0.14220032
205	0xbe266087	-0.1624776
206	0xbe8e8cf0	-0.27841902
207	0xbe9197da	-0.28436166
208	0xbe9a34ca	-0.301184
209	0xbe9c35e1	-0.30509856
210	0xbe9ad8e6	-0.30243605
211	0xbea13f20	-0.31493473
212	0xbe7ce6e8	-0.24697459
213	0xbe76f65d	-0.24117418
214	0xbe52873b	-0.20559399
215	0xbe2c1e73	-0.1680849
216	0xbe3be57b	-0.18349259
217	0xbe4f7fc7	-0.20263587
218	0xbe605d5f	-0.21910618
219	0xbe617aa2	-0.22019437
220	0xbe5a9def	-0.2134931
221	0xbe3016d8	-0.17196214
222	0xbe412fcf	-0.18865894
223	0xbe309b0b	-0.17246644
224	0xbe0838e0	-0.13302946
225	0xbe275756	-0.1634191
226	0xbe25c35f	-0.1618781
227	0xbe269cf7	-0.16270815
228	0xbe100080	-0.1406269
229	0xbe0ab3bf	-0.1354513
230	0xbe8b9dad	-0.27268735
231	0xbe982dd2	-0.29722458
232	0xbe4ad678	-0.19808376
233	0xbe7a009f	-0.244143
234	0xbe940020	-0.28906345
235	0xbe9a7545	-0.30167595
236	0xbea41969	-0.32050636
237	0xbe91b7a6	-0.28460425
238	0xbdd698f1	-0.1047839
239	0xbdf16a74	-0.117878824
240	0xbe2f2b4b	-0.17106359
241	0xbe337938	-0.1752671
242	0xbe2acd28	-0.16679823
243	0xbe406fd4	-0.18792659
244	0xbe73870d	-0.23781987
245	0xbe65ed49	-0.22453798
246	0xbe7c67a7	-0.24648915
247	0xbe6e0df5	-0.23247512
248	0xbe551a14	-0.2081073
249	0xbe88cbf3	-0.267181
250	0xbe80a37d	-0.25124732
251	0xbe6e0c47	-0.23246871
252	0xbe7dbb16	-0.24778399
253	0xbe4bfeb9	-0.19921388
254	0xbe572ec7	-0.21013938
255	0xbe62bcde	-0.2214236

exp_avg_sq f4 [32, 164]
0	0x3e14b5b6	0.14522442
1	0x3e217286	0.15766343
2	0x3e2587d7	0.161651
3	0x3e235564	0.15950543
4	0x3dfa0b24	0.12209156
5	0x3e0a8012	0.13525417
6	0x3d9d3ed5	0.07678
7	0x3d96d58e	0.07364951
8	0x3d2fca06	0.042917274
9	0x3d25f947	0.040520933
10	0x3d1a3837	0.037651267
11	0x3d1bdd6f	0.038052972
12	0x3db039eb	0.08604797
13	0x3ddbe3b1	0.10736788
14	0x3e393960	0.18088293
15	0x3e45b97c	0.19309038
16	0x3e169cff	0.14708327
17	0x3e133b79	0.14378156
18	0x3e120ebc	0.14263433
19	0x3e355e22	0.1771169
20	0x3de5b171	0.11215485
21	0x3de76213	0.11298003
22	0x3d940e64	0.07229307
23	0x3d833881	0.06407262
24	0x3d7302af	0.05932873
25	0x3d93e5b9	0.072215505
26	0x3dfb8d00	0.12282753
27	0x3e048cb8	0.12944305
28	0x3e08c690	0.13356996
29	0x3e01d59d	0.12679143
30	0x3e12950e	0.14314672
31	0x3e26c667	0.16286622
32	0x3e3f68ee	0.18692371
33	0x3e579585	0.21053131
34	0x3dbb8bfa	0.09157558
35	0x3dbac2af	0.09119164
36	0x3d21018a	0.03930811
37	0x3d2961ed	0.041353155
38	0x3d8c5003	0.068511985
39	0x3d93971e	0.07206558
40	0x3dc581f5	0.09643928
41	0x3dc5fdcc	0.096675485
42	0x3dc6c03d	0.09704635
43	0x3ddbb09c	0.10727045
44	0x3e3fdd5e	0.18736789
45	0x3e5a01ba	0.21289721
46	0x3e2876dd	0.16451593
47	0x3e2b5a46	0.16733655
48	0x3d8c4039	0.06848187
49	0x3d814687	0.0631228
50	0x3d7a0fcb	0.061050218
51	0x3da179c6	0.078845546
52	0x3dcea77a	0.10090537
53	0x3ddd7125	0.10812596
54	0x3dfe90c6	0.12429957
55	0x3dff7dca	0.12475164
56	0x3e2abda7	0.16673909
57	0x3e38fc2c	0.18064946
58	0x3e55e217	0.20887028
59	0x3e4c57bb	0.19955342
60	0x3de815a3	0.11332252
61	0x3de31ecc	0.110898584
62	0x3db9c205	0.090702094
63	0x3dcccf2d	0.10000453
64	0x3d9f3252	0.0777327
65	0x3d92fa85	0.07176689
66	0x3d4fcde2	0.050733455
67	0x3d4cb286	0.04997494
68	0x3d72d055	0.059280712
69	0x3d9a37ae	0.07530151
70	0x3e28ff2b	0.16503589
71	0x3e2c35af	0.16817354
72	0x3e3f6f65	0.18694837
73	0x3e4ac1b5	0.19800456
74	0x3dec0907	0.11525159
75	0x3e09d0b6	0.13458523
76	0x3dab4640	0.083630085
77	0x3db5f09c	0.08883783
78	0x3daa10e0	0.08304
79	0x3d9e7e83	0.07738974
80	0x3d98000c	0.07421884
81	0x3db4440b	0.08802041
82	0x3dc64ca7	0.09682589
83	0x3dd4a1f1	0.1038245
84	0x3e0b8122	0.13623479
85	0x3e04ccac	0.12968701
86	0x3e188b6d	0.14896937
87	0x3e32379b	0.17404024
88	0x3de2347d	0.110451676
89	0x3de1b79c	0.11021349
90	0x3d83063f	0.06397676
91	0x3d6d4ba8	0.05793348
92	0x3d8c680f	0.06855785
93	0x3da2e965	0.07954673
94	0x3d9eea1b	0.07759496
95	0x3db26803	0.08711245
96	0x3dcba151	0.09942878
97	0x3dc04af7	0.093892984
98	0x3e075ac3	0.13218217
99	0x3e04b3a7	0.12959157
100	0x3dd143e4	0.10218027
101	0x3ddf83eb	0.10913833
102	0x3d8fe76d	0.07026563
103	0x3d9d8540	0.07691431
104	0x3d67b8be	0.05657267
105	0x3d73d5ef	0.059530195
106	0x3db3ad55	0.08773295
107	0x3de32093	0.110901974
108	0x3dfc9ed7	0.12334984
109	0x3e0d640c	0.13807696
110	0x3e1b1465	0.15144499
111	0x3e176fe8	0.14788783
112	0x3e155ec1	0.14586927
113	0x3e1a3716	0.15060076
114	0x3e02cd46	0.12773618
115	0x3e126c36	0.14299092
116	0x3dde1c11	0.10845197
117	0x3db86828	0.09004241
118	0x3d78191c	0.06057082
119	0x3d6763a3	0.056491505
120	0x3d5dbe0e	0.05413633
121	0x3d8cbd4c	0.06872043
122	0x3d9b4446	0.075813815
123	0x3db05c98	0.08611411
124	0x3df901f7	0.12158578
125	0x3df2b5db	0.118510924
126	0x3e02327b	0.1271457
127	0x3e046f5b	0.12933104
128	0x3de26a2c	0.11055407
129	0x3ddfaa4a	0.10921152
130	0x3d96e235	0.07367364
131	0x3daecbbb	0.08534952
132	0x3dc3f8d5	0.09568945
133	0x3dbb9ffc	0.09161374
134	0x3dcc30b3	0.09970226
135	0x3dd52e3f	0.10409211
136	0x3dff7621	0.12473703
137	0x3ddd47c0	0.10804701
138	0x3e0da1e5	0.13831289
139	0x3e138422	0.14405873
140	0x3e03bf9a	0.12866059
141	0x3e145064	0.14483792
142	0x3df31ca3	0.118706964
143	0x3dd65368	0.10465127
144	0x3d7eca6e	0.06220477
145	0x3d5d9561	0.054097537
146	0x3d5e4011	0.054260317
147	0x3d94774c	0.072493166
148	0x3db06999	0.08613891
149	0x3dd1d47d	0.10245607
150	0x3e0febfd	0.14054866
151	0x3e15d403	0.14631657
152	0x3e4335f1	0.19063546
153	0x3e47a33f	0.19495867
154	0x3e4aa462	0.1978927
155	0x3e4dc0c1	0.20093061
156	0x3df9a498	0.12189597
157	0x3df5a7d8	0.11994904
158	0x3d57ee3d	0.052717436
159	0x3d6e88e8	0.058236033
160	0x3d30a4c0	0.043125868
161	0x3d581e53	0.052763294
162	0x3d89d2c7	0.06729656
163	0x3d65517b	0.05598591
164	0x3eca7432	0.39541775
165	0x3ec89167	0.39173433
166	0x3e7094c9	0.23494257
167	0x3e61246f	0.21986555
168	0x3dee83b5	0.11646215
169	0x3df59781	0.11991788
170	0x3e0f904b	0.14019887
171	0x3e1f545a	0.15559521
172	0x3e023c91	0.12718417
173	0x3e0e13c9	0.13874735
174	0x3e1fd70e	0.1560938
175	0x3e27e7e5	0.16397054
176	0x3e86454e	0.2622475
177	0x3e9a37f5	0.30120817
178	0x3eae3f08	0.34032464
179	0x3eda8cc6	0.42685527
180	0x3edb024c	0.4277519
181	0x3ef29f1b	0.47387013
182	0x3efd0fb5	0.49426046
183	0x3f096072	0.5366279
184	0x3ea71f48	0.32641053
185	0x3ebfd29f	0.3746538
186	0x3e8fe18e	0.28101772
187	0x3e74ccd5	0.23906262
188	0x3ea0d906	0.31415576
189	0x3ea07ff2	0.31347615
190	0x3e4cc119	0.19995536
191	0x3e62bf14	0.22143203
192	0x3e731b26	0.23740825
193	0x3e7c9785	0.24667175
194	0x3eb36fb6	0.35046166
195	0x3eb42da7	0.3519108
196	0x3e9b9e8b	0.30394396
197	0x3ea3bdec	0.31980836
198	0x3e43f0f6	0.19134888
199	0x3e4577c1	0.19283964
200	0x3df36493	0.118844174
201	0x3de8dfcf	0.11370813
202	0x3d97e73a	0.0741715
203	0x3da67f40	0.0812974
204	0x3e0f83b8	0.1401509
205	0x3e160491	0.1465018
206	0x3e76d60d	0.24105091
207	0x3e8c0a89	0.27351788
208	0x3e9b3d5a	0.30320245
209	0x3ebaa08a	0.36450607
210	0x3ed61e75	0.41820112
211	0x3ef8c694	0.48589003
212	0x3f08fec9	0.5351377
213	0x3eeee9fa	0.46662885
214	0x3ebe4ff2	0.37170368
215	0x3ebc9791	0.36834386
216	0x3e4e4364	0.20142895
217	0x3e68d830	0.22738719
218	0x3e8d4df6	0.27598542
219	0x3e8f1569	0.27946022
220	0x3e707ad4	0.23484355
221	0x3e477e3c	0.19481748
222	0x3e1e9dd6	0.15489897
223	0x3e24d0d9	0.16095294
224	0x3e93f801	0.2890015
225	0x3ec63452	0.38711792
226	0x3ebb6970	0.3660388
227	0x3ec8c0bf	0.39209554
228	0x3e7cef79	0.24700727
229	0x3e9dbaee	0.3080668
230	0x3eabfabd	0.33589736
231	0x3ec52775	0.38506666
232	0x3ea92f4a	0.3304389
233	0x3eb28468	0.34866643
234	0x3ed304ef	0.41214702
235	0x3ee147a6	0.43999976
236	0x3ebb0ea5	0.3653461
237	0x3eaff737	0.34368297
238	0x3e51548a	0.20442405
239	0x3e4d4f70	0.20049834
240	0x3e10e8d4	0.14151317
241	0x3e0e716b	0.13910453
242	0x3dc3fcdf	0.09569716
243	0x3e042aec	0.12906998
244	0x3e3d4e59	0.18486919
245	0x3e2b362c	0.16719884
246	0x3e2754c6	0.16340932
247	0x3e3a8f1b	0.18218653
248	0x3e78842a	0.24269167
249	0x3e8cd753	0.2750803
250	0x3ec8a2ff	0.39186856
251	0x3ed2d16d	0.41175404
252	0x3ef16ab4	0.4715172
253	0x3f0e7f4e	0.55663
254	0x3f057e95	0.52146274
255	0x3f0b85d2	0.5450107

exp_avg f4 [32]
0	0xbe527037	-0.20550619
1	0xbe856510	-0.26053667
2	0x3f1df0ba	0.61695445
3	0x3f25c0de	0.64747417
4	0x3f247e86	0.6425556
5	0xbde2c354	-0.11072412
6	0xbe90aff9	-0.28259256
7	0x3f16a985	0.58852416
8	0xbeb1574c	-0.34636915
9	0x3f0f0e5e	0.558813
10	0xbeeb9b6f	-0.46017024
11	0x3f2fe65c	0.68710876
12	0x3f208900	0.62709045
13	0xbeb2897c	-0.34870517
14	0x3f39bbf7	0.72552437
15	0x3f286baf	0.6578931
16	0xbf0376f5	-0.5135339
17	0x3f21d85e	0.63220775
18	0xbf0cac2d	-0.5495022
19	0x3f15109f	0.58228487
20	0xbe8701b8	-0.263685
21	0x3f1810ca	0.5940062
22	0x3f27bf37	0.65526146
23	0xbe341cdf	-0.17589138
24	0x3f1b4a5b	0.6066033
25	0x3da127db	0.0786893
26	0xbedda4e6	-0.4328987
27	0xbc81d135	-0.015846828
28	0xbeae9165	-0.34095302
29	0x3f1e1c20	0.61761665
30	0x00000004	6e-45
31	0x3f21cf17	0.6320662

exp_avg_sq f4 [32]
0	0x3e0d5fce	0.13806078
1	0x3eae9861	0.3410063
2	0x3fc83859	1.5642196
3	0x3fd707ba	1.6799233
4	0x3fda32ea	1.7046788
5	0x3d4375c5	0.047719736
6	0x3ea25e8e	0.31712765
7	0x3fb8aa4b	1.4426969
8	0x3ee1d19b	0.4410523
9	0x3fa04a5f	1.2522696
10	0x3f55b7b5	0.8348344
11	0x3ffc9943	1.9734272
12	0x3fc935c8	1.5719538
13	0x3f1f42b1	0.6221114
14	0x400b194b	2.1734188
15	0x3feb222a	1.8369801
16	0x3f724be1	0.9464703
17	0x3fd1de26	1.6395919
18	0x3f2c41f9	0.67288166
19	0x3fb3d014	1.4047875
20	0x3e2d588b	0.16928308
21	0x3fb75ab0	1.4324551
22	0x3fd93a4b	1.6970915
23	0x3e4f5c03	0.20249943
24	0x3fc9a313	1.5752891
25	0x3dde41ad	0.108523704
26	0x3f75c49b	0.9600312
27	0x3b891c88	0.0041843094
28	0x3e6e181b	0.23251383
29	0x3fd00603	1.6251835
30	0x32eb70dd	2.7408925e-08
31	0x3fc927ca	1.5715268

exp_avg f4 [10, 32]
0	0x3ea9a9de	0.3313741
1	0x3df227d5	0.118240036
2	0x4105ce8f	8.362929
3	0x4107b9ac	8.48283
4	0x41032f9b	8.199122
5	0x3e980422	0.29690653
6	0x3e140b48	0.14457428
7	0x410a8bb3	8.659106
8	0x3eda71c6	0.42664927
9	0x40fa4086	7.8203764
10	0x3eebd78e	0.46062893
11	0x40fd316a	7.912282
12	0x4107cee6	8.488012
13	0x3e7b8378	0.2456187
14	0x40f5b7e0	7.6786957
15	0x40fd6837	7.9189715
16	0x3ebf8e83	0.37413415
17	0x41061b0b	8.381602
18	0x3edeadd7	0.43492004
19	0x410d8e51	8.847245
20	0x3e03e773	0.1288126
21	0x410a030a	8.625742
22	0x41059896	8.349752
23	0x3fadacf0	1.3568401
24	0x410734b8	8.450371
25	0x3d8ecac4	0.06972268
26	0x3e957115	0.29187837
27	0x3d05bdad	0.032651592
28	0x3e18d0e3	0.14923434
29	0x4105b53b	8.356746
30	0x80000004	-6e-45
31	0x4107fba9	8.49894
32	0x3e1c9aa0	0.1529336
33	0x3ca53054	0.020164646
34	0x40f2826e	7.5784216
35	0x40f7c9a9	7.7433667
36	0x40ef89d4	7.4855747
37	0x3e76468f	0.24050353
38	0x3e58767a	0.21138945
39	0x40fb481a	7.8525515
40	0x3ee8292b	0.4534391
41	0x40e30db0	7.095421
42	0x3eb70a5f	0.357501
43	0x40e53c2d	7.1635957
44	0x40f6b723	7.7098556
45	0x3e7037e0	0.23458815
46	0x40dfc461	6.992722
47	0x40e61515	7.1900735
48	0x3e8183fd	0.25296012
49	0x40f2fcfe	7.593383
50	0x3eb0c8d9	0.34528235
51	0x4100bb26	8.045691
52	0x3d9847cb	0.074355684
53	0x40fb5198	7.85371
54	0x40f2745a	7.576703
55	0x3f9d97b3	1.231192
56	0x40f48037	7.640651
57	0x3d76bdb1	0.060239498
58	0x3e8b974d	0.2726387
59	0x3a83697e	0.0010025946
60	0x3e1e943c	0.15486234
61	0x40f21880	7.5654907
62	0x00000004	6e-45
63	0x40f8bb27	7.7728457
64	0x3dfc50d7	0.123201065
65	0x3da5fc3a	0.08104749
66	0x40e60632	7.1882563
67	0x40eb0cfd	7.3453355
68	0x40e2570e	7.073127
69	0x3e7a8df2	0.2446821
70	0x3e51a751	0.20473982
71	0x40eeb569	7.459645
72	0x3e8ddad3	0.27706012
73	0x40d7945c	6.7368603
74	0x3ed14894	0.40875685
75	0x40d9630e	6.7933416
76	0x40ea68c1	7.3252873
77	0x3e38763c	0.18013853
78	0x40d4fcdb	6.655866
79	0x40dbaed6	6.8650923
80	0x3e8d5cd9	0.276099
81	0x40e6e583	7.2155166
82	0x3e7e4f04	0.2483483
83	0x40f4a53d	7.6451707
84	0x3e09a3b2	0.13441351
85	0x40ee651b	7.449842
86	0x40e6fdc4	7.2184772
87	0x3f9306ec	1.1486487
88	0x40e8bb3e	7.2728567
89	0x3ddde779	0.108351655
90	0x3e7ee18c	0.24890727
91	0x3d03ee46	0.032209657
92	0x3e53a710	0.20669198
93	0x40e6a050	7.2070694
94	0x00000004	6e-45
95	0x40ecf7f6	7.4052687
96	0x3e233788	0.15939152
97	0x3d97dbba	0.074149564
98	0x40d5fc23	6.6870284
99	0x40db16b4	6.8465214
100	0x40d1beb8	6.554531
101	0x3e7250e0	0.23663664
102	0x3e3827e2	0.17983964
103	0x40ddfeac	6.937338
104	0x3e6dee23	0.23235373
105	0x40c86979	6.262875
106	0x3ed23925	0.41059223
107	0x40ca1a38	6.3157005
108	0x40d979ef	6.7961345
109	0x3e40b26f	0.18818067
110	0x40c6819c	6.2033215
111	0x40cba297	6.3635974
112	0x3eab1a7f	0.33418652
113	0x40d5f498	6.6861076
114	0x3e8656a3	0.26237974
115	0x40e2d8b6	7.088954
116	0x3e0aeac3	0.13566117
117	0x40ddb4fe	6.928344
118	0x40d61a33	6.690698
119	0x3f8701f3	1.054747
120	0x40d8cc25	6.77492
121	0x3de9fb38	0.11424869
122	0x3e837fd1	0.25683454
123	0x3cea10a2	0.028572384
124	0x3e364d75	0.17802985
125	0x40d6a50d	6.707648
126	0x80000004	-6e-45
127	0x40db4bad	6.852988
128	0x3e3f979a	0.18710175
129	0x3dc690f1	0.09695614
130	0x40e71390	7.221138
131	0x40eb9983	7.362489
132	0x40e26582	7.074891
133	0x3e2354aa	0.15950266
134	0x3e46f2a5	0.19428499
135	0x40f192df	7.5491786
136	0x3e0fb03e	0.14032075
137	0x40d834b8	6.7564354
138	0x3edccd81	0.43125537
139	0x40da9f94	6.8319798
140	0x40ea6626	7.3249693
141	0x3e7791c6	0.24176702
142	0x40d6b9b2	6.710168
143	0x40ddc867	6.930713
144	0x3f0f8825	0.56067115
145	0x40e78a4c	7.235632
146	0x3ea9cd65	0.33164516
147	0x40f66d2d	7.700827
148	0x3e9c8d3e	0.3057651
149	0x40efb4f1	7.4908376
150	0x40e8013d	7.250151
151	0x3f9cf9c8	1.2263727
152	0x40ea8987	7.329288
153	0x3e1290c6	0.14313039
154	0x3e844366	0.2583267
155	0x3d259ad1	0.040430848
156	0x3ddaf8b1	0.10691965
157	0x40e8e4ce	7.2779303
158	0x00000004	6e-45
159	0x40ee3ca0	7.4449005
160	0x3e113510	0.14180398
161	0x3d9fa5f0	0.07795322
162	0x408bb964	4.3663807
163	0x408d74b2	4.420495
164	0x4087c97d	4.2433457
165	0x3e0094b9	0.12556733
166	0x3e1210f4	0.1426428
167	0x408fd0b3	4.494226
168	0x3db6d892	0.08928026
169	0x408195a9	4.049519
170	0x3e60fbfb	0.21971123
171	0x4082c262	4.0862284
172	0x408d97c0	4.424774
173	0x3e46a75c	0.1939978
174	0x4080b29c	4.021803
175	0x4084b0ca	4.1465807
176	0x3e2f0191	0.17090441
177	0x408b9be4	4.3627796
178	0x3e3d9dab	0.18517177
179	0x4093cad2	4.6185083
180	0x3cbe3bbe	0.023221847
181	0x408f861e	4.4851217
182	0x408b1a3d	4.346953
183	0x3f196dce	0.59933174
184	0x408d58b0	4.417076
185	0xbcd6bf39	-0.026214229
186	0x3e581017	0.21099888
187	0x3d239715	0.039939005
188	0x3dad7a64	0.0847061
189	0x408b7f99	4.359326
190	0x00000004	6e-45
191	0x408e8c36	4.4546156
192	0x3e2a239c	0.16615146
193	0x3dbfe8c1	0.09370566
194	0x40a34b3b	5.1029334
195	0x40a3d05a	5.1191835
196	0x409e6b45	4.9505944
197	0x3e2c3501	0.16817094
198	0x3e1c81f4	0.15283948
199	0x40a83899	5.256909
200	0x3dc3d7dd	0.09562657
201	0x4096f0bd	4.716887
202	0x3e5c09d9	0.21488132
203	0x40987448	4.7641945
204	0x40a48d40	5.1422424
205	0x3e4a436f	0.19752286
206	0x40969cc6	4.7066374
207	0x409adf73	4.8397765
208	0x3ea7ce15	0.32774416
209	0x40a31f7f	5.0975947
210	0x3e7a054b	0.24416082
211	0x40acb259	5.396771
212	0x3ddf9098	0.10916251
213	0x40a7a1f3	5.238519
214	0x40a222ce	5.0667486
215	0x3f4afc84	0.7929156
216	0x40a48338	5.141018
217	0x3c3c448b	0.011490951
218	0x3e609f24	0.21935707
219	0x3d2ba562	0.04190577
220	0x3de983bf	0.11402082
221	0x40a2ffac	5.09371
222	0x00000004	6e-45
223	0x40a638a5	5.1944146
224	0x3dd79fd2	0.1052853
225	0x3d8ced76	0.068812296
226	0x40900b99	4.5014157
227	0x4091685f	4.5439906
228	0x408d8158	4.422039
229	0x3e01db6e	0.12681362
230	0x3e249cf6	0.16075501
231	0x4094f71c	4.6551647
232	0x3dedb224	0.11606243
233	0x4085a15a	4.175946
234	0x3e02f889	0.12790121
235	0x4087615b	4.230634
236	0x4091fcc9	4.5621076
237	0x3d80e1b1	0.06293047
238	0x4084cf4b	4.1503043
239	0x408943bc	4.2895184
240	0x3e840ee7	0.2579262
241	0x40907706	4.514529
242	0x3e8a8f44	0.27062428
243	0x4098708b	4.763738
244	0x3dbae092	0.09124865
245	0x409413c7	4.627414
246	0x40902cef	4.505485
247	0x3f1a87d0	0.60363483
248	0x4090ff41	4.531159
249	0x3ce7fee8	0.028319791
250	0x3e0f543b	0.13996975
251	0x3d442943	0.047890913
252	0x3e065cc2	0.13121322
253	0x408f8dc8	4.4860573
254	0x00000004	6e-45
255	0x40936d97	4.6071277

exp_avg_sq f4 [10, 32]
0	0x3eaf04ca	0.3418334
1	0x3cf45cf3	0.029829478
2	0x43919f27	291.24338
3	0x4398d7e2	305.68658
4	0x438a1256	276.14325
5	0x3e92b6ba	0.28655034
6	0x40b887dd	5.766585
7	0x439bb2fc	311.39832
8	0x3e928aed	0.28621617
9	0x43805d0d	256.72696
10	0x3f1f9443	0.62335604
11	0x43827716	260.93036
12	0x43948f4a	297.11945
13	0x3e8eabe0	0.27865505
14	0x4374d991	244.84987
15	0x4381b45e	259.40912
16	0x3e9274f3	0.2860485
17	0x438fb120	287.3838
18	0x3eb0ce90	0.34532595
19	0x43a0d997	321.69992
20	0x3cfa6eb7	0.030570371
21	0x439aea73	309.83163
22	0x438eb4a6	285.41132
23	0x4099d1b6	4.8068495
24	0x43905725	288.68082
25	0x3d74f70a	0.059805907
26	0x3ef06608	0.46952844
27	0x3cb28b5b	0.021794965
28	0x3d41c42b	0.04730622
29	0x4390b7e8	289.43677
30	0x32f2d7eb	2.8270696e-08
31	0x4398c206	305.5158
32	0x3d5ced90	0.053937495
33	0x3cd16363	0.025560087
34	0x434eca1c	206.78949
35	0x435509ca	213.03824
36	0x434603dd	198.01509
37	0x3e8458fc	0.2584914
38	0x3e098fd4	0.13433772
39	0x435ac389	218.76381
40	0x3eb82860	0.35968304
41	0x43343bac	180.2331
42	0x3ea8541a	0.32876664
43	0x43385b91	184.35768
44	0x435486c0	212.52637
45	0x3e83d0b8	0.25745177
46	0x4330228c	176.13495
47	0x4339b34a	185.70035
48	0x3e763dd4	0.24047023
49	0x434f9f1e	207.62155
50	0x3e868743	0.26275072
51	0x43673f62	231.24759
52	0x3c8d03eb	0.017213782
53	0x435c30f9	220.1913
54	0x434d4cb9	205.2997
55	0x40927618	4.5769157
56	0x4353fe18	211.99255
57	0x3d88281b	0.066482745
58	0x3ec1329d	0.37733927
59	0x3c7c9ed5	0.015418728
60	0x3d1d74ad	0.03844135
61	0x434d387e	205.22067
62	0x32e6ffc5	2.6891835e-08
63	0x4357eb14	215.91827
64	0x3d4561b5	0.048188884
65	0x3cb71d8c	0.022352956
66	0x4345949b	197.58049
67	0x434bb1fb	203.69524
68	0x433d7b1a	189.48087
69	0x3eb1ac60	0.34701824
70	0x3e1fa50e	0.15590307
71	0x43517e18	209.49255
72	0x3e1ff522	0.15620854
73	0x432c3db8	172.24109
74	0x3eb8f3e6	0.3612358
75	0x4330d738	176.8407
76	0x434b9183	203.5684
77	0x3e80c36a	0.2514909
78	0x4328da70	168.85327
79	0x4332e701	178.90236
80	0x3e3a91c6	0.1821967
81	0x43467904	198.47272
82	0x3e603fec	0.21899384
83	0x435d4f63	221.3101
84	0x3cb406bb	0.021975866
85	0x435237cd	210.21797
86	0x4344c091	196.75221
87	0x4089dd80	4.3082886
88	0x434a1ccd	202.1125
89	0x3e1d5019	0.15362586
90	0x3eb21457	0.34781143
91	0x3c6fa91d	0.014627722
92	0x3df33e2e	0.11877094
93	0x434441a9	196.25648
94	0x32f21e02	2.8186154e-08
95	0x434ed569	206.83363
96	0x3d4ec003	0.050476085
97	0x3ccb3c50	0.024809033
98	0x433f4c73	191.29863
99	0x43468284	198.50983
100	0x4337aa95	183.66634
101	0x3ef81f35	0.4846131
102	0x3de14556	0.10999553
103	0x434c9111	204.56667
104	0x3e2fa306	0.17152032
105	0x43279eed	167.6208
106	0x3f0fb725	0.5613883
107	0x432b9417	171.57848
108	0x43453265	197.19685
109	0x3e7458e8	0.2386204
110	0x4323ce1c	163.80511
111	0x432dc57b	173.77141
112	0x3e3489bb	0.17630665
113	0x4340b40a	192.70328
114	0x3e23be6e	0.15990612
115	0x4356daff	214.85545
116	0x3cb34d7d	0.021887535
117	0x434c0b51	204.0442
118	0x433f3356	191.20053
119	0x4089ff7e	4.312438
120	0x434432af	196.19798
121	0x3e79d750	0.24398541
122	0x3ea6e292	0.32594734
123	0x3bdcdbbf	0.006740063
124	0x3dadd112	0.084871426
125	0x433f01fa	191.00772
126	0x32f21b62	2.818496e-08
127	0x43490919	201.03554
128	0x3d597c1d	0.05309688
129	0x3d3adb76	0.04561945
130	0x433b7f59	187.49745
131	0x43416918	193.41052
132	0x4333061e	179.0239
133	0x3ebbf7e5	0.36712566
134	0x3ddb35a9	0.10703594
135	0x43483f5e	200.24753
136	0x3e3f376e	0.18673488
137	0x43244917	164.2855
138	0x3ebaa556	0.36454266
139	0x43280f00	168.0586
140	0x434120fe	193.12888
141	0x3e4a7c80	0.19774055
142	0x431fecfb	159.9257
143	0x43298c60	169.54834
144	0x3e94dc09	0.29074124
145	0x433c7250	188.44653
146	0x3e2dc59d	0.16969915
147	0x43520ee8	210.05823
148	0x3dcd7eec	0.10033974
149	0x43480acf	200.04222
150	0x433b043d	187.01656
151	0x40873bcd	4.22605
152	0x434000a2	192.00247
153	0x3e4ba713	0.19887953
154	0x3eab8d6c	0.33506334
155	0x3c08e757	0.008355937
156	0x3d326dd4	0.04356177
157	0x433bc903	187.7852
158	0x32eb0410	2.7359448e-08
159	0x4344498c	196.2873
160	0x3d2cad4e	0.042157464
161	0x3d190a5b	0.03736339
162	0x4319aedf	153.68309
163	0x431e66bf	158.40135
164	0x4312b086	146.68954
165	0x3e8354f7	0.2565076
166	0x3daf1e8a	0.08550747
167	0x4322e031	162.87575
168	0x3e56593b	0.20932476
169	0x43063bea	134.23404
170	0x3ecbcdb4	0.39805377
171	0x4309c71b	137.77776
172	0x431e2d27	158.17638
173	0x3e3081e5	0.17237051
174	0x4302e5d1	130.89772
175	0x430acd16	138.80112
176	0x3e3b9040	0.18316746
177	0x4319831d	153.51216
178	0x3e2161df	0.15759991
179	0x432be2c0	171.88574
180	0x3d00341d	0.0312997
181	0x432321f3	163.13261
182	0x4318948c	152.58026
183	0x4062d2d8	3.544119
184	0x431d1e7a	157.11905
185	0x3dc511aa	0.0962251
186	0x3e97b396	0.296292
187	0x3c03dcf5	0.008048286
188	0x3ca1eac2	0.019765262
189	0x4318f09d	152.9399
190	0x32e3f8a1	2.6539341e-08
191	0x43204b8c	160.2951
192	0x3d509688	0.050924808
193	0x3d406416	0.04697045
194	0x431236f6	146.21469
195	0x43166705	150.40242
196	0x430b95ee	139.58566
197	0x3e689c2b	0.22715823
198	0x3daa830a	0.08325775
199	0x431aea9c	154.91644
200	0x3e83b320	0.257226
201	0x42fefbc3	127.49172
202	0x3ed0d523	0.4078761
203	0x4302d719	130.84023
204	0x43167ea3	150.49467
205	0x3e235f92	0.15954426
206	0x42f9101b	124.531456
207	0x4303c4aa	131.76822
208	0x3e3c7a82	0.18406108
209	0x4312373a	146.21573
210	0x3e54320e	0.2072222
211	0x43234864	163.28278
212	0x3c70cbbe	0.014697013
213	0x431b27cb	155.15544
214	0x4310f02e	144.9382
215	0x40521397	3.2824457
216	0x43159a6f	149.60326
217	0x3dc575d7	0.09641617
218	0x3e726727	0.23672162
219	0x3c04ae3f	0.008098184
220	0x3cb8522f	0.022500126
221	0x43111c80	145.11133
222	0x32ee5add	2.7748166e-08
223	0x4318182b	152.0944
224	0x3d2cb8ac	0.042168304
225	0x3cc61b26	0.024182867
226	0x431227de	146.15573
227	0x43151a88	149.10364
228	0x430b688f	139.40843
229	0x3e8273ca	0.25478965
230	0x3deaeebe	0.11471318
231	0x431a698f	154.41234
232	0x3e6f9321	0.23395969
233	0x42fda81e	126.828354
234	0x3ea00cea	0.31259853
235	0x4301baad	129.7292
236	0x43157373	149.45097
237	0x3e6ee959	0.23331203
238	0x42f83d5d	124.11985
239	0x43030513	131.01982
240	0x3e381705	0.17977531
241	0x4311fe2c	145.99286
242	0x3e63c1a3	0.22241835
243	0x4322b6e8	162.71448
244	0x3c66feed	0.014098865
245	0x431aea71	154.91579
246	0x43105ba2	144.35794
247	0x406bc64b	3.6839778
248	0x43159385	149.57625
249	0x3e3ed1ed	0.18634768
250	0x3e96dc47	0.29464933
251	0x3c076404	0.008263592
252	0x3cb8bb61	0.022550287
253	0x4310b2cf	144.69847
254	0x32f0dbca	2.8039626e-08
255	0x4317b43c	151.70404

exp_avg f4 [10]
0	0x3e853341	0.26015666
1	0x3e72c196	0.2370666
2	0x3e653e6f	0.22387098
3	0x3e53fdbe	0.20702264
4	0x3e65796b	0.22409599
5	0x3e030968	0.12796557
6	0x3e1d9827	0.15390073
7	0x3e0b2aa6	0.13590488
8	0x3dff1b18	0.124563396
9	0x3e0e7314	0.13911086

exp_avg_sq f4 [10]
0	0x3e93258c	0.28739583
1	0x3e49e177	0.19714914
2	0x3e40c6bf	0.18825816
3	0x3e3bfce3	0.18358187
4	0x3e37403f	0.17895602
5	0x3e177418	0.1479038
6	0x3e0f27f6	0.13980088
7	0x3e0fb324	0.1403318
8	0x3e25ea0f	0.16202568
9	0x3e390b94	0.18070823
