code/2021-04-12_18-58.pth (torch, 80051 bytes, 18 tensors)

encoder.maxpool_conv.0.0.weight f4 [1, 1, 2, 10]
-0.08845122 0.094543934 -0.096113965 -0.123333335 0.034490615 -0.04102315 -0.18338893 0.14629282
-0.13438271 -0.17054802 -0.115422204 0.13579637 0.13931632 0.1438118 0.0057724705 -0.13534048
0.047386684 0.18297552 0.014458679 0.1487907
00000000: ea25 b5bd 40a0 c13d 66d7 c4bd 3096 fcbd
00000010: 0846 0d3d e407 28bd 4fca 3bbe c9cd 153e
00000020: 9f9b 09be 24a4 2ebe 7a62 ecbd 340e 0b3e
00000030: f0a8 0e3e 6743 133e fe26 bd3b b296 0abe
00000040: 8a18 423d ef5d 3b3e 18e4 6c3c 975c 183e

encoder.maxpool_conv.2.0.weight f4 [1, 1, 2, 10]
-0.08023104 -0.19736226 -0.21063866 -0.1759478 -0.19097194 -0.017817903 -0.009529357 -0.04501221
-0.061860826 -0.09031566 0.080940135 0.10043272 0.1214403 0.1450212 0.16362584 0.16180761
0.12168169 0.1418216 0.08053509 0.11140023
00000000: 2c50 a4bd 5519 4abe a9b1 57be a92b 34be
00000010: 268e 43be daf6 91bc 0521 1cbc b95e 38bd
00000020: c761 7dbd 6bf7 b8bd f1c3 a53d abaf cd3d
00000030: b1b5 f83d 7080 143e 888d 273e e5b0 253e
00000040: 4034 f93d ae39 113e 95ef a43d ce25 e43d

decoder.linear1.weight f4 [32, 164]
-0.0112661095 0.14606579 0.042513836 0.15563315 0.058906786 0.21594459 -0.015849737 0.27105644
0.042575993 0.14541279 -0.018202016 0.18441227 0.08042017 0.2417537 0.10871691 0.2855962
0.058760215 0.21407782 0.10942663 0.18058905 -0.028494693 0.17897488 0.05368808 0.15905324
0.09127492 0.14744148 0.09141134 0.18418355 0.042205118 0.228414 0.08532512 0.24346577
0.111705616 0.23385847 0.053960644 0.25174558 0.047891192 0.16134655 -0.0038730758 0.22443067
0.07760495 0.17009369 -0.015166855 0.23870084 -0.030079663 0.17062517 0.07288832 0.15955314
-0.024456756 0.2369211 0.11946261 0.25525114 0.03193588 0.23632796 0.008623624 0.19014531
0.0706598 0.2969573 0.030377511 0.25165793 -0.0007673596 0.29755923 0.120604396 0.22495645
0.03357223 0.29349276 0.06337988 0.26060188 0.10268885 0.2851104 0.07400473 0.18368684
0.119808525 0.28071716 0.045551844 0.18925841 0.10389969 0.23135278 -0.007275512 0.30197603
0.045009777 0.29767224 0.009108476 0.19094239 0.080627054 0.16045466 0.08654835 0.30563846
0.09748529 0.25191894 0.035486333 0.2906597 0.051583264 0.20020103 0.05094067 0.17622092
0.07229517 0.28941804 -0.0026264226 0.25237074 -0.0070983693 0.2128904 -0.007726558 0.18960276
0.081765495 0.25274402 -0.013550957 0.19427365 0.012497752 0.22102658 0.083561845 0.16115442
0.12399717 0.2998393 0.12621449 0.29378405 0.0776715 0.28978035 -0.0007722775 0.26499835
0.029536432 0.2985612 0.08329916 0.2962216 0.061332803 0.20164587 -0.02635008 0.29020917
0.06630667 0.2002528 0.09647315 0.21443962 0.005409218 0.18697423 0.09612199 0.22074361
0.05330551 0.15932404 -0.023631163 0.22053473 0.009245849 0.23997867 0.016585289 0.17019284
0.10922436 0.28734338 -0.02791036 0.2944958 -0.0106522925 0.16058853 0.063295715 0.1496068
0.047910623 0.20147665 0.03781628 0.18955994 -0.004008787 0.2759797 0.04264359 0.26304632
0.017538002 0.27644607 0.043791953 0.16432987 0.122369535 0.28441083 0.021807572 0.18296126
-0.0026631264 0.16455342 0.09447258 0.16512631 -0.028188724 0.2048004 0.11675278 0.24227351
0.08345323 0.24682909 0.106693454 0.17538902 0.12606625 0.22549543 0.06810468 0.23942019
0.03455636 0.17101535 0.03751394 0.29526624 0.10008973 0.16956295 0.023265481 0.19429523
0.07244457 0.22344711 0.0047767316 0.28062692 0.018524837 0.3076125 0.048073936 0.18527535
0.024495373 0.21535414 0.08815841 0.1673718 0.01935009 0.30816475 0.029061152 0.187562
0.055889018 0.21667826 0.11310617 0.21126917 0.10048628 0.29220322 0.041673593 0.18347153
0.005714402 0.26242915 0.0051443987 0.20500119 0.08355353 0.3089835 0.017341428 0.31094295
-0.002191122 0.31765926 -0.0092066275 0.30535188 0.12550026 0.2521153 0.123878896 0.17018515
0.10964076 0.20306028 0.02304866 0.19558696 0.012360315 0.24160844 0.086636804 0.19360419
0.013381931 0.31247285 0.09116648 0.20391193 0.056421723 0.30367237 -0.019784618 0.20504023
0.105788045 0.2960296 0.09677339 0.18716088 -0.0029785892 0.20310193 0.044511367 0.2572285
00000000: 7d95 38bc 4592 153e fd22 2e3d 4c5e 1f3e
00000010: 3e48 713d 9420 5d3e 4fd7 81bc e9c7 8a3e
00000020: 2a64 2e3d 17e7 143e 651c 95bc 92d6 3c3e
00000030: 55b3 a43d 488e 773e f9a6 de3d aa39 923e
00000040: 8dae 703d 3737 5b3e 121b e03d 56ec 383e
00000050: b46d e9bc 3145 373e 08e8 5b3d dade 223e
00000060: 58ee ba3d e6fa 163e de35 bb3d 9d9a 3c3e
00000070: 46df 2c3d 5ce5 693e f0be ae3d 174f 793e
00000080: eac5 e43d 9878 6f3e d605 5d3d cce4 803e
00000090: 8e29 443d 0838 253e 6ed3 7dbb 27d1 653e
000000a0: 58ef 9e3d 0a2d 2e3e 677e 78bc fe6d 743e
000000b0: a069 f6bc 5db8 2e3e 7946 953d e661 233e
000000c0: 8959 c8bc 729b 723e d0a8 f43d 47b0 823e
000000d0: 33cf 023d f5ff 713e 1a4a 0d3c 74b5 423e
000000e0: 16b6 903d ca0a 983e 42da f83c 4fd9 803e
000000f0: a228 49ba af59 983e 70ff f63d fc5a 663e
00000100: 0983 093d af44 963e 4fcd 813d 9c6d 853e
00000110: 884e d23d fef9 913e cb8f 973d 6718 3c3e
00000120: 2c5e f53d 29ba 8f3e 9294 3a3d f5cc 413e
00000130: 5cc9 d43d bee7 6c3e 6b67 eebb 9a9c 9a3e
00000140: 2c5c 383d 7f68 983e b83b 153c 6786 433e
00000150: cc1f a53d 3a4e 243e 4340 b13d a57c 9c3e
00000160: 5ea6 c73d 85fb 803e 1e5a 113d 59d1 943e
00000170: f948 533d 8001 4d3e 2aa7 503d 4273 343e
00000180: 7d0f 943d 9a2e 943e 0f20 2cbb bd36 813e
00000190: 7099 e8bb f1ff 593e 112f fdbb 3a27 423e
000001a0: ab74 a73d aa67 813e d504 5ebc acef 463e
000001b0: 5fc3 4c3c cb54 623e 7922 ab3d aa05 253e
000001c0: 3af2 fd3d 8984 993e 5f3e 013e dd6a 963e
000001d0: 3c12 9f3d 175e 943e aa72 4aba ddad 873e
000001e0: 63f6 f13c 03dd 983e c098 aa3d 5caa 973e
000001f0: 1b38 7b3d 417c 4e3e 1fdc d7bc 4c96 943e
00000200: cbcb 873d 120f 4d3e b793 c53d 0f96 5b3e
00000210: cf3f b13b 2c76 3f3e 9bdb c43d 9d0a 623e
00000220: e156 5a3d d725 233e 2496 c1bc dbd3 613e
00000230: e77b 173c f8bc 753e dfdd 873c 0847 2e3e
00000240: 05b1 df3d ac1e 933e 44a4 e4bc 27c8 963e
00000250: f486 2ebc 5271 243e 2fa1 813d 8632 193e
00000260: ee3d 443d e54f 4e3e 3ee5 1a3d 001c 423e
00000270: 255c 83bb 364d 8d3e 0cab 2e3d 02ae 863e
00000280: dbab 8f3c 578a 8d3e 315f 333d 1746 283e
00000290: e19c fa3d 4c9e 913e cba5 b23c 325a 3b3e
000002a0: d987 2ebb b180 283e d77a c13d df16 293e
000002b0: 0aec e6bc 32b7 513e 151c ef3d 8c16 783e
000002c0: 87e9 aa3d c4c0 7c3e 1982 da3d 2e99 333e
000002d0: 8317 013e 46e8 663e 777a 8b3d 912a 753e
000002e0: f88a 0d3d a61e 2f3e 38a8 193d 232d 973e
000002f0: d8fb cc3d e9a1 2d3e 4097 be3c 54f5 463e
00000300: d25d 943d 52cf 643e 2186 9c3b 55ae 8f3e
00000310: 66c1 973c 637f 9d3e 2de9 443d d2b8 3d3e
00000320: 85aa c83c cc85 5c3e 658c b43d 8363 2b3e
00000330: 1484 9e3c c5c7 9d3e a711 ee3c 4110 403e
00000340: e2eb 643d e8e0 5d3e 35a4 e73d f256 583e
00000350: c0cb cd3d a99b 953e eeb1 2a3d f6df 3b3e
00000360: e13f bb3b 1d5d 863e 5892 a83b d5eb 513e
00000370: 1d1e ab3d 1633 9e3e 9c0f 8e3c ea33 9f3e
00000380: ed98 0fbb 3ca4 a23e 65d7 16bc 1557 9c3e
00000390: 2483 003e 4215 813e 38b4 fd3d 0445 2e3e
000003a0: 568b e03d 09ef 4f3e 8bd0 bc3c f347 483e
000003b0: eb82 4a3c 3468 773e a36e b13d 2d40 463e
000003c0: e33f 5b3c 71fc 9f3e 7eb5 ba3d 4ace 503e
000003d0: 771a 673d f27a 9b3e 5a13 a2bc 11f6 513e
000003e0: 67a7 d83d 3191 973e 2131 c63d 1aa7 3f3e
000003f0: 6f34 43bb f4f9 4f3e 8d51 363d 74b3 833e

decoder.linear1.bias f4 [32]
0.2616663 0.18244845 0.03080182 -0.02394463 -0.033329174 0.22834663 0.3077537 0.17360538
-0.011949894 -0.024540754 0.23790002 -0.033486854 0.21595037 0.26571757 0.2160493 0.15114647
0.20903362 0.18796596 -0.08209217 0.050765287 0.3182042 0.2162239 -0.020411687 -0.0532331
0.23251395 0.29242727 0.28200024 -0.07367257 0.18412283 0.2679631 -0.013015694 -0.059541993
00000000: 20f9 853e c4d3 3a3e 1954 fc3c 8727 c4bc
00000010: 2c84 08bd b3d3 693e e591 9d3e 9cc5 313e
00000020: 7dc9 43bc b109 c9bc 109c 733e 8329 09bd
00000030: 1822 5d3e 220c 883e 073c 5d3e 24c6 1a3e
00000040: e90c 563e 267a 403e f11f a8bd 43ef 4f3d
00000050: a9eb a23e cc69 5d3e 6936 a7bc f30a 5abd
00000060: 2318 6e3e 07b9 953e 5662 903e a5e1 96bd
00000070: b28a 3c3e 7632 893e c73f 55bc 4ee2 73bd

decoder.linear2.weight f4 [10, 32]
0.39152125 0.2245942 0.0672866 -0.16435929 -0.12229762 0.380779 0.42216507 0.08482126
-0.034487333 -0.15640791 0.15390708 -0.02403196 0.24515547 0.13131246 0.2795818 0.2587208
0.11271842 0.3240878 -0.10977815 -0.08167602 0.3238743 0.4330083 -0.15997577 0.00055296946
0.20379223 0.32038203 0.44107378 0.011227961 0.09918079 0.42834303 0.13009228 -0.15344763
0.090346776 0.25914443 0.04005932 -0.14800678 0.12301896 0.27084193 0.38794768 0.29871148
-0.041389212 -0.1659922 0.25745785 -0.14826699 0.111202516 0.43122452 0.21071029 0.26984492
0.30321276 0.30134344 -0.024357848 -0.01100612 0.3772113 0.18126385 -0.13663395 -0.111740775
0.43514067 0.4316524 0.24564634 0.13095616 0.18411633 0.18041548 -0.13574229 -0.005881553
0.43482998 0.1401889 0.07124457 -0.13501213 -0.04091775 0.13817807 0.40198907 0.45750952
0.043158084 -0.07652041 0.35244763 0.0014519695 0.13507226 0.15541479 0.37528142 0.16387095
0.30364656 0.17306519 -0.06658165 0.025019204 0.15608643 0.3394788 -0.09471362 -0.15281378
0.15593296 0.21467695 0.28706107 -0.082150206 0.40054178 0.44504574 -0.10947725 -0.04760457
0.20014507 0.42543638 -0.124263085 -0.13657023 -0.10970944 0.2844829 0.13843219 0.43381038
-0.07489167 0.092362635 0.34798062 -0.062668696 0.2974912 0.41885284 0.21934293 0.4642166
0.26100573 0.18977827 -0.1575065 -0.019220281 0.12985237 0.16952813 -0.027193522 -0.115498856
0.23620963 0.2034696 0.28673628 -0.13732266 0.25363067 0.27563035 0.061000396 -0.10030328
0.29168922 0.3992275 0.11264781 -0.03614585 0.18540125 0.30138576 0.18417473 0.38233772
0.15481314 -0.0076666395 0.15827604 -0.1561594 0.33384383 0.3000049 0.17811228 0.20439416
0.2475254 0.35720807 -0.004602941 -0.0077315415 0.11939839 0.39505774 -0.15317342 -0.06930695
0.32884222 0.3194977 0.15685575 -0.118020885 0.422421 0.16563803 -0.058934133 -0.15805164
0.38090962 0.21610118 0.0010150622 0.17276683 0.093584724 0.33470967 0.13757205 0.31657365
-0.1326807 0.10026465 0.2905301 0.07133939 0.37260094 0.21811315 0.37216 0.32094362
0.34765872 0.312121 -0.0791014 0.08252293 0.1866103 0.13409562 0.046247665 -0.092190795
0.2547121 0.07900373 0.17762339 0.041232817 0.4079743 0.3680186 -0.15827036 0.11368541
0.15490541 0.4445702 -0.052960962 0.031988036 -0.015511545 0.117350176 0.3699215 0.13660806
-0.1360074 -0.019186351 0.22669265 0.010804328 0.30041492 0.28641683 0.33045748 0.25098896
0.21365088 0.42073253 0.16187045 -0.03933896 0.2808715 0.2797881 0.064620905 0.14632656
0.10703336 0.3686707 0.31750447 -0.15020593 0.33699954 0.3092192 -0.09268252 0.119349524
0.35702026 0.20744662 -0.14871596 0.13264307 -0.09517348 0.4291239 0.27857107 0.12439072
0.06578706 -0.015950017 0.20202874 0.10626308 0.44107366 0.37357047 0.16081734 0.18671443
0.31352302 0.38284224 -0.08281673 0.014207064 0.33632725 0.37308165 0.18464212 -0.05372726
0.21359304 0.19039042 0.24795347 -0.0050603175 0.28711584 0.15005897 0.03775159 -0.05891371
00000000: 7975 c83e 06fc 653e 8fcd 893d cd4d 28be
00000010: 2d77 fabd 77f5 c23e 0526 d83e c5b6 ad3d
00000020: 9742 0dbd 6529 20be d199 1d3e acde c4bc
00000030: 090a 7b3e c676 063e 5825 8f3e 0d77 843e
00000040: ead8 e63d d6ee a53e 5ed3 e0bd c245 a7bd
00000050: dad2 a53e 44b3 dd3e b0d0 23be 27f5 103a
00000060: e9ae 503e 1d09 a43e 6cd4 e13e 7bf5 373c
00000070: 4c1f cb3d c74f db3e e936 053e 6021 1dbe
00000080: bb07 b93d 94ae 843e 3e15 243d 178f 17be
00000090: 5df1 fb3d cbab 8a3e 14a1 c63e b6f0 983e
000000a0: bc87 29bd dcf9 29be 84d1 833e 4dd3 17be
000000b0: 25be e33d 76c9 dc3e 70c4 573e 1d29 8a3e
000000c0: b43e 9b3e b049 9a3e 1c8a c7bc 0353 34bc
000000d0: d721 c13e 3b9d 393e c5e9 0bbe 59d8 e4bd
000000e0: c2ca de3e 8b01 dd3e b78a 7b3e 5f19 063e
000000f0: fe88 3c3e d6be 383e 0700 0bbe 0bba c0bb
00000100: 09a2 de3e ae8d 0f3e ace8 913d 9f40 0abe
00000110: 5f99 27bd 8d7e 0d3e 83d1 cd3e b03e ea3e
00000120: 88c6 303d bcb6 9cbd 0474 b43e 0350 be3a
00000130: 6250 0a3e 0e25 1f3e e324 c03e c9cd 273e
00000140: 9077 9b3e 0038 313e f65b 88bd 13f5 cc3c
00000150: 1fd5 1f3e 2ad0 ad3e 37f9 c1bd 377b 1cbe
00000160: e4ac 1f3e 46d4 5b3e abf9 923e 5e3e a8bd
00000170: d013 cd3e 09dd e33e 9c35 e0bd 02fd 42bd
00000180: d4f2 4c3e ccd2 d93e a57d febd 11d9 0bbe
00000190: 58af e0bd bea7 913e 2bc1 0d3e 651c de3e
000001a0: ce60 99bd 9f28 bd3d 842a b23e 7258 80bd
000001b0: c450 983e e173 d63e 6f9b 603e ccad ed3e
000001c0: 8ba2 853e 3c55 423e 6249 21be da73 9dbc
000001d0: 05f8 043e c898 2d3e f3c4 debc aa8a ecbd
000001e0: f0e0 713e 565a 503e 19cf 923e 509e 0cbe
000001f0: e1db 813e 6c1f 8d3e 8ddb 793d ce6b cdbd
00000200: 4a58 953e 8c67 cc3e e5b3 e63d ac0d 14bd
00000210: d3d9 3d3e 3c4f 9a3e 4d98 3c3e c5c1 c33e
00000220: 5687 1e3e 6f38 fbbb 1d13 223e 40e8 1fbe
00000230: 94ed aa3e 3e9a 993e 1163 363e b44c 513e
00000240: 4c77 7d3e fae3 b63e 45d4 96bb df58 fdbb
00000250: 2587 f43d 0245 ca3e 7ed9 1cbe cdf0 8dbd
00000260: 025e a83e 3495 a33e cb9e 203e efb4 f1bd
00000270: 9147 d83e 049d 293e eb64 71bd 4ad8 21be
00000280: 9606 c33e a149 5d3e d60b 853a cae9 303e
00000290: 59a9 bf3d 115f ab3e b0df 0c3e f115 a23e
000002a0: 73dd 07be 8e57 cd3d 5cc0 943e 631a 923d
000002b0: 8dc5 be3e 0e59 5f3e c18b be3e b952 a43e
000002c0: 5300 b23e 53ce 9f3e eaff a1bd c801 a93d
000002d0: c516 3f3e 5d50 093e 316e 3d3d 87ce bcbd
000002e0: a069 823e b5cc a13d e8e2 353e bee3 283d
000002f0: 02e2 d03e ef6c bc3e a011 22be e5d3 e83d
00000300: 869f 1e3e b59e e33e 98ed 58bd e305 033d
00000310: 2324 7ebc 4a55 f03d 5a66 bd3e fce2 0b3e
00000320: 8645 0bbe b22c 9dbc 1e22 683e a304 313c
00000330: fccf 993e 3aa5 923e b931 a93e a081 803e
00000340: 4cc7 5a3e 416a d73e 5ec1 253e e421 21bd
00000350: 64ce 8f3e 6340 8f3e f757 843d a1d6 153e
00000360: 4e34 db3d 68c2 bc3e f28f a23e 95cf 19be
00000370: 348b ac3e fb51 9e3e 55d0 bdbd 866d f43d
00000380: 5ccb b63e e36c 543e ff48 18be 96d3 073e
00000390: 50ea c2bd 21b6 db3e dea0 8e3e 90c0 fe3d
000003a0: 5ebb 863d 9ca9 82bc 9fe0 4e3e 75a0 d93d
000003b0: 68d4 e13e a144 bf3e 4dad 243e 1132 3f3e
000003c0: 1786 a03e e603 c43e d19b a9bd bfc4 683c
000003d0: 1633 ac3e 8f04 bf3e d312 3d3e 1e11 5cbd
000003e0: 22b8 5a3e b5f5 423e 84e7 7d3e 05d1 a5bb
000003f0: d900 933e 0fa9 193e 69a1 1a3d 814f 71bd

decoder.linear2.bias f4 [10]
0.0762066 0.0027473422 0.24782258 0.08768848 0.15847506 0.24274197 -0.013015743 0.0068837483
0.16682103 0.062598735
00000000: 3512 9c3d c10c 343b 34c5 7d3e 0596 b33d
00000010: 4947 223e 5a91 783e fc3f 55bc 1191 e13b
00000020: 22d3 2a3e c433 803d

exp_avg f4 [1, 1, 2, 10]
3691.8286 3657.848 3637.6492 3692.1116 3740.4688 3850.853 3822.82 3737.1877
3722.5105 3600.1956 3620.8628 3589.9385 3566.7297 3635.136 3721.498 3801.8093
3756.1423 3685.4534 3673.4539 3521.7817
00000000: 42bd 6645 919d 6445 635a 6345 c9c1 6645
00000010: 80c7 6945 a6ad 7045 1fed 6e45 0193 6945
00000020: 2ba8 6845 2103 6145 ce4d 6245 045f 6045
00000030: adeb 5e45 2d32 6345 f897 6845 f39c 6d45
00000040: 47c2 6a45 4157 6645 4397 6545 821c 5c45

exp_avg_sq f4 [1, 1, 2, 10]
4.6298424e+07 4.6234244e+07 4.6782692e+07 4.7495492e+07 4.8355144e+07 4.9413772e+07 5.0022464e+07 5.0409964e+07
5.095926e+07 5.1231124e+07 4.680551e+07 4.673099e+07 4.71273e+07 4.7911316e+07 4.901994e+07 5.000323e+07
5.050289e+07 5.084543e+07 5.1023684e+07 5.101255e+07
00000000: 4e9d 304c a15e 304c 3976 324c 512e 354c
00000010: d275 384c a37f 3c4c 10d2 3e4c 7b4c 404c
00000020: e764 424c 656e 434c 828c 324c bc43 324c
00000030: c1c6 334c 65c4 364c 09ff 3a4c 48bf 3e4c
00000040: 3aa7 404c bef5 414c d1a3 424c f298 424c

exp_avg f4 [1, 1, 2, 10]
69.589676 119.91707 114.93391 109.94693 99.74974 37.25318 45.62887 84.25587
99.8324 112.328896 93.49003 108.54695 109.290726 95.32301 87.57783 70.85034
72.97882 83.68542 99.713715 95.717674
00000000: ea2d 8b42 8ad5 ef42 29de e542 d4e4 db42
00000010: de7f c742 4203 1542 f683 3642 0183 a842
00000020: 30aa c742 65a8 e042 e5fa ba42 0a18 d942
00000030: da94 da42 62a5 be42 d927 af42 60b3 8d42
00000040: 28f5 9142 ef5e a742 6c6d c742 736f bf42

exp_avg_sq f4 [1, 1, 2, 10]
58575.3 7069.0005 6504.269 9575.851 11880.095 90463.414 89496.76 34950.77
28566.662 18614.592 7406.572 10546.353 14882.641 8107.613 3177.7 2938.543
6398.013 2876.3237 2556.6543 5489.41
00000000: 4dcf 6447 01e8 dc45 2742 cb45 679f 1546
00000010: 61a0 3946 b5af b047 61cc ae47 c586 0847
00000020: 532d df46 2f6d 9146 9374 e745 69c9 2446
00000030: 908a 6846 e75c fd45 339b 4645 b0a8 3745
00000040: 1bf0 c745 2ec5 3345 78ca 1f45 488b ab45

exp_avg f4 [32, 164]
-5.3338925e-24 8.147068 -5.2648896e-24 8.498817 -4.2214014e-24 8.600416 -4.0919726e-24 8.870533
-3.9869275e-24 9.124968 -3.9078418e-24 9.491816 -3.775512e-24 9.777543 -3.8359734e-24 9.668587
-3.7581282e-24 9.600242 -3.7473082e-24 9.403128 -3.7227983e-24 9.095665 -3.8041042e-24 8.855005
-3.912844e-24 8.699559 -4.0512303e-24 8.540269 -4.089477e-24 8.393065 -4.3885302e-24 8.033395
-4.026797e-24 7.9317346 -5.0778444e-24 7.9249883 -4.736652e-24 8.055642 -5.3500835e-24 7.9599996
-5.3628713e-24 7.8721457 -5.417583e-24 7.7770405 -5.9491705e-24 7.611093 -5.718428e-24 7.4131775
-1.3779753e-23 7.411897 -1.4564911e-23 7.4456477 -1.5900874e-23 7.4525166 -1.608479e-23 7.434986
-1.5589673e-23 7.3138266 -1.6005029e-23 7.254192 -1.6981542e-23 7.296631 -1.7664887e-23 7.348796
-1.8106295e-23 7.326304 -2.1590651e-23 7.499614 -2.0952043e-23 7.341198 -2.1962408e-23 7.3307333
-2.1780456e-23 7.4084187 -2.1674239e-23 7.445277 -2.191732e-23 7.6258535 -2.2361312e-23 7.702711
-2.260622e-23 7.706726 -2.2852996e-23 7.4842105 -2.3009867e-23 7.2266874 -2.3484616e-23 7.0547647
-2.3995478e-23 6.997341 -2.5709772e-23 6.972212 -2.4952491e-23 7.0161357 -2.6663013e-23 6.9301434
-2.663213e-23 7.070818 -2.68574e-23 7.1237044 -2.9569097e-23 7.158949 -2.7004845e-23 7.258504
-4.4931495e-23 7.4109826 -2.9173127e-23 7.609909 -4.4976983e-23 7.6827407 -3.8563948e-23 7.619715
-3.2212058e-22 7.5445566 -1.5911365e-22 7.5104747 -1.5824665e-13 7.4916573 -1.003368e-13 7.414003
-2.3723704e-13 7.1470137 -1.9795832e-13 7.0211596 -2.2293785e-13 6.795376 -2.3792746e-13 6.586804
-0.002264231 6.3495717 -0.0013597356 6.628971 -0.0029992328 6.7098846 -0.0021535398 6.917388
-0.0022283222 6.8276167 -0.0024482785 6.453421 -0.0008320442 6.243163 -0.00085105863 6.6006975
0.0002917118 6.85514 0.0022736057 7.4473395 0.008466625 7.725838 0.011084813 7.2905555
0.00097226794 6.696116 0.00095679925 6.5848284 0.0009913066 6.324207 0.0009888416 6.3613386
0.0010022974 6.454677 0.0009790446 6.1103997 -4.9107708e-24 7.079295 -4.744051e-24 7.393871
-4.0027812e-24 7.482319 -3.9115814e-24 7.767336 -3.8240533e-24 8.007941 -3.793206e-24 8.333055
-3.741934e-24 8.61939 -3.6374917e-24 8.5248375 -3.6334925e-24 8.453572 -3.6266582e-24 8.305913
-3.6331356e-24 8.048238 -3.6720836e-24 7.78074 -3.695249e-24 7.6768436 -3.765455e-24 7.4859953
-3.781189e-24 7.3456626 -3.862047e-24 7.045452 -3.965064e-24 6.946123 -4.1568406e-24 6.92764
-4.7390547e-24 7.0577087 -4.681317e-24 6.9607534 -4.9226684e-24 6.845823 -5.5692905e-24 6.7751474
-5.259579e-24 6.621835 -5.5130566e-24 6.4145365 -1.525689e-23 6.4505334 -1.5700927e-23 6.440331
-1.6294007e-23 6.4439473 -1.6417462e-23 6.461907 -1.6401277e-23 6.311931 -1.6508622e-23 6.28149
-1.707097e-23 6.3265047 -1.7422433e-23 6.3428173 -1.7611339e-23 6.328281 -2.025405e-23 6.4364233
-2.014383e-23 6.327158 -2.063691e-23 6.320448 -2.0615625e-23 6.395034 -2.0613638e-23 6.465598
-2.059789e-23 6.6124673 -2.0862566e-23 6.663723 -2.1066871e-23 6.658861 -2.1077729e-23 6.4181037
-2.1224244e-23 6.1979203 -2.1559619e-23 6.0519366 -2.1834463e-23 5.9894047 -2.2598661e-23 5.974443
00000000: 5058 ce98 645a 0241 f1ac cb98 28fb 0741
00000010: bc4e a398 4e9b 0941 ef4c 9e98 b4ed 0d41
00000020: 9e3c 9a98 deff 1141 642d 9798 7ade 1741
00000030: dc0e 9298 d170 1c41 a465 9498 88b2 1a41
00000040: b362 9198 979a 1941 8bf7 9098 3673 1641
00000050: cf04 9098 d887 1141 062a 9398 1aae 0d41
00000060: ee5e 9798 6531 0b41 71b9 9c98 f1a4 0841
00000070: 3834 9e98 ff49 0641 e6c5 a998 c988 0041
00000080: 77c7 9b98 c5d0 fd40 8970 c498 8199 fd40
00000090: 883d b798 e9e3 0041 a9f8 ce98 51b8 fe40
000000a0: 4e77 cf98 9ee8 fb40 2595 d198 84dd f840
000000b0: bb25 e698 138e f340 9138 dd98 c038 ed40
000000c0: 0445 8599 432e ed40 f9dc 8c99 bf42 ee40
000000d0: a8c8 9999 047b ee40 0390 9b99 68eb ed40
000000e0: 29c6 9699 de0a ea40 88ca 9a99 5722 e840
000000f0: 433c a499 007e e940 24d8 aa99 5629 eb40
00000100: 041d af99 1571 ea40 ddcf d099 d6fc ef40
00000110: bfa2 ca99 18eb ea40 4a68 d499 5e95 ea40
00000120: cca5 d299 c411 ed40 d19e d199 b63f ee40
00000130: a8f8 d399 fe06 f440 ed43 d899 9c7c f640
00000140: 4aa2 da99 809d f640 4705 dd99 a77e ef40
00000150: ac89 de99 0641 e740 1821 e399 a2c0 e140
00000160: ed11 e899 38ea df40 50a6 f899 5c1c df40
00000170: 6053 f199 2f84 e040 36ef 009a bcc3 dd40
00000180: fbc8 009a 2444 e240 dadf 019a 63f5 e340
00000190: c5fc 0e9a 1c16 e540 6196 029a aa45 e840
000001a0: 7f46 599a c526 ed40 9512 0d9a 6084 f340
000001b0: cf7e 599a 03d9 f540 db7b 3a9a b5d4 f340
000001c0: bfb5 c29b 026d f140 4a5b 409b cf55 f040
000001d0: 7e2b 32aa a8bb ef40 3af0 e1a9 833f ed40
000001e0: 768d 85aa 56b4 e440 9ae1 5eaa 57ad e040
000001f0: 7601 7baa b873 d940 f6f0 85aa 19c7 d240
00000200: 7e63 14bb b12f cb40 2839 b2ba 8820 d440
00000210: c78e 44bb 60b7 d640 6722 0dbb 3e5b dd40
00000220: 0b09 12bb d67b da40 4c73 20bb 6d82 ce40
00000230: 8b1d 5aba fec7 c740 9419 5fba ea38 d340
00000240: e5f0 9839 4f5d db40 c600 153b 9b50 ee40
00000250: 99b7 0a3c 113a f740 139d 353c 3b4c e940
00000260: ccdf 7e3a 9546 d640 b6d1 7a3a eab6 d240
00000270: bbee 813a e75f ca40 059c 813a 1690 cb40
00000280: 855f 833a b78c ce40 4953 803a 6588 c340
00000290: ebf9 bd98 9689 e240 ce86 b798 979a ec40
000002a0: a0d9 9a98 286f ef40 6d52 9798 048e f840
000002b0: 97ef 9398 8720 0041 18be 9298 3154 0541
000002c0: 52c2 9098 05e9 0941 f9b7 8c98 bc65 0841
000002d0: 5e90 8c98 d541 0741 af4c 8c98 05e5 0441
000002e0: d58c 8c98 95c5 0041 8e0e 8e98 d2fb f840
000002f0: f9f3 8e98 b4a8 f540 43ab 9198 468d ef40
00000300: 1547 9298 ab0f eb40 dc67 9598 5874 e140
00000310: 1864 9998 a446 de40 5bcf a098 3aaf dd40
00000320: 5355 b798 c0d8 e140 8519 b598 7ebe de40
00000330: bf6f be98 fb10 db40 9573 d798 02ce d840
00000340: 5978 cb98 13e6 d340 ab46 d598 e243 cd40
00000350: 3b8e 9399 c56a ce40 9dd9 9799 3117 ce40
00000360: 0296 9d99 d134 ce40 abc7 9e99 f1c7 ce40
00000370: 989f 9e99 57fb c940 5ea9 9f99 f701 c940
00000380: ad19 a599 ba72 ca40 db7f a899 5cf8 ca40
00000390: 9053 aa99 4781 ca40 99e2 c399 2ef7 cd40
000003a0: b5d1 c299 1478 ca40 8496 c799 1c41 ca40
000003b0: d161 c799 1ea4 cc40 e55c c799 2ee6 ce40
000003c0: e835 c799 5599 d340 36c5 c999 383d d540
000003d0: 0cbf cb99 6415 d540 eed9 cb99 1b61 cd40
000003e0: af44 cd99 5d55 c640 0883 d099 77a9 c140
000003f0: 832b d399 34a9 bf40 938f da99 a32e bf40

exp_avg_sq f4 [32, 164]
7.15716 965.0905 6.5001554 953.92365 6.0331 942.4731 5.5602775 930.3629
5.25249 918.4134 5.069583 909.6926 4.8264356 902.8249 4.655362 897.78107
4.3982477 890.5267 4.111309 887.5639 3.903305 887.1335 3.6803315 885.31854
3.47548 884.67004 3.299343 884.8249 3.092501 884.18335 2.897136 882.2543
2.705895 881.9419 2.4783509 881.1692 2.3118312 881.5522 2.171085 881.2002
2.0494857 881.79144 1.9043527 880.95154 1.8244591 882.8334 1.7689458 883.1663
1.7428312 881.19354 1.6965865 877.61237 1.7242472 878.4228 1.5981928 876.69727
1.5459086 875.5936 1.4937199 875.9398 1.463406 877.0788 1.524211 878.99744
1.4810491 879.9378 1.4630771 880.35925 1.4676646 885.6338 1.4706143 888.8927
1.5263623 889.69525 1.5491164 888.74976 1.5991694 889.2119 1.644155 889.20636
1.6762357 887.206 1.7178762 885.1538 1.7044368 883.62524 1.7412213 884.2091
1.8188591 884.01733 1.8258414 882.8362 1.8635558 879.3302 1.8553108 876.6718
1.8567022 875.4148 1.9245956 874.6149 2.0182474 873.11206 2.1140559 872.89954
2.191382 875.3635 2.2573876 875.9644 2.331589 875.8898 2.4281864 876.9897
2.5509605 875.14105 2.6530187 876.51447 2.8706164 877.5869 2.9740162 879.29974
3.2018213 877.8183 3.3385172 878.17694 3.6681561 880.2032 4.246811 886.10297
4.633841 889.8392 5.0211077 891.82513 5.4925714 894.95166 5.615051 897.8164
6.0034275 898.1297 6.476461 902.3786 7.0506887 905.894 7.7694106 910.3526
8.398984 915.0117 8.901858 917.96375 9.437728 921.8618 10.101014 924.4362
10.850021 929.7791 11.570952 937.1417 12.2463045 945.75726 12.910918 949.2543
13.545777 952.1452 14.288133 960.0964 3.8323634 871.4555 3.374815 863.5607
3.0409796 855.4772 2.7878742 846.4636 2.567805 838.01685 2.3967488 831.1342
2.2164388 824.9056 2.0642407 820.59283 1.9791924 815.08356 1.8890224 812.546
1.7663733 811.65247 1.6729859 809.8371 1.5624213 808.26776 1.4381592 808.0759
1.3442816 807.89075 1.2344426 806.66626 1.13277 806.57983 1.0408958 807.25476
0.964473 808.42664 0.9092337 810.1174 0.88073975 811.358 0.8709542 812.7709
0.89108783 815.47797 0.90516436 816.41656 0.8941951 814.86456 0.8550697 813.9099
0.82396257 813.4337 0.79624444 813.0103 0.7005153 812.14404 0.6657386 813.1998
0.6445941 814.74176 0.61063844 816.2297 0.6263476 818.0155 0.62432665 819.8909
0.61944234 823.32574 0.62844074 827.03424 0.60938877 825.9978 0.59964424 825.37415
0.59780115 825.3823 0.6137122 824.4306 0.63105005 823.5599 0.64118755 821.4779
0.66263676 819.38336 0.6707263 819.6809 0.6837856 818.05676 0.6935576 816.4527
00000000: 7407 e540 cb45 7144 4601 d040 1d7b 6e44
00000010: 280f c140 479e 6b44 cbed b140 3a97 6844
00000020: 6614 a840 759a 6544 063a a240 546c 6344
00000030: 2972 9a40 cbb4 6144 baf8 9440 fd71 6044
00000040: 72be 8c40 b5a1 5e44 d88f 8340 17e4 5d44
00000050: c0cf 7940 8bc8 5d44 8d8a 6b40 6354 5d44
00000060: 446e 5e40 e22a 5d44 7028 5340 cb34 5d44
00000070: 89eb 4540 bc0b 5d44 ad6a 3940 4690 5c44
00000080: 622d 2d40 487c 5c44 4d9d 1e40 d44a 5c44
00000090: 0bf5 1340 5763 5c44 0ef3 0a40 d04c 5c44
000000a0: c62a 0340 a772 5c44 d4c1 f33f e63c 5c44
000000b0: e087 e93f 56b5 5c44 d16c e23f a5ca 5c44
000000c0: 1815 df3f 634c 5c44 bf29 d93f 3167 5b44
000000d0: 22b4 dc3f 0f9b 5b44 9591 cc3f a02c 5b44
000000e0: 55e0 c53f fee5 5a44 3732 bf3f 26fc 5a44
000000f0: e350 bb3f 0b45 5b44 5919 c33f d6bf 5b44
00000100: 0493 bd3f 05fc 5b44 1c46 bb3f fe16 5c44
00000110: 6fdc bb3f 9068 5d44 173d bc3f 2239 5e44
00000120: d75f c33f 7f6c 5e44 7249 c63f fc2f 5e44
00000130: 95b1 cc3f 904d 5e44 ac73 d23f 354d 5e44
00000140: e48e d63f 2fcd 5d44 5ee3 db3f d849 5d44
00000150: fc2a da3f 04e8 5c44 57e0 de3f 620d 5d44
00000160: 60d0 e83f 1c01 5d44 2cb5 e93f 84b5 5c44
00000170: ff88 ee3f 22d5 5b44 d37a ed3f ff2a 5b44
00000180: 6ba8 ed3f 8cda 5a44 2659 f63f 5ba7 5a44
00000190: f72a 0140 2c47 5a44 b14c 0740 9239 5a44
000001a0: 9a3f 0c40 44d7 5a44 0a79 1040 b9fd 5a44
000001b0: c138 1540 f2f8 5a44 6867 1b40 573f 5b44
000001c0: f042 2340 07c9 5a44 0fcb 2940 ed20 5b44
000001d0: 2eb8 3740 9065 5b44 4856 3e40 2fd3 5b44
000001e0: a4ea 4c40 5f74 5b44 44aa 5540 538b 5b44
000001f0: 12c3 6a40 010d 5c44 e0e5 8740 9786 5d44
00000200: 6d48 9440 b575 5e44 eaac a040 cff4 5e44
00000210: 25c3 af40 e8bc 5f44 7fae b340 4074 6044
00000220: 141c c040 4d88 6044 2b3f cf40 3b98 6144
00000230: 3e9f e140 3779 6244 039f f840 9196 6344
00000240: 3d62 0641 c0c0 6444 036e 0e41 ae7d 6544
00000250: ef00 1741 2877 6644 c19d 2141 eb1b 6744
00000260: b099 2d41 dd71 6844 9f22 3941 1249 6a44
00000270: ddf0 4341 7770 6c44 1f93 4e41 4650 6d44
00000280: 81bb 5841 4b09 6e44 319c 6441 2b06 7044
00000290: 7145 7540 27dd 5944 f8fc 5740 e3e3 5744
000002a0: 699f 4240 8ade 5544 886c 3240 ac9d 5344
000002b0: eb56 2440 1481 5144 5564 1940 97c8 4f44
000002c0: 22da 0d40 f539 4e44 851c 0440 f125 4d44
000002d0: 2d56 fd3f 59c5 4b44 7ccb f13f f222 4b44
000002e0: 8518 e23f c2e9 4a44 6724 d63f 9375 4a44
000002f0: 6cfd c73f 2311 4a44 9a15 b83f dc04 4a44
00000300: 6b11 ac3f 02f9 4944 3702 9e3f a4aa 4944
00000310: 9bfe 903f 1ca5 4944 133c 853f 4ed0 4944
00000320: b4e7 763f 4e1b 4a44 8ac3 683f 8387 4a44
00000330: 2978 613f e9d6 4a44 dbf6 5e3f 5631 4b44
00000340: 551e 643f 97de 4b44 dab8 673f a91a 4c44
00000350: f8e9 643f 55b7 4b44 d9e5 5a3f 3c7a 4b44
00000360: 36ef 523f c25b 4b44 add6 4b3f a940 4b44
00000370: f854 333f 3809 4b44 d86d 2a3f ca4c 4b44
00000380: 1e04 253f 79af 4b44 cd52 1c3f b30e 4c44
00000390: 5158 203f fe80 4c44 dfd3 1f3f 05f9 4c44
000003a0: c693 1e3f d9d4 4d44 7ee1 203f 31c2 4e44
000003b0: e700 1c3f dc7f 4e44 4982 193f f257 4e44
000003c0: 7f09 193f 7858 4e44 3e1c 1d3f 8f1b 4e44
000003d0: 7f8c 213f d5e3 4d44 de24 243f 965e 4d44
000003e0: 90a2 293f 89d8 4c44 b8b4 2b3f 94eb 4c44
000003f0: 930c 2f3f a283 4c44 fe8c 313f f91c 4c44

exp_avg f4 [32]
4.3414197 3.7363746 -1.1755483e-28 5.7101986e-27 -1.0389224e-29 4.0937567 4.3648825 3.5289826
5.946297e-29 6.777036e-28 3.4862657 7.464749e-27 3.852274 3.712427 4.0192184 3.3366768
3.7441318 4.1937304 5.1934795e-29 6.2678023e-28 3.8871832 4.252078 2.167984e-27 5.253095e-28
3.8609574 3.926471 4.085298 2.243836e-27 3.7442644 4.215865 3.3990418e-30 3.0334051e-27
00000000: e9ec 8a40 c320 6f40 b904 1591 4b34 e213
00000010: efb7 528f 0e00 8340 1ead 8b40 dada 6140
00000020: adc1 9610 d9c5 5612 fa1e 5f40 c6da 1314
00000030: a88b 7640 6798 6d40 709d 8040 1d8c 5540
00000040: db9f 6f40 0a33 8640 9cab 8310 74a2 4612
00000050: 9cc7 7840 0611 8840 f1c3 2b13 2b7a 2612
00000060: ed19 7740 4d4b 7b40 c3ba 8240 67c6 3113
00000070: 07a2 6f40 5ee8 8640 abe1 890e c454 7013

exp_avg_sq f4 [32]
499.68976 440.1752 0.0073730783 1.4110883 0.013339574 398.85892 450.917 271.4276
0.057894718 0.10069059 292.4727 0.2624006 497.608 472.11285 471.00504 179.79779
421.77924 492.83243 0.020900726 0.28766185 361.83618 429.54697 0.5105045 2.6452396
371.04895 297.79642 399.64923 1.4892184 413.61624 428.49628 0.023801634 3.0532691
00000000: 4ad8 f943 6d16 dc43 dd99 f13b 8b9e b43f
00000010: 3b8e 5a3c f16d c743 6075 e143 bcb6 8743
00000020: 0323 6d3d de36 ce3d 813c 9243 5f59 863e
00000030: d3cd f843 720e ec43 a580 eb43 3ccc 3343
00000040: bee3 d243 8d6a f643 0038 ab3c 6a48 933e
00000050: 08eb b443 03c6 d643 6cb0 023f 9b4b 2940
00000060: 4486 b943 f1e5 9443 1ad3 c743 b59e be3f
00000070: e1ce ce43 863f d643 a5fb c23c c368 4340

exp_avg f4 [10, 32]
87.23637 88.927246 -4.802455e-28 -7.5928372e-28 -3.0345816e-29 89.4808 90.23109 90.78397
-5.3830284e-29 -3.757454e-29 92.83528 -3.7944837e-27 87.922264 91.65956 91.14939 89.73065
91.548615 85.46993 -3.1352127e-30 -1.6228891e-27 93.26579 90.72926 -7.8119286e-28 -1.7562641e-29
95.0023 89.626465 91.85919 -2.7312982e-28 91.879906 91.40907 -8.042483e-31 -1.9342092e-28
66.07382 67.405045 -5.2130465e-28 -1.3538323e-27 -3.145285e-29 67.90038 68.365204 69.00017
-7.97523e-29 -4.1258866e-29 70.4021 -4.1291017e-27 66.68867 69.55185 69.14385 68.107124
69.4316 64.75665 -3.009349e-30 -1.5279695e-27 70.72447 68.84937 -8.007904e-28 -1.8730964e-29
72.05548 68.03344 69.661476 -3.4372912e-28 69.72237 69.373505 -8.166552e-31 -2.3384389e-28
57.37945 58.59743 -5.9624384e-28 -6.2901223e-28 -3.1796183e-29 58.94028 59.36315 59.93304
-6.5834093e-29 -3.1493243e-29 61.14372 -4.2174295e-27 57.88615 60.394978 60.062305 59.15821
60.248028 56.259247 -2.9691996e-30 -1.5424405e-27 61.37574 59.80924 -8.135349e-28 -2.2385997e-29
62.552868 59.130306 60.452217 -3.5545083e-28 60.600433 60.255894 -8.541849e-31 -2.6139663e-28
21.143665 21.736755 -5.443888e-28 -6.81399e-28 -3.192718e-29 21.90003 21.922989 22.422049
-5.9330457e-29 -3.1155272e-29 22.721384 -4.3224455e-27 21.508837 22.474302 22.303543 22.004242
22.269234 20.770609 -2.990152e-30 -1.5172893e-27 22.766235 22.147005 -8.010354e-28 -2.0984903e-29
23.25837 22.014029 22.392511 -3.7838784e-28 22.440609 22.42689 -8.355254e-31 -2.6240603e-28
49.415707 50.54927 -5.4728044e-28 -5.957651e-28 -3.2432456e-29 50.69401 51.164566 51.572056
-5.29788e-29 -3.1266293e-29 52.59218 -4.1769927e-27 49.79579 51.880997 51.65305 50.91342
51.791332 48.555325 -2.9807304e-30 -1.4362082e-27 52.834236 51.511242 -8.104734e-28 -1.9865028e-29
53.741142 50.921154 52.081367 -3.6258766e-28 52.153507 51.844215 -8.3255e-31 -2.5862632e-28
37.798306 38.73258 -4.1851074e-28 -5.812112e-28 -3.354846e-29 38.723034 39.157097 39.47836
-3.920842e-29 -3.2479815e-29 40.19204 -3.9999443e-27 38.130077 39.664013 39.50588 39.010277
39.59084 37.176918 -3.1083663e-30 -1.214274e-27 40.415752 39.387383 -7.3387455e-28 -1.7044262e-29
41.062992 38.921947 39.82486 -2.5848467e-28 39.911785 39.626076 -8.214333e-31 -1.4968955e-28
31.209066 31.967995 -4.2713115e-28 -6.2093984e-28 -3.5352262e-29 31.97416 32.373245 32.714375
-5.8052855e-29 -3.099422e-29 33.23081 -4.564673e-27 31.607218 32.847992 32.64265 32.303516
32.74157 30.720478 -3.0466369e-30 -1.4346062e-27 33.395428 32.53156 -7.7754607e-28 -1.7449292e-29
33.934196 32.1599 32.874847 -3.5240806e-28 32.98085 32.82908 -8.375017e-31 -2.2594033e-28
34.9521 35.767944 -4.1108864e-28 -6.016837e-28 -3.2473397e-29 35.82407 36.246727 36.58337
-5.2685794e-29 -3.1226315e-29 37.232433 -4.399702e-27 35.366417 36.752342 36.528145 36.145386
36.669697 34.412746 -3.0203347e-30 -1.4121486e-27 37.43456 36.400517 -7.677501e-28 -1.8514205e-29
38.02868 35.959263 36.81951 -3.2696595e-28 36.987408 36.78372 -8.2415705e-31 -2.2410118e-28
00000000: 0579 ae42 c0da b142 2532 1892 6aa0 7092
00000010: 1fdf 1990 2bf6 b242 5176 b442 6591 b542
00000020: da79 8890 8b86 3e90 aaab b942 a350 9693
00000030: 33d8 af42 b251 b742 7d4c b642 1876 b342
00000040: e418 b742 9bf0 aa42 d25b 7e8e 1a94 0093
00000050: 1688 ba42 6275 b542 e591 7792 391b b28f
00000060: 2d01 be42 c040 b342 e8b7 b742 d91d ad91
00000070: 83c2 b742 72d1 b642 2b7f 828d ad30 7591
00000080: cc25 8442 62cf 8642 4235 2592 f685 d692
00000090: 227c 1f90 ffcc 8742 fcba 8842 1600 8a42
000000a0: 3432 ca90 1235 5190 e0cd 8c42 1192 a393
000000b0: 9960 8542 8c1a 8b42 a749 8a42 d936 8842
000000c0: fbdc 8a42 6883 8142 bc25 748e ce1d f292
000000d0: ee72 8d42 e1b2 8942 d6c7 7d92 5df4 bd8f
000000e0: 681c 9042 1f11 8842 ad52 8b42 3ddd d991
000000f0: da71 8b42 3cbf 8a42 8882 848d 5737 9491
00000100: 8f84 6542 c563 6a42 0cf5 3c92 8957 4792
00000110: ce39 2190 d9c2 6b42 de73 6d42 6fbb 6f42
00000120: c5e8 a690 91b0 1f90 2b93 7442 d111 a793
00000130: 6b8b 6742 7594 7142 cd3f 7042 02a2 6c42
00000140: fbfd 7042 7809 6142 dde3 708e d268 f492
00000150: c280 7542 a93c 6f42 e5e8 8092 5f05 e38f
00000160: 2336 7a42 6f85 6c42 12cf 7142 324b e191
00000170: d866 7242 0906 7142 7499 8a8d 07ae a591
00000180: 3a26 a941 e0e4 ad41 1186 2c92 a8f1 5792
00000190: d9e3 2190 4333 af41 4862 af41 5b60 b341
000001a0: ab6b 9690 dbf9 1d90 65c5 b541 ce3a ab93
000001b0: 1912 ac41 5fcb b341 a86d b241 b008 b041
000001c0: 6427 b241 352a a641 0797 728e 916c f092
000001d0: 4021 b641 112d b141 b6db 7d92 eccf d48f
000001e0: 2411 ba41 bb1c b041 dd23 b341 f0d4 ef91
000001f0: 5e86 b341 456a b341 5e92 878d d051 a691
00000200: afa9 4542 7432 4a42 aa70 2d92 35ce 3c92
00000210: bc73 2490 abc6 4a42 84a8 4c42 c949 4e42
00000220: 3551 8690 f889 1e90 645e 5242 bd77 a593
00000230: e42e 4742 2486 4f42 b99c 4e42 58a7 4b42
00000240: 532a 4f42 a738 4242 59d3 718e 8793 e392
00000250: 4256 5342 830b 4e42 b56c 8092 9074 c98f
00000260: eef6 5642 43af 4b42 5253 5042 36d1 e591
00000270: 319d 5042 7a60 4f42 c616 878d 85ec a391
00000280: 7731 1742 29ee 1a42 a0a1 0492 7431 3892
00000290: 641c 2a90 63e4 1a42 dea0 1c42 d7e9 1d42
000002a0: 70cf 4690 36b1 2490 a6c4 2042 4174 9e93
000002b0: 3385 1842 f3a7 1e42 0506 1e42 860a 1c42
000002c0: 055d 1e42 2ab5 1442 3e2e 7c8e ce68 c092
000002d0: bba9 2142 ae8c 1d42 fa92 6892 6fd9 ac8f
000002e0: 8140 2442 13b0 1b42 a84c 1f42 89d5 a391
000002f0: aba5 1f42 1a81 1e42 0149 858d 09c1 3d91
00000300: 2bac f941 74be ff41 ff5c 0792 a0c8 4492
00000310: dc41 3390 14cb ff41 347e 0142 85db 0242
00000320: 752e 9390 cc28 1d90 59ec 0442 49d3 b493
00000330: 95db fc41 5864 0342 1392 0242 cd36 0142
00000340: 5ef7 0242 8ac3 f541 2c2c 778e 8b52 e392
00000350: eb94 0542 5120 0242 086a 7692 f4f4 b08f
00000360: 9ebc 0742 bda3 0042 d87f 0342 7a5d df91
00000370: 64ec 0342 fa50 0342 76e4 878d ea34 8f91
00000380: f3ce 0b42 6012 0f42 7947 0292 62ae 3e92
00000390: e1a8 2490 d94b 0f42 a6fc 1042 5f55 1242
000003a0: 0993 8590 1356 1e90 03ee 1442 474a ae93
000003b0: 3677 0d42 6602 1342 d21c 1242 e094 1042
000003c0: c5ad 1242 a7a6 0942 e609 758e 8dc3 df92
000003d0: fdbc 1542 219a 1142 4a4f 7392 a0c1 bb8f
000003e0: 5e1d 1842 49d6 0f42 2e47 1342 423d cf91
000003f0: 1bf3 1342 8722 1342 25ba 858d 7f0a 8e91

exp_avg_sq f4 [10, 32]
24127.238 23999.662 0.07488549 0.9969977 0.15067907 24897.377 26040.48 20638.557
0.11047834 0.073624805 23064.389 0.38900706 24361.684 26655.27 26966.203 17513.176
26044.795 23403.77 0.0019828484 2.6725905 28022.314 26539.406 1.0535704 0.45696464
29323.316 22349.607 25908.592 1.39121 26511.414 25982.44 0.030959716 1.1494185
39267.402 38835.86 0.070602246 1.0149342 0.15238562 40395.094 42417.258 32542.426
0.11127313 0.07312617 36982.348 0.40714136 39607.93 43281.555 43747.023 26952.031
42188.953 38011.062 0.0020749518 2.5388627 45674.63 43149.695 1.0542274 0.44012743
47912.387 35753.934 41972.742 1.417311 43013.92 42094.504 0.031454094 1.0929015
50370.91 50205.13 0.063884504 0.9681091 0.1540282 51983.7 54415.516 43370.637
0.10949951 0.06941794 48799.74 0.4036669 50845.18 55484.05 55896.582 37011.406
54351.645 48790.75 0.002078579 2.39323 58570.375 55300.234 1.0113031 0.41228002
61258.9 46998.473 54203.227 1.3620346 55309.875 54080.88 0.03270307 1.0732632
53996.652 53879.63 0.05949391 1.001091 0.16372375 55737.234 58311.22 46911.047
0.120043665 0.06808328 52641.504 0.43468714 54484.1 59432.94 59871.273 40333.535
58303.9 52271.15 0.0021495167 2.4838533 62735.312 59244.54 1.0303981 0.44008482
65589.02 50639.52 58154.29 1.4070922 59299.16 57981.316 0.035641525 1.1080976
22173.361 21742.342 0.05191131 0.9351612 0.15461804 22725.213 23921.541 17866.768
0.11977912 0.062198788 20388.158 0.4267472 22322.197 24428.93 24817.18 14610.858
23726.904 21419.076 0.0021084924 2.321358 25739.98 24324.9 0.938891 0.35434633
27077.06 19731.158 23535.736 1.3163354 24181.775 23733.686 0.035403885 1.0567816
12352.61 12316.911 0.044177696 0.79230165 0.13585791 12756.84 13314.961 10840.107
0.107402 0.051243283 12090.159 0.3765147 12460.081 13596.693 13738.143 9446.206
13319.052 11937.407 0.002038497 1.8230145 14337.475 13533.16 0.7527453 0.2947802
14977.332 11607.237 13310.18 1.1035014 13536.934 13280.121 0.031596474 0.84837264
39430.867 39057.746 0.048661456 0.95298487 0.15557118 40635.734 42591.17 32969.914
0.12283189 0.06643642 37428.496 0.44719845 39735.797 43443.39 43918.91 27497.078
42433.78 38127.848 0.0023755839 2.3430119 45917.203 43335.883 0.9113524 0.3482442
48144.168 36167.645 42250.992 1.359753 43181.855 42238.52 0.033329196 1.0635041
32198.113 31790.363 0.046541326 0.9340139 0.15045272 33126.07 34772.293 26486.932
0.11917083 0.066779025 30203.732 0.43545204 32417.326 35464.684 35921.13 21750.383
34592.855 31107.172 0.0022896538 2.2484922 37494.074 35403.13 0.8682073 0.35263386
39357.344 29233.996 34415.105 1.3363215 35205.2 34457.312 0.03309623 1.038167
00000000: 7a7e bc46 537f bb46 905d 993d 3e3b 7f3f
00000010: 9d4b 1a3e c182 c246 f670 cb46 1d3d a146
00000020: 7842 e23d 9ac8 963d c730 b446 ef2b c73e
00000030: 5e53 be46 8a3e d046 68ac d246 5ad2 8846
00000040: 9779 cb46 8ad7 b646 adf2 013b b90b 2b40
00000050: a1ec da46 d056 cf46 65db 863f 45f7 e93e
00000060: a216 e546 379b ae46 2f69 ca46 2b13 b23f
00000070: d41e cf46 e1fc ca46 3b9f fd3c 2520 933f
00000080: 6763 1947 dcb3 1747 e997 903d 5de9 813f
00000090: fa0a 1c3e 18cb 1d47 42b1 2547 da3c fe46
000000a0: 2be3 e33d 2cc3 953d 5976 1047 d574 d03e
000000b0: eeb7 1a47 8e11 2947 06e3 2a47 1090 d246
000000c0: f4cc 2447 107b 1447 eafb 073b ba7c 2240
000000d0: a16a 3247 b28d 2847 ecf0 863f 6258 e13e
000000e0: 6328 3b47 efa9 0b47 bef4 2347 726a b53f
000000f0: ec05 2847 816e 2447 02d6 003d 32e4 8b3f
00000100: e9c2 4447 211d 4447 e1d5 823d ffd5 773f
00000110: 92b9 1d3e b30f 4b47 848f 5447 a36a 2947
00000120: 4741 e03d fe2a 8e3d bd9f 3e47 6ead ce3e
00000130: 2e9d 4647 0dbc 5847 9558 5a47 6893 1047
00000140: a54f 5447 c096 3e47 c538 083b ae2a 1940
00000150: 60ca 6447 3c04 5847 6172 813f 5e16 d33e
00000160: e64a 6f47 7996 3747 3abb 5347 2657 ae3f
00000170: e00d 5847 e140 5347 a8f3 053d b060 893f
00000180: a7ec 5247 a177 5247 e3af 733d c023 803f
00000190: 33a7 273e 3cb9 5947 38c7 6347 0c3f 3747
000001a0: 74d9 f53d 3f6f 8b3d 81a1 4d47 508f de3e
000001b0: 1ad4 5447 f128 6847 46df 6947 898d 1d47
000001c0: e6bf 6347 262f 4c47 e8de 0c3b 74f7 1e40
000001d0: 500f 7547 8a6c 6747 16e4 833f cc52 e13e
000001e0: 831a 8047 85cf 4547 4a2a 6347 991b b43f
000001f0: 29a3 6747 517d 6247 d9fc 113d 24d6 8d3f
00000200: b93a ad46 afdc a946 f4a0 543d b966 6f3f
00000210: 3154 1e3e 6d8a b146 15e3 ba46 8995 8b46
00000220: c14e f53d 28c4 7e3d 5148 9f46 9c7e da3e
00000230: 6564 ae46 dcd9 be46 5ce2 c146 6f4b 6446
00000240: cf5d b946 2756 a746 a22e 0a3b 2191 1440
00000250: f617 c946 cd09 be46 295b 703f e26c b53e
00000260: 1f8a d346 5126 9a46 79df b746 ae7d a83f
00000270: 8deb bc46 5f6b b946 aa03 113d 9f44 873f
00000280: 7102 4146 a573 4046 acf3 343d 48d4 4a3f
00000290: 561e 0b3e 5c53 4746 d80b 5046 6e60 2946
000002a0: 94f5 db3d 7ae4 513d a3e8 3c46 89c6 c03e
000002b0: 53b0 4246 c672 5446 92a8 5646 d398 1346
000002c0: 351c 5046 a185 3a46 4e98 053b 8a58 e93f
000002d0: e605 6046 a474 5346 eab3 403f 6eed 963e
000002e0: 5405 6a46 f35c 3546 b8f8 4f46 893f 8d3f
000002f0: bc83 5346 7c80 4f46 4e6b 013d f32e 593f
00000300: de06 1a47 bf91 1847 3c51 473d d1f6 733f
00000310: 0d4e 1f3e bcbb 1e47 2c5f 2647 eac9 0047
00000320: 498f fb3d d10f 883d 7f34 1247 32f7 e43e
00000330: cc37 1b47 64b3 2947 e98e 2b47 28d2 d646
00000340: c8c1 2547 d9ef 1447 afaf 1b3b e8f3 1540
00000350: 345d 3347 e247 2947 644e 693f 104d b23e
00000360: 2b10 3c47 a547 0d47 fe0a 2547 630c ae3f
00000370: dbad 2847 85fe 2447 3284 083d e720 883f
00000380: 3a8c fb46 ba5c f846 1ea2 3e3d 891b 6f3f
00000390: 4710 1a3e 1266 0147 4bd4 0747 dded ce46
000003a0: d60f f43d 71c3 883d 77f7 eb46 92f3 de3e
000003b0: a742 fd46 af88 0a47 2151 0c47 c4ec a946
000003c0: db20 0747 5806 f346 040e 163b 4ce7 0f40
000003d0: 1376 1247 214b 0a47 d542 5e3f 6d8c b43e
000003e0: 58bd 1947 fe63 e446 1b6f 0647 950c ab3f
000003f0: 3385 0947 5099 0647 ea8f 073d a8e2 843f

exp_avg f4 [10]
2.7533364 2.0746353 1.7919083 0.6185602 1.5279804 1.1418464 0.9332687 1.0590683
1.0117714 1.2321446
00000000: aa36 3040 d3c6 0440 405d e53f f659 1e3f
00000010: dd94 c33f 0628 923f b3ea 6e3f 8d8f 873f
00000020: ba81 813f eab6 9d3f

exp_avg_sq f4 [10]
219.58101 312.70804 333.09592 344.7699 228.4874 120.39864 297.71893 261.30804
242.66275 309.724
00000000: bd94 5b43 a15a 9c43 478c a643 8c62 ac43
00000010: c67c 6443 1bcc f042 06dc 9443 6ea7 8243
00000020: aaa9 7243 acdc 9a43
