code/2021-04-12_19-15.pth (torch, 80051 bytes, 18 tensors)

encoder.maxpool_conv.0.0.weight f4 [1, 1, 2, 10]
-0.04739805 -0.12681462 0.1302449 -0.112161145 -0.07197672 0.19582659 0.20708925 -0.06398005
-0.16199474 -0.05013258 0.11343195 -0.10361295 -0.18723351 -0.13064092 0.25243005 0.06092631
-0.030954106 0.12462697 -0.21029809 -0.096207164
00000000: 7524 42bd b1db 01be eb5e 053e beb4 e5bd
00000010: 8868 93bd c486 483e 340f 543e f907 83bd
00000020: f3e1 25be d257 4dbd 034f e83d 0733 d4bd
00000030: 24ba 3fbe bcc6 05be 833e 813e de8d 793d
00000040: 7793 fdbc 6d3c ff3d 6258 57be 4308 c5bd

encoder.maxpool_conv.2.0.weight f4 [1, 1, 2, 10]
-0.07618781 0.08575504 0.028043797 -0.0064226375 0.048211843 0.20427893 -0.1633527 0.11848754
-0.12607385 -0.1727058 0.11214221 0.061995693 -0.030460462 0.06487911 0.14183097 -0.052153546
-0.12007783 0.097740196 -0.27551052 -0.120222315
00000000: 5b08 9cbd 57a0 af3d 1bbc e53c fd74 d2bb
00000010: c879 453d 7f2e 513e ee45 27be 98a9 f23d
00000020: 8119 01be cad9 30be d1aa e53d 32ef 7d3d
00000030: 3888 f9bc 57df 843d 233c 113e f59e 55bd
00000040: 5eeb f5bd 032c c83d b70f 8dbe 1e37 f6bd

decoder.linear1.weight f4 [32, 164]
-0.006054786 0.052481253 0.02363402 -0.014877279 -0.009461987 0.007915483 0.009042823 0.057070777
-0.024318907 0.029520795 0.045428276 -0.06247679 0.04484644 0.0019651903 0.020825833 -0.080150545
0.052935295 -0.02014314 -0.013313915 0.04538337 0.012739365 -0.08341101 -0.03916798 0.047465842
0.016042816 0.011360302 -0.0011984489 -0.025944563 -0.06443243 0.015022315 -0.07151381 -0.036248665
-0.059825514 0.044072144 0.0410777 -0.014943254 -0.08566384 -0.015803996 -0.08601238 0.06630466
0.047191083 0.052595932 -0.056344993 -0.06632206 0.03619125 -0.019370157 0.06512408 -0.027018705
-0.073055625 -0.0032731637 -0.01770226 -0.02968213 0.031538688 -0.07812487 -0.016088158 -0.025361056
0.012873562 0.0407372 0.06203032 -0.023527885 -0.06650234 -0.021182995 0.043858863 -0.06797294
0.0035581833 -0.017689968 0.021108482 -0.013760697 -0.037111167 0.0021812634 -0.026799107 0.0365282
0.024318075 0.0023451995 0.0021459367 -0.026214465 -0.0785359 0.060118414 0.04329966 0.005038254
-0.049701754 0.058626786 -0.048382886 0.018091505 -0.022154015 -0.04637815 -0.026556464 -0.0036557354
-0.010647106 0.054323245 -0.08286425 -0.064461425 0.048714858 -0.017428983 -0.040996216 0.020213986
-0.049058773 -0.047158524 -0.011144014 -0.0127018895 -0.022733698 0.05248291 -0.050331663 0.01641549
-0.07973721 -0.06300384 -0.016343784 0.06117958 -0.023782225 0.050118424 0.014039175 -0.056230675
-0.0031625638 -0.06843488 -0.06456141 -0.077498674 0.016118221 -0.08206786 -0.0013506897 -0.078856744
-0.003574068 -0.041394174 0.0575551 -0.027398583 0.020230122 -0.014558808 -0.0661401 0.023110302
-0.012102345 -0.025098814 -0.01777865 -0.029302035 -0.059006814 0.015791027 -0.085512236 -0.06918323
0.051435314 -0.061336778 0.06301795 -0.013935596 -0.004708868 0.03899374 -0.010099278 0.018506575
-0.05988763 -0.0425913 -0.076812096 3.0941865e-05 0.060226724 0.052505173 0.06483795 0.06440411
-0.08808726 -0.067341045 0.05949718 -0.03555323 -0.017747615 0.053169712 0.015258987 -0.05215441
0.006778552 0.05970614 -0.037244152 -0.07981567 0.045374125 0.040335327 -0.013479376 -0.0240239
0.037322953 -0.04886418 0.059763975 -0.040467452 0.051798016 -0.048559997 0.0015037538 -0.035971954
-0.053005293 0.06418605 -0.08710871 0.023382755 0.007013123 0.03428199 0.0368283 -0.06488323
-0.07677714 0.06089237 -0.05204594 -0.08342984 -0.0025274076 0.025511546 0.02741905 -0.07346112
0.039572496 -0.033422433 0.0019168848 -0.049971227 -0.026703903 0.05260387 -0.06545602 0.065224655
0.0055943737 -0.017498212 -0.08676981 -0.00053769967 -0.03911436 -0.08069857 0.012437983 0.039902955
0.0065261465 -0.05100696 0.017447615 0.023640677 0.017627971 0.012115011 0.017407758 -0.00073183863
-0.028589536 -0.04010246 0.06264315 0.01797001 0.0050122286 0.010589665 0.056448426 -0.0067726285
-0.050817687 0.019122485 0.059846614 -0.0023385263 -0.03740571 -0.052455757 0.05272313 -0.036602125
0.055613123 -0.008936329 0.0013394876 0.018513484 -0.04994578 0.0124213435 -0.061504886 -0.057706226
0.044276282 -0.039511863 0.022891248 0.02901823 0.03363846 -0.06736857 -0.007398823 -0.026695654
-0.012164625 0.04487734 -0.054086335 -0.022059545 -0.03357662 0.033366855 0.034727804 -0.0054737846
00000000: 3a67 c6bb 95f6 563d 229c c13c d5bf 73bc
00000010: 7306 1bbc f1af 013c 5928 143c 0cc3 693d
00000020: 7238 c7bc 98d5 f13c 0013 3a3d aae7 7fbd
00000030: e7b0 373d 6cca 003b f09a aa3c f825 a4bd
00000040: aed2 583d 3a03 a5bc 9b22 5abc eae3 393d
00000050: c5b8 503c 64d3 aabd 9b6e 20bd 8b6b 423d
00000060: 396c 833c 8f20 3a3c 4615 9dba b189 d4bc
00000070: 26f5 83bd 2820 763c d575 92bd 7b79 14bd
00000080: 990b 75bd fe84 343d 1741 283d 8dd4 74bc
00000090: 8670 afbd 6277 81bc 4227 b0bd bdca 873d
000000a0: 704b 413d d56e 573d 02ca 66bd dcd3 87bd
000000b0: 473d 143d 2aae 9ebc c65f 853d 5556 ddbc
000000c0: 309e 95bd 9382 56bb 5404 91bc f027 f3bc
000000d0: b62e 013d efff 9fbd 50cb 83bc fdc1 cfbc
000000e0: a2eb 523c 0ddc 263d 8113 7e3d 8dbd c0bc
000000f0: 6132 88bd f687 adbc 5aa5 333d 6635 8bbd
00000100: 6930 693b 8dea 90bc b2eb ac3c 8c74 61bc
00000110: e101 18bd 87f3 0e3b cd89 dbbc 989e 153d
00000120: b336 c73c ebb1 193b d8a2 0c3b b8bf d6bc
00000130: 6ed7 a0bd ba3e 763d fc5a 313d f017 a53b
00000140: 1194 4bbd a422 703d 222d 46bd a334 943c
00000150: 567c b5bc 04f7 3dbd f18c d9bc 1095 6fbb
00000160: 3371 2ebc 0d82 5e3d bbb4 a9bd 5a04 84bd
00000170: 3b89 473d 3ac7 8ebc a6eb 27bd cd97 a53c
00000180: daf1 48bd 4c29 41bd 6295 36bc 961b 50bc
00000190: 053c babc 52f8 563d 9328 4ebd c779 863c
000001a0: 434d a3bd 2808 81bd 66e3 85bc 7097 7a3d
000001b0: f1d2 c2bc fa48 4d3d 9104 663c 2352 66bd
000001c0: 0443 4fbb 9627 8cbd c638 84bd a0b7 9ebd
000001d0: 5c0a 843c 3213 a8bd a009 b1ba a57f a1bd
000001e0: e93a 6abb f08c 29bd e6be 6b3d fe72 e0bc
000001f0: a4b9 a53c 1188 6ebc 7674 87bd d151 bd3c
00000200: ea48 46bc 079c cdbc 88a4 91bc d20a f0bc
00000210: 21b1 71bd 2f5c 813c 0a21 afbd f0af 8dbd
00000220: d6ad 523d 463c 7bbd 8e0f 813d 2052 64bc
00000230: d94c 9abb e6b7 1f3d 7177 25bc 1a9b 973c
00000240: bb4c 75bd 3774 2ebd a94f 9dbd 93c7 0138
00000250: 4cb0 763d aa0f 573d c2c9 843d 4de6 833d
00000260: 1867 b4bd 1aea 89bd 51b3 733d 44a0 11bd
00000270: 7263 91bc 7cc8 593d d500 7a3c dd9f 55bd
00000280: 9e1e de3b 6d8e 743d 538d 18bd 6676 a3bd
00000290: 38da 393d a836 253d 9ad8 5cbc c5cd c4bc
000002a0: f4df 183d ce25 48bd 12cb 743d 33c1 25bd
000002b0: 282a 543d d9e6 46bd 9b19 c53a 5457 13bd
000002c0: 141c 59bd fa73 833d 0d66 b2bd 318d bf3c
000002d0: 57ce e53b 466b 0c3d 46d9 163d 80e1 84bd
000002e0: 553d 9dbd 476a 793d 202e 55bd 44dd aabd
000002f0: dda2 25bb 97fd d03c ea9d e03c c972 96bd
00000300: c516 223d f6e5 08bd fb3f fb3a a1ae 4cbd
00000310: 25c2 dabc 2877 573d ce0d 86bd 8194 853d
00000320: 0251 b73b 6958 8fbc 5fb4 b1bd 6af4 0cba
00000330: 6136 20bd 4b45 a5bd afc8 4b3c 4871 233d
00000340: 49d9 d53b adec 50bd 4dee 8e3c 18aa c13c
00000350: 8968 903c 0a7e 463c b79a 8e3c dcd8 3fba
00000360: 9a34 eabc 7a42 24bd 0d4b 803d d835 933c
00000370: 9f3d a43b 4680 2d3c 7736 673d edec ddbb
00000380: 3526 50bd c2a6 9c3c b921 753d f641 19bb
00000390: bb36 19bd d9db 56bd 35f4 573d 1cec 15bd
000003a0: 96ca 633d ae69 12bc bf91 af3a 97a9 973c
000003b0: f293 4cbd e482 4b3c 8cec 7bbd 5d5d 6cbd
000003c0: 0c5b 353d 31d7 21bd 6d86 bb3c a4b7 ed3c
000003d0: 7bc8 093d 88f8 89bd d371 f2bb d8b0 dabc
000003e0: 234e 47bc 4dd1 373d a289 5dbd 38b6 b4bc
000003f0: a387 09bd afab 083d be3e 0e3d 6f5d b3bb

decoder.linear1.bias f4 [32]
-0.014480087 0.01692182 0.2569883 0.28387222 0.32918742 -0.024905255 -0.01570793 0.23040731
-0.048446555 0.30680335 -0.07979072 0.32613 0.3042375 -0.07846436 0.20363207 0.20772387
0.03076289 0.36216375 0.024518939 0.2964861 -0.016131755 0.33670595 0.22950238 -0.059514027
0.32416466 0.033144694 -0.076190986 0.006772418 -0.022757879 0.2795411 0.058495067 0.301745
00000000: e33d 6dbc a19f 8a3c f893 833e b357 913e
00000010: 418b a83e 1b06 ccbc ebad 80bc e5ef 6b3e
00000020: e56f 46bd 5415 9d3e 5169 a3bd 83fa a63e
00000030: 05c5 9b3e ecb1 a0bd ed84 503e 91b5 543e
00000040: 7502 fc3c 876d b93e f1db c83c 07cd 973e
00000050: be26 84bc b964 ac3e ac02 6b3e fbc4 73bd
00000060: e9f8 a53e bbc2 073d 050a 9cbd 29eb dd3b
00000070: bb6e babc 0320 8f3e 8698 6f3d 527e 9a3e

decoder.linear2.weight f4 [10, 32]
0.17148246 -0.16762842 0.42247257 0.375867 0.2684056 -0.11811879 0.087654606 0.33912674
-0.020368982 0.376465 0.07524432 0.2837303 0.2854326 -0.1664127 0.38551626 0.34623364
-0.060347334 0.19988303 -0.12319737 0.271665 -0.028287673 0.46198055 0.282346 -0.15371205
0.1380993 -0.09299354 -0.081553824 0.043186292 -0.08448355 0.4466882 -0.13422202 0.41153148
-0.08688805 -0.13774578 0.4431291 0.3338321 0.2283957 -0.15869096 -0.0028420724 0.18568069
-0.05221051 0.3742403 0.028904248 0.33886835 0.42427245 0.17824656 0.33370247 0.19194584
0.08031438 0.4160231 0.05982481 0.41937366 -0.13876544 0.20477714 0.41316834 -0.08132325
0.43738657 -0.14166388 -0.039279997 -0.12228889 -0.08139968 0.31645206 -0.14702663 0.2273355
-0.012998602 0.05108555 0.13572288 0.30064192 0.38702157 0.08236619 0.044750195 0.25287876
-0.0014411904 0.2965019 -0.019572126 0.4594407 0.45644206 0.09341781 0.3603962 0.47163594
0.040841606 0.3460994 0.031300373 0.34973118 0.07975563 0.146547 0.4537486 0.030113429
0.33076122 -0.02264879 0.00461749 0.17588012 0.13980204 0.15072612 0.09774196 0.41190207
-0.036067937 0.0030293074 0.29551932 0.41266948 0.4541681 0.15850769 -0.10103707 0.37888095
0.010611848 0.31161767 -0.069798805 0.31135306 0.26372257 0.04619668 0.31439084 0.40296745
-0.15351486 0.40699458 0.071637474 0.25623202 -0.092747554 0.22511728 0.38559657 -0.07195278
0.3614907 0.026689935 -0.043562178 0.013788535 0.017523834 0.30362907 -0.13495362 0.21316116
0.130882 0.1407664 0.1836341 0.43724862 0.4219261 -0.15203303 -0.050086595 0.25078326
-0.14027287 0.17853616 0.13022631 0.44798732 0.29236275 -0.07466424 0.49586573 0.19823213
0.15069793 0.45100415 -0.03697094 0.19691324 0.15981568 0.41173464 0.37885106 -0.117247015
0.2509601 -0.0756391 -0.0832387 -0.08001383 0.17107396 0.19982421 -0.041141074 0.5049827
-0.103420414 -0.087747686 0.2448464 0.47741434 0.23968048 -0.16087165 0.08475581 0.21943136
-0.017278101 0.38640273 -0.15709291 0.44497925 0.18450205 -0.123418756 0.4442261 0.37725094
-0.027273653 0.1966565 -0.047752995 0.35665092 -0.14844356 0.20069915 0.310125 0.0024078505
0.32309723 0.10690769 -0.04266242 -0.021846823 -0.16529481 0.51548856 0.17703636 0.391224
-0.09991289 0.12951922 0.45359984 0.31477597 0.32944927 -0.051948644 -0.099110015 0.43050918
0.053483862 0.12492948 0.010182784 0.41389433 0.3953587 -0.024054233 0.28662395 0.4636484
0.03483486 0.20524952 -0.11988402 0.2303255 -0.0108874235 0.36188507 0.22473648 0.18732437
0.43321788 0.0071524046 -0.09564624 -0.15787622 -0.03723075 0.43827504 -0.07111906 0.18175754
0.050531447 -0.15049233 0.41991645 0.11773 0.1823657 -0.002328911 0.020900607 0.43983024
-0.12423297 0.30516562 -0.08258312 0.42451707 0.3617017 0.017859556 0.37568313 0.43384904
-0.1103984 0.42419317 0.072260275 0.27708483 -0.13365704 0.36525917 0.44327596 0.01436849
0.40799963 -0.1358159 -0.13309781 -0.048515797 0.013976188 0.2038863 -0.014438592 0.12230621
00000000: 1999 2f3e c9a6 2bbe 534e d83e a471 c03e
00000010: 756c 893e 44e8 f1bd 4284 b33d 05a2 ad3e
00000020: dadc a6bc 05c0 c03e b219 9a3d 1945 913e
00000030: 3924 923e 1768 2abe 6362 c53e 8945 b13e
00000040: c42e 77bd 23ae 4c3e e74e fcbd ad17 8b3e
00000050: 8dbb e7bc b788 ec3e a88f 903e b166 1dbe
00000060: e769 0d3e 6673 bebd b105 a7bd 1ce4 303d
00000070: b605 adbd 51b4 e43e 7f71 09be 41b4 d23e
00000080: 5df2 b1bd 3b0d 0dbe d1e1 e23e 0aec aa3e
00000090: 90e0 693e e27f 22be 1042 3abb 1423 3e3e
000000a0: b0da 55bd 6d9c bf3e 9ac8 ec3c 2780 ad3e
000000b0: 3d3a d93e 4486 363e 0ddb aa3e 738d 443e
000000c0: de7b a43d fb00 d53e dc0a 753d 25b8 d63e
000000d0: 8718 0ebe 19b1 513e cd8a d33e ce8c a6bd
000000e0: 22f1 df3e 5610 11be 10e4 20bd 9972 fabd
000000f0: e0b4 a6bd 0106 a23e 268e 16be a3ca 683e
00000100: 17f8 54bc 153f 513d f0fa 0a3e bded 993e
00000110: b127 c63e 9baf a83d fb4b 373d 5379 813e
00000120: 53e6 bcba 19cf 973e b955 a0bc d03b eb3e
00000130: c6b2 e93e d651 bf3d da85 b83e 447a f13e
00000140: 8749 273d f133 b13e d234 003d f70f b33e
00000150: eb56 a33d 6b10 163e bd51 e83e 70b0 f63c
00000160: 8959 a93e f589 b9bc 504e 973b eb19 343e
00000170: 4428 0f3e f357 1a3e f02c c83d d4e4 d23e
00000180: f9bb 13bd 5887 463b 4f4e 973e 6a49 d33e
00000190: b988 e83e d74f 223e 86ec cebd affc c13e
000001a0: 51dd 2d3c 5a8c 9f3e adf2 8ebd ab69 9f3e
000001b0: a506 873e bb38 3d3d d6f7 a03e c051 ce3e
000001c0: 0033 1dbe 9861 d03e abb6 923d d830 833e
000001d0: 6ef2 bdbd 2585 663e ea6c c53e fb5b 93bd
000001e0: 4f15 b93e daa4 da3c 416e 32bd 4fe9 613c
000001f0: 258e 8f3c 4575 9b3e 4831 0abe eb46 5a3e
00000200: ee05 063e 1125 103e 940a 3c3e 0ddf df3e
00000210: b306 d83e 8cae 1bbe 9a27 4dbd aa66 803e
00000220: b1a3 0fbe 2fd2 363e 0c5a 053e 985e e53e
00000230: 92b0 953e 91e9 98bd 1de2 fd3e 5dfd 4a3e
00000240: 8f50 1a3e 04ea e63e d76e 17bd a0a3 493e
00000250: b9a6 233e e2ce d23e c4f8 c13e 341f f0bd
00000260: d87d 803e ace8 9abd 0d79 aabd 4ade a3bd
00000270: 032e 2f3e b89e 4c3e 8b83 28bd 8c46 013f
00000280: 15ce d3bd 0fb5 b3bd 04b9 7a3e a76f f43e
00000290: cd6e 753e 8abb 24be 7494 ad3d 9db2 603e
000002a0: ce8a 8dbc 94d6 c53e f7dc 20be 52d4 e33e
000002b0: 1bee 3c3e f9c2 fcbd 9a71 e33e 0927 c13e
000002c0: ff6c dfbc 5260 493e a598 43bd f39a b63e
000002d0: 9701 18be 1484 4d3e b4c8 9e3e 07cd 1d3b
000002e0: 006d a53e 6bf2 da3d cabe 2ebd 1cf8 b2bc
000002f0: 0b43 29be 0ff7 033f 0549 353e 834e c83e
00000300: 219f ccbd b0a0 043e 3d3e e83e 512a a13e
00000310: 93ad a83e 1ac8 54bd 31fa cabd b36b dc3e
00000320: e511 5b3d 07db ff3d b1d5 263c f5e9 d33e
00000330: 756c ca3e 620d c5bc 60c0 923e 5363 ed3e
00000340: 00af 0e3d ee2c 523e c185 f5bd 73da 6b3e
00000350: 2a61 32bc 0049 b93e 5221 663e f6d1 3f3e
00000360: bcce dd3e b85e ea3b 2de2 c3bd 4eaa 21be
00000370: 457f 18bd 9665 e03e dfa6 91bd a61e 3a3e
00000380: 10fa 4e3d a91a 1abe 4aff d63e 6d1c f13d
00000390: 13be 3a3e a5a0 18bb c037 ab3c 6e31 e13e
000003a0: db6d febd ab3e 9c3e 5721 a9bd 4d5a d93e
000003b0: f730 b93e 344e 923c 8a59 c03e 7621 de3e
000003c0: 8e18 e2bd d92f d93e 32fd 933d 10de 8d3e
000003d0: 64dd 08be 4003 bb3e 11f5 e23e d169 6b3c
000003e0: 54e5 d03e 5313 0bbe cb4a 08be 80b8 46bd
000003f0: 62fc 643c 92c7 503e d88f 6cbc ae7b fa3d

decoder.linear2.bias f4 [10]
0.20858395 0.15513447 0.25294033 0.2978177 0.052727282 0.21464415 -0.0012899431 0.040503275
0.030530035 0.11362011
00000000: 0897 553e 92db 1e3e 6581 813e 907b 983e
00000010: 90f8 573d adcb 5b3e 4f13 a9ba c3e6 253d
00000020: 201a fa3c a9b1 e83d

exp_avg f4 [1, 1, 2, 10]
-110.52458 -104.548294 -102.394196 -106.876755 -130.22095 -139.78491 -130.12051 -104.89146
-68.534645 -56.385506 -113.75194 -111.52446 -103.04942 -114.04403 -138.9574 -139.86008
-129.61826 -103.059074 -64.86724 -53.37029
00000000: 960c ddc2 ba18 d1c2 d4c9 ccc2 e6c0 d5c2
00000010: 9038 02c3 f0c8 0bc3 da1e 02c3 6dc8 d1c2
00000020: bd11 89c2 c28a 61c2 fe80 e3c2 860c dfc2
00000030: 4e19 cec2 8b16 e4c2 18f5 0ac3 2edc 0bc3
00000040: 469e 01c3 3f1e cec2 07bc 81c2 2d7b 55c2

exp_avg_sq f4 [1, 1, 2, 10]
6061.2314 5451.3584 5280.3105 4786.85 5635.328 6384.7856 4879.8667 3639.3464
3221.4287 3487.9724 5906.0723 5543.0083 5301.0244 5076.3047 6369.756 6564.4526
4948.233 3833.8542 3489.5945 3695.1433
00000000: da69 bd45 de5a aa45 7c02 a545 cd96 9545
00000010: a01a b045 4986 c745 ef7e 9845 8b75 6345
00000020: dc56 4945 8fff 5945 9490 b845 1138 ad45
00000030: 32a8 a545 70a2 9e45 0c0e c745 9f23 cd45
00000040: dda1 9a45 ab9d 6f45 8319 5a45 4bf2 6645

exp_avg f4 [1, 1, 2, 10]
-116.57136 -119.97762 -116.82247 -131.83998 -153.34969 -161.50584 -147.80038 -133.25482
-91.95336 -99.061005 -126.38409 -124.64186 -124.55196 -140.88629 -161.38658 -163.90219
-152.7189 -136.1461 -94.06004 -111.17535
00000000: 8924 e9c2 8bf4 efc2 1ba5 e9c2 09d7 03c3
00000010: 8559 19c3 7f81 21c3 e6cc 13c3 3c41 05c3
00000020: 1fe8 b7c2 3c1f c6c2 a7c4 fcc2 a248 f9c2
00000030: 9b1a f9c2 e4e2 0cc3 f762 21c3 f6e6 23c3
00000040: 0ab8 18c3 6725 08c3 be1e bcc2 c759 dec2

exp_avg_sq f4 [1, 1, 2, 10]
44610.785 42007.2 39787.363 38228.184 37322.195 33502.91 24948.107 18064.678
13206.953 12857.544 52092.387 48282.41 45479.76 44968.387 43957.086 38005.246
29060.559 21924.426 16688.484 16946.506
00000000: c942 2e47 3317 2447 5d6b 1b47 2f54 1547
00000010: 32ca 1147 e9de 0247 37e8 c246 5b21 8d46
00000020: d05b 4e46 2de6 4846 637c 4b47 699a 3c47
00000030: c3a7 3147 63a8 2f47 16b5 2b47 3f75 1447
00000040: 1e09 e346 da48 ab46 f860 8246 0365 8446

exp_avg f4 [32, 164]
5.961813e-22 5.961813e-22 5.961813e-22 5.961813e-22 5.961813e-22 5.961813e-22 5.961813e-22 5.961813e-22
5.961813e-22 5.961813e-22 5.961813e-22 5.961813e-22 5.961813e-22 5.961813e-22 5.961813e-22 5.961813e-22
5.961813e-22 5.961813e-22 5.961813e-22 5.961813e-22 5.672147e-22 5.378134e-22 5.032102e-22 4.5524595e-22
5.052093e-22 4.5782215e-22 4.481801e-22 3.683785e-22 3.6272418e-22 3.3181433e-22 2.7313777e-22 2.374764e-22
1.1788207e-22 7.902324e-23 5.412511e-23 1.7061509e-23 5.1595703e-26 7.994104e-30 4.6057707e-24 1.95e-43
6e-45 6e-45 6e-45 6e-45 6e-45 6e-45 6e-45 6e-45
6e-45 6e-45 6e-45 6e-45 6e-45 6e-45 6e-45 6e-45
6e-45 6e-45 6e-45 6e-45 6e-45 6e-45 6e-45 6e-45
6e-45 6e-45 6e-45 6e-45 6e-45 6e-45 6e-45 6e-45
6e-45 6e-45 6e-45 6e-45 6e-45 6e-45 6e-45 6e-45
6e-45 6e-45 6e-45 6e-45 6e-45 6e-45 6e-45 6e-45
6e-45 6e-45 4.431e-42 1.43e-42 9.222e-42 4.337e-42 8.241e-42 4.249e-42
4.4745402e-23 1.347e-42 3.04e-43 6e-45 6e-45 6e-45 2.6345307e-23 7.080747e-24
4.6393402e-23 6e-45 2.6622616e-24 6.866e-42 1.281e-41 1.1374e-41 6.4111546e-24 4.602e-42
2.228e-42 6e-45 6e-45 6e-45 6e-45 6e-45 6e-45 6e-45
6e-45 6e-45 6.793e-42 3.02e-42 7.285e-42 2.936e-42 1.766e-42 6.61e-43
9.54e-43 5.84e-43 6e-45 6e-45 4.877e-42 4.972e-42 1.8867e-41 1.7184e-41
3.3216e-41 3.0327e-41 3.8164e-41 3.7091e-41 3.9096e-41 3.9348e-41 3.9138e-41 3.7972e-41
3.7123e-41 3.5331e-41 3.6519e-41 3.5486e-41 3.8715e-41 3.7038e-41 4.0716e-41 3.868e-41
4.1214e-41 4.0322e-41 4.1491e-41 4.1491e-41 4.1491e-41 4.1491e-41 4.1491e-41 4.1491e-41
4.1491e-41 4.1491e-41 4.1491e-41 4.1491e-41 -7.631702e-05 -0.00017083454 -0.00028943995 -0.00019295956
-0.00017157523 -0.00011838013 -0.00011464599 -0.00019332179 -0.00022402078 -0.0001728593 -7.406186e-05 -4.5133223e-05
-0.00015047187 -0.00018692725 -0.0001326031 -9.114196e-05 -5.2151565e-05 -2.5205858e-05 -8.679453e-05 -3.4342313e-05
-0.00015736045 -0.00018078095 -0.00013137628 -0.000120356635 -0.00021308528 -0.00023071209 -0.00023921153 -0.00027137555
-0.00010320612 -0.00012306683 -9.2933406e-05 -8.0655365e-05 -0.00025055723 -0.00025775353 -0.00013515202 -0.00015004036
-0.00027447325 -0.0003025514 -0.0003007427 -0.00028603582 -0.00026214667 -0.00024690112 -0.0002308928 -0.00026075373
-0.00019638942 -0.00019555568 -0.00012608597 -0.00011611284 -0.00010954398 -6.970253e-05 -0.00019662999 -0.00019376543
-0.00027052805 -0.0002645135 -0.00030991956 -0.00028551416 -0.0003053012 -0.00031494017 -0.00031192982 -0.0003000579
-0.0002839564 -0.000245253 -0.0002486036 -0.0002599879 -0.00027439825 -0.0002774519 -0.00024343566 -0.0002069787
-0.00015893432 -0.00015729821 -0.00018480494 -0.00023166354 -0.00016020676 -8.7621665e-05 3.6200963e-05 1.408407e-05
-6.573966e-05 -0.00010699329 -0.00012846626 -0.00011103652 -9.067843e-05 -0.00012271454 -0.00032927055 -0.00039037428
-0.0005345827 -0.00049544347 -0.00029518554 -0.0002657978 -9.4753275e-05 -9.0210764e-05 -3.6422673e-05 -4.5770532e-05
00000000: 4b2f 341c 4b2f 341c 4b2f 341c 4b2f 341c
00000010: 4b2f 341c 4b2f 341c 4b2f 341c 4b2f 341c
00000020: 4b2f 341c 4b2f 341c 4b2f 341c 4b2f 341c
00000030: 4b2f 341c 4b2f 341c 4b2f 341c 4b2f 341c
00000040: 4b2f 341c 4b2f 341c 4b2f 341c 4b2f 341c
00000050: 1d6e 2b1c 4c8b 221c 0116 181c f396 091c
00000060: adb0 181c 465e 0a1c 4174 071c d0ab de1b
00000070: d940 db1b c891 c81b 061a a51b b18b 8f1b
00000080: bc82 0e1b 0411 bf1a d2dd 821a 4002 a519
00000090: 537d 7f15 c323 220f 582d b218 8b00 0000
000000a0: 0400 0000 0400 0000 0400 0000 0400 0000
000000b0: 0400 0000 0400 0000 0400 0000 0400 0000
000000c0: 0400 0000 0400 0000 0400 0000 0400 0000
000000d0: 0400 0000 0400 0000 0400 0000 0400 0000
000000e0: 0400 0000 0400 0000 0400 0000 0400 0000
000000f0: 0400 0000 0400 0000 0400 0000 0400 0000
00000100: 0400 0000 0400 0000 0400 0000 0400 0000
00000110: 0400 0000 0400 0000 0400 0000 0400 0000
00000120: 0400 0000 0400 0000 0400 0000 0400 0000
00000130: 0400 0000 0400 0000 0400 0000 0400 0000
00000140: 0400 0000 0400 0000 0400 0000 0400 0000
00000150: 0400 0000 0400 0000 0400 0000 0400 0000
00000160: 0400 0000 0400 0000 5a0c 0000 fc03 0000
00000170: b519 0000 170c 0000 f916 0000 d80b 0000
00000180: 2060 581a c103 0000 d900 0000 0400 0000
00000190: 0400 0000 0400 0000 d2cb fe19 29f6 0819
000001a0: 4058 601a 0400 0000 86fb 4d18 2413 0000
000001b0: b623 0000 b51f 0000 0005 f818 d40c 0000
000001c0: 3606 0000 0400 0000 0400 0000 0400 0000
000001d0: 0400 0000 0400 0000 0400 0000 0400 0000
000001e0: 0400 0000 0400 0000 f012 0000 6b08 0000
000001f0: 4f14 0000 2f08 0000 ec04 0000 d801 0000
00000200: a902 0000 a101 0000 0400 0000 0400 0000
00000210: 980d 0000 dc0d 0000 9834 0000 e72f 0000
00000220: 985c 0000 8a54 0000 636a 0000 6567 0000
00000230: fc6c 0000 b06d 0000 1a6d 0000 da69 0000
00000240: 7c67 0000 7d62 0000 cd65 0000 ec62 0000
00000250: ec6b 0000 3f67 0000 8071 0000 d36b 0000
00000260: e372 0000 6770 0000 a973 0000 a973 0000
00000270: a973 0000 a973 0000 a973 0000 a973 0000
00000280: a973 0000 a973 0000 a973 0000 a973 0000
00000290: 630c a0b8 0c22 33b9 f9bf 97b9 3055 4ab9
000002a0: e0e8 33b9 d942 f8b8 196e f0b8 6cb6 4ab9
000002b0: 1fe7 6ab9 9141 35b9 a951 9bb8 6e4d 3db8
000002c0: fcc7 1db9 e701 44b9 600b 0bb9 7823 bfb8
000002d0: 51bd 5ab8 2b71 d3b7 7505 b6b8 c70a 10b8
000002e0: 2001 25b9 0490 3db9 0dc2 09b9 fa67 fcb8
000002f0: a56f 5fb9 4eeb 71b9 dbd4 7ab9 6947 8eb9
00000300: 5d70 d8b8 800b 01b9 3ee5 c2b8 8525 a9b8
00000310: 395d 83b9 1823 87b9 98b7 0db9 2754 1db9
00000320: 2de7 8fb9 c39f 9eb9 00ad 9db9 14f7 95b9
00000330: bb70 89b9 8272 81b9 d01b 72b9 c6b5 88b9
00000340: e2ed 4db9 140e 4db9 f235 04b9 9b81 f3b8
00000350: faba e5b8 432d 92b8 762e 4eb9 832d 4bb9
00000360: a9d5 8db9 67ae 8ab9 b37c a2b9 10b1 95b9
00000370: d510 a0b9 8e1e a5b9 838a a3b9 1751 9db9
00000380: fcdf 94b9 4d95 80b9 0357 82b9 fc4e 88b9
00000390: 1cdd 8fb9 f776 91b9 c342 7fb9 6c08 59b9
000003a0: 9ba7 26b9 6bf0 24b9 33c8 41b9 b5ea 72b9
000003b0: 2dfd 27b9 86c1 b7b8 7dd6 1738 9f4a 6c37
000003c0: b6dd 89b8 9661 e0b8 e6b4 06b9 47dc e8b8
000003d0: 9d2a beb8 efac 00b9 f2a1 acb9 26ab ccb9
000003e0: 3d23 0cba a6e0 01ba 22c3 9ab9 c75a 8bb9
000003f0: 47b6 c6b8 892f bdb8 8cc4 18b8 bcf9 3fb8

exp_avg_sq f4 [32, 164]
0.00030480497 0.00028951003 0.00027790503 0.00026865138 0.00033767015 0.00032268712 0.00035365156 0.00032057246
0.00030501743 0.00028165593 0.0003309121 0.00030990737 0.000319182 0.0002788124 0.0002595704 0.00022769628
0.00026002523 0.00025100383 0.00029956803 0.00028216373 0.00030178967 0.0002723257 0.00033751866 0.00034467076
0.00030548646 0.00028267564 0.00028420548 0.00025048316 0.0002584861 0.00023704678 0.0001970187 0.00018459732
0.00022995501 0.00022492863 0.00026700654 0.00024111962 0.00021790883 0.00020654174 0.00024112542 0.00027428922
0.00030424644 0.00029215243 0.00020517851 0.00019534152 0.00021970924 0.0002010359 0.00023081046 0.0002001159
0.00016014266 0.00014463218 0.00016970371 0.00015868382 0.00023080771 0.00019122308 0.00019633946 0.00018137791
0.00020276695 0.00021782811 0.00020003716 0.00016226542 0.00020263126 0.00020909538 0.00020475603 0.00019831643
0.00019865332 0.00016878078 0.00023071448 0.00019851048 0.00018838482 0.00018306651 0.00017633702 0.00016790026
0.00017567925 0.0001621856 0.00015581964 0.00015300879 0.00016547274 0.0001627404 0.00021055757 0.00018154588
0.00016544119 0.00016089682 0.0001510298 0.00014700888 0.00016341647 0.00012952805 0.00015716086 0.00014763091
0.00013594002 0.00014944165 0.00011425095 8.87829e-05 0.00017291286 0.00015030375 0.00014820846 0.00017238098
0.000110523135 8.897963e-05 0.0001104154 9.6924814e-05 8.8544795e-05 0.0001000194 8.993624e-05 8.033152e-05
0.00010279258 8.647182e-05 0.0001512913 0.00018140004 0.00017149204 0.00018422274 0.00016955852 0.00012316104
8.3955165e-05 7.204802e-05 6.516239e-05 5.552409e-05 6.161167e-05 6.9106056e-05 6.930274e-05 7.3746334e-05
0.00012563748 0.0001230612 0.00022656156 0.00019260071 0.00019058649 0.00018382522 0.000112625086 0.0001270053
0.000100311794 7.803901e-05 7.9114936e-05 6.044272e-05 8.5209955e-05 7.532092e-05 0.00011068741 0.00011159345
0.00018425568 0.00014920898 0.0001924763 0.00017906404 0.00014285534 0.00014934638 0.0001350221 0.00011507608
8.753627e-05 7.438703e-05 8.465651e-05 8.522651e-05 0.00018004877 0.00017531928 0.00022020312 0.00020303595
0.00013765226 0.0001384791 0.00015944452 0.00015110878 0.0001518394 0.00013872479 0.000106627595 0.000102150545
0.00013966355 0.00011924863 0.00011206483 0.00010030905 0.0024575167 0.0023244794 0.0019308047 0.0018401431
0.0020567572 0.0018667332 0.002166527 0.0019242875 0.0019764872 0.0018440246 0.0021268392 0.0019392829
0.0022004498 0.0020448216 0.0018790925 0.0019785964 0.002404767 0.0021537454 0.002260232 0.0019201073
0.0019173768 0.0019366638 0.0020884187 0.0017162741 0.0019842435 0.0017924847 0.0017973126 0.0018511127
0.0020883211 0.0018861649 0.0024096123 0.0020095655 0.0022822306 0.0022102464 0.0022061884 0.002046007
0.0021075557 0.0018474588 0.0018353106 0.0016511716 0.0017964575 0.0016641467 0.0022276302 0.001958324
0.0022043833 0.0019037277 0.00234946 0.0022236218 0.002500267 0.0022303283 0.0021717795 0.0019039987
0.0018190715 0.0016176783 0.0022643406 0.001938589 0.0021437753 0.0018558286 0.0021687315 0.0017237015
0.0019817245 0.0019169452 0.0021581606 0.0020330315 0.0019250512 0.0016893389 0.002186699 0.0020382586
0.002354457 0.0020702463 0.0022345863 0.0020454028 0.0019048644 0.0017029024 0.001445359 0.0012895928
0.0016720067 0.0013851103 0.0018073512 0.0017300729 0.0017285617 0.0016298785 0.001949084 0.0018816466
0.0020156452 0.0019857788 0.0016376743 0.0014398949 0.0016257861 0.0015647247 0.0017433028 0.0014780298
00000000: 3bce 9f39 61c9 9739 c8b3 9139 c7d9 8c39
00000010: 5209 b139 552e a939 4f6a b939 8212 a839
00000020: bfea 9f39 38ab 9339 457e ad39 107b a239
00000030: e257 a739 912d 9239 f316 8839 c1c1 6e39
00000040: ff53 8839 2a99 8339 570f 9d39 60ef 9339
00000050: 8639 9e39 f0c6 8e39 fdf4 b039 edb4 b439
00000060: b329 a039 1534 9439 6a01 9539 4853 8339
00000070: 6b85 8739 c38f 7839 ce96 4e39 7790 4139
00000080: 1420 7139 d2da 6b39 03fd 8b39 0ed5 7c39
00000090: 757e 6439 2093 5839 9dd6 7c39 7ace 8f39
000000a0: 4483 9f39 092c 9939 3025 5739 97d4 4c39
000000b0: c061 6639 2acd 5239 b605 7239 34d6 5139
000000c0: f8eb 2739 68a8 1739 7ef2 3139 5d64 2639
000000d0: f904 7239 0e83 4839 79e0 4d39 4330 3e39
000000e0: d79d 5439 ca68 6439 11c1 5139 cb25 2a39
000000f0: 6a79 5439 9d40 5b39 c7b3 5639 29f3 4f39
00000100: 984d 5039 bffa 3039 f2eb 7139 4027 5039
00000110: 2a89 4539 8bf5 3f39 1ce7 3839 620e 3039
00000120: 8a36 3839 5e10 2a39 8463 2339 fc70 2039
00000130: c082 2d39 4ba5 2a39 1ec9 5c39 5a5d 3e39
00000140: 487a 2d39 69b6 2839 c15d 1e39 6526 1a39
00000150: c65a 2b39 ecd1 0739 8ccb 2439 5fcd 1a39
00000160: 1f8b 0e39 70b3 1c39 039a ef38 f530 ba38
00000170: f14f 3539 db9a 1d39 6868 1b39 2bc1 3439
00000180: a8c8 e738 939a ba38 d18e e738 1d44 cb38
00000190: 20b1 b938 82c1 d138 279c bc38 a877 a838
000001a0: 5992 d738 3458 b538 f3a3 1e39 3436 3e39
000001b0: 8bd2 3339 ea2b 4139 85cb 3139 ca24 0139
000001c0: 1611 b038 7c18 9738 cba7 8838 8ae2 6838
000001d0: 8335 8138 08ed 9038 a056 9138 43a8 9a38
000001e0: 8ebd 0339 fd09 0139 2891 6d39 dcf4 4939
000001f0: 2cd8 4739 35c1 4039 2231 ec38 ba2c 0539
00000200: 7c5e d238 e0a8 a338 82ea a538 e083 7d38
00000210: bfb2 b238 9cf5 9d38 da20 e838 4707 ea38
00000220: c234 4139 fb74 1c39 77d3 4939 23c3 3b39
00000230: 70cb 1539 dd99 1c39 b894 0d39 0055 f138
00000240: ad93 b738 3c00 9c38 9e89 b138 a2bb b238
00000250: 79cb 3c39 e9d5 3739 53e6 6639 0ce6 5439
00000260: bf56 1039 b334 1139 9030 2739 f472 1e39
00000270: 1437 1f39 a776 1139 419d df38 a839 d638
00000280: a672 1239 1f15 fa38 5904 eb38 035d d238
00000290: 4a0e 213b 4b56 183b 0e13 fd3a f530 f13a
000002a0: a9ca 063b 2cad f43a 4bfc 0d3b 6038 fc3a
000002b0: f487 013b 33b3 f13a 7162 0b3b 892f fe3a
000002c0: 6c35 103b 6a02 063b e24b f63a 57ab 013b
000002d0: 4c99 1d3b da25 0d3b 6720 143b 1cac fb3a
000002e0: 7d50 fb3a a7d7 fd3a dadd 083b 9af4 e03a
000002f0: 150a 023b cef1 ea3a ce93 eb3a 09a1 f23a
00000300: 37dc 083b 3139 f73a 96ea 1d3b eab2 033b
00000310: 7a91 153b c8d9 103b b395 103b 4d16 063b
00000320: eb1e 0a3b 6e26 f23a ce8e f03a 206c d83a
00000330: 1c77 eb3a 7f1f da3a 6ffd 113b 3a57 003b
00000340: 6a77 103b 8086 f93a 66f9 193b 2fba 113b
00000350: 85db 233b b32a 123b 6a54 0e3b 988f f93a
00000360: e96d ee3a 4708 d43a 5565 143b 4118 fe3a
00000370: 957e 0c3b 463f f33a 4721 0e3b d3ed e13a
00000380: d2df 013b 0242 fb3a ed6f 0d3b 9c3c 053b
00000390: 0052 fc3a cf6c dd3a b94e 0f3b 4e94 053b
000003a0: 3c4d 1a3b f8ac 073b 2372 123b 2a0c 063b
000003b0: a5ac f93a ec33 df3a 3372 bd3a 8e07 a93a
000003c0: 3c27 db3a 978c b53a a5e4 ec3a 9dc3 e23a
000003d0: e890 e23a a6a1 d53a 6878 ff3a 95a1 f63a
000003e0: ea18 043b d723 023b 3ba7 d63a dbba bc3a
000003f0: 5418 d53a 7317 cd3a 897f e43a 73ba c13a

exp_avg f4 [32]
2.989699e-22 -0.00016962826 0.396295 0.48622838 0.45159158 0.00013816271 6e-45 0.38863012
-2.9362422e-05 0.41155046 3.3927437e-05 0.49549243 0.43513542 2.83e-43 0.5072525 0.4695546
0.00037870838 0.4339034 6e-45 0.41987753 2.7894925e-05 0.36716685 0.48348638 -0.001135215
0.42963508 3.9815433e-05 4.3004062e-11 3.2255975e-06 1.918394e-05 0.4306621 2.007845e-06 0.45848167
00000000: 5ab7 b41b 3dde 31b9 2ee7 ca3e edf2 f83e
00000010: 0337 e73e c5df 1039 0400 0000 87fa c63e
00000020: 524f f6b7 beb6 d23e 4f4d 0e38 2fb1 fd3e
00000030: 12ca de3e ca00 0000 4ddb 013f 7669 f03e
00000040: 618d c639 9628 de3e 0400 0000 30fa d63e
00000050: e5ff e937 4bfd bb3e 878b f73e 7fcb 94ba
00000060: 21f9 db3e 7fff 2638 4522 3d2e 5877 5836
00000070: 33ed a037 be7f dc3e 84be 0636 1cbe ea3e

exp_avg_sq f4 [32]
0.00096448074 0.010043995 4.980179 6.290879 6.5033894 0.00064079004 5.3623057e-06 5.24152
9.4037474e-05 2.256533 0.0006799202 7.730759 4.8636794 0.00010010129 9.970302 7.6177464
0.0002993294 5.1551914 0.00010069648 4.587504 0.0029256113 4.6832094 6.2370167 0.0034105077
5.174909 0.000121771634 0.00015354459 0.00040535282 0.0025354787 6.026804 0.00012300508 6.1946936
00000000: 35d5 7c3a 928f 243c a05d 9f40 e14e c940
00000010: c41b d040 b1fa 273a dbed b336 88ba a740
00000020: fc35 c538 096b 1040 ac3c 323a 6162 f740
00000030: 43a3 9b40 79ed d138 5b86 1f41 94c4 f340
00000040: 50ef 9c39 54f7 a440 032d d338 d5cc 9240
00000050: 9dbb 3f3b dadc 9540 a495 c740 d382 5f3b
00000060: db98 a540 a65f ff38 d000 2139 8985 d439
00000070: 462a 263b 94db c040 edfa 0039 ee3a c640

exp_avg f4 [10, 32]
-4.3101208e-23 0.00014940012 6.3899627 6.451494 6.184706 -0.00015827715 -6e-45 6.6610103
1.9648249e-05 5.872186 -1.3267689e-05 6.038695 6.346066 -6e-44 5.959965 6.1950088
-4.03099e-05 6.3812933 -6e-45 6.8406157 2.6543325e-06 6.726384 6.4613004 0.0019084489
6.532718 2.1394553e-05 -1.9833438e-12 -4.98e-06 -1.7476641e-05 6.5023766 -3.338863e-08 6.5911794
-4.3136606e-23 0.00015103066 7.414718 7.5008445 7.2191367 -0.00013571046 -6e-45 7.6633697
2.138325e-05 6.8502736 -1.2512334e-05 6.958659 7.422674 -5.7e-44 6.8631067 7.111806
2.5230143e-05 7.403541 -6e-45 7.8896084 3.1688628e-06 7.7247467 7.4661403 0.0010372053
7.572036 3.170552e-06 -2.1879772e-12 -4.9266923e-06 -1.9425624e-05 7.4560018 -3.3580633e-08 7.5926523
-4.289616e-23 0.00013834177 9.087854 9.206872 8.831251 -0.00013470725 -6e-45 9.437876
2.2433245e-05 8.425187 -1.2517618e-05 8.497664 9.087741 -5.9e-44 8.410196 8.7998495
3.8833547e-05 9.061035 -6e-45 9.676528 1.0544761e-05 9.486495 9.200649 0.0012702364
9.333591 1.4803552e-05 -2.3257349e-12 -5.0196695e-06 -1.7880793e-05 9.162718 -3.462705e-08 9.32418
-4.3206754e-23 9.742123e-05 7.9133167 8.011537 7.67662 -8.8966444e-05 -6e-45 8.202173
3.0263152e-05 7.2891526 -1.2823207e-05 7.382524 7.8897247 -5.9e-44 7.332209 7.6205654
4.2204352e-05 7.8946953 -6e-45 8.37871 7.891642e-06 8.248272 7.9735327 -0.00023879709
8.113743 -9.730135e-06 -2.1010541e-12 -4.957664e-06 -2.0343747e-05 7.96024 -3.717775e-08 8.057635
-4.4579984e-23 9.931565e-05 5.9441204 6.0546002 5.7896967 -7.9139536e-05 -6e-45 6.1405926
2.7742328e-05 5.4794717 -1.2912486e-05 5.520882 5.949262 -6e-44 5.567939 5.6839514
-1.3097689e-05 5.9643245 -6e-45 6.3228054 8.149708e-06 6.218324 5.9657664 -2.573753e-05
6.1143494 -0.00018217055 -2.031832e-12 -4.9801597e-06 -1.6263162e-05 5.9713736 -7.022103e-08 6.107467
-4.512635e-23 9.24858e-05 7.157972 7.2520876 6.957972 -8.6149535e-05 -6e-45 7.4013033
2.6327483e-05 6.620646 -1.3006661e-05 6.6458 7.165233 -6.2e-44 6.671106 6.8429036
4.694313e-06 7.1543646 -6e-45 7.621577 4.0357304e-06 7.4607477 7.199725 0.0007812271
7.3137307 -6.0212213e-05 -2.0958777e-12 -4.4526987e-06 -1.2649308e-05 7.1793137 -5.159497e-08 7.345693
-4.2356776e-23 0.000105789724 3.7796178 3.7911975 3.6621993 -8.751367e-05 -6e-45 3.8469298
2.8178907e-05 3.4826467 -1.3025289e-05 3.3768737 3.7801034 -5.7e-44 3.4991834 3.5198283
-0.00015872298 3.7565014 -6e-45 4.000764 -6.3823386e-06 3.8767726 3.7796087 -0.0013713539
3.8214276 1.5631878e-06 -2.0080055e-12 -4.567517e-06 -1.7173721e-05 3.6910045 -9.168443e-08 3.8614223
-4.2256644e-23 0.000102854756 2.492871 2.5067854 2.4316623 -5.5612432e-05 -6e-45 2.5709393
2.8774028e-05 2.3197434 -1.306878e-05 2.1485198 2.524827 -5.9e-44 2.319887 2.3072631
-8.908499e-05 2.4860203 -6e-45 2.6851296 -1.2680733e-05 2.602922 2.5890815 -0.0052524246
2.5599194 1.656708e-05 -1.9754125e-12 -4.5139773e-06 -1.7253202e-05 2.4060497 -3.7968427e-08 2.6229632
00000000: b66c 509a 4aa8 1c39 937a cc40 a472 ce40
00000010: 1de9 c540 33f7 25b9 0400 0080 ff26 d540
00000020: 4bd2 a437 f3e8 bb40 4a98 5eb7 fd3c c140
00000030: f912 cb40 2b00 0080 09b8 be40 833d c640
00000040: 6d12 29b8 8e33 cc40 0400 0080 53e6 da40
00000050: 1621 3236 8a3e d740 f9c2 ce40 eb24 fa3a
00000060: 070c d140 7478 b337 bf90 0bac e019 a7b6
00000070: cd9a 92b7 7813 d040 3067 0fb3 f1ea d240
00000080: 8898 509a fc5d 1e39 5f45 ed40 eb06 f040
00000090: 2b03 e740 804d 0eb9 0400 0080 533a f540
000000a0: 2e60 b337 7135 db40 11ec 51b7 56ad de40
000000b0: 8c86 ed40 2900 0080 929e db40 ea93 e340
000000c0: 52a5 d337 cfe9 ec40 0400 0080 ac77 fc40
000000d0: a6a8 5436 2031 f740 9fea ee40 d6f2 873a
000000e0: 1e4e f240 abc5 5436 18f7 19ac f74f a5b6
000000f0: 36f4 a2b7 9197 ee40 4c3a 10b3 02f7 f240
00000100: e06e 4f9a d60f 1139 da67 1141 594f 1341
00000110: ce4c 0d41 3440 0db9 0400 0080 8a01 1741
00000120: 072f bc37 91cd 0641 c302 52b7 6ff6 0741
00000130: 6367 1141 2a00 0080 2a90 0641 2fcc 0c41
00000140: 34e1 2238 00fa 1041 0400 0080 0fd3 1a41
00000150: 67e9 3037 afc8 1741 dc35 1341 107e a63a
00000160: 6456 1541 c65c 7837 b7a8 23ac a26e a8b6
00000170: b6fe 95b7 7e9a 1241 d8b8 14b3 d72f 1541
00000180: 5fef 509a a04e cc38 e439 fd40 412f 0041
00000190: dfa6 f540 7f93 bab8 0400 0080 1a3c 0341
000001a0: a0dd fd37 bd40 e940 4123 57b7 a33d ec40
000001b0: a078 fc40 2a00 0080 75a1 ea40 acdb f340
000001c0: 9404 3138 58a1 fc40 0400 0080 320f 0641
000001d0: 5866 0437 ecf8 0341 2e27 ff40 9b65 7ab9
000001e0: e4d1 0141 9d3e 23b7 3ad9 13ac 025a a6b6
000001f0: dda7 aab7 49ba fe40 5ead 1fb3 13ec 0041
00000200: 5993 579a af47 d038 3c36 be40 49bf c140
00000210: 3245 b940 b7f7 a5b8 0400 0080 bc7f c440
00000220: 32b8 e837 d557 af40 b5a2 58b7 11ab b040
00000230: 5b60 be40 2b00 0080 8e2c b240 eee2 b540
00000240: 25be 5bb7 bfdb be40 0400 0080 6c54 ca40
00000250: bbba 0837 83fc c640 8fe7 be40 ede6 d7b7
00000260: c0a8 c340 0905 3fb9 3bfa 0eac 3f1b a7b6
00000270: e06c 88b7 7e15 bf40 6bcc 96b3 5f70 c340
00000280: b737 5a9a f0f4 c138 1b0e e540 1a11 e840
00000290: b5a7 de40 2eab b4b8 0400 0080 7ad7 ec40
000002a0: d7d9 dc37 55dc d340 2f37 5ab7 65aa d440
000002b0: 9749 e540 2c00 0080 b379 d540 11f9 da40
000002c0: d783 9d36 8ef0 e440 0400 0080 f5e3 f340
000002d0: a96a 8736 72be ee40 2664 e640 43cb 4c3a
000002e0: 150a ea40 5f8c 7cb8 fa7b 13ac 6468 95b6
000002f0: 5d38 54b7 f0bc e540 4599 5db3 eb0f eb40
00000300: 26d3 4c9a 6ddb dd38 42e5 7140 fba2 7240
00000310: 7961 6a40 8b87 b7b8 0400 0080 1934 7640
00000320: be61 ec37 afe3 5e40 3187 5ab7 b31e 5840
00000330: 37ed 7140 2900 0080 9ff2 5f40 de44 6140
00000340: e06e 26b9 856a 7040 0400 0080 4206 8040
00000350: df27 d6b6 0b1d 7840 1ce5 7140 00bf b3ba
00000360: 4592 7440 b9ce d135 034d 0dac ac42 99b6
00000370: 4910 90b7 6b39 6c40 0ce4 c4b3 8b21 7740
00000380: 3157 4c9a bab3 d738 338b 1f40 2c6f 2040
00000390: 5ba0 1b40 6541 69b8 0400 0080 458a 2440
000003a0: c15f f137 ad76 1440 fc41 5bb7 5981 0940
000003b0: c496 2140 2a00 0080 0779 1440 33aa 1340
000003c0: 24d3 bab8 f51a 1f40 0400 0080 2ad9 2b40
000003d0: 55bf 54b7 4696 2640 83b3 2540 881c acbb
000003e0: b8d5 2340 89f9 8a37 de01 0bac c576 97b6
000003f0: f8ba 90b7 b8fc 1940 ba12 23b3 a1de 2740

exp_avg_sq f4 [10, 32]
0.0015011259 0.0038438556 1387.1364 1438.3436 1347.2051 0.0005443733 6.2377735e-06 1503.396
0.00018849559 966.229 0.00017106993 1281.8347 1454.4019 3.1033436e-05 1164.8461 1281.1187
0.00016103977 1418.1577 5.327342e-05 1555.5244 0.001448234 1449.1543 1355.3822 0.0034736283
1460.4797 0.00019516326 7.2992025e-06 0.0006754327 0.0042450638 1378.982 0.00024288341 1411.1409
0.0014030212 0.0035729036 406.84634 422.7888 395.49316 0.00049888174 6.1683527e-06 445.37823
0.00019269237 261.77545 0.00013248668 373.0916 426.16858 2.9265295e-05 339.10815 371.8579
9.396885e-05 413.7392 4.235865e-05 464.82773 0.0013671635 426.46936 400.29987 0.0032665438
423.4605 0.00017556408 7.765677e-06 0.00067273865 0.0045784963 405.7372 0.0002360181 424.65778
0.0013854614 0.0035064418 419.7831 426.71988 406.232 0.0004739995 6.6038915e-06 466.26395
0.00019293356 210.78021 0.00013228778 367.77515 434.4378 2.7196527e-05 349.97626 381.13974
5.2151885e-05 420.0311 4.1691535e-05 482.05768 0.0013921893 438.6409 414.75784 0.0028718247
434.4166 0.00017185077 8.109165e-06 0.00061757246 0.004252917 410.87146 0.00023181358 437.51266
0.0014269955 0.003560851 439.78314 447.05698 425.55478 0.00045797107 8.01515e-06 488.39514
0.00018272777 224.4929 0.00012426583 385.15817 455.37033 2.8367258e-05 366.45657 399.50354
6.509269e-05 440.02304 4.2041873e-05 505.1713 0.0015046159 460.19925 435.0863 0.0029464797
455.45242 0.00017478266 8.625301e-06 0.0006381138 0.0042169676 430.34106 0.00023478444 458.56653
0.0014008823 0.003556037 504.23682 512.2959 487.64807 0.00049837126 8.260467e-06 559.14996
0.00019854438 269.31366 0.00013037644 441.03427 522.1723 3.049622e-05 420.05804 457.79572
5.3038464e-05 504.3932 4.895419e-05 578.29474 0.0013858688 528.57697 499.40677 0.0030473662
522.6756 0.00020010005 9.45269e-06 0.0006784904 0.0040437104 493.13663 0.00024464683 525.07117
0.0014136418 0.0035939023 543.47186 551.4775 525.121 0.0004922683 6.228614e-06 601.71747
0.00019819486 296.23154 0.00012954473 475.38855 562.4491 2.973113e-05 452.88647 493.36572
4.8881466e-05 543.7173 5.2143805e-05 622.5961 0.001451471 569.9921 537.84784 0.003073032
562.9322 0.00019646532 7.0176534e-06 0.0006547014 0.004083603 531.41113 0.00023316167 565.4325
0.0013685226 0.0034739936 263.71777 269.18115 255.74861 0.00048156158 6.341011e-06 291.83905
0.00018526669 145.64566 0.0001289372 231.22545 273.12744 2.8660224e-05 220.2482 239.18999
5.9424754e-05 263.87766 5.459907e-05 303.06824 0.0013911211 276.63562 261.43396 0.0029760934
273.7161 0.00019071202 8.931353e-06 0.0006502042 0.0041094483 258.5567 0.00024712994 275.9049
0.001401243 0.003634947 329.28232 335.38815 318.879 0.00050057843 6.2456625e-06 365.75262
0.00020095566 164.74669 0.00013006337 288.10278 340.53677 3.0507596e-05 274.3615 298.58356
5.217778e-05 328.87265 5.027022e-05 378.43628 0.0014203126 343.79007 325.40033 0.003101279
340.95343 0.0001932416 7.5784924e-06 0.0006757681 0.004274871 322.15106 0.00024518164 343.64102
00000000: 6dc1 c43a 32e9 7b3b 5d64 ad44 ffca b344
00000010: 9066 a844 46b4 0e3a 114e d136 acec bb44
00000020: e6a6 4539 a88e 7144 3c61 3339 b63a a044
00000030: dccc b544 e629 0238 139b 9144 cc23 a044
00000040: c9dc 2839 0c45 b144 e671 5f38 c870 c244
00000050: abd2 bd3a f024 b544 3b6c a944 d0a5 633b
00000060: 5a8f b644 bda4 4c39 aceb f436 850f 313a
00000070: 2d1a 8b3b 6d5f ac44 85ae 7e39 8264 b044
00000080: 94e5 b73a 6027 6a3b 556c cb43 f764 d343
00000090: 20bf c543 63c7 023a bff9 ce36 6ab0 de43
000000a0: 770d 4a39 42e3 8243 1fec 0a39 ba8b ba43
000000b0: 9415 d543 be7e f537 d88d a943 d0ed b943
000000c0: 2411 c538 9ede ce43 41aa 3138 f369 e843
000000d0: 6532 b33a 143c d543 6226 c843 8313 563b
000000e0: f2ba d343 a017 3839 5449 0237 ba5a 303a
000000f0: 3607 963b 5dde ca43 a07b 7739 3254 d443
00000100: 5f98 b53a 55cc 653b 3de4 d143 255c d543
00000110: b21d cb43 2383 f839 ff96 dd36 c921 e943
00000120: 354e 4a39 bcc7 5243 bbb6 0a39 38e3 b743
00000130: 0a38 d943 1924 e437 f6fc ae43 e391 be43
00000140: a9bd 5a38 fb03 d243 f2dd 2e38 6207 f143
00000150: 1f7a b63a 0952 db43 0161 cf43 3935 3c3b
00000160: 5335 d943 d732 3439 990c 0837 96e4 213a
00000170: 0e5c 8b3b 8c6f cd43 fc12 7339 9fc1 da43
00000180: 060a bb3a 2b5d 693b 3ee4 db43 4b87 df43
00000190: 03c7 d443 d61b f039 cf78 0637 9432 f443
000001a0: 9d9a 3f39 2f7e 6043 5b4d 0239 3f94 c043
000001b0: 67af e343 39f6 ed37 713a b743 74c0 c743
000001c0: 5f82 8838 f302 dc43 1e56 3038 ed95 fc43
000001d0: 8836 c53a 8119 e643 0c8b d943 ba19 413b
000001e0: e9b9 e343 dd45 3739 63b5 1037 1847 273a
000001f0: 7d2e 8a3b a82b d743 7830 7639 8448 e543
00000200: cf9d b73a 670c 693b 501e fc43 f012 0044
00000210: f4d2 f343 21a5 023a 7096 0a37 99c9 0b44
00000220: 5a30 5039 26a8 8643 a9b5 0839 6384 dc43
00000230: 078b 0244 22d2 ff37 6e07 d243 dae5 e443
00000240: 9e75 5e38 5432 fc43 2954 4d38 dd92 1044
00000250: 0aa6 b53a ed24 0444 11b4 f943 52b6 473b
00000260: 3dab 0244 f3d1 5139 ff96 1e37 b8dc 313a
00000270: 1a81 843b 7d91 f643 f143 8039 8e44 0344
00000280: f349 b93a ad87 6b3b 33de 0744 8fde 0944
00000290: be47 0344 910b 013a 63ff d036 eb6d 1644
000002a0: 87d2 4f39 a31d 9443 66d6 0739 bcb1 ed43
000002b0: be9c 0c44 1e67 f937 7871 e243 d0ae f643
000002c0: 1306 4d38 e8ed 0744 fcb4 5a38 27a6 1b44
000002d0: 493f be3a 7f7f 0e44 4376 0644 ec64 493b
000002e0: a9bb 0c44 4202 4e39 2f79 eb36 44a0 2b3a
000002f0: bfcf 853b 50da 0444 dc7c 7439 ae5b 0d44
00000300: 0060 b33a f1ab 633b e0db 8343 3097 8643
00000310: a5bf 7f43 1a7a fc39 dfc4 d436 66eb 9143
00000320: 2644 4239 4aa5 1143 5133 0739 b739 6743
00000330: 5090 8843 5d6b f037 8a3f 5c43 a330 6f43
00000340: d83e 7938 57f0 8343 4e01 6538 bc88 9743
00000350: 4756 b63a 5c51 8a43 8cb7 8243 900a 433b
00000360: a9db 8843 def9 4739 ded7 1537 7772 2a3a
00000370: 8da8 863b 4247 8143 3891 8139 d4f3 8943
00000380: eaa9 b73a 4a38 6e3b 23a4 a443 afb1 a743
00000390: 8370 9f43 4039 033a d591 d136 56e0 b643
000003a0: a0b7 5239 27bf 2443 9f61 0839 280d 9043
000003b0: b544 aa43 90ea ff37 462e 8943 b24a 9543
000003c0: 77d9 5a38 b36f a443 3dd9 5238 d837 bd43
000003d0: c829 ba3a 21e5 ab43 3eb3 a243 d43e 4b3b
000003e0: 0a7a aa43 e6a0 4a39 c14a fe36 0826 313a
000003f0: 3814 8c3b 5613 a143 b98b 8039 0dd2 ab43

exp_avg f4 [10]
0.17672725 0.19779147 0.24344833 0.20316906 0.14190167 0.1777017 0.06840813 0.029629825
0.026172634 0.064798124
00000000: fdf7 343e d989 4a3e 854a 793e 8d0b 503e
00000010: ac4e 113e 6ff7 353e 9019 8c3d 3fba f23c
00000020: fe67 d63c e1b4 843d

exp_avg_sq f4 [10]
3.4965975 1.5664591 2.3476162 2.3844867 2.5509527 2.6307542 1.615577 2.0475347
1.4842535 2.5200224
00000000: 41c8 5f40 bb81 c83f 583f 1640 6e9b 1840
00000010: cf42 2340 475e 2840 3acb ce3f cf0a 0340
00000020: 05fc bd3f 0c48 2140
