code/2021-04-12_20-25_last.pth (torch, 96051 bytes, 26 tensors)

encoder.maxpool_conv.0.0.weight f4 [32, 1, 2, 10]
00000000: cd34 643e ac9d c33d 9c52 cabd 0990 4abe
00000010: 8f56 963c 5afc e63d b372 e43c 01b0 35bd
00000020: 595d 593e c709 033c 537b ca3d dfa6 37bd
00000030: 4a74 aabc 7d6b b83c defa 58be 543f 18be
00000040: 2fb1 863c fe8b 58be 4e5f 233e d65a 44bd
00000050: 923c 843d 9849 3ebe 76b2 abbd 8d99 e4bd
00000060: 24c2 4bbe c3a6 193e c0a1 89bd d5b9 353d
00000070: 08e2 0b3d c4d8 4ebd 23db 45bb 7ca8 e4bc
00000080: 2284 163e 38e7 87bd 1d62 463e a9c2 28be
00000090: e82a f53d 4552 0bbe 048f 713e e9c4 873e
000000a0: 8895 20be 114d 48be 3645 00be 11df a6bd
000000b0: 4010 f9bb 069c 6cbc 37ba f23d c088 14be
000000c0: 0f0c 6ebd 166e 373e ccfe 453b 406d d03d
000000d0: ee9d 603e 2796 43be 9015 c03c 859d 323e
000000e0: 2265 3b3e eb50 1ebe 66f6 633b 0db2 193d
000000f0: 9463 c13d 7711 713e fca3 e53c 3036 6bbd
00000100: 920f 21be eaf8 2e3e 23b7 d93c b508 9a3d
00000110: a494 59be 9a84 b13d f1b7 c8bc 82b9 60be
00000120: 0020 a73d 2101 0e3e 0a4a 3c3e a99c 84be
00000130: 5204 81be 2e14 16be 08be ee3c f03d c83d
00000140: 68b7 573e 5787 5b3e d8c2 99bd d1ee 5f3e
00000150: f8cc 05be c189 33be 5346 683d beb1 2ebd
00000160: 67fe 353e 68a4 2abe 1f59 97bd 0594 5cbe
00000170: 92fd b13d 3443 f73d d59a 283e 4927 3fbe
00000180: c5dd 643d 2200 26be b39a 4abe 5532 83bd
00000190: a563 e53d b3ea 393d 9f55 03bd 51d5 293d
000001a0: a0d8 d53c 36ce 59be b06c c0bd b19f 17be
000001b0: 9636 3cbd b30e 113e 0adf 2d3d a934 aa3c
000001c0: f3d4 e13d 7afa 4c3e 4584 0fbe f22b aebc
000001d0: db7e 42be 24f1 e5bc 7db1 273b c0ea ac3c
000001e0: c7b1 7abe f3da 1d3e e385 0b3e 1864 f03d
000001f0: f81e 17be d190 bebd 9518 623c 776d 2cbe
00000200: 63f8 3bbe cce0 60be 7767 b7bc 74e7 113e
00000210: 763c 2d3e 6697 8d3d eeb0 c5bd e2a0 15be
00000220: 608f c23b 13be e23d 0e15 4d3e 2b1d c03c
00000230: fffc 66be 5429 023e bf23 cebd b529 7f3c
00000240: 703d 08be 3d16 3f3e 2f0f 16be 2bfd ea3d
00000250: b0ef 64be ed8c 44be 6945 3e3e c353 863d
00000260: f17b 2c3e 4198 09bc 9cb4 1fbe 8654 dbbd
00000270: ac4a f03b f5fc 163d 5b89 d53d 6c4d 393e
00000280: 7bbf 1c3e 5a96 e03c 0d10 dbbc 5f22 04be
00000290: c79d 2dbe bbd5 b63c b3a9 fdbd 27f2 193e
000002a0: 8726 1cbe 148a 623d 76e9 46be d766 a9bd
000002b0: 759d 3c3e 86b0 05be 1251 0f3e f74e 8d3d
000002c0: 3853 b1bd 8e05 2fbe 9227 383e c952 883e
000002d0: 95e3 7fbd 2cc1 06be 2668 293e 7212 693d
000002e0: f549 86bd c505 7cbd bd47 73bd 24d7 113e
000002f0: 9302 4f3e 52c8 0a3e db86 3ebe cab6 003e
00000300: c37f 2abe 9772 4d3e ccc9 bbbc 68cd e53c
00000310: cfb2 61bb 9088 97bd 05b0 3b3e 234b a3bd
00000320: 5b7c 9ebd 27b3 adba 8687 6abd b462 57bd
00000330: cbce ca3d 82b9 203e 3dee 0a3e bb6e 5fbd
00000340: a9f4 d83d 922d a4bb 0cd9 8f3d d4bc 433e
00000350: bf40 d83c 08f3 123e 2f2c 093e 833e 4e3d
00000360: 3cd3 543e 4c03 453d 8da2 5d3e 259e e2bd
00000370: ce60 38be 5026 dcbd 084b 16be 4172 4b3e
00000380: d4ea 17be 5d1e 8ebb e5f6 57be 6d67 803c
00000390: a2f9 ddbd 4939 c73d d999 4c3d 0791 1c3e
000003a0: 3db4 bebd 9a21 7a3d d9d0 e83d ebb5 eabb
000003b0: e092 d5bd 016d 213e 5c83 e63c 839f 223e
000003c0: e93d abbd 4d2e 1f3e 8c94 8e3d d0a5 e1b9
000003d0: 00b1 ecbd 45c5 bbbd 4576 03bd b0e9 69be
000003e0: 1206 5abe 2567 8ebd 42f9 713e 6e24 40bd
000003f0: 903e 98bd 0ac5 033e e2f1 0ebe ec32 043e
0.22285767 0.09551558 -0.09879038 -0.19781508 0.018351821 0.11278601 0.027886724 -0.044357304
0.21227016 0.007997937 0.098868035 -0.044836875 -0.020807404 0.022512192 -0.21189448 -0.14867908
0.01644191 -0.21147153 0.15954325 -0.04793819 0.06456865 -0.18582761 -0.08383648 -0.111621
-0.19898278 0.15005021 -0.067203045 0.044366676 0.034151107 -0.050499693 -0.003019043 -0.02791237
0.14698842 -0.06635898 0.19373365 -0.16480507 0.11971074 -0.13605602 0.23589712 0.26517418
-0.15682042 -0.19560649 -0.12526402 -0.08148015 -0.007600814 -0.014441496 0.11851924 -0.14505291
-0.05811697 0.17913088 0.0030211685 0.10177088 0.21935245 -0.19100247 0.023447782 0.17442901
0.18300298 -0.15460555 0.0034784316 0.037523318 0.09442821 0.23541819 0.028032295 -0.057424724
-0.15728596 0.1708714 0.026576584 0.07521192 -0.21248108 0.0866787 -0.024501773 -0.21945766
0.081604004 0.13867618 0.18387619 -0.25900772 -0.2519861 -0.14656135 0.029143348 0.09777439
0.21066058 0.21438347 -0.075078666 0.21868445 -0.1306647 -0.17533018 0.05670769 -0.042649977
0.17772828 -0.16664279 -0.073900454 -0.2154084 0.08690943 0.12073365 0.16465314 -0.1866733
0.05587556 -0.16210988 -0.19785576 -0.064060844 0.11200646 0.045389842 -0.032064077 0.0414632
0.026104271 -0.2127007 -0.093957305 -0.14807011 -0.045950495 0.14165764 0.042449035 0.020777063
0.11026945 0.20017424 -0.140153 -0.02126119 -0.18993704 -0.028069086 0.002558797 0.021108031
-0.24481879 0.15415554 0.13625292 0.11737841 -0.14757907 -0.09304965 0.013799806 -0.16838633
-0.18356471 -0.21960753 -0.022388203 0.14248449 0.16917595 0.069136426 -0.09652887 -0.14612153
0.005937502 0.1107141 0.20027563 0.023451408 -0.22557448 0.12711078 -0.10065412 0.015573909
-0.13304687 0.18660827 -0.1465423 0.11474069 -0.22357059 -0.19194384 0.18581165 0.06558945
0.16844155 -0.008398117 -0.15596241 -0.10709481 0.0073331203 0.036862332 0.10426589 0.1809594
0.15307419 0.027415443 -0.026741052 -0.12903737 -0.16954719 0.022318712 -0.12385883 0.1503378
-0.15249072 0.055307463 -0.19424996 -0.08271568 0.1841944 -0.1305562 0.1399577 0.06899827
-0.08658451 -0.17091963 0.17983845 0.2662566 -0.0624729 -0.13159627 0.16543636 0.056902356
-0.06557075 -0.06152894 -0.059394587 0.14242226 0.20215826 0.13552979 -0.18606131 0.12569728
-0.166503 0.20063244 -0.022923373 0.028052047 -0.0034438854 -0.07399094 0.18328865 -0.079733156
-0.07738563 -0.0013252244 -0.05725815 -0.052584365 0.09902724 0.15695766 0.13567443 -0.05454896
0.1059354 -0.005010315 0.0702382 0.19115001 0.02639806 0.14350522 0.13395761 0.050352585
0.20783705 0.048098847 0.2164404 -0.1106532 -0.18005678 -0.10749495 -0.1467706 0.19867803
-0.14835674 -0.0043371157 -0.21090277 0.015674317 -0.10838629 0.09727723 0.049951408 0.15289699
-0.093117215 0.0610672 0.113679595 -0.0071627996 -0.10428405 0.15764238 0.028138809 0.15881161
-0.08361418 0.15545006 0.06961927 -0.00043038884 -0.115571976 -0.091684856 -0.032095212 -0.22843051
-0.21291378 -0.06953267 0.2363024 -0.046909742 -0.07433808 0.12868133 -0.13959458 0.1291005

encoder.maxpool_conv.0.1.weight f4 [32]
00000000: e99f 803f 492a 623f 0b2b 7f3f ea44 7f3f
00000010: b5e8 793f e06c 5d3f e2ec 823f 39b7 843f
00000020: 4f6b 763f 4765 783f 8b8c 6e3f e91b 853f
00000030: d3b7 893f f397 783f 5648 713f ff17 873f
00000040: c9b6 7a3f 5646 743f aaa5 803f f13a 873f
00000050: c8fe 6d3f c27b 8a3f cceb 7e3f e0a1 773f
00000060: 2f20 6c3f ff79 743f baae 7f3f 0f14 803f
00000070: 0e7f 813f 5794 763f 0844 823f eee8 773f
1.0048801 0.8834577 0.99675053 0.9971453 0.9762071 0.86494255 1.0228541 1.0368415
0.9625749 0.97029537 0.931832 1.0399143 1.0759224 0.97106856 0.94251 1.0554198
0.9793516 0.95419824 1.0050557 1.0564862 0.9296689 1.0819018 0.9957855 0.96731377
0.9223661 0.9549865 0.99875987 1.0006121 1.0116899 0.963201 1.0177011 0.968398

encoder.maxpool_conv.0.1.bias f4 [32]
00000000: 2fc0 92bb 6a87 12be ad70 c73d 8c53 ca3d
00000010: 91a0 05bb df07 33be dcc0 a6bd ec89 8e3d
00000020: e3dd 25bd 6751 24bd b326 99bd 201c 913d
00000030: 2932 1a3d 8017 3ebd f2bb a1bd 3833 413e
00000040: ded7 1cbd c54d 80bd 0e4e ac3d a96f 6e3d
00000050: 5c95 86bd 6b01 0f3e 52c1 17bc e6d1 d63d
00000060: 6662 4ebd 9a5c 4ebd 26e1 be3c 9f0a 8f3d
00000070: b74b 47bd fb36 29bd bbab 4bbd bba9 b03d
-0.0044784765 -0.14309469 0.09738288 0.098792166 -0.0020389894 -0.17483471 -0.08142254 0.069599
-0.04049481 -0.040116694 -0.074780844 0.070854425 0.037645493 -0.04640913 -0.07897176 0.18867195
-0.038291804 -0.06264833 0.08413325 0.058211956 -0.06571457 0.13965385 -0.0092624 0.10489254
-0.05038681 -0.05038128 0.023300719 0.06984448 -0.04865619 -0.0413122 -0.04972432 0.086261235

encoder.maxpool_conv.0.1.running_mean f4 [32]
00000000: 5944 97c0 58b1 c041 6701 2bc1 eb9c 34c1
00000010: 8582 d5c1 16be b9c1 301e d5c1 0ad8 5dc1
00000020: 95d2 83bf 06af 4542 58e3 4143 70eb 0dc1
00000030: fbd9 04c2 fcc7 8e42 afc5 52c2 f031 c9c1
00000040: f5fc 2a43 7f2c 1343 73cf 80c1 75c6 c8c0
00000050: 6ecd 5840 554f 87c1 3225 51c0 e76f 2742
00000060: cf07 c3c0 d55c f942 6801 7342 50d8 f4c0
00000070: 1dd3 ddc1 7073 3642 fc2f fac0 7edc 3fc1
-4.727093 24.086594 -10.687842 -11.28831 -26.68873 -23.217815 -26.63974 -13.865244
-1.029864 49.42092 193.88806 -8.86998 -33.21287 71.390594 -52.69305 -25.149384
170.98811 147.17381 -16.101294 -6.2742257 3.3875384 -16.913736 -3.2678952 41.85928
-6.094703 124.68131 60.751373 -7.6514053 -27.728083 45.612732 -7.8183575 -11.991331

encoder.maxpool_conv.0.1.running_var f4 [32]
00000000: f98a d93f a6d4 5d40 7100 fb3f a649 db3f
00000010: 1744 8b40 e94a 7640 11a8 7e40 b4d7 c13f
00000020: ea9b aa3f eb57 d540 dd50 9542 9523 e33f
00000030: cd03 9140 600e 3241 cb50 be40 b8b5 c240
00000040: 5c71 6242 c0c5 2542 e676 ea3f c497 f43f
00000050: be60 df3f d100 4240 33a1 ca3f dd0b aa40
00000060: ccbb 1c40 2134 0e42 98e5 2341 fde4 d83f
00000070: af08 4640 92c6 9a40 e70a 6540 7f46 f83f
1.6995536 3.466104 1.960951 1.7131851 4.3520617 3.8483222 3.979008 1.5143952
1.3328831 6.666982 74.657936 1.7745234 4.531714 11.1285095 5.9473624 6.0846825
56.610703 41.443115 1.8317535 1.9108815 1.7451398 3.0312998 1.5830444 5.313948
2.4489622 35.550907 10.243553 1.6944882 3.09428 4.8367395 3.5787904 1.9396514

encoder.maxpool_conv.2.0.weight f4 [1, 32, 2, 10]
00000000: 81f4 013d 4029 28ba 78c0 133d ed20 603b
00000010: 9243 0dbb f3be 2ebc b285 9f3b b2f6 26bd
00000020: 5544 3dbd 201d 58bd 42e8 753d aec5 e33c
00000030: 478c a6bb d38a 8e3c fe17 2fbc d271 06bd
00000040: 6e92 883c 2860 31bd 3a6a d0bc 5169 a33c
00000050: fc4d b2bc d95a 4e3c 50c7 bcbc 2974 adbc
00000060: c218 8b3b 763c dabc 2b7c 1e3d 72c1 cd3c
00000070: 3b61 eb3c d0b4 91b8 ee91 84ba 016b 1a3b
00000080: 48c7 b2bb 6247 033c 9741 bf3a 745b 86bc
00000090: fde2 1b3c 90a8 053c 0897 483b 663c ed3c
000000a0: 9e51 c43c 9e1e 083d ce4e c93c 93ee 093d
000000b0: 7ce7 b0bc 5d81 bcbc 9ce5 633c a841 c83b
000000c0: baed 4f3d 8db8 153b a231 acbd 301e 6dbd
000000d0: 945e 4abd a419 713c 08b5 19bd cbe5 973b
000000e0: 1289 1b3c 25ba 833c 2e6a b83c ee94 1e3c
000000f0: bb14 3a3c 2fd9 2e3c ddd5 8dbb d642 e1bc
00000100: 9fc8 e5bc 93bd 7dbd 7282 37bd 6401 77bc
00000110: d7a5 bbbc ae96 31bd e02d 433d 5861 f5bb
00000120: 99b7 ad3c 9f74 4f3c 4b4e 0dbd 6636 b7bb
00000130: d65e 4b3c 3992 ef3c 0da2 133d 8ac4 edba
00000140: 1276 01bc c0da cbbc 71a1 9bbc 6969 cfbc
00000150: 35df 09bd 6afd 35bb 24cf 68bb 3ee9 6bbc
00000160: 387d 60bd a4c5 86bd 9bd0 4c3c a31f 4fbc
00000170: 55a2 263c 7c26 8ebb 4be8 88ba 7a4f 323d
00000180: d8be f93c a613 9b3c 3b8a 133b 455d f83c
00000190: 0a20 e937 f6c7 e9bc 5f42 043c 0422 8dbc
000001a0: 6d20 55bc d424 71bc 7e86 9a3b b255 193d
000001b0: 91c3 ec3b 86ef 093d 41ca 0b3b 4914 ae3a
000001c0: e9c8 fe3a c938 bf3c 7397 08bc 5bc7 7bba
000001d0: de2d 83bc c418 053b 2da4 21bc 52e7 9d3c
000001e0: 341a 303d 47bc 1c3d add4 4d3d f375 7d3b
000001f0: 783b 803d b932 5d3d 5f31 50b9 3cca 0c3d
00000200: aef4 a6bb ac21 463c 7dfe 82bc a5b3 bfbc
00000210: 8317 25bd 182e 8bbb 28af 2bbd 960a 83bc
00000220: 0d23 233b 66b6 5ebd 5726 59bd caaf 47bd
00000230: 4870 113d f6b8 503d 2a6d 483d d15c 063d
00000240: 54ff 423d 666d 5c3d 7c9c 223d 7e48 013c
00000250: ce7b 233c fc44 483c 2489 53bd 909f c4bc
00000260: d393 37bc e9b0 77bd ca83 49bd 7327 a1bd
00000270: 146f 9bbd 151f 91bd 10a3 b4bd fb06 bebd
00000280: 6b04 ad3b 9cf6 cbbc ea12 fabb 71ff 083b
00000290: 5dfd 7ebb 6e2b 29bc 7507 1b3d d87e 57bc
000002a0: 224a 253c 14e1 5c3d 68ca a3bc 401c fb3b
000002b0: c218 c53b 70c3 563b 5004 6cbc 41a7 063c
000002c0: eeeb a7ba 1755 9abc 39a8 b1bc 8d01 83bc
000002d0: 3ef3 ab3c 1f93 12bd f8de a83c 83d8 ae3c
000002e0: f0e4 9bbc c9aa a3bc ab0e af3c ae10 a33b
000002f0: 6cdd f837 cb3c b2bc 7a8b 69bc fa93 5f3c
00000300: e75a 1f3d 4cb6 2bbb bbae 663d 99c2 443d
00000310: 849c 3e3c cb4c 343d 7bac 083a 9dce 553d
00000320: ec8d c6bc 0a41 0b3c aed6 6abc 7dc0 353a
00000330: 911e ceba e0c9 543c fbeb efbc 17b7 a63c
00000340: 7307 cdbb 15ea db3b 5a75 8cbc 9707 a3bc
00000350: 0576 12bc 5792 01bd c72e 09bc dd76 bb3c
00000360: cdeb bb3b 793b 33bd 380a 923c 8f2f b5bc
00000370: 823f 4d3d b1af 213d 62eb 4e3d a418 2d3d
00000380: 43c5 eb3c 2a14 273d 763a 5fbc 8ca2 7b3b
00000390: f585 303d 5853 3e3d ef6d b2bd ec4a 82bd
000003a0: 0f6f 6abd 80e5 82bc b6a9 63bd 0d19 52bd
000003b0: abda 2fbd 3b97 03bd 9e99 0e3b 8393 2fbd
000003c0: 758c 523c a3e3 ee3c 8863 8b3c adbd 3b3d
000003d0: 40a9 c43b 900a 833d d8ef f03c b76e 913c
000003e0: 8745 8b3d 091b e43c df01 00bd 1581 a1bc
000003f0: 7a26 7dbc df12 15bd f6db 07bd a20d 11bd
0.031727318 -0.0006414838 0.036072224 0.0034199313 -0.0021555168 -0.010665643 0.0048682326 -0.04076261
-0.046207745 -0.05276215 0.06003595 0.027804222 -0.0050826403 0.01740018 -0.0106868725 -0.03282339
0.016671386 -0.043304592 -0.025441278 0.01994768 -0.021765701 0.012594902 -0.023044258 -0.021173554
0.0042448947 -0.026640158 0.038692635 0.025116656 0.028732887 -6.947818e-05 -0.0010114291 0.0023562314
-0.005455885 0.008012624 0.0014591691 -0.01640103 0.009514567 0.008157864 0.00306076 0.028959464
0.0239647 0.033232324 0.02457371 0.033674788 -0.021594755 -0.023010904 0.013909724 0.0061113425
0.050763823 0.0022845597 -0.08407904 -0.057890117 -0.049406603 0.014715586 -0.03752616 0.0046355478
0.009493129 0.016079972 0.022511568 0.009679062 0.011357482 0.010671898 -0.004328473 -0.02749769
-0.028049765 -0.06194837 -0.044802137 -0.015076015 -0.022906227 -0.04335659 0.04765117 -0.007488411
0.02120571 0.012662082 -0.034498494 -0.0055912016 0.012412747 0.02924453 0.036043216 -0.0018140238
-0.007901685 -0.024884582 -0.01899788 -0.025318818 -0.033660132 -0.0027769455 -0.0035523856 -0.014398871
-0.054806918 -0.06580666 0.012500907 -0.01264182 0.010170539 -0.004338084 -0.0010445205 0.043532826
0.03048651 0.018930268 0.0022512812 0.030317912 2.7790684e-05 -0.028537732 0.008072465 -0.017228134
-0.013008219 -0.014718253 0.0047157397 0.03743524 0.007225462 0.033675693 0.002133027 0.0013281192
0.0019438538 0.023342507 -0.00833689 -0.00096045964 -0.016013082 0.002030895 -0.009865803 0.019275341
0.04299374 0.038265493 0.05025165 0.003867504 0.06261343 0.05400345 -0.00019854818 0.034372553
-0.005095086 0.012092989 -0.01599049 -0.02340109 -0.040305626 -0.004247438 -0.04191509 -0.015996259
0.0024892718 -0.054373167 -0.05301508 -0.04875163 0.03550747 0.050957642 0.048932232 0.03280336
0.04760678 0.053815268 0.039700016 0.007890819 0.009978248 0.012223478 -0.05164446 -0.024001867
-0.011204678 -0.06047145 -0.04919795 -0.078688525 -0.07589546 -0.070860066 -0.08820164 -0.09278675
0.0052800677 -0.024897866 -0.0076316493 0.0020904208 -0.003890834 -0.010325296 0.03784891 -0.0131528005
0.010088475 0.05392559 -0.019993976 0.00766328 0.0060149143 0.0032770298 -0.014405325 0.008218587
-0.0012811401 -0.018839402 -0.02168666 -0.01599195 0.02099001 -0.035784837 0.020614132 0.021343475
-0.019030064 -0.019978898 0.021369299 0.0049763536 2.9667011e-05 -0.021757504 -0.014254445 0.01364612
0.03890505 -0.0026201187 0.05631898 0.048037145 0.011633996 0.044018548 0.000521369 0.052198995
-0.024237595 0.008499393 -0.01433341 0.0006933285 -0.0015725662 0.012987584 -0.029287329 0.020350976
-0.0062569915 0.0067112544 -0.017145801 -0.01990108 -0.008939271 -0.0316337 -0.008372969 0.022883827
0.0057348968 -0.04375789 0.017827138 -0.022117404 0.050109394 0.039474193 0.050517447 0.042259827
0.028780585 0.040790714 -0.013624778 0.0038396446 0.0430965 0.0464662 -0.087123744 -0.063619465
-0.05723482 -0.015978575 -0.05558177 -0.05129342 -0.042933147 -0.032126646 0.0021759043 -0.042865288
0.01285087 0.02916128 0.017015234 0.045835186 0.0060016215 0.06398499 0.029411241 0.017752988
0.06800371 0.027844923 -0.031251784 -0.019714871 -0.015451068 -0.03639495 -0.033168755 -0.035413392

decoder.linear1.weight f4 [32, 164]
00000000: 797d 453e 9b40 09be 5572 853e df40 36be
00000010: 8c7a a53e c51c d8bd 6f14 5e3e 8b59 f6bd
00000020: 6553 5f3e 7ce8 8fbd e80e 923e a629 1fbe
00000030: 5e1a 813e b648 12be 9abe 4b3e abe1 05be
00000040: 89de 923e 59bd 953b 084a 603e 6d33 2ebd
00000050: ee0a ae3e 9a11 243c d994 af3e d066 b93d
00000060: 1b0b 903e 2870 8c3d 6eff 8d3e 25c5 e53c
00000070: 1993 953e 1bee 2fbc d145 8e3e e713 f83c
00000080: ac7a 5e3e 63e3 163d ad34 8a3e 2d8a 2d3d
00000090: 76d8 553e 52b8 573d bf0f a73e e83e 913d
000000a0: 44e2 453e 2a2c 78bc 0f9a 683e 0384 fe3c
000000b0: 2a3b 9a3e 0f5d 7a3c 6149 a63e e90f 88bd
000000c0: e0db 983e 22fb 3d3d 5737 5d3e 23cb abbd
000000d0: 0db3 7b3e 15cd 883c 66b1 6a3e bdd5 98bd
000000e0: 9f63 683e c74c ed3c 6490 8b3e 9014 70bd
000000f0: 4946 973e ee22 f0bc a7e0 5b3e f483 cdbd
00000100: 7c8e 623e 9592 5cbd f283 653e 5da3 99bd
00000110: 3eb6 ab3e 87e4 b4bb a6eb 513e 87e9 b1bd
00000120: d214 a43e 114e 6fbd 31a8 623e 52fc cabd
00000130: 6e79 603e 7658 fabc d550 a33e 7f20 cbbd
00000140: f414 a53e ee34 03be 0047 983e b698 03be
00000150: 50e2 953e 25e9 35be db61 a53e b1a4 9bbd
00000160: 00c5 9b3e 1f4b 36be 209e 6c3e b464 32be
00000170: 0e2f 503e 1180 2dbe d364 593e 33f4 04bd
00000180: 5ec7 6b3e f8be 26bd a2a9 523e d6e4 c1bd
00000190: 2741 733e 55b0 30bd e544 a03e f6ce 29be
000001a0: fb26 ac3e 2ce6 e6bd c590 783e 0ea1 abbc
000001b0: 66fd 803e 8f63 d1bd 220b 833e 61d1 86bc
000001c0: 3329 983e c777 9dbd 2478 9a3e 0295 e93b
000001d0: e031 703e fa75 0bbd 0a5e 963e 029d 90bc
000001e0: 0b11 793e 8014 1cbd a9b1 a33e 2844 b73d
000001f0: 80bb 813e 350a ca3d 74c4 6e3e 2d32 b53d
00000200: 42c5 9c3e e4d8 303e 8eb6 763e aea6 313e
00000210: 28d2 8c3e cee9 3d3d f33f 913e b285 9b3d
00000220: f1d9 7c3e 5f85 fd3d 9215 a93e 830d 033e
00000230: 7515 783e 1495 cdba 92c8 823e fadc d6b9
00000240: f247 aa3e af74 df3c 3ac3 ae3e 5840 e63d
00000250: a805 ad3e 32d5 453d d74e 553e 59b6 abbb
00000260: 59c8 9e3e 948f f93d 4c68 913e b55b 303d
00000270: 176e a63e 7eff 373d 30c0 983e 7923 293e
00000280: 4a32 8d3e 201e 2b3e f62a 9b3e 07ae d63d
00000290: 6082 03bd b142 023d 79c0 fdbc 798a aa3c
000002a0: 98b7 47bd 72a7 38bd d628 333d 3452 b8bc
000002b0: d85d 4a3d 0b68 78bc 3f58 193d a278 1dbd
000002c0: 5a6d 6c3d 2a43 fe3c 910f b93c c75c 67bd
000002d0: 336b 823d b63b 953d 999f 73bd d16d 06bd
000002e0: 1826 83bd 81fd 1d3d 4f04 a63c a25d 873b
000002f0: 2bb1 28bd 11eb 94bd a3c9 45ba 4a67 1e3d
00000300: a736 fe3c 4e3c 3abd 2bf9 b83c 14aa 3f3d
00000310: c1e3 4fbd ae6d 45bd 9c83 e63c 7b62 4ebc
00000320: c5ae e2bc fa18 2abd 0ed4 87bb ea80 de3c
00000330: 0732 a8bd d114 ce3c 329a 8f3d 8696 62bd
00000340: 14f6 7dbc 780d 643d 4d47 48bc 5809 82bc
00000350: 5823 5d3c 3d5b 833d a1b4 69ba 9b7f 29bb
00000360: d7dd 86bc e876 83bd 5204 f63c 28ab fcba
00000370: d8ab 58bd 6815 0e3c f68a ffbb 0d33 f23b
00000380: f230 0f3d f4ba 0ebc 1ac9 343d 755d 293c
00000390: f52d 443d 185a 91bd 6fb8 613c b0ca 363b
000003a0: 0b7c a9bd f9ec 803d a918 e3bc 8200 dbbb
000003b0: 0cb4 81bd 45ed 1dbc dfb6 6e3d 6e89 9bbd
000003c0: 7fe4 42bc 516a 04bc f3db 883d 4e36 26bc
000003d0: b96b 8fbd 4f53 2cbd ff7d 34bd d055 ccbc
000003e0: d3c7 b83c fde0 733d 2360 82bd 95ee 803c
000003f0: b6f3 1b3d 87ef e73c c854 37bd 10df 873d
0.19286145 -0.13403551 0.2606379 -0.17798184 0.32320058 -0.10552362 0.21687482 -0.12028798
0.21809156 -0.07026765 0.28526998 -0.15543231 0.2521543 -0.1428555 0.19896927 -0.13074367
0.28685406 0.004569691 0.2190324 -0.042529512 0.33992714 0.010013962 0.3429325 0.09052813
0.28133473 0.068573296 0.2773394 0.028048107 0.2921379 -0.010737921 0.2778764 0.030282928
0.21726483 0.036837947 0.26993313 0.042368103 0.20883355 0.052666016 0.326292 0.070920765
0.19324595 -0.015147248 0.22715019 0.031068807 0.30123264 0.015280976 0.3247786 -0.066436596
0.2985525 0.046382077 0.21603142 -0.08388355 0.24580021 0.016699353 0.22919235 -0.07462642
0.22694252 0.028967274 0.272586 -0.05861336 0.2954581 -0.02931353 0.21472417 -0.10034934
0.22124666 -0.05385073 0.22413614 -0.07501862 0.33537477 -0.0055204066 0.20500049 -0.0868712
0.32047135 -0.05842406 0.22134472 -0.099114075 0.21921322 -0.03055976 0.31897607 -0.099183075
0.32242548 -0.1281316 0.2974167 -0.12851223 0.29274225 -0.17764719 0.3230122 -0.07599772
0.30423737 -0.17802094 0.23107195 -0.17421228 0.2033045 -0.16943385 0.21229868 -0.03245945
0.23025271 -0.040709466 0.20572522 -0.09467475 0.23755322 -0.043136913 0.31302562 -0.16582856
0.3362349 -0.112743706 0.24273975 -0.02095082 0.25193328 -0.102240674 0.2559443 -0.016457262
0.29718933 -0.07688861 0.30169785 0.007128359 0.23456526 -0.034048058 0.2936862 -0.017652992
0.24322908 -0.038105488 0.3197148 0.08948547 0.25338364 0.09865228 0.23317128 0.08847461
0.30619246 0.17270237 0.24093077 0.1734874 0.27504086 0.04636555 0.28369102 0.0759386
0.24692513 0.12378954 0.3302427 0.12798123 0.24226935 -0.0015684688 0.25543648 -0.000409819
0.33258015 0.027277319 0.3413332 0.11242741 0.33793378 0.048299022 0.20830856 -0.0052402434
0.31012228 0.121855885 0.28399885 0.04305621 0.32505867 0.04492139 0.29834127 0.16517438
0.2757743 0.1671071 0.30306214 0.10482412 -0.032106757 0.031801883 -0.030975567 0.020817982
-0.048759073 -0.045081563 0.043740116 -0.022500135 0.049405903 -0.0151615245 0.037437674 -0.038445123
0.057721473 0.031037886 0.02259043 -0.056484964 0.06368103 0.072867796 -0.059478376 -0.032819573
-0.0640375 0.03857184 0.020265726 0.004131035 -0.041184586 -0.07271398 -0.0007545 0.038672723
0.03103192 -0.045467667 0.02257975 0.04679306 -0.050754312 -0.0482003 0.028138928 -0.012596722
-0.027671227 -0.041527726 -0.004145152 0.02716108 -0.08212667 0.02515641 0.07011832 -0.05531933
-0.015500564 0.055676907 -0.012224031 -0.015873596 0.013497196 0.06413887 -0.00089151604 -0.0025863412
-0.016463203 -0.06419164 0.030031357 -0.0019277083 -0.052898258 0.008672096 -0.007798548 0.0073913396
0.034958787 -0.008711565 0.044137098 0.010337223 0.04789539 -0.07097262 0.013776883 0.0027891807
-0.082756124 0.06295199 -0.02772172 -0.00668341 -0.06333169 -0.009639089 0.05827987 -0.07594572
-0.011895298 -0.008081988 0.06682577 -0.010144783 -0.07002968 -0.042071637 -0.04406547 -0.024943262
0.022556221 0.059540737 -0.06365993 0.015738765 0.038074218 0.028312458 -0.044758588 0.06634343

decoder.linear1.bias f4 [32]
00000000: 2a88 a53e c3e7 093d 066f 5f3e 6e0f a4bd
00000010: 317a 8f3e 5ea1 1c3e 1b74 1c3e c3c5 413b
00000020: 1df0 6dbc 827a 4bbc 10a8 7e3e 6b6d 123d
00000030: 20e3 a03e 70e8 d7ba e5e0 7b3d c58b c33c
00000040: 75b5 80bd cef7 2b3e cbf6 873e b7d4 7d3e
00000050: d983 a23e 774a 9e3e 7c0f 963e 7740 4f3d
00000060: 7acf 543e 1abb c1b9 0931 ad3b f078 5f3e
00000070: 5cca c2bc 6dd3 7d3e db39 8abd 2512 783e
0.32330447 0.03366829 0.21819696 -0.080107555 0.28022912 0.15295932 0.15278666 0.0029567338
-0.0145225795 -0.012419345 0.24868798 0.03574888 0.31423283 -0.001647247 0.061493773 0.023870358
-0.0628461 0.16793749 0.26555476 0.24788176 0.31741217 0.30916187 0.2930869 0.050598588
0.20782271 -0.0003695123 0.0052853865 0.21823478 -0.023778133 0.24787684 -0.06749316 0.24225672

decoder.linear2.weight f4 [10, 32]
00000000: 7777 c03e 9096 03be 90e5 db3e 593a 15bd
00000010: 232b 773e c504 9b3e f55e b33e 3325 2dbe
00000020: 0afc b9bc 6d8a d03d 0b03 223e f1a9 363d
00000030: 9fe3 e03e ff97 233e 915f 28be 3e5a 45bd
00000040: 2bc4 f4bd 0124 ab3e e07e 423e ff57 333e
00000050: b9fe 2a3e 039c a53e aa75 a13e 345d 133d
00000060: 34e7 0b3e 5238 203e 0c07 0e3e 9b04 4e3e
00000070: a21e c43d 12df e33e 5389 f4bd 04c6 d63e
00000080: 3fa2 023e 4b5d d4bd 7bcf f03d f25f 0e3d
00000090: a2de 7d3e cf4d cc3e 6db0 b43e f16b 2c3d
000000a0: 919a 4dbd a248 f33d c00b ae3e 9e44 2c3e
000000b0: a5d1 6e3e cdca 51bd acb2 4e3d e416 c7bd
000000c0: 4e5f 9abd 31ec d73e f68b d13e 1ff7 a73e
000000d0: 605c 363e 6878 c23e 2ae8 da3e 9f01 ec3d
000000e0: bd38 643e b891 64bd ae38 08be 5d5b a73e
000000f0: 3b7f 1b3a 97ae c03e cc4d 8c3d 42a6 f43d
00000100: ab34 943e 9110 3ebd e3c7 b13e 0414 20be
00000110: 52f2 4f3e 1321 b73e f638 be3e b3bf fb3d
00000120: 2346 c4bd 81c9 b63d f6ec 243e 39e0 a43a
00000130: 8ea4 023e 675f 4bbd fc24 74bd 2117 30bd
00000140: 8019 6ebd bf84 b43e b866 ba3e f120 413e
00000150: d7f5 a83e 874f ac3e 8748 113e 0235 dc3c
00000160: 85c7 9a3e e913 0fbd c4e8 cf3c f015 c73e
00000170: 5e3f 1abe e32c c73e ce29 fd3c d2bc b53e
00000180: a33c ea3e 0e36 033c 6fbb 133e 182b fe3c
00000190: 0444 673e 6dcf ce3e 422d a23e f5a2 b0bd
000001a0: a24f b1bd 94b3 23bd 579c ed3d 3a76 78bd
000001b0: 8a5a 403e b25b 3cbc 85a3 14be 4ed4 193e
000001c0: a62e 9a3d c213 733e cb00 3a3e d788 af3e
000001d0: ba0e c73e 8c3c fb3d 2fa8 da3e 42e1 af3d
000001e0: e5e1 e13e 1864 e3bd a4c5 20be d4e9 d33e
000001f0: 1888 f4bd 37ed 573e 7143 11be e8dd c83e
00000200: 4c03 cd3e d2f6 76bd 70a3 0b3e 7fb5 b4bb
00000210: 3c9c b63e ff48 363e eea1 933e 7424 293e
00000220: 7706 83bd e0e5 97bd b47b b63e f6ff 27be
00000230: d435 c33e f081 febd 1d6c fb3d a1ee a4bd
00000240: 1926 2fbe 7e49 b63e 65d0 4a3e ed84 d43e
00000250: d9c7 893e a83e 9a3e 18f7 133e 2fcb 513b
00000260: 78f8 d33e e74d a9bd c84b b2bd 513f b23e
00000270: db6c 2b3e a386 cd3d 47cc 413d b021 ab3e
00000280: cb65 1a3e e955 c93b 5316 493e 5651 85bd
00000290: 439d 5f3e 667c bb3e e414 dc3e 89c5 ac3d
000002a0: 627c 023e cf1e cdbc 6e62 e23e 9e93 533c
000002b0: 7da9 6d3e f36f 22be b422 f4bb a321 483d
000002c0: 14f3 a23c 4d78 d43e c41e 813e 6bc0 f63d
000002d0: 66bf 593e 19f4 be3e 51ea c43e 3d56 2dbc
000002e0: 721f 8a3e 7baa 6bba c5e1 9a3d 9c4a 573e
000002f0: 4672 f8bd 9a76 c63e 388e 033e 0561 ab3e
00000300: b99c 8b3e 89cb 3a3d 025c cb3e 479e 323e
00000310: 2a0d 543e 6ec1 af3e c4d3 a13e bee6 debd
00000320: 2b19 ee3d eeaf bebd 51e8 973e 4d0a 063e
00000330: 6e46 663e 7fc2 993c aebb ea3d a4cf 153c
00000340: 19ca 92bd 4e49 7f3e cca4 b33e 2c17 593e
00000350: 3400 dd3e 13ec ef3e 459f 503e 4fcd 2bbe
00000360: b7c5 993e fada 29be 6d2d c13d f5fc 623e
00000370: 466c 983d a404 a03e 8442 ebbd 25e6 0f3e
00000380: 0927 5d3e 558d 26be 7611 583e 130f 09be
00000390: 59a9 ce3e fb99 973e d89d af3e 2476 233e
000003a0: ae35 5dbd 1f20 6a3d e557 8f3e 0f48 e5bd
000003b0: 40a7 c03e fb6d ab3d 79f3 29bc bab4 87bd
000003c0: 4935 d43d 2633 8a3e aa78 8b3e 7240 953e
000003d0: ae1a b93e 80b4 0b3e 6a29 523e 7725 21be
000003e0: 2248 b33e 34b1 40bd da08 f9bd 1e82 cf3e
000003f0: 5a88 efbd 082b 4c3e 6d8b 11be 6125 c33e
0.37591144 -0.12850404 0.4294858 -0.036432598 0.24137549 0.30277076 0.35033384 -0.16908722
-0.02270319 0.101826526 0.15821473 0.044595663 0.4392366 0.1597595 -0.16442706 -0.048181765
-0.119514786 0.33425906 0.18993711 0.17514037 0.16698731 0.3234559 0.31535083 0.035977557
0.13662416 0.15646484 0.13869876 0.20118944 0.09576155 0.44506127 -0.11940255 0.4194795
0.12757204 -0.10369357 0.11758324 0.03475947 0.24791959 0.39903113 0.35290852 0.04209513
-0.050196234 0.11879088 0.3399334 0.1682305 0.2332216 -0.051218797 0.050463364 -0.09721163
-0.07537709 0.42172387 0.40927094 0.32805726 0.17808676 0.37982488 0.42755252 0.11523747
0.22287269 -0.05580303 -0.13302872 0.32686892 0.00059317396 0.376332 0.06850776 0.11945774
0.28946432 -0.046402518 0.34722814 -0.15632635 0.20307282 0.3576742 0.37152833 0.12292423
-0.0958369 0.089251526 0.16106018 0.0012579031 0.12758085 -0.04965153 -0.059605584 -0.042990807
-0.058129787 0.35257527 0.36406493 0.18860222 0.3300006 0.33654425 0.14187823 0.026880745
0.30230346 -0.034931097 0.025379546 0.38883924 -0.15063235 0.38901433 0.030903723 0.3549562
0.45749387 0.008008493 0.14426969 0.031026408 0.2258454 0.40392628 0.31675154 -0.086248316
-0.08657767 -0.03996618 0.11602085 -0.060659625 0.18784538 -0.011496471 -0.14515503 0.15022394
0.07528429 0.23738006 0.18164365 0.34284088 0.38878423 0.12267408 0.4270644 0.085878864
0.44117656 -0.11103076 -0.15700394 0.41389334 -0.1194002 0.21086584 -0.14185883 0.392318
0.40041578 -0.06029398 0.13636565 -0.0055148 0.35666072 0.17801283 0.2883448 0.16517812
-0.063977174 -0.07416892 0.35641253 -0.16406235 0.38127005 -0.12427127 0.1227648 -0.08053327
-0.17104377 0.35602945 0.19806059 0.41507664 0.26910284 0.30125928 0.14449728 0.0032011976
0.41400504 -0.08266812 -0.087058604 0.34813932 0.16740744 0.100354455 0.047313955 0.3342414
0.15077893 0.0061442745 0.19637422 -0.06509654 0.21837334 0.36618346 0.42984688 0.08436114
0.12742761 -0.025039105 0.4421572 0.012913613 0.23209186 -0.15863018 -0.007450426 0.048860203
0.0198913 0.41498032 0.25218785 0.120484196 0.21264419 0.37295607 0.3846002 -0.010579643
0.26977116 -0.0008989942 0.07562593 0.21024555 -0.12131171 0.3876236 0.12847221 0.33472458
0.27268007 0.045604263 0.39718634 0.1744319 0.20708147 0.34327263 0.31606877 -0.10883854
0.11625894 -0.093109 0.2966943 0.13089867 0.22487804 0.0187695 0.11461578 0.009143744
-0.07167453 0.24930307 0.35086668 0.21200246 0.43164217 0.46859798 0.20373257 -0.16777538
0.30033657 -0.16587439 0.094324924 0.22166808 0.074425265 0.3125354 -0.11487296 0.14052637
0.21596922 -0.16264851 0.21100411 -0.13384657 0.40363577 0.29609665 0.34300113 0.15963036
-0.05400627 0.05715954 0.27996746 -0.11195385 0.37627602 0.083705865 -0.01037299 -0.06626268
0.10361726 0.26992148 0.27240497 0.2915073 0.36153167 0.13643074 0.2052361 -0.15736948
0.3501597 -0.047043994 -0.121598914 0.4052896 -0.11695929 0.1993829 -0.14213343 0.38114455

decoder.linear2.bias f4 [10]
00000000: c2cc ae3d 811b bdbc 9170 4dbc e299 233e
00000010: 29ec ebbc aa4a a63e 4eab 903e 3f9a 18bc
00000020: fa72 943e 3b4d 243e
0.08535148 -0.023084404 -0.012539045 0.1597667 -0.028799133 0.3247884 0.28255695 -0.009314119
0.2899397 0.16045086

exp_avg f4 [32, 1, 2, 10]
00000000: d86f 15c0 1f1e 11c0 af9d f4bf 6e72 ccbf
00000010: d098 b3bf 74c7 c5bf 4146 c7bf dbda d2bf
00000020: 40d5 a3bf 8bd2 9bbf 3aee 22c0 5262 18c0
00000030: b274 01c0 bd3f ddbf 9681 cbbf 53ca d8bf
00000040: e02a e7bf 9532 f2bf 2b0e d0bf f092 c8bf
00000050: 1820 603f 637c 313f af76 283f f226 323f
00000060: f757 4d3f 2433 6e3f 64d3 803f 5354 6e3f
00000070: d6fe 333f 70e2 e33e ec03 2f3f 83fa 013f
00000080: 7be4 f63e c24a 083f a22f 273f af54 523f
00000090: b694 683f a615 533f 431b 1f3f f11f a63e
000000a0: 2df7 bb40 26f0 c940 24d8 dd40 5ba6 e540
000000b0: 1d15 f340 3486 0341 0a22 0941 ddb2 fc40
000000c0: 5845 ed40 a36c e640 33a4 aa40 f60c bc40
000000d0: 24fc cd40 6d8c d440 6c37 e740 749c f940
000000e0: e403 0041 908d e840 3e44 e140 f935 d840
000000f0: f95f 2340 a2a1 0740 da39 f83f 6f64 0340
00000100: e347 1940 b47d 3440 fa84 3240 b25c 2740
00000110: 0869 1440 09e6 0d40 f990 f43f a71b af3f
00000120: e242 9d3f 603a b83f 9fc5 ea3f d5bd 0140
00000130: ccb3 0740 7cf1 ea3f b439 bd3f 75db a03f
00000140: 90b7 be3f 35f0 7c3f 402d 5f3f 4c8d 423f
00000150: 6001 0d3f 2d36 e53e f3d9 ee3e a31e 193f
00000160: 1527 243f 729a 003f 7416 fd3f 488d c33f
00000170: 1413 a43f 989f 983f cb3c 803f 5e0e 673f
00000180: f081 833f 950e 893f bc19 853f 03cf 783f
00000190: 7265 113f a128 0c3f 9898 093f 687f 013f
000001a0: 854b de3e 2da2 bf3e 0175 b73e b2e8 c83e
000001b0: a3eb 8d3e 4fcb 223e bce0 113f b056 0d3f
000001c0: c3f0 043f 7266 f23e 2604 cd3e 1474 bb3e
000001d0: b72d bf3e 3d77 ce3e 9b58 9d3e 2832 573e
000001e0: ec9b b840 f594 b840 8297 ae40 9fe4 9040
000001f0: c186 5a40 7a5e 1740 94e2 0c40 8a7e ee3f
00000200: 95c8 ee3f 23d8 f23f 39dd 7140 5a0e 7240
00000210: bed3 5b40 367a 2440 3816 c23f 3cac 033f
00000220: f3f9 683e ea39 e4bd 1f4b fabd 6bbc 1fbe
00000230: 0924 a741 fdf4 a241 919d 8641 c644 5e41
00000240: 1e75 3441 fadb 2e41 f4e2 1b41 a587 2841
00000250: 3dc1 0d41 3f75 1841 e9ca 8e41 b120 8441
00000260: b4a3 4f41 6b85 1e41 0763 f540 e46e da40
00000270: 06ea cc40 3089 cf40 8391 b040 d00f d540
00000280: d0dc 2340 219d 1d40 d51b 1840 566c 0840
00000290: 90ef 0d40 ce0d 1140 ed1a 0940 1433 0240
000002a0: a34f fb3f fa1c fc3f 91e3 1b40 5eeb 1840
000002b0: 80a2 1540 a14b 0a40 ebb7 1440 4aac 1740
000002c0: 08ba 1040 f261 0740 7f3e 0640 d927 0240
000002d0: c26d 42bf d321 2dbf 4409 22bf e3eb 1ebf
000002e0: 2d65 02bf 0b2c e4be bcf8 aebe 9e74 8ebe
000002f0: 6d54 94be 7185 25be 031c 53c0 3b9c 50c0
00000300: 4943 4dc0 fce7 49c0 96ca 41c0 e1a3 40c0
00000310: ddea 3cc0 0707 3bc0 a162 37c0 20be 2bc0
00000320: dca3 413c 828a 1fba a9ea 32bd 1181 c0bd
00000330: 5b55 1cbe 8e5e 4bbe 40d6 65be 3996 69be
00000340: f417 71be ae27 63be 0490 6d3e 92bc 583e
00000350: 7a17 283e ca61 ea3d 2b55 7d3d 400e 263c
00000360: a34a 16bc 5d9f 95bc df91 babc 03e2 56bc
00000370: bbd6 6b41 50f7 7b41 c51e 8041 cf87 8a41
00000380: 3dc2 8f41 dc89 9241 4ebf 9441 c6bf 9f41
00000390: d2fe ac41 b672 b541 fb15 4d41 07f7 5f41
000003a0: 14ea 5c41 9e77 7341 52d5 7f41 d0ed 8041
000003b0: b223 8841 85a1 9541 9e59 9e41 fa1e a841
000003c0: 9f67 f740 fb77 ea40 be5f c040 b4c6 a240
000003d0: 9dcc 8440 cf8f 7140 b879 5f40 8dc8 2d40
000003e0: 5830 0340 809c eb3f e064 a140 0373 8e40
000003f0: 83f5 5540 ced1 1340 46fb b33f 203d 9e3f
-2.3349514 -2.2674634 -1.9110621 -1.5972421 -1.403101 -1.5451493 -1.5568315 -1.6473039
-1.2799454 -1.2173628 -2.5457902 -2.381001 -2.0227475 -1.7285076 -1.5898921 -1.6936744
-1.805996 -1.8921686 -1.6254324 -1.5669842 0.8754897 0.69330424 0.65806097 0.69590676
0.8021235 0.93046784 1.0064511 0.9309742 0.70310724 0.44508696 0.6836536 0.50772876
0.48221192 0.5323907 0.65307057 0.82160467 0.90851915 0.8245491 0.62150973 0.32446244
5.873923 6.310565 6.9326344 7.176557 7.5963273 8.220264 8.57081 7.896834
7.414715 7.2007613 5.332544 5.876582 6.437029 6.642142 7.2255154 7.8003483
8.00095 7.2672806 7.0395803 6.7565885 2.5527327 2.1192403 1.9392655 2.053005
2.3950126 2.8201723 2.7893662 2.6150327 2.3189106 2.2171652 1.9106742 1.3680314
1.2286036 1.4392815 1.8341559 2.0272114 2.120349 1.8354945 1.4783235 1.2566973
1.4899769 0.98804027 0.8717842 0.7599685 0.55080223 0.44767895 0.46650657 0.5981237
0.64122134 0.50235665 1.9772477 1.5277491 1.2818322 1.1923704 1.0018553 0.902563
1.0274029 1.0707575 1.0398479 0.97190875 0.5679542 0.54749495 0.53748465 0.5058503
0.43416992 0.37428418 0.35831454 0.39240032 0.2771884 0.15897869 0.5698354 0.552104
0.51929873 0.47343785 0.40042228 0.36611998 0.37339565 0.40325347 0.30731663 0.21015227
5.7690334 5.768183 5.4559946 4.527908 3.4144747 2.3651414 2.2013292 1.8632367
1.8654963 1.897221 3.7791274 3.782126 3.4347987 2.5699592 1.5163031 0.51434684
0.22751598 -0.11143859 -0.122213595 -0.1559922 20.892595 20.369623 16.826937 13.89179
11.278593 10.928705 9.7429085 10.533116 8.859677 9.528625 17.849077 16.515963
12.977467 9.907573 7.6683383 6.8260365 6.4035673 6.4854965 5.5177627 6.65818
2.5603523 2.4627154 2.3766987 2.1316123 2.2177467 2.2664676 2.1422684 2.0343676
1.9633678 1.9696343 2.4357646 2.3893657 2.3380432 2.160866 2.3237255 2.3698907
2.2613544 2.115353 2.0975645 2.033682 -0.7594873 -0.67629737 -0.6329539 -0.62078685
-0.5093563 -0.44564852 -0.34174144 -0.27823347 -0.28970662 -0.16164185 -3.2985847 -3.2595356
-3.2072318 -3.1547842 -3.0279899 -3.0100024 -2.951835 -2.922304 -2.8653948 -2.6834793
0.011818852 -0.0006086008 -0.04368082 -0.093996175 -0.15266936 -0.19860289 -0.22445011 -0.22811212
-0.23544294 -0.22183105 0.23199469 0.21165684 0.16415206 0.11444433 0.0618488 0.010135233
-0.009173068 -0.018264467 -0.022774635 -0.013115409 14.739924 15.747879 16.015024 17.316313
17.969843 18.317314 18.59341 19.96864 21.624424 22.681011 12.817866 13.997809
13.807148 15.216703 15.98958 16.11612 17.01743 18.703867 19.793758 21.015125
7.731399 7.327146 6.0116873 5.0867558 4.149977 3.7744024 3.4918041 2.7153656
2.0498257 1.8407135 5.043564 4.4515395 3.3431098 2.3096805 1.4061058 1.2362404

exp_avg_sq f4 [32, 1, 2, 10]
00000000: b3ed aa42 0380 a842 8b5f a642 082d aa42
00000010: b31e aa42 b940 a942 5974 a642 f608 a242
00000020: 73be a642 77e6 ac42 24cf 9342 f434 8d42
00000030: 22f1 8842 21a1 8842 12f4 8842 15af 8842
00000040: 67fb 8742 083c 8542 aa35 8c42 490d 8f42
00000050: 2047 1c41 d5cc 1d41 129a 1641 59f3 0f41
00000060: 19d7 0541 75fc ed40 ca51 da40 72e8 c040
00000070: 0b9f aa40 3228 a140 a57d 0641 ff74 0441
00000080: e174 fa40 9861 ed40 9bce d340 6edd c040
00000090: bbe7 a640 9920 9240 1f9b 7540 7349 6440
000000a0: 8298 ef42 f0cc 0243 89b9 1043 b2af 1943
000000b0: 522a 2343 4824 3143 e91e 3843 89b5 2f43
000000c0: 6666 2c43 0250 2e43 4f97 0e43 67b7 1943
000000d0: e063 2643 dfae 2c43 c0f1 3343 53be 3b43
000000e0: db11 3c43 4a94 3243 45f9 3143 a2d1 3043
000000f0: 4b44 1444 0761 1144 7ebf 0f44 d61d 1144
00000100: bb26 1344 763f 1544 6dce 1544 29ec 1244
00000110: a37a 0f44 931d 0f44 21ad e243 2ce3 da43
00000120: 9854 da43 4cce d943 faa0 db43 f696 dc43
00000130: 0664 da43 f906 d543 b1ef d043 c0a3 d143
00000140: f106 e842 6073 d942 d17c ce42 8448 c542
00000150: d35e bb42 fb24 b842 1cb8 af42 e6a0 ab42
00000160: 8de0 a542 b40a 9f42 cd1d b142 4768 a442
00000170: 8a0b 9942 b5ab 8c42 09d4 7d42 bf0c 7042
00000180: 628c 5942 6e03 4c42 65fd 3c42 82f0 2842
00000190: 70bb 3f40 412d 3040 62b9 2040 0e07 0f40
000001a0: 35dc f33f 8dd2 ca3f eb8a ac3f 9fee 9c3f
000001b0: 188a a33f 8e33 ba3f dfa8 5740 f757 4740
000001c0: 9a31 3540 97cc 2140 b2f9 0940 0ba6 ec3f
000001d0: 31dd c93f 7621 bc3f 90b0 c53f 39ab d83f
000001e0: d22f 1043 3010 0c43 eecb 0543 1153 e042
000001f0: 5236 b642 ef05 9642 4005 8642 96dd 6e42
00000200: 9d99 6042 9d88 5442 1a3b 1443 ea11 1043
00000210: 19fc 0743 018b f042 edf4 dc42 2d9d c742
00000220: e2f0 b642 1371 aa42 303e a542 be5e a142
00000230: 9f46 8145 61eb 8145 3a18 7045 b4da 5f45
00000240: a172 5245 0453 4f45 040e 4645 e1af 4045
00000250: da1e 3545 42a9 2c45 6b34 9045 c27a 8e45
00000260: 236c 8545 0fdf 7e45 9334 7845 9426 7245
00000270: 3329 6a45 036d 6145 f4c6 5945 2ca9 5245
00000280: cb41 d741 f842 cf41 b940 c341 c8b6 b341
00000290: 9a96 ae41 e025 b541 a8cf ba41 3a3b cf41
000002a0: d534 e441 4df3 ff41 a4ec 1242 1e98 0f42
000002b0: 2084 0a42 ff26 ff41 71a5 fe41 5cd5 0042
000002c0: 8350 0442 ad13 0f42 911d 1f42 8c9e 2c42
000002d0: 7340 b142 9f8d 9642 c4d0 6b42 6d7d 3c42
000002e0: 1913 2542 bd8a 0b42 6768 dd41 cd73 9f41
000002f0: c36b 7541 b882 7141 c6cb c242 0447 a642
00000300: 0b83 8a42 1457 6742 a073 4b42 4a86 3442
00000310: 47f9 1c42 a336 0b42 0d0a ff41 8982 fa41
00000320: 6a14 ef3e 743e b33e 1d9e 813e 2c04 3c3e
00000330: 0308 1c3e 88c4 223e 8545 3d3e aef5 783e
00000340: bcda ad3e cdea f43e 713d 853e 70bd 2f3e
00000350: 88f8 bc3d 7b9e 1d3d 91bb 973c 587a aa3c
00000360: e1ae 1e3d 75bd ad3d fbd2 2b3e 22b4 953e
00000370: 29dd b944 8c33 c344 266f c644 9037 d144
00000380: e3b6 cd44 13c5 c644 eb44 c344 00ff d244
00000390: dc4e da44 44c9 e344 bc55 cb44 c538 d644
000003a0: 0268 d644 ba67 de44 c98f d944 a413 d244
000003b0: 73d8 d244 f214 df44 0165 e244 d4c0 e944
000003c0: 83aa 7c43 5d30 7143 8915 5843 e166 3d43
000003d0: a998 2843 9a8d 1743 c4d6 0643 c8e7 e542
000003e0: 7e0c cc42 b9ef b742 d084 8b43 cd4c 8443
000003f0: c24d 7843 6f7d 6743 7ff4 5a43 f7df 4f43
85.46426 84.25002 83.18661 85.08795 85.05996 84.62641 83.22724 81.0175
83.37197 86.45013 73.90457 70.603424 68.47096 68.314705 68.4767 68.34196
67.99102 66.61725 70.10481 71.52595 9.7673645 9.862508 9.412615 8.996911
8.365014 7.4370675 6.822484 6.0283747 5.3319144 5.0361567 8.405675 8.2785635
7.8267674 7.4181633 6.6189704 6.02703 5.2157874 4.566479 3.8375928 3.566983
119.79787 130.80054 144.72475 153.68631 163.16531 177.14172 184.12074 175.70912
172.4 174.31253 142.59105 153.71642 166.39014 172.68309 179.94434 187.74345
188.06975 178.57925 177.97371 176.81888 593.0671 581.51605 574.99207 580.4662
588.60516 596.9916 599.2254 587.69 573.9162 572.4621 453.35257 437.77478
436.6609 435.6117 439.25763 441.17938 436.78143 426.05447 417.8726 419.2793
116.01356 108.72534 103.24378 98.64163 93.6852 92.07223 87.85959 85.814255
82.938576 79.520905 88.558205 82.20367 76.52254 70.335365 63.457066 60.012447
54.387093 51.00335 47.247456 42.23487 2.9958153 2.752762 2.5113149 2.2348056
1.9051577 1.5845505 1.3479894 1.2260321 1.2776518 1.4546983 3.369682 3.114744
2.8311524 2.5281122 2.1558652 1.8488172 1.5770627 1.4697711 1.5444508 1.6927253
144.1868 140.06323 133.7966 112.16224 91.106094 75.01159 67.010254 59.716393
56.150013 53.13341 148.23087 144.06998 135.98476 120.27149 110.47837 99.806984
91.470474 85.22085 82.62146 80.68504 4136.8276 4157.4224 3841.5142 3581.669
3367.1643 3317.1885 3168.876 3082.9924 2897.9282 2762.5786 4614.5522 4559.3447
4269.517 4077.9412 3971.286 3874.4111 3746.575 3606.8132 3484.4346 3370.5732
26.907125 25.9077 24.406603 22.464249 21.823536 22.643494 23.351395 25.90392
28.525797 31.9938 36.731094 35.898552 34.62903 31.894041 31.830782 32.20836
33.078625 35.769215 39.778873 43.15483 88.62588 75.2766 58.953873 47.122486
41.26865 34.885487 27.675978 19.931543 15.338809 15.094414 97.397995 83.1387
69.25594 57.835037 50.862915 45.13114 39.243435 34.803356 31.879908 31.313738
0.46695262 0.35008585 0.25315943 0.18360966 0.15237431 0.15895283 0.18483551 0.2431247
0.33955944 0.4783539 0.2602344 0.17162108 0.09227091 0.038481217 0.018522056 0.020810291
0.038740996 0.08483402 0.16779701 0.29238993 1486.9113 1561.6108 1587.4734 1673.7363
1645.7152 1590.1586 1562.1537 1687.9688 1746.4644 1822.2896 1626.6792 1713.774
1715.2502 1779.2415 1740.4933 1680.6138 1686.764 1784.6545 1811.1564 1870.0259
252.66606 241.18892 216.08412 189.40187 168.59633 151.55313 134.83893 114.9527
102.0244 91.96821 279.0376 264.6 248.30374 231.48997 218.95506 207.87486

exp_avg f4 [32]
00000000: 9444 46be 8131 363e e035 efbe 7dfb 0f3d
00000010: a4c3 723e 4af7 e5bd a7c7 8bbf d87d e0bf
00000020: 26c1 87bd 095c da3f 23ea c9bd a14c d0bf
00000030: 42c1 71bf cf14 4d3f 8ef3 c3bd a3b8 1fbf
00000040: 557b 40bf f1d0 e6bd 1021 e33e 6564 c53e
00000050: 6643 d2bd 3f99 5fbf b017 26be 8557 ce3f
00000060: aba2 02be 0c08 a23e 8c14 1440 382c 5f3e
00000070: 6878 f7be a824 88bd 4a02 80be 321c 413e
-0.19362098 0.17792322 -0.4672079 0.035151947 0.23707443 -0.11228807 -1.0920304 -1.7538404
-0.06628637 1.7059337 -0.09859111 -1.6273385 -0.94435513 0.80109876 -0.09567939 -0.6239111
-0.7518819 -0.11270321 0.44361162 0.38553157 -0.102667615 -0.8734321 -0.16219974 1.6120459
-0.12757365 0.31646764 2.313754 0.21794212 -0.4833405 -0.066476166 -0.25001746 0.18858412

exp_avg_sq f4 [32]
00000000: f84b 633f d7d3 9b3f 0d60 c73f 5e1f 9a3f
00000010: 82b7 5d3f 7b11 f43e bbdd b140 2d15 af41
00000020: eb2f e53f c4c4 8541 6f9a 0c41 ce11 4541
00000030: 90b3 5840 561a a240 5c98 b840 e154 8242
00000040: 566e fe41 3175 3941 3424 0640 b028 2a41
00000050: b618 093f dfb7 5740 1f38 0040 452f e040
00000060: 6ea6 e23f 4ad3 5d40 e3e5 8342 2a19 7240
00000070: b058 9b3f 4eae df3f ae7b 0d3f 07c4 653f
0.88787794 1.2174023 1.5576187 1.2040823 0.86608136 0.47669587 5.5583167 21.88534
1.7905248 16.721077 8.7877035 12.316847 3.3859596 5.065715 5.7685986 65.16578
31.803875 11.591111 2.0959597 10.634933 0.5355333 3.3705976 2.0034254 7.00577
1.770704 3.466021 65.949 3.782786 1.213644 1.7475069 0.55266845 0.8975224

exp_avg f4 [32]
00000000: b47e 113e 85c4 b93e 4782 fd3e 5b1b 8b3f
00000010: 63cb 2e3f 6fa4 13be b358 ae3f 4bb6 8b40
00000020: ab13 3f3e 419f 5e3f 955a 9ebc c939 2240
00000030: f42b bd3f 4338 b53e 80b2 9d3e 495f 8a3f
00000040: 3e49 debe 6c9e abbd bdf8 ea3f 9a7f ad40
00000050: 740d 6bbd a907 4340 ca3c 8d3f f69b 633f
00000060: b8b7 dc3e 252f 4e3e c326 ab3f 8970 4f40
00000070: 4d29 133f a289 07bd d044 ac3f d6fc 853f
0.1420849 0.36282745 0.49513456 1.0867723 0.68279094 -0.14418195 1.3620819 4.3660026
0.18659846 0.8696175 -0.019330302 2.534777 1.4779038 0.35394487 0.30800247 1.0810329
-0.43415254 -0.08379826 1.8357159 5.4218264 -0.057385877 3.0473425 1.1034176 0.8890985
0.43108916 0.20135172 1.3371204 3.2412436 0.57484895 -0.03309024 1.34585 1.0467784

exp_avg_sq f4 [32]
00000000: d837 443f d961 413f ce7c b73f f98e 4740
00000010: 009e 1040 9dd8 a93e 901b 6d40 4396 da41
00000020: 2628 9f3f 7fb0 1241 ccce b340 8339 4b41
00000030: 6aeb c340 70bc 1240 40ca 3540 622d ef41
00000040: c5a9 9741 3069 0641 66ab b740 38c3 0842
00000050: 6f9a 883e 7d1e 5e41 4517 1840 ff79 2240
00000060: 3bcd d13f 9034 0a40 3f17 1642 70e4 8741
00000070: 5630 963f 7c97 6a3f 2571 ee3f 282d ed3f
0.7664771 0.7553993 1.4334962 3.1181014 2.2596436 0.33173075 3.7048073 27.32337
1.2434127 9.16809 5.6189938 12.701541 6.122487 2.2927513 2.8404694 29.89716
18.957895 8.400681 5.7396727 34.190643 0.26680323 13.882443 2.3764203 2.538696
1.6390756 2.1594582 37.5227 16.986542 1.1733501 0.91637397 1.8628279 1.8529406

exp_avg f4 [1, 32, 2, 10]
00000000: 6dbe cbbe 94f2 b4bf 828b 11c0 b3d4 f1bf
00000010: e4fb 4dbf 1aaa cf3e 286e 513f 3ef0 753e
00000020: 67f2 8cbf 2a8f 14c0 c456 76bf 46a1 d0bf
00000030: b599 e0bf fd05 39bf 9758 753f 7d4f 2540
00000040: bb16 5040 baa1 2040 0169 713f 869c 15bf
00000050: b704 0241 fe65 0041 4a7c 0041 9849 0641
00000060: 55fc 0b41 b63d 1041 0f87 0c41 b743 0341
00000070: a76d e740 940c cb40 99d8 8e3e 97ba 113f
00000080: 7b75 443f 93f5 8d3f ac61 b03f 26dc af3f
00000090: 47fd 703f 5054 c13d a06b 65bf 060f dcbf
000000a0: 379f 543f 323c 143f 81bc d8bc 5706 d6be
000000b0: 2e28 51bf d948 b3bf 559f ffbf c73c 08c0
000000c0: 46b2 15c0 3018 22c0 aec9 0440 b882 1240
000000d0: ff21 ff3f 1da1 0140 73fa 0040 e173 cc3f
000000e0: 4f56 8d3f bac0 6a3f d979 1d3f 082a 973d
000000f0: 6d02 87c0 1e84 72c0 ac20 28c0 2bc2 c9bf
00000100: 83cc aabf 6368 ffbf 1cc5 3dc0 1e26 6dc0
00000110: 0be4 80c0 4206 73c0 6b06 91c0 9a34 6ec0
00000120: 61b4 20c0 c3de c1bf afc5 77bf a3e5 b4bf
00000130: c062 1ec0 fb33 6dc0 5c20 87c0 f939 82c0
00000140: 1348 60c0 6611 41c0 2c7b 1fc0 a93c 08c0
00000150: 0237 0cc0 4491 24c0 99c8 3fc0 cfcb 4ec0
00000160: 6892 51c0 0934 48c0 a23a 9fc0 6fd2 8cc0
00000170: 2262 6fc0 c189 53c0 9880 57c0 5103 77c0
00000180: 8088 91c0 c0be 9fc0 3b7c a0c0 b78c 98c0
00000190: 498e 5cc0 823b 4fc0 92b7 27c0 007b d6bf
000001a0: 96b1 86bf 0476 92bf 0e55 d9bf 551c 16c0
000001b0: 8d19 2fc0 4f9b 2cc0 818e 3ec0 2234 2cc0
000001c0: fee7 fdbf e73b 88bf 635d 14bf 2992 3abf
000001d0: 553d a6bf 5ae9 febf 59d0 18c0 15b8 15c0
000001e0: 72b9 e3c0 ba2a d7c0 0c15 bcc0 74e8 a1c0
000001f0: 871d 98c0 f135 a2c0 7fa3 b3c0 b5dd bdc0
00000200: c424 b9c0 0a95 abc0 6c94 29c0 d790 12c0
00000210: bfd7 bbbf fb79 27bf 25df aebe 19a2 22bf
00000220: 0a18 8abf 3c1d abbf 1c15 a9bf 8ea3 98bf
00000230: 09fb f0c0 cecb f0c0 ae21 dac0 0f5e c1c0
00000240: ed3c aac0 31ba a4c0 13e6 acc0 d243 c0c0
00000250: 179e ccc0 9e04 d3c0 1d3e a3bf 0467 d4bf
00000260: 245f bdbf c320 6dbf 24f7 c9be c84d 1fbe
00000270: 9f38 cebe 6881 64bf 419c 96bf 837d aabf
00000280: fff3 5440 0fa6 5540 1cc9 5940 4f4d 6c40
00000290: 2188 8040 3d1c 7240 5ab4 2e40 79b1 bf3f
000002a0: 40d5 5d3e c31a 31bf 7bbe 3840 785e 3f40
000002b0: 044a 4340 4d23 4c40 4e1c 6240 8126 4240
000002c0: e1ae ef3f be9c d73e 1063 49bf 3a71 b7bf
000002d0: d3e2 a73f e700 0a40 df1d 3540 c552 5740
000002e0: 31b0 6c40 9897 7a40 5a49 8040 a096 6b40
000002f0: 282a 4740 5859 1e40 b7dd 8940 3574 9f40
00000300: 05fe b340 b276 c540 e568 d240 f507 da40
00000310: 762e dd40 df6f d340 d2d1 bf40 9bca ac40
00000320: fa55 0e40 45d6 1840 49a8 2040 0bfe 2c40
00000330: 2f2a 3f40 e711 5a40 dad5 7940 6f51 8e40
00000340: 66d7 9d40 5f84 a640 e8e6 aabc 8c27 333e
00000350: 0524 a33e 4d7a 073f a723 5b3f 09fe a53f
00000360: a914 e73f 200a 1540 d70e 3040 0e14 3d40
00000370: 79c0 94bf ed83 8bbf 082a 7dbf 69ba 99bf
00000380: 738a b4bf b495 f6bf 1b27 34c0 6c9c 85c0
00000390: c8b8 a4c0 be50 b5c0 2f4b e33f 7dd8 1a40
000003a0: aad7 3c40 9cff 3640 e292 3240 7d97 0b40
000003b0: 9dfc 923f 9532 12be 77e9 87bf c036 a9bf
000003c0: 0c5d eac0 6ea6 e4c0 887b dbc0 7b1a d0c0
000003d0: d5cb c8c0 c44e ccc0 d2e1 d3c0 9a5e dcc0
000003e0: 01cd e0c0 69ee ddc0 fdf1 41c0 9a78 3fc0
000003f0: b0b1 38c0 9b49 26c0 6085 17c0 b51e 16c0
-0.3979372 -1.4136529 -2.27414 -1.8893036 -0.8046248 0.40559465 0.8180871 0.24017426
-1.1011475 -2.321238 -0.96226144 -1.6299217 -1.7546908 -0.7227476 0.958383 2.5829766
3.2513874 2.509871 0.9430085 -0.5844196 8.126151 8.0249 8.030344 8.392967
8.7491045 9.015066 8.782973 8.204032 7.2321353 6.3452854 0.27899626 0.5692534
0.7674176 1.1090568 1.3779807 1.3739059 0.9413647 0.094399095 -0.8961735 -1.7192085
0.8305544 0.5790435 -0.026457073 -0.41801712 -0.81701934 -1.4006606 -1.9970499 -2.1287096
-2.339006 -2.5327263 2.0748096 2.2892284 1.993225 2.0254586 2.0152862 1.5972863
1.1041964 0.9170033 0.6151405 0.07381064 -4.219046 -3.7893138 -2.6269941 -1.576238
-1.3343662 -1.9953731 -2.9651556 -3.7054515 -4.0278373 -3.797257 -4.5320334 -3.7219605
-2.5110095 -1.5146106 -0.96786016 -1.413258 -2.4747772 -3.7062976 -4.2227 -4.0695767
-3.504399 -3.016687 -2.4918928 -2.1287024 -2.1908574 -2.5713663 -2.9966185 -3.2311895
-3.274561 -3.128176 -4.9759073 -4.4006877 -3.7403646 -3.3052828 -3.3672237 -3.8595774
-4.5479126 -4.992035 -5.015165 -4.767177 -3.4461844 -3.238007 -2.6205792 -1.6756287
-1.0522945 -1.1442266 -1.6979082 -2.3454792 -2.7359345 -2.6969793 -2.9774477 -2.690682
-1.9836423 -1.0643281 -0.57954997 -0.7287927 -1.2987467 -1.9914963 -2.3877165 -2.3393605
-7.1163874 -6.7239656 -5.877569 -5.0596256 -4.7536044 -5.0690846 -5.613708 -5.933314
-5.785738 -5.3619432 -2.649684 -2.2900903 -1.4675215 -0.654205 -0.3415462 -0.6352859
-1.0788586 -1.3368297 -1.3209567 -1.1924913 -7.530644 -7.5248785 -6.8166113 -6.042732
-5.319937 -5.1477284 -5.403085 -6.008279 -6.394298 -6.5943136 -1.275333 -1.6593938
-1.479466 -0.92628115 -0.39446366 -0.15557015 -0.40277573 -0.8925996 -1.1766435 -1.3319553
3.3273923 3.3382604 3.4028997 3.6922185 4.0166173 3.7829735 2.7297578 1.4976035
0.2166338 -0.6918146 2.886626 2.990141 3.0513926 3.1896546 3.5329776 3.0336
1.8725244 0.42111772 -0.7866678 -1.4331429 1.3116096 2.156305 2.8299482 3.3644269
3.6982539 3.9155025 4.008954 3.6810684 3.111948 2.474203 4.308315 4.9829354
5.6247582 6.170739 6.5753045 6.8134713 6.9119215 6.607406 5.994363 5.399732
2.2239976 2.388078 2.5102713 2.7030056 2.9869497 3.4073427 3.9036775 4.4474406
4.9325438 5.2036586 -0.020862058 0.17495555 0.31863418 0.5292099 0.85601276 1.296815
1.805318 2.328743 2.7509058 2.954349 -1.1621238 -1.0899636 -0.9889226 -1.2010013
-1.4104751 -1.9264436 -2.8148868 -4.1753445 -5.1475563 -5.666106 1.7757319 2.4194634
2.950663 2.8593512 2.790215 2.181121 1.1483341 -0.14277108 -1.0618123 -1.3219833
-7.3238583 -7.145316 -6.8588295 -6.5032325 -6.274882 -6.384615 -6.621316 -6.886548
-7.025025 -6.935353 -3.0303948 -2.991736 -2.8858452 -2.5982425 -2.3675156 -2.3456242
