code/2021-04-12_18-58_last.pth (torch, 80051 bytes, 18 tensors)

encoder.maxpool_conv.0.0.weight f4 [1, 1, 2, 10]
000000 3a b3 bb bd b9 16 a5 3d 6c 53 de bd ac 9d 0a be
       -0.09165044 0.08060975 -0.10855755 -0.1353671
000010 c0 cb e9 3c 2a 90 35 bd a3 25 44 be ef 69 03 3e
       0.028539538 -0.04432694 -0.19154982 0.12833379
000020 20 39 1b be 7a 63 45 be 9b a3 d6 bd 31 59 0d 3e
       -0.1515851 -0.19276229 -0.10480424 0.13803555
000030 60 85 13 3e f0 f3 1a 3e cb c5 8b 3c 12 e9 f6 bd
       0.14406347 0.15132117 0.017062088 -0.120561734
000040 f7 94 60 3d aa 00 3c 3e 49 27 76 3c 15 e3 0f 3e
       0.054829564 0.18359628 0.015024015 0.14051469

encoder.maxpool_conv.2.0.weight f4 [1, 1, 2, 10]
000000 e5 85 c8 bd 38 44 82 be 52 6d 3e be c6 73 61 be
       -0.09791163 -0.25442672 -0.1859639 -0.2201682
000010 10 07 94 be 49 00 03 bd d3 42 8d bc e6 ca 18 be
       -0.28911638 -0.031982694 -0.017243778 -0.1492115
000020 18 8f 15 be 25 c2 1b be 4d e6 27 3c 63 be 2e 3d
       -0.14605367 -0.15210779 0.010247779 0.042662036
000030 96 1a 8c 3d f5 a0 7b 3d 1e df 35 3d bc c9 dd 3c
       0.06841008 0.061432797 0.044402234 0.027073734
000040 2c 8d 1d 3c ef da 4d bb c1 3c 88 bd 5b 70 be bc
       0.0096161775 -0.0031411012 -0.06652213 -0.023246935

decoder.linear1.weight f4 [32, 164]
000000 02 aa 61 bd 81 9c 21 3e 7f 43 22 3b ab 93 28 3e
       -0.055093773 0.15782358 0.002475947 0.16462581
000010 cb 56 c0 3c fe b8 61 3e df ca 42 bd 0f d4 8b 3e
       0.023478886 0.22043225 -0.047556754 0.27310225
000020 11 b1 94 3c 5b 96 16 3e c6 68 0b bd 12 93 3c 3e
       0.018150838 0.14705794 -0.034035467 0.18415478
000030 1e 7c 96 3d 5d e6 74 3e b1 cb e1 3d 15 80 91 3e
       0.07347892 0.23916002 0.11025179 0.2841803
000040 1d 80 81 3d 58 cc 58 3e 9e 84 f3 3d c4 b7 34 3e
       0.06323264 0.21171701 0.11890529 0.17648226
000050 48 36 6e bc 1e 6e 33 3e 86 25 a2 3d b0 b1 1f 3e
       -0.014539309 0.17522475 0.07917313 0.15595126
000060 f8 76 fb 3d 2e f5 14 3e 5c 5a 01 3e 4c 26 3c 3e
       0.12278551 0.14546654 0.12632126 0.18373984
000070 91 49 aa 3d 55 97 6a 3e 03 22 03 3e a1 28 7b 3e
       0.08314813 0.22909291 0.12805943 0.24527217
000080 9a 3a 1a 3e 21 7d 73 3e 20 7f b5 3d af 79 83 3e
       0.15061417 0.23778202 0.08862138 0.25678775
000090 fc 40 a1 3d 28 39 2a 3e da bc e0 3c 2f b2 69 3e
       0.07873723 0.16623366 0.027433801 0.22821878
0000a0 fe 9d e6 3d f0 bf 33 3e ed c6 c4 3c 46 e4 7a 3e
       0.11260603 0.17553687 0.024020636 0.24501142
0000b0 a7 db 84 3c 1b 3e 35 3e ac bc fb 3d 31 7f 2a 3e
       0.01621802 0.17699473 0.12291846 0.16650082
0000c0 95 ff 6c 3c 18 08 7c 3e 26 91 09 3e 5c de 87 3e
       0.014465232 0.24612463 0.13434276 0.26536834
0000d0 f1 74 1d 3d d9 0b 7e 3e 44 c0 d7 3c b4 c0 4f 3e
       0.038441602 0.24809207 0.026336797 0.20288354
0000e0 24 c3 ad 3d 84 01 9f 3e 47 59 87 3d 1e 98 87 3e
       0.08484486 0.31055844 0.06608825 0.26483244
0000f0 76 5b d1 3c 42 ef 9d 3e a1 96 03 3e 00 01 72 3e
       0.025556307 0.30846602 0.12850429 0.23633194
000100 38 f1 9d 3c f2 31 9d 3e 13 49 67 3d 5f 60 8c 3e
       0.019280061 0.30702168 0.056466173 0.27417275
000110 5f bb e1 3d 16 42 99 3e d9 26 9f 3d 07 48 49 3e
       0.11022066 0.29933232 0.077710815 0.19656383
000120 e2 ad fe 3d c7 62 96 3e e3 0b 2a 3d 34 ae 4f 3e
       0.12435509 0.29372236 0.041515242 0.20281297
000130 4a b1 c9 3d ad 8f 78 3e 83 2a 06 bc 40 2e a0 3e
       0.09848268 0.24273558 -0.0081888465 0.31285286
000140 64 c3 f9 3c 4c 4f 9e 3e eb 67 d3 bb ad 05 4f 3e
       0.030488677 0.30919874 -0.006451597 0.20217009
000150 24 43 84 3d 4d 77 2f 3e a5 36 6e 3d ef 4d a1 3e
       0.064581186 0.17135353 0.05815758 0.3150477
000160 ea f7 a8 3d 07 d2 84 3e 55 80 02 3d a6 43 99 3e
       0.08250411 0.25941488 0.03186067 0.29934424
000170 f8 94 35 3d 6e 29 56 3e 78 ea fe 3c 0d b9 3d 3e
       0.04433152 0.20914242 0.031117663 0.18527623
000180 2f 4a 45 3d 82 67 97 3e 30 90 fa bb 9c fd 82 3e
       0.04816645 0.29571158 -0.007646583 0.25584114
000190 3f ae 84 bc 13 2f 5c 3e 38 72 8c bc ab 95 41 3e
       -0.016196368 0.21502332 -0.017144307 0.1890475
0001a0 a5 ff a7 3d 80 ae 80 3e 00 08 af bc 8a cc 43 3e
       0.08203057 0.25133133 -0.02136612 0.19120994
0001b0 83 1b f5 3b 15 3c 5d 3e d0 16 d1 3d 88 0b 20 3e
       0.0074800863 0.2160495 0.10209429 0.15629399
0001c0 8c fb 12 3e 5f 41 97 3e e1 c2 16 3e 71 73 94 3e
       0.1435377 0.29542062 0.14722778 0.28994325
0001d0 9d f1 d0 3d e4 4a 92 3e 1f 11 4d 3c 12 e0 85 3e
       0.10202334 0.28572762 0.012516289 0.26147515
0001e0 0d 03 44 3d 18 ce 97 3e 9f 3f c3 3d 84 30 97 3e
       0.047854472 0.29649425 0.09533619 0.29529202
0001f0 97 3f 9d 3d 48 98 4c 3e f4 38 60 3a 70 4b 93 3e
       0.076781444 0.19979966 0.00085534086 0.28768492
000200 95 03 c2 3d 67 43 4c 3e 0c 41 f1 3d 48 30 5c 3e
       0.094733395 0.19947587 0.11779985 0.21502793
000210 db f7 c8 3c 49 6e 42 3e 06 30 c9 3d a3 40 64 3e
       0.02453225 0.18987383 0.09823613 0.22290282
000220 ae 7e 3f 3d 28 b1 21 3e 6b 6d f7 bc 08 08 64 3e
       0.04675167 0.15790236 -0.030203542 0.22268689
000230 c7 24 6d 3c 77 e8 79 3e c3 0a fd 3c f0 56 34 3e
       0.0144741 0.24405085 0.03088892 0.17611289
000240 e7 d6 f3 3d fb 23 97 3e a9 e3 96 bc a1 71 9a 3e
       0.11906224 0.29519638 -0.018419104 0.30164817
000250 d7 38 8b bc dc f4 2b 3e 11 98 3b 3d b1 d1 21 3e
       -0.016994877 0.16792625 0.04579932 0.15802647
000260 5b 40 44 3d aa 86 5a 3e 50 34 3c 3d 48 40 4f 3e
       0.047912937 0.21340433 0.045948327 0.20239365
000270 01 6d f3 3b 15 54 93 3e 44 fb 4f 3d 08 ba 8b 3e
       0.0074287658 0.28775087 0.050776735 0.27290368
000280 fd d8 e0 3c 40 27 93 3e 33 42 7d 3d 37 c8 36 3e
       0.027447218 0.28740883 0.06183071 0.17849813
000290 ee 23 98 3d 96 87 97 3e 15 62 ba bc b5 91 44 3e
       0.07428728 0.2959563 -0.022751847 0.19196208
0002a0 2f 20 29 bd 4e dc 2d 3e b7 72 79 3d 1c a0 2b 3e
       -0.04129046 0.16978571 0.060900416 0.16760296
0002b0 90 d4 62 bd 8a 90 53 3e f0 5b cf 3d fb c0 77 3e
       -0.055378497 0.20660606 0.101249576 0.2419471
0002c0 b2 e6 9c 3d c0 49 7a 3e d4 91 e3 3d c8 44 32 3e
       0.07661189 0.24442196 0.11111799 0.1740905
0002d0 64 89 0b 3e d6 b6 64 3e 91 f1 a7 3d b4 34 71 3e
       0.13626629 0.22335371 0.08200372 0.23555261
0002e0 55 11 7c 3d d8 1e 2b 3e ab 95 9b 3d 00 9f 95 3e
       0.061539967 0.16710985 0.07596906 0.2922287
0002f0 61 c7 17 3e ae b5 2b 3e 27 21 9e 3d bf a0 46 3e
       0.14822151 0.16768524 0.07721167 0.19397257
000300 e1 bd 06 3e 62 66 65 3e b0 ca 94 3d ba 9e 90 3e
       0.1315837 0.22402337 0.07265222 0.282461
000310 a7 11 a2 3d 58 8d 9f 3e fd 22 c3 3d bf a4 42 3e
       0.07913523 0.31162524 0.09528158 0.19008158
000320 90 59 90 3d 0f 5f 60 3e 35 6e 05 3e 0b fe 2e 3e
       0.07048333 0.21911262 0.13030322 0.17089097
000330 9d 30 7d 3d 45 5a a0 3e 02 e2 ae 3d e0 22 46 3e
       0.06181394 0.3131887 0.08539201 0.19349241
000340 5c 0a e8 3d 9b 13 65 3e 96 d2 2b 3e 1a 0e 60 3e
       0.11330101 0.2237076 0.16779551 0.2188038
000350 07 d1 18 3e 82 62 9a 3e df c3 79 3d 0c 8a 46 3e
       0.14923488 0.3015328 0.060977813 0.19388598
000360 5e 77 84 3c 50 d4 8b 3e 2c 1c 13 3d f5 21 5e 3e
       0.0161702 0.2731042 0.03591554 0.21692641
000370 4a 03 d9 3d 59 b9 a4 3e 63 03 8a 3d fb 5b a5 3e
       0.105963305 0.3217266 0.06738927 0.32296738
000380 7b 7e 1e 3d 14 44 a8 3e 5a 13 6b ba 5b 24 a2 3e
       0.03869484 0.3286444 -0.0008967422 0.31668362
000390 6f bc ed 3d 36 d5 87 3e 01 b5 f7 3d 8e 6d 3c 3e
       0.116082065 0.26529855 0.12095071 0.18401167
0003a0 bc 60 f3 3d d1 15 5e 3e 16 27 0f 3d f3 64 56 3e
       0.11883685 0.2168801 0.034949385 0.20936947
0003b0 4c 9e cb 3c 93 95 82 3e f2 58 b0 3d ce 3f 54 3e
       0.024855755 0.2550474 0.08610715 0.20727465
0003c0 04 1a 39 3c 5f 2b a6 3e 32 fb bd 3d 9f fd 5b 3e
       0.0112977065 0.32454965 0.09276427 0.21483468
0003d0 70 7d 1e 3d dd 4c a1 3e 17 fb 21 bd 21 81 5d 3e
       0.038693845 0.31503955 -0.0395461 0.2163129
0003e0 5a 52 b1 3d 26 fe 9c 3e e1 dd 7d 3d 0e b8 49 3e
       0.086582854 0.3066265 0.06197918 0.19699118
0003f0 b0 4b a8 bc fc fe 57 3e bf 15 26 3d 76 16 88 3e
       -0.020543903 0.21093363 0.040548082 0.26579636

decoder.linear1.bias f4 [32]
000000 e3 9e 8a 3e d2 45 44 3e 19 54 fc 3c 87 27 c4 bc
       0.27074346 0.1916726 0.03080182 -0.02394463
000010 2c 84 08 bd bc 65 73 3e 1c f4 a1 3e 00 f6 3b 3e
       -0.033329174 0.23769277 0.31631553 0.1835556
000020 7d c9 43 bc b1 09 c9 bc 71 04 7e 3e 83 29 09 bd
       -0.011949894 -0.024540754 0.24806382 -0.033486854
000030 f3 d2 66 3e 24 b2 8c 3e 0d 9d 66 3e b3 c7 25 3e
       0.22541408 0.2747966 0.22520848 0.1618946
000040 b7 ee 5f 3e b1 8f 49 3e f1 1f a8 bd 43 ef 4f 3d
       0.21868406 0.1968372 -0.08209217 0.050765287
000050 2e bd a7 3e 24 77 66 3e 69 36 a7 bc f3 0a 5a bd
       0.3276152 0.22506386 -0.020411687 -0.0532331
000060 82 d9 77 3e d8 89 9a 3e aa 12 95 3e a5 e1 96 bd
       0.24204066 0.3018329 0.29115802 -0.07367257
000070 49 2f 46 3e fa ca 8d 3e c7 3f 55 bc 4e e2 73 bd
       0.19353975 0.2769392 -0.013015694 -0.059541993

decoder.linear2.weight f4 [10, 32]
000000 0d 4d cb 3e 15 e0 6b 3e 8f cd 89 3d cd 4d 28 be
       0.39707223 0.230347 0.0672866 -0.16435929
000010 2d 77 fa bd 9b e0 c5 3e ae e8 da 3e 41 52 ba 3d
       -0.12229762 0.38647923 0.42755646 0.0909772
000020 97 42 0d bd 65 29 20 be 45 a8 23 3e ac de c4 bc
       -0.034487333 -0.15640791 0.15982158 -0.02403196
000030 20 83 80 3e d2 2e 0c 3e 68 e4 91 3e 65 0e 88 3e
       0.2510004 0.13689736 0.28494573 0.26573482
000040 a8 f6 f2 3d 24 c2 a8 3e 5e d3 e0 bd c2 45 a7 bd
       0.11863452 0.32960618 -0.10977815 -0.08167602
000050 87 88 a8 3e 15 aa e0 3e b0 d0 23 be 27 f5 10 3a
       0.32916662 0.43879762 -0.15997577 0.00055296946
000060 e8 18 56 3e 13 05 a7 3e 9a f1 e4 3e 7b f5 37 3c
       0.20907938 0.3262106 0.44715577 0.011227961
000070 02 d3 d7 3d 5e 25 de 3e e9 36 05 3e 60 21 1d be
       0.105382934 0.43387884 0.13009228 -0.15344763
000080 31 9a c3 3d 17 58 87 3e 3e 15 24 3d 17 8f 17 be
       0.09550894 0.26434395 0.04005932 -0.14800678
000090 5d f1 fb 3d 3c 5e 8d 3e 5d 2a c9 3e 34 e8 9b 3e
       0.12301896 0.27610958 0.39290133 0.30450594
0000a0 bc 87 29 bd dc f9 29 be 04 94 86 3e 4d d3 17 be
       -0.041389212 -0.1659922 0.26284802 -0.14826699
0000b0 7c 9d ee 3d ff 70 df 3e 38 e6 5c 3e a7 7f 8d 3e
       0.116511315 0.43640897 0.21572196 0.27636454
0000c0 79 0a 9e 3e 76 d5 9c 3e 1c 8a c7 bc 03 53 34 bc
       0.30867365 0.30631608 -0.024357848 -0.01100612
0000d0 ae ab c3 3e 25 03 3f 3e c5 e9 0b be 59 d8 e4 bd
       0.3821692 0.18653543 -0.13663395 -0.111740775
0000e0 02 5f e1 3e 7c d1 df 3e 34 97 80 3e 5f 19 06 3e
       0.44017798 0.4371451 0.2511536 0.13095616
0000f0 d0 46 42 3e 18 fe 3d 3e 07 00 0b be 0b ba c0 bb
       0.18972325 0.1855396 -0.13574229 -0.005881553
000100 96 40 e1 3e 22 d1 14 3e ac e8 91 3d 9f 40 0a be
       0.43994588 0.14532903 0.07124457 -0.13501213
000110 5f 99 27 bd 1d be 12 3e 87 54 d0 3e db 2c ed 3e
       -0.04091775 0.14330335 0.4068949 0.46323285
000120 88 c6 30 3d bc b6 9c bd aa 30 b7 3e 03 50 be 3a
       0.043158084 -0.07652041 0.35779315 0.0014519695
000130 55 a8 0f 3e 35 61 24 3e 21 b4 c2 3e 04 3d 2e 3e
       0.14029057 0.16052707 0.38028052 0.17015463
000140 0b 3e 9e 3e d5 2f 36 3e f6 5b 88 bd 13 f5 cc 3c
       0.3090671 0.17791684 -0.06658165 0.025019204
000150 c1 d9 24 3e 6b 6d b0 3e 37 f9 c1 bd 37 7b 1c be
       0.16098692 0.3445848 -0.09471362 -0.15281378
000160 94 f1 24 3e 53 4f 61 3e 23 c3 95 3e 5e 3e a8 bd
       0.1610778 0.22002916 0.2925044 -0.082150206
000170 48 d7 cf 3e 5c 7a e6 3e 9c 35 e0 bd 02 fd 42 bd
       0.40593934 0.45015228 -0.10947725 -0.04760457
000180 15 40 52 3e 56 7c dc 3e a5 7d fe bd 11 d9 0b be
       0.20532258 0.4306361 -0.124263085 -0.13657023
000190 58 af e0 bd da 4b 94 3e e2 e0 12 3e 94 0c e1 3e
       -0.10970944 0.2896412 0.14343598 0.4395491
0001a0 ce 60 99 bd 9f 28 bd 3d 23 ef b4 3e 72 58 80 bd
       -0.07489167 0.092362635 0.35338697 -0.062668696
0001b0 50 ed 9a 3e e0 10 d9 3e f3 cb 65 3e c7 ce f0 3e
       0.3025918 0.42395687 0.22441082 0.4703276
0001c0 08 6d 88 3e c8 5f 47 3e 62 49 21 be da 73 9d bc
       0.26645684 0.19470131 -0.1575065 -0.019220281
0001d0 b4 24 0a 3e f2 fe 32 3e f3 c4 de bc aa 8a ec bd
       0.13490564 0.17480066 -0.027193522 -0.115498856
0001e0 f3 3d 77 3e e6 ef 55 3e 01 97 95 3e 50 9e 0c be
       0.24144726 0.20892295 0.2921677 -0.13732266
0001f0 32 94 84 3e 2a c4 8f 3e 8d db 79 3d ce 6b cd bd
       0.25894314 0.2807935 0.061000396 -0.10030328
000200 97 f0 97 3e 7b 15 cf 3e e5 b3 e6 3d ac 0d 14 bd
       0.29675743 0.40446076 0.11264781 -0.03614585
000210 d3 d9 3d 3e db f1 9c 3e 2c a5 41 3e ba cc c6 3e
       0.18540125 0.3065327 0.18910664 0.3882807
000220 56 87 1e 3e 6f 38 fb bb 34 cc 27 3e 40 e8 1f be
       0.15481314 -0.0076666395 0.16386491 -0.1561594
000230 ca 79 ad 3e 7d 2e 9c 3e 5f 6b 3b 3e 1c 9b 57 3e
       0.3388198 0.30504218 0.18302678 0.21055263
000240 41 78 81 3e 01 5c b9 3e 45 d4 96 bb df 58 fd bb
       0.2528706 0.36203006 -0.004602941 -0.0077315415
000250 38 f9 fe 3d 8d fa cc 3e 7e d9 1c be cd f0 8d bd
       0.124498785 0.40034905 -0.15317342 -0.06930695
000260 b7 00 ab 3e 26 65 a6 3e 4f 14 26 3e ef b4 f1 bd
       0.33398983 0.32499045 0.16218685 -0.118020885
000270 b3 e3 da 3e 11 c7 2e 3e eb 64 71 bd 4a d8 21 be
       0.42751846 0.17068125 -0.058934133 -0.15805164
000280 de d6 c5 3e 7e 1d 63 3e d6 0b 85 3a ca e9 30 3e
       0.38640493 0.22179219 0.0010150622 0.17276683
000290 59 a9 bf 3d 1c 33 ae 3e 1f 71 12 3e 17 38 a5 3e
       0.093584724 0.34023368 0.14300965 0.32269356
0002a0 73 dd 07 be 8e 57 cd 3d e2 be 97 3e 63 1a 92 3d
       -0.1326807 0.10026465 0.2963782 0.07133939
0002b0 c1 7e c1 3e 14 f2 64 3e 13 4f c1 3e 4a 5e a7 3e
       0.37792018 0.2235797 0.3775564 0.32689124
0002c0 20 f7 b4 3e 15 78 a2 3e ea ff a1 bd c8 01 a9 3d
       0.3534479 0.3173224 -0.0791014 0.08252293
0002d0 59 d8 44 3e 79 49 0f 3e 31 6e 3d 3d 87 ce bc bd
       0.19223155 0.13992871 0.046247665 -0.092190795
0002e0 39 4d 85 3e bc aa ad 3d c0 af 3b 3e be e3 28 3d
       0.2603548 0.084798306 0.18328762 0.041232817
0002f0 07 b0 d3 3e 62 30 bf 3e a0 11 22 be e5 d3 e8 3d
       0.41345236 0.373416 -0.15827036 0.11368541
000300 bd c8 23 3e 38 48 e6 3e 98 ed 58 bd e3 05 03 3d
       0.15994544 0.44976974 -0.052960962 0.031988036
000310 23 24 7e bc fc 7b fa 3d 7d eb bf 3e 22 d2 11 3e
       -0.015511545 0.122306794 0.3748435 0.14240316
000320 86 45 0b be b2 2c 9d bc fe be 6d 3e a3 04 31 3c
       -0.1360074 -0.019186351 0.23217389 0.010804328
000330 e2 50 9c 3e 20 2c 95 3e d2 b8 ab 3e 73 7d 83 3e
       0.3053046 0.29135227 0.33539444 0.25681648
000340 d6 2a 60 3e 6e e0 d9 3e 5e c1 25 3e e4 21 21 bd
       0.2189134 0.4255404 0.16187045 -0.03933896
000350 4a 6a 92 3e 85 ea 91 3e f7 57 84 3d a1 d6 15 3e
       0.28596717 0.28499237 0.064620905 0.14632656
000360 49 a9 e5 3d e6 88 bf 3e 6e 34 a5 3e 95 cf 19 be
       0.11213929 0.37409133 0.32266563 -0.15020593
000370 57 11 af 3e 65 d2 a0 3e 55 d0 bd bd 86 6d f4 3d
       0.34192917 0.31410518 -0.09268252 0.119349524
000380 f9 67 b9 3e fa d2 59 3e ff 48 18 be 96 d3 07 3e
       0.36212137 0.21271887 -0.14871596 0.13264307
000390 50 ea c2 bd c8 49 de 3e 5b 35 91 3e e9 60 05 3e
       -0.09517348 0.43415666 0.2836102 0.1302525
0003a0 5e bb 86 3d 9c a9 82 bc d0 76 54 3e 75 a0 d9 3d
       0.06578706 -0.015950017 0.20748448 0.10626308
0003b0 c4 66 e4 3e b6 d3 c1 3e e7 aa 29 3e 69 44 45 3e
       0.44609654 0.37856835 0.165691 0.19264378
0003c0 6f 3d a3 3e e5 84 c6 3e d1 9b a9 bd bf c4 68 3c
       0.31882808 0.38773265 -0.08281673 0.014207064
0003d0 5a d5 ae 3e 8f a9 c1 3e d3 12 3d 3e 1e 11 5c bd
       0.3414715 0.37824675 0.18464212 -0.05372726
0003e0 9c fb 5f 3e ab 8b 48 3e 46 a1 81 3e 05 d1 a5 bb
       0.21873325 0.19584529 0.25318354 -0.0050603175
0003f0 7a 78 95 3e 9b b2 1e 3e 69 a1 1a 3d 81 4f 71 bd
       0.2919348 0.1549782 0.03775159 -0.05891371

decoder.linear2.bias f4 [10]
000000 98 60 a3 3d 43 4d f4 3b c2 7c 81 3e db b6 be 3d
       0.07977408 0.0074554994 0.25290495 0.09312221
000010 5d c1 27 3e 8c d8 7f 3e 83 86 ee bb 51 f4 54 3c
       0.16382356 0.2498495 -0.0072792186 0.012997703
000020 a6 77 31 3e 76 90 8f 3d
       0.17330799 0.070099756

exp_avg f4 [1, 1, 2, 10]
000000 1e 5c 8b 44 cc 33 8f 44 3f 29 91 44 4d 50 8f 44
       1114.8787 1145.6187 1161.289 1146.5094
000010 23 98 94 44 53 d3 95 44 6f 5a 9d 44 1b 30 9e 44
       1188.7543 1198.6039 1258.826 1265.5033
000020 56 37 91 44 46 5e 8e 44 02 dc 90 44 48 ac 93 44
       1161.7292 1138.946 1158.8752 1181.3838
000030 ae 39 91 44 4f 64 8e 44 7f c7 96 44 76 b0 95 44
       1161.8025 1139.1346 1206.2343 1197.5144
000040 81 83 9c 44 ae 97 9b 44 97 49 8c 44 c1 35 8d 44
       1252.1095 1244.74 1122.2997 1129.6798

exp_avg_sq f4 [1, 1, 2, 10]
000000 bf c7 db 4b 1f 6d de 4b fd d2 e5 4b a4 13 ee 4b
       2.8807038e+07 2.9153854e+07 3.0123514e+07 3.1205192e+07
000010 57 54 f7 4b 6c 24 01 4c ae 41 03 4c 3b ee 00 4c
       3.2417966e+07 3.385387e+07 3.440812e+07 3.379838e+07
000020 09 d1 02 4c 6f 8b 01 4c fb a4 fd 4b eb 32 fe 4b
       3.4292772e+07 3.3959356e+07 3.3245686e+07 3.3318358e+07
000030 de 43 02 4c b3 24 07 4c e7 8b 0d 4c 1b fd 13 4c
       3.4148216e+07 3.542702e+07 3.7105564e+07 3.8794348e+07
000040 4e 79 15 4c f6 f7 12 4c 86 37 15 4c f4 ad 13 4c
       3.918367e+07 3.8526936e+07 3.911631e+07 3.8713296e+07

exp_avg f4 [1, 1, 2, 10]
000000 45 d2 3f c2 f7 3b 06 42 60 9b 85 c1 fd 2f 07 41
       -47.95534 33.55856 -16.700867 8.449216
000010 66 22 af 41 36 52 c9 c2 e9 a9 b8 c2 aa 62 23 bf
       21.891796 -100.66057 -92.331856 -0.63822424
000020 08 fa 46 c1 cb 4b 03 c1 77 fe db 41 a6 c8 a4 41
       -12.436043 -8.206004 27.49925 20.597973
000030 78 87 18 41 33 90 6e 41 17 f7 09 41 96 6a 8f c0
       9.533073 14.910205 8.622825 -4.481761
000040 5d 05 10 c0 7c 7c b0 41 b7 bd 46 42 da 23 15 42
       -2.2503273 22.060783 49.68527 37.28501

exp_avg_sq f4 [1, 1, 2, 10]
000000 32 04 80 46 0e 4d 3b 46 8a a0 8c 45 68 aa ce 45
       16386.098 11987.264 4500.0674 6613.301
000010 06 57 5b 46 bd 44 53 47 04 a8 21 47 ff c2 83 45
       14037.756 54084.74 41384.016 4216.3745
000020 d3 5b 5d 45 f5 01 74 45 5b a4 18 48 4f b5 14 48
       3541.739 3904.1223 156305.42 152277.23
000030 40 7c 08 48 c4 81 17 48 91 8f 19 48 70 10 00 48
       139761.0 155143.06 157246.27 131137.75
000040 b7 a6 00 48 e8 8d 1a 48 21 00 48 48 49 af 2f 48
       131738.86 158263.62 204800.52 179901.14

exp_avg f4 [32, 164]
000000 a4 40 38 3f 78 ef ff 40 d7 54 1f 3f 09 4e 01 41
       0.71973634 7.997982 0.6223883 8.081552
000010 f9 a0 07 3f 54 73 02 41 fe 4a f1 3e 54 d5 03 41
       0.5298 8.153156 0.47127527 8.239582
000020 b8 a4 cb 3e a9 bd 04 41 92 41 af 3e 56 88 05 41
       0.39774108 8.296304 0.34229714 8.345785
000030 86 40 8e 3e 99 e4 06 41 62 cb 66 3e 38 93 06 41
       0.27783602 8.43081 0.22538522 8.410942
000040 36 55 52 3e ed b1 06 41 25 6f 27 3e 25 4d 07 41
       0.20540318 8.418439 0.16350992 8.456334
000050 27 fd 0a 3e 14 f5 06 41 9b 47 98 3d 12 01 07 41
       0.13573132 8.434834 0.07435533 8.437761
000060 6e 5e 4b 3d 10 c1 06 41 24 94 a8 3b 7f f7 05 41
       0.049650602 8.422134 0.005144613 8.372924
000070 0e 71 59 bd df 7d 04 41 7d ce 87 bd 65 77 03 41
       -0.053086333 8.28073 -0.066311814 8.216649
000080 95 89 db bd b1 d8 02 41 e4 fb 36 be 80 4a 02 41
       -0.10719601 8.177903 -0.17869526 8.143188
000090 27 11 45 be 3a 95 02 41 a2 0a 55 be 1d 32 03 41
       -0.19244824 8.161432 -0.20804837 8.199735
0000a0 64 b7 65 be 73 e8 03 41 73 f0 1e be 57 be 03 41
       -0.22433239 8.24425 -0.15521412 8.23397
0000b0 26 f3 0e be 09 31 03 41 a4 6c 45 be 7a b3 02 41
       -0.13959941 8.199471 -0.19279724 8.1688175
0000c0 9d a6 ec bd e4 f1 01 41 2a 3a 65 3d e2 a9 01 41
       -0.115552165 8.121555 0.055963673 8.103975
0000d0 d6 b8 7c 3d 01 d2 01 41 48 fe 9f 3d b9 82 01 41
       0.06169971 8.1137705 0.07812172 8.094415
0000e0 02 6b c8 3d ea fb 00 41 aa 43 1d bd 87 f6 00 41
       0.09786035 8.061502 -0.038394608 8.060187
0000f0 a7 6f 05 bd 5e ce 01 41 6c 4c b2 3d e7 3c 01 41
       -0.032577183 8.112883 0.087059826 8.077369
000100 b9 30 4e 3e b8 25 00 41 26 f6 3a 3e 9c 6a ff 40
       0.20135774 8.009209 0.1825796 7.981764
000110 39 fd ec 3d 5d 63 fd 40 ff 61 13 3e bf be fe 40
       0.11571736 7.9183793 0.14392851 7.9607844
000120 36 a9 0e 3e 84 4e fe 40 73 fb 33 3e 35 a9 fd 40
       0.13931736 7.9470844 0.17576389 7.926905
000130 0a e0 38 3e b1 10 00 41 2b 87 21 3e df 1c 00 41
       0.18054214 8.004075 0.15774219 8.007049
000140 dd c6 82 3e 19 c2 00 41 38 d6 85 3e 28 65 01 41
       0.25542346 8.047387 0.26139998 8.087196
000150 96 c3 70 3e 6c 84 01 41 cf 91 9d 3e c0 d4 02 41
       0.2351211 8.09483 0.30775306 8.176941
000160 a6 a4 88 3e 00 3f 03 41 44 01 5f 3e 31 73 02 41
       0.26688117 8.202881 0.21777827 8.153123
000170 dc 16 7d 3e b1 fc 02 41 1a 25 b0 3e 77 44 03 41
       0.24715751 8.186692 0.34403306 8.204215
000180 ef c8 9c 3e 04 a0 04 41 5a 2a 1a 3e dc 3d 05 41
       0.3062205 8.289066 0.15055218 8.327602
000190 dd 6c 3a 3e d1 76 05 41 34 66 43 3e 2e 39 07 41
       0.1820559 8.341508 0.19081956 8.45146
0001a0 8c 74 f3 3d 82 d5 08 41 f0 55 76 3e d0 28 09 41
       0.11887464 8.552126 0.2405622 8.572464
0001b0 2c fc 21 3e 4d 82 09 41 ab da 09 3d 4c 8e 09 41
       0.15818852 8.594312 0.033655804 8.59724
0001c0 e9 ad 2b 3d 0e e0 09 41 fb ad 20 3d 73 bc 09 41
       0.0419139 8.617201 0.03922842 8.608508
0001d0 10 a7 21 3d cb 52 09 41 ee 80 ed 3d 2f 90 09 41
       0.039465964 8.582713 0.11596857 8.597701
0001e0 22 ff 2d 3d a8 81 09 41 d4 0b b3 3d c9 d4 08 41
       0.04247964 8.594154 0.087424904 8.5519495
0001f0 3e 47 9f 3d e6 66 07 41 93 bb cb bc cc ad 05 41
       0.0777726 8.462622 -0.024869716 8.354931
000200 e1 e1 c5 3b 08 e7 03 41 84 06 15 3d 46 68 01 41
       0.0060388898 8.243904 0.036383167 8.087957
000210 c4 2c 86 3c b2 0e fe 40 40 f3 f3 3d e1 af 01 41
       0.016378768 7.939294 0.11911631 8.105439
000220 05 fb 29 3e c1 88 04 41 0f 87 23 3e 2d 65 03 41
       0.16599663 8.283387 0.1596949 8.212201
000230 86 7e f6 3d 65 27 02 41 52 23 f5 3c 50 95 fd 40
       0.12035851 8.134618 0.029924069 7.9244766
000240 80 33 ac 3d 2e 77 fe 40 11 3f 17 3e 36 c0 00 41
       0.0840826 7.9520483 0.14770152 8.0469265
000250 8c ba 5c 3e 4c 55 00 41 21 b8 a2 3e 21 d9 00 41
       0.21555537 8.020824 0.31781104 8.05301
000260 e1 ee 4d 3e 85 ea ff 40 50 89 f9 3d ae aa ff 40
       0.20110656 7.997378 0.121843934 7.989585
000270 14 39 92 3d 31 cf 00 41 8d 97 87 3d 0c 28 01 41
       0.07139793 8.050584 0.06620703 8.072277
000280 66 b1 1e 3d 45 d9 01 41 9a f3 37 bc eb 47 00 41
       0.0387434 8.115544 -0.011227513 8.017558
000290 96 51 25 3f c6 b6 e2 40 e9 17 0f 3f 87 98 e3 40
       0.64577615 7.084811 0.5589586 7.112369
0002a0 33 81 f1 3e 7d 46 e6 40 64 29 d6 3e 33 3b e8 40
       0.47168884 7.1961045 0.41828454 7.2572265
0002b0 ea 3c b4 3e c6 68 e9 40 45 f5 95 3e 96 07 ec 40
       0.35202724 7.2940397 0.29288688 7.375926
0002c0 7f 53 7f 3e 5e fe ed 40 a4 c6 42 3e a3 bd ed 40
       0.24934195 7.4373007 0.19021088 7.429399
0002d0 6b a5 31 3e 3e a3 ee 40 d2 6d 0e 3e 2b 40 f0 40
       0.17348258 7.457427 0.1390908 7.507833
0002e0 c8 46 99 3d 12 eb ef 40 cf 26 39 3d d4 a3 ef 40
       0.074842036 7.497445 0.045203026 7.4887486
0002f0 e9 02 29 bc 41 eb ee 40 c4 ca 2d bd 16 9d ec 40
       -0.010315635 7.4662175 -0.0424297 7.3941755
000300 0a 1a 8d bd 9b c3 ea 40 93 05 fd bd ad a4 e8 40
       -0.06889732 7.3363776 -0.12354579 7.270102
000310 24 4e 0e be 19 69 e6 40 a7 3e 32 be d3 a4 e6 40
       -0.13896996 7.2003293 -0.17406712 7.20762
000320 2f 62 66 be df 33 e7 40 71 9c 52 be 92 2b e7 40
       -0.22498392 7.225082 -0.2056749 7.2240686
000330 79 e9 51 be 49 9e e8 40 eb 02 44 be 12 44 e8 40
       -0.20499219 7.269322 -0.19141738 7.2583094
000340 68 34 1b be c2 02 e6 40 85 3f 36 be 35 26 e5 40
       -0.1515671 7.1878366 -0.17797668 7.160914
000350 97 2f 0c be 7d 4c e4 40 3e 87 1e 3d c9 d2 e3 40
       -0.13690029 7.134337 0.038703196 7.1194806
000360 dc 87 2c 3d 0f 24 e5 40 de e5 11 3d 3c be e4 40
       0.042121753 7.1606517 0.03561961 7.148222
000370 4b c1 9b 3d 73 dc e3 40 a6 a9 74 bd 5d 43 e4 40
       0.07605227 7.1206603 -0.0597321 7.133223
000380 0e 64 5c bd d9 79 e4 40 46 83 b5 3d 27 68 e3 40
       -0.053806357 7.139874 0.08862929 7.106464
000390 e5 82 19 3e 42 63 e1 40 90 d6 18 3e 53 21 e0 40
       0.14991339 7.0433664 0.14925599 7.004068
0003a0 90 5c e0 3d 13 98 df 40 01 65 eb 3d 2d f7 df 40
       0.10955155 6.9873137 0.11493874 6.998923
0003b0 9d 2e ef 3d 25 14 e0 40 61 3e 21 3e 2c 5f e0 40
       0.11678813 7.002459 0.15746452 7.0116177
0003c0 e7 55 23 3e e0 e7 e1 40 f0 26 10 3e b1 53 e3 40
       0.15950738 7.059555 0.14077353 7.103966
0003d0 f2 1a 6c 3e 2f 56 e4 40 6d 49 71 3e e2 59 e4 40
       0.23057154 7.1355205 0.23563166 7.135972
0003e0 de b5 58 3e e7 8c e5 40 f1 e5 8d 3e 44 f3 e6 40
       0.21163127 7.17345 0.27714494 7.2171955
0003f0 2d 68 75 3e c4 44 e7 40 bf db 48 3e a8 4c e7 40
       0.23965521 7.2271442 0.19615076 7.2281075

exp_avg_sq f4 [32, 164]
000000 dd 24 67 3f 52 ff e1 43 6f 4a 4f 3f 8a 62 e1 43
       0.90290624 451.9947 0.8097295 450.76984
000010 08 61 3a 3f 7a 1c e1 43 f1 22 2e 3f f0 fa e0 43
       0.7280431 450.22247 0.68022066 449.96045
000020 a2 9b 20 3f 3c a3 e1 43 e0 07 18 3f 8b 58 e1 43
       0.62737477 451.27527 0.59387016 450.69174
000030 47 60 11 3f 6e 0d e1 43 cf 12 0c 3f 85 15 e1 43
       0.5678753 450.10492 0.547162 450.16812
000040 fe f9 0b 3f 86 44 e0 43 e3 27 09 3f ae 76 e0 43
       0.5467833 448.53534 0.5357649 448.9272
000050 72 3e 08 3f b4 f3 e0 43 21 dd 04 3f 7e f3 e0 43
       0.53220284 449.90393 0.51899916 449.90228
000060 b5 db 04 3f 1b 6f e2 43 17 dd 03 3f 91 3c e3 43
       0.51897746 452.868 0.5150923 454.47318
000070 c4 ac 00 3f 11 4e e2 43 7f 6e fc 3e a2 de e1 43
       0.5026362 452.6099 0.49303052 451.73932
000080 73 d2 f0 3e d1 e4 e1 43 f1 25 da 3e 7f 82 e1 43
       0.4703556 451.78763 0.42607072 451.0195
000090 7c 54 ca 3e f3 36 e1 43 e4 78 c6 3e 58 e4 e0 43
       0.3951758 450.4293 0.38764107 449.78394
0000a0 13 36 bf 3e 7c 5c e1 43 e5 56 b7 3e 36 82 e2 43
       0.37345943 450.72253 0.35808483 453.01727
0000b0 18 82 bf 3e a9 9d e2 43 a4 6a b2 3e c3 cb e2 43
       0.3740394 453.23172 0.34846985 453.5919
0000c0 9d 39 83 3e 3d 82 e3 43 c5 d7 10 3e e1 e0 e4 43
       0.25629893 455.0175 0.1414481 457.75687
0000d0 d4 e0 ec 3d 5a a1 e6 43 d8 6a 02 3e 09 ab e6 43
       0.1156632 461.26056 0.1273607 461.3362
0000e0 83 23 d3 3d 58 dc e5 43 ee 50 e2 3d c3 b5 e6 43
       0.10309508 459.72144 0.11050592 461.42
0000f0 d5 20 e4 3d 74 9e e7 43 16 fb ab 3d d4 90 e7 43
       0.11139075 463.2379 0.083975 463.13147
000100 27 ea 02 3e 08 00 e8 43 e6 92 e0 3d 8a d3 e7 43
       0.12784635 464.00024 0.10965519 463.65265
000110 40 55 b1 3d d7 95 e7 43 21 5f b5 3d e8 e1 e6 43
       0.08658838 463.17062 0.08856035 461.7649
000120 b6 0c b7 3d 7e c4 e5 43 1d 64 e7 3d b0 bd e5 43
       0.08937971 459.5351 0.11298392 459.48193
000130 cc a1 f1 3d 73 dd e5 43 79 55 de 3d 88 e6 e4 43
       0.117984384 459.73007 0.10856146 457.80103
000140 e9 c9 34 3e 8a f6 e3 43 81 fd 3d 3e 9e 06 e3 43
       0.17655148 455.9261 0.18553735 454.0517
000150 e5 ad 25 3e 2b 3a e3 43 52 de 6e 3e f8 df e2 43
       0.16179617 454.45444 0.23326996 453.74976
000160 00 cb 3a 3e 12 3f e2 43 eb 7b 1c 3e ec b8 e2 43
       0.18241501 452.49274 0.15281646 453.4447
000170 cb d6 3d 3e fd 7a e3 43 8c e4 92 3e 51 97 e2 43
       0.18538968 454.96085 0.28689992 453.18216
000180 8d c0 7b 3e 1c 2e e2 43 7e 0c dd 3d 1d 99 e0 43
       0.24585171 452.36023 0.10793398 449.1962
000190 32 9c f8 3d 7d eb de 43 06 e5 0d 3e 3b ca dd 43
       0.12139167 445.83975 0.13856897 443.57993
0001a0 4f 67 e9 3d f8 36 de 43 a1 03 4a 3e 55 eb de 43
       0.11396658 444.42944 0.19727947 445.83853
0001b0 f9 28 13 3e b7 1c de 43 a4 13 e8 3d ad 42 de 43
       0.14371099 444.22433 0.11331871 444.5209
0001c0 bf ea f8 3d 46 ec de 43 b0 9a 06 3e a3 b9 dd 43
       0.12154149 445.8459 0.13144946 443.4503
0001d0 e7 b1 12 3e b5 8e dc 43 73 2c 17 3e cc c3 dc 43
       0.14325677 441.1149 0.1476305 441.52966
0001e0 b3 af 1a 3e f2 e8 dd 43 4d 17 22 3e a4 df dd 43
       0.15106086 443.8199 0.15829201 443.7472
0001f0 71 4c 3a 3e 09 8b db 43 fc dc 75 3e 19 aa d9 43
       0.18193223 439.0862 0.2401008 435.3289
000200 82 5d 9e 3e 95 d1 d8 43 20 87 b9 3e 8f e6 d7 43
       0.30930716 433.63736 0.36235905 431.80124
000210 42 6c bd 3e 96 e8 d8 43 af e5 bd 3e 09 01 db 43
       0.36996657 433.81708 0.37089297 438.0081
000220 d2 cc c2 3e 89 9f db 43 5c 0b cf 3e d1 19 dd 43
       0.3804689 439.24637 0.40438354 442.2017
000230 7a 9a f3 3e b9 b9 dc 43 f4 6c ff 3e 0b 9a db 43
       0.47578794 441.45096 0.49887812 439.20346
000240 9f b8 f9 3e 31 65 dc 43 ce 10 f8 3e 99 3a dd 43
       0.48773667 440.79056 0.4845032 442.4578
000250 7d 1d f9 3e 1c 0f de 43 28 36 0f 3f 98 60 de 43
       0.4865531 444.11804 0.5594201 444.75464
000260 bd 60 0e 3f 44 33 de 43 b7 a3 15 3f 4d d9 df 43
       0.5561636 444.4005 0.58452934 447.69766
000270 51 47 22 3f 54 cf e1 43 f1 61 28 3f 82 40 e3 43
       0.6339007 451.61975 0.65774447 454.50397
000280 b0 80 31 3f 8f 59 e3 43 c9 37 46 3f d3 fa e2 43
       0.69336987 454.69968 0.7742887 453.95956
000290 04 a1 23 3f e5 b7 cc 43 74 45 13 3f e0 11 cc 43
       0.63917565 409.43668 0.5752785 408.13965
0002a0 63 07 04 3f 0e fd cb 43 ca 57 f4 3e b4 6f cb 43
       0.5157377 407.977 0.47723228 406.87268
0002b0 0d cc e4 3e da eb cb 43 b0 fd d0 3e c7 a2 cb 43
       0.44686928 407.8426 0.40818548 407.2717
0002c0 a5 f9 c5 3e 32 13 cb 43 a9 3c c0 3e f1 6c cb 43
       0.38667026 406.14996 0.3754628 406.8511
0002d0 42 20 be 3e c5 f2 ca 43 f2 ef bf 3e 5f 65 cb 43
       0.37133986 405.89664 0.3748775 406.79196
0002e0 d9 eb c0 3e d9 d2 cb 43 3a 91 c2 3e be 9b cb 43
       0.37679937 407.64725 0.38001424 407.21674
0002f0 0d 22 c1 3e 08 d1 cc 43 bf d0 c0 3e 47 63 cd 43
       0.3772129 409.63306 0.3765926 410.7756
000300 8f 81 c0 3e 29 d9 cc 43 11 ed b9 3e 5a 86 cc 43
       0.37598845 409.69656 0.3631368 409.04962
000310 ac 4d b1 3e 0f 4f cc 43 60 ba a8 3e c7 68 cc 43
       0.3462957 408.61765 0.32954693 408.81857
000320 db b8 98 3e 89 01 cc 43 86 be 96 3e d3 ae cb 43
       0.29828534 408.012 0.29442233 407.3658
000330 bc 99 94 3e bb 2a cc 43 42 d2 89 3e 84 1d cd 43
       0.2902354 408.33383 0.26918226 410.2306
000340 51 9f 91 3e 6e 51 cd 43 01 45 8a 3e c3 5f cd 43
       0.2844186 410.63617 0.2700577 410.74814
000350 90 6f 43 3e fd fe cd 43 81 ce c8 3d 6a 7f cf 43
       0.19085526 411.9921 0.098050125 414.99542
000360 ca 00 99 3d 72 87 d0 43 68 93 a8 3d c4 85 d0 43
       0.074708536 417.05817 0.082312405 417.04504
000370 c8 2d 80 3d 8b 13 d0 43 fc 8f 8d 3d bd d0 d0 43
       0.06258732 416.15268 0.069122285 417.63077
000380 ec e1 8f 3d 90 89 d1 43 e9 18 38 3d 62 70 d1 43
       0.07025513 419.0747 0.04494563 418.878
000390 85 08 9d 3d 7e bd d1 43 b9 24 82 3d d8 a0 d1 43
       0.076676406 419.4804 0.063546605 419.2566
0003a0 ff ec 45 3d ea 81 d1 43 4a 55 4d 3d f0 2e d1 43
       0.04832172 419.01495 0.050130166 418.3667
0003b0 22 71 46 3d b2 08 d0 43 87 b8 8b 3d 23 54 d0 43
       0.048447736 416.06793 0.06822305 416.65732
0003c0 b6 d9 8e 3d d2 5c d0 43 55 28 77 3d 90 56 cf 43
       0.06975119 416.72516 0.060341198 414.67627
0003d0 ac 64 ec 3d 30 8e ce 43 1b e3 f7 3d 47 b8 cd 43
       0.11542639 413.11084 0.12103864 411.43967
0003e0 e9 3f d3 3d 27 c2 cd 43 3d b4 23 3e 95 71 cd 43
       0.10314924 411.5168 0.15986724 410.88736
0003f0 d7 87 ee 3d dc c2 cc 43 11 db bc 3d 2e 37 cd 43
       0.11647003 409.52234 0.09221471 410.4311

exp_avg f4 [32]
000000 7f 60 a3 40 71 54 90 40 04 00 00 80 04 00 00 00
       5.1055293 4.510308 -6e-45 6e-45
000010 04 00 00 80 39 b9 9e 40 1d 81 b2 40 c6 91 8f 40
       -6e-45 4.96011 5.578261 4.4865446
000020 04 00 00 00 04 00 00 00 a3 c9 86 40 04 00 00 00
       6e-45 6e-45 4.212114 6e-45
000030 c2 b6 84 40 8e 33 8f 40 5c 4a 96 40 dc f4 8d 40
       4.1473093 4.4750433 4.696577 4.43614
000040 65 51 85 40 41 ae 9b 40 04 00 00 00 04 00 00 00
       4.166186 4.865021 6e-45 6e-45
000050 97 4e 91 40 f9 3c a6 40 04 00 00 00 04 00 00 00
       4.5408435 5.194943 6e-45 6e-45
000060 b4 e8 8f 40 82 6e 9e 40 5e 23 a8 40 04 00 00 00
       4.497156 4.9509897 5.2543173 6e-45
000070 07 22 85 40 50 ce ad 40 04 00 00 00 04 00 00 00
       4.1604037 5.4314346 6e-45 6e-45

exp_avg_sq f4 [32]
000000 f3 71 36 43 34 6f 24 43 b4 72 9b 39 7c 6c 68 3d
       182.44511 164.43439 0.00029649364 0.056744084
000010 de 9e 0c 3a 00 56 22 43 2c 1a 25 43 b9 6d 0e 43
       0.0005364249 162.33594 165.10223 142.4286
000020 71 93 18 3b 0d ae 84 3b 91 41 09 43 db e1 2c 3c
       0.0023281241 0.004049069 137.25612 0.010551895
000030 c2 58 32 43 44 7e 23 43 62 0e 29 43 9e 3b f7 42
       178.34671 163.49323 169.05618 123.61644
000040 93 96 21 43 80 19 33 43 8f 53 5c 3a 86 86 3d 3c
       161.58818 179.09961 0.0008404785 0.011567717
000050 a6 10 0f 43 dc 1c 22 43 2e 2c a8 3c 17 da d9 3d
       143.06503 162.11273 0.020528879 0.106373005
000060 3e 23 15 43 5e 01 0c 43 8a ca 1b 43 e6 4a 75 3d
       149.13766 140.00534 155.79117 0.05988588
000070 4a ff 24 43 19 6c 27 43 28 e8 7a 3a a7 74 fb 3d
       164.99722 167.42226 0.0009571337 0.12278109

exp_avg f4 [10, 32]
000000 a3 b1 10 43 78 f5 13 43 04 00 00 80 04 00 00 80
       144.6939 147.95886 -6e-45 -6e-45
000010 04 00 00 80 3c 13 14 43 0a b6 15 43 45 3c 16 43
       -6e-45 148.07513 149.71109 150.23543
000020 04 00 00 80 04 00 00 80 a1 90 19 43 04 00 00 80
       -6e-45 -6e-45 153.56496 -6e-45
000030 81 60 11 43 2d 70 17 43 ef bf 16 43 06 84 14 43
       145.37697 151.43819 150.74974 148.51572
000040 49 8f 17 43 04 2e 0e 43 04 00 00 80 04 00 00 80
       151.55971 142.17975 -6e-45 -6e-45
000050 f9 7b 1a 43 ed 68 16 43 04 00 00 80 04 00 00 80
       154.48427 150.40987 -6e-45 -6e-45
000060 96 f2 1c 43 07 39 14 43 d0 d8 17 43 04 00 00 80
       156.9476 148.22276 151.84692 -6e-45
000070 76 3c 18 43 30 fa 16 43 04 00 00 80 04 00 00 80
       152.23618 150.9773 -6e-45 -6e-45
000080 90 6a bb 42 9e 5c bf 42 04 00 00 80 04 00 00 80
       93.70813 95.68089 -6e-45 -6e-45
000090 04 00 00 80 9d 75 bf 42 f4 bc c1 42 12 2c c2 42
       -6e-45 95.72971 96.86905 97.086075
0000a0 04 00 00 80 04 00 00 80 97 e4 c6 42 04 00 00 80
       -6e-45 -6e-45 99.446465 -6e-45
0000b0 e9 19 bc 42 0e e5 c3 42 43 02 c3 42 4d 14 c0 42
       94.050606 97.94737 97.50442 96.03965
0000c0 fa 0d c4 42 8a 22 b8 42 04 00 00 80 04 00 00 80
       98.0273 92.06746 -6e-45 -6e-45
0000d0 a1 cd c7 42 f7 7c c2 42 04 00 00 80 04 00 00 80
       99.90162 97.24407 -6e-45 -6e-45
0000e0 fd 04 cb 42 06 a2 bf 42 f5 93 c4 42 04 00 00 80
       101.50974 95.81645 98.28898 -6e-45
0000f0 6c 05 c5 42 0e 54 c3 42 04 00 00 80 04 00 00 80
       98.51059 97.66417 -6e-45 -6e-45
000100 74 8e 98 42 9c d0 9b 42 04 00 00 80 04 00 00 80
       76.27823 77.90744 -6e-45 -6e-45
000110 04 00 00 80 a1 ee 9b 42 5a b7 9d 42 bf dc 9d 42
       -6e-45 77.96607 78.85811 78.931145
000120 04 00 00 80 04 00 00 80 cc d0 a1 42 04 00 00 80
       -6e-45 -6e-45 80.90781 -6e-45
000130 40 11 99 42 e2 4d 9f 42 24 b7 9e 42 0c 51 9c 42
       76.53369 79.652115 79.3577 78.158295
000140 c3 5f 9f 42 de 0e 96 42 04 00 00 80 04 00 00 80
       79.687035 75.02904 -6e-45 -6e-45
000150 de 8a a2 42 87 45 9e 42 04 00 00 80 04 00 00 80
       81.271225 79.135796 -6e-45 -6e-45
000160 d9 12 a5 42 39 20 9c 42 19 e3 9f 42 04 00 00 80
       82.53681 78.062935 79.94355 -6e-45
000170 31 64 a0 42 3b e5 9e 42 04 00 00 80 04 00 00 80
       80.19569 79.447716 -6e-45 -6e-45
000180 12 3f 5d 42 e7 07 62 42 04 00 00 80 04 00 00 80
       55.311592 56.507717 -6e-45 -6e-45
000190 04 00 00 80 96 23 62 42 c2 a6 64 42 7e ae 64 42
       -6e-45 56.53475 57.16285 57.170403
0001a0 04 00 00 80 04 00 00 80 c6 c6 6a 42 04 00 00 80
       -6e-45 -6e-45 58.694115 -6e-45
0001b0 2d 2f 5e 42 83 4d 67 42 b0 50 66 42 74 df 62 42
       55.54607 57.825695 57.578796 56.718216
0001c0 36 2d 67 42 65 10 5a 42 04 00 00 80 04 00 00 80
       57.79415 54.51601 -6e-45 -6e-45
0001d0 98 cb 6b 42 7e 4f 65 42 04 00 00 80 04 00 00 80
       58.948822 57.32763 -6e-45 -6e-45
0001e0 24 65 6f 42 e5 7c 62 42 e8 15 68 42 04 00 00 80
       59.84877 56.621967 58.021393 -6e-45
0001f0 41 c5 68 42 ed 90 66 42 04 00 00 80 04 00 00 80
       58.19263 57.64153 -6e-45 -6e-45
000200 90 c3 24 42 f8 e6 27 42 04 00 00 80 04 00 00 80
       41.19098 41.975555 -6e-45 -6e-45
000210 04 00 00 80 56 34 28 42 d8 db 29 42 22 c1 29 42
       -6e-45 42.05111 42.46469 42.438606
000220 04 00 00 80 04 00 00 80 fd 6f 2e 42 04 00 00 80
       -6e-45 -6e-45 43.609364 -6e-45
000230 e6 69 25 42 c8 f9 2b 42 de 6c 2b 42 37 aa 28 42
       41.353416 42.993927 42.856316 42.166225
000240 a2 38 2c 42 95 64 22 42 04 00 00 80 04 00 00 80
       43.055305 40.598225 -6e-45 -6e-45
000250 1d 71 2f 42 6f 6f 2a 42 04 00 00 80 04 00 00 80
       43.860462 42.60882 -6e-45 -6e-45
000260 fe e4 31 42 97 5c 28 42 90 ce 2c 42 04 00 00 80
       44.473625 42.09042 43.20172 -6e-45
000270 83 34 2d 42 42 dc 2b 42 04 00 00 80 04 00 00 80
       43.30128 42.965096 -6e-45 -6e-45
000280 18 7a ea 41 9e e4 ee 41 04 00 00 80 04 00 00 80
       29.309616 29.86163 -6e-45 -6e-45
000290 04 00 00 80 17 88 ef 41 f6 fc f1 41 56 19 f1 41
       -6e-45 29.94145 30.248516 30.137371
0002a0 04 00 00 80 04 00 00 80 c0 83 f7 41 04 00 00 80
       -6e-45 -6e-45 30.939331 -6e-45
0002b0 06 62 eb 41 b6 69 f4 41 40 8b f3 41 76 e9 ef 41
       29.422863 30.551617 30.442993 29.988995
0002c0 08 ad f4 41 75 b2 e7 41 04 00 00 80 04 00 00 80
       30.584488 28.962137 -6e-45 -6e-45
0002d0 e4 d2 f8 41 9a 39 f2 41 04 00 00 80 04 00 00 80
       31.102974 30.278126 -6e-45 -6e-45
0002e0 b8 60 fc 41 a4 91 ef 41 2f cf f5 41 04 00 00 80
       31.547226 29.946114 30.726164 -6e-45
0002f0 14 80 f6 41 38 ad f4 41 04 00 00 80 04 00 00 80
       30.812538 30.58458 -6e-45 -6e-45
000300 06 24 b2 41 cf ec b5 41 04 00 00 80 04 00 00 80
       22.26759 22.74063 -6e-45 -6e-45
000310 04 00 00 80 11 67 b6 41 13 2d b8 41 7a e8 b6 41
       -6e-45 22.800325 23.022009 22.863514
000320 04 00 00 80 04 00 00 80 c1 b5 bb 41 04 00 00 80
       -6e-45 -6e-45 23.463747 -6e-45
000330 28 70 b2 41 ef d0 b9 41 84 f8 b8 41 69 84 b6 41
       22.304764 23.227018 23.121346 22.814653
000340 45 07 ba 41 9f 1a b0 41 04 00 00 80 04 00 00 80
       23.25355 22.012999 -6e-45 -6e-45
000350 a2 90 bc 41 e1 21 b8 41 04 00 00 80 04 00 00 80
       23.570621 23.016542 -6e-45 -6e-45
000360 c7 8a bf 41 e9 dc b5 41 64 e7 ba 41 04 00 00 80
       23.942762 22.732866 23.362984 -6e-45
000370 1f 9c bb 41 af cf b9 41 04 00 00 80 04 00 00 80
       23.451231 23.226408 -6e-45 -6e-45
000380 94 30 9c 41 c3 65 9f 41 04 00 00 80 04 00 00 80
       19.52372 19.924688 -6e-45 -6e-45
000390 04 00 00 80 0f cc 9f 41 66 5b a1 41 04 28 a0 41
       -6e-45 19.974638 20.169628 20.019539
0003a0 04 00 00 80 04 00 00 80 10 d2 a4 41 04 00 00 80
       -6e-45 -6e-45 20.60257 -6e-45
0003b0 6f e2 9b 41 f9 00 a3 41 f4 79 a2 41 c3 b2 9f 41
       19.485563 20.375475 20.309547 19.962286
0003c0 88 06 a3 41 a1 2d 9a 41 04 00 00 80 04 00 00 80
       20.37819 19.27228 -6e-45 -6e-45
0003d0 10 1a a5 41 c0 40 a1 41 04 00 00 80 04 00 00 80
       20.637726 20.156616 -6e-45 -6e-45
0003e0 7e 82 a7 41 1d 9b 9f 41 01 86 a3 41 04 00 00 80
       20.938717 19.950739 20.440432 -6e-45
0003f0 63 f1 a4 41 43 0e a3 41 04 00 00 80 04 00 00 80
       20.617865 20.381964 -6e-45 -6e-45

exp_avg_sq f4 [10, 32]
000000 37 46 3a 47 31 73 42 47 40 5a 45 3b b9 37 24 3d
       47686.215 49779.19 0.0030113608 0.040092204
000010 cb 8c c6 3b bb ce 42 47 0b 53 47 47 55 4c 48 47
       0.0060592643 49870.73 51027.043 51276.332
000020 c2 93 91 3b e0 07 42 3b c6 59 51 47 1a 26 80 3c
       0.004442663 0.0029606745 53593.773 0.015643168
000030 e8 fb 3b 47 c1 8b 4b 47 43 03 4a 47 ae 5a 44 47
       48123.906 52107.754 51715.26 50266.68
000040 8c 34 4c 47 65 c6 33 47 06 38 a7 38 bc 1a dc 3d
       52276.547 46022.395 7.973616e-05 0.10747287
000050 d9 cc 53 47 6b aa 49 47 31 89 2d 3d 11 89 96 3c
       54220.848 51626.418 0.042367164 0.018375905
000060 30 da 5a 47 dd f7 43 47 fe ce 4d 47 5b 26 65 3d
       56026.188 50167.863 52686.992 0.05594478
000070 04 33 4e 47 5e e1 4a 47 b1 2e a3 3a c7 52 3d 3d
       52787.016 51937.367 0.0012449828 0.04622152
000080 b6 23 de 46 61 bd e6 46 97 10 3a 3b 15 2c 27 3d
       28433.855 29534.69 0.0028391236 0.040813524
000090 6a cc c8 3b 32 c2 e7 46 dc 66 ed 46 e9 0e ec 46
       0.0061278837 29665.098 30387.43 30215.455
0000a0 f0 9f 92 3b 82 b7 40 3b 07 0f f8 46 47 1f 86 3c
       0.0044746324 0.0029406254 31751.514 0.016372336
0000b0 25 94 df 46 d6 6d f2 46 05 ab f0 46 76 da e6 46
       28618.072 31030.918 30805.51 29549.23
0000c0 5f e5 f2 46 47 5c d6 46 7e fc ae 38 43 17 d1 3d
       31090.686 27438.139 8.343997e-05 0.10209515
0000d0 33 4c fc 46 44 f0 ef 46 de a4 2d 3d 1a fd 90 3c
       32294.1 30712.133 0.042393558 0.017698813
0000e0 c0 69 02 47 8a 3e e8 46 eb 03 f5 46 be 72 69 3d
       33385.75 29727.27 31361.959 0.056994192
0000f0 c7 d6 f5 46 f6 53 f1 46 ba c9 a5 3a 8d 03 34 3d
       31467.389 30889.98 0.001264862 0.0439487
000100 b8 09 c7 46 cf 8f ce 46 72 5c 28 3b a0 75 1f 3d
       25476.86 26439.904 0.0025689867 0.038930535
000110 6d f6 ca 3b 61 9f cf 46 11 ab d4 46 56 99 d2 46
       0.006193927 26575.69 27221.533 26956.668
000120 98 49 90 3b b1 f1 36 3b 6b d1 dd 46 4e fa 84 3c
       0.0044033043 0.0027915055 28392.709 0.016232636
000130 70 42 c8 46 8c 34 d9 46 4f b7 d7 46 fd e1 cd 46
       25633.219 27802.273 27611.654 26352.994
000140 0b 7f d9 46 df 26 c0 46 e0 4a af 38 e5 18 c5 3d
       27839.521 24595.436 8.358597e-05 0.09623889
000150 39 05 e2 46 6b df d6 46 12 93 26 3d b0 d0 87 3c
       28930.611 27503.709 0.0406676 0.016579002
000160 d6 cd e9 46 2e c1 cf 46 dd 7c db 46 01 58 60 3d
       29926.918 26592.59 28094.432 0.054771427
000170 ac 50 dc 46 3b 19 d8 46 18 5f ac 3a a1 c7 30 3d
       28200.336 27660.615 0.0013150899 0.04315913
000180 74 a0 b7 46 57 83 be 46 55 ca 1c 3b 66 e4 24 3d
       23504.227 24385.67 0.002392431 0.04025688
000190 20 bd d7 3b 77 89 bf 46 ef 35 c4 46 e4 e1 c1 46
       0.0065838248 24516.732 25114.967 24816.945
0001a0 84 2e 9e 3b 19 6d 33 3b cd 71 cc 46 4b 32 8f 3c
       0.0048273224 0.002737826 26168.9 0.017480036
0001b0 54 c8 b8 46 2d 77 c8 46 39 1d c7 46 5f 86 bd 46
       23652.164 25659.588 25486.611 24259.186
0001c0 d1 b5 c8 46 b3 60 b1 46 48 46 b5 38 b0 8f cc 3d
       25690.908 22704.35 8.6438435e-05 0.09988344
0001d0 24 a3 d0 46 9d 4e c6 46 32 b8 29 3d 96 f9 90 3c
       26705.57 25383.307 0.041435428 0.017697137
0001e0 f5 d2 d7 46 ab 8c bf 46 2f a0 ca 46 f0 c3 67 3d
       27625.479 24518.334 25936.092 0.056583345
0001f0 57 54 cb 46 07 6a c7 46 02 dc bb 3a 69 84 36 3d
       26026.17 25525.014 0.0014332535 0.04455987
000200 ab 13 9d 46 d9 22 a3 46 77 ce 08 3b 55 08 1a 3d
       20105.834 20881.424 0.0020875016 0.037605602
000210 91 bd cb 3b c8 de a3 46 4e aa a7 46 b5 f7 a6 46
       0.0062176664 20975.39 21461.152 21371.854
000220 19 d5 9d 3b 10 eb 23 3b fe ad af 46 bd 94 8c 3c
       0.004816663 0.0025011934 22486.996 0.017160768
000230 bf 07 9e 46 89 5d ab 46 b1 2b aa 46 ef db a3 46
       20227.873 21934.768 21781.846 20973.967
000240 05 bd ab 46 a8 b0 97 46 98 d0 b1 38 aa 2d bf 3d
       21982.51 19416.328 8.478871e-05 0.093348816
000250 ba 45 b2 46 75 8a a9 46 81 a5 1a 3d fc 75 69 3c
       22818.863 21701.229 0.037755493 0.014249321
000260 b0 41 b8 46 e2 67 a4 46 fb 6c ad 46 08 d1 58 3d
       23584.844 21043.941 22198.49 0.052933723
000270 76 e7 ad 46 11 ae aa 46 58 9b ba 3a a2 10 2e 3d
       22259.73 21847.033 0.001423697 0.04249633
000280 be 6b 93 46 35 56 99 46 0f da e8 3a 96 80 02 3d
       18869.871 19627.104 0.0017765182 0.03186091
000290 f8 04 b3 3b d8 d9 99 46 f6 52 9d 46 30 af 9d 46
       0.005463239 19692.922 20137.48 20183.594
0002a0 07 86 8d 3b d9 0b 07 3b 64 97 a5 46 0f 11 78 3c
       0.004318956 0.0020606427 21195.695 0.015140786
0002b0 90 49 94 46 1c c4 a0 46 9c 92 9f 46 d2 2a 9b 46
       18980.781 20578.055 20425.305 19861.41
0002c0 7f 47 a1 46 70 4f 8e 46 7f e9 ab 38 f4 22 96 3d
       20643.748 18215.719 8.1974074e-05 0.073308855
0002d0 c3 34 a7 46 81 15 9f 46 42 f9 f7 3c 3a 37 42 3c
       21402.38 20362.752 0.030270223 0.011853987
0002e0 c3 bb ac 46 22 e9 9a 46 98 e4 a2 46 ad c2 35 3d
       22109.88 19828.566 20850.297 0.04437511
0002f0 7f 3d a3 46 05 32 a0 46 de 89 a6 3a bb bc 0b 3d
       20894.748 20505.01 0.0012705883 0.034115534
000300 34 42 91 46 23 a4 96 46 03 3e 00 3b dd f7 1c 3d
       18593.102 19282.068 0.0019568212 0.03832232
000310 0b ff cc 3b dc 7d 97 46 25 23 9b 46 ff 31 99 46
       0.0062559894 19390.93 19857.572 19608.998
000320 f6 da a1 3b 21 16 2f 3b a0 76 a1 46 6d 51 93 3c
       0.0049394323 0.002671607 20667.312 0.017983163
000330 50 20 92 46 1a 81 9e 46 50 81 9d 46 fb 76 95 46
       18704.156 20288.55 20160.656 19131.49
000340 a7 b8 9e 46 c7 36 8c 46 dd 56 c8 38 32 f6 c0 3d
       20316.326 17947.389 9.552923e-05 0.09421958
000350 46 0b a5 46 ab e5 9c 46 7e 1c 16 3d ca 70 65 3c
       21125.637 20082.834 0.036648266 0.014003942
000360 05 a9 aa 46 ec 57 97 46 d0 1d a0 46 de f7 5f 3d
       21844.51 19371.96 20494.906 0.054679744
000370 f3 a9 a0 46 e1 ad 9d 46 e4 ab af 3a 27 2c 2f 3d
       20564.975 20182.94 0.0013402668 0.042766716
000380 52 fd 94 46 51 9b 9a 46 55 4f f5 3a e5 d7 19 3d
       19070.66 19789.658 0.0018715659 0.03755941
000390 65 40 c6 3b d2 6a 9b 46 56 1e 9f 46 ec a0 9d 46
       0.006050157 19893.41 20367.168 20176.46
0003a0 e8 07 9d 3b 4a fd 2f 3b 02 e8 a5 46 dc 72 8f 3c
       0.0047922023 0.0026853853 21236.004 0.017510824
0003b0 15 e6 95 46 7d 90 a2 46 e0 72 a1 46 48 ff 99 46
       19187.041 20808.244 20665.438 19711.64
0003c0 45 d6 a2 46 94 c8 8f 46 9c 17 c1 38 62 2d b9 3d
       20843.135 18404.29 9.207355e-05 0.09041859
0003d0 f2 34 a9 46 28 d4 a0 46 23 01 0f 3d 1c 55 68 3c
       21658.473 20586.078 0.034913193 0.014180448
0003e0 3a fb ae 46 20 6f 9b 46 31 41 a4 46 c1 1b 5c 3d
       22397.613 19895.562 21024.596 0.053737406
0003f0 bc bb a4 46 dd ba a1 46 8a 71 ae 3a be ff 2a 3d
       21085.867 20701.432 0.0013308984 0.0417478

exp_avg f4 [10]
000000 a1 ae 98 40 a7 d0 43 40 cb d1 1e 40 e2 33 e4 3f
       4.771317 3.0596101 2.4815547 1.7828333
000010 58 15 a8 3f 9e d6 6b 3f 51 14 30 3f 9e b9 18 3f
       1.3131514 0.92124355 0.68781 0.5965823
000020 ab 15 de 3e 9b 91 27 3f
       0.43375906 0.6545655

exp_avg_sq f4 [10]
000000 23 97 6a 42 0b a7 24 42 3e 4a 19 42 27 ff 11 42
       58.647594 41.163128 38.322502 36.499172
000010 e6 fc eb 41 0a 79 c2 41 94 f7 ef 41 e1 a3 ea 41
       29.498486 24.309101 29.995888 29.330019
000020 7e 62 f0 41 02 37 58 42
       30.048092 54.05372
