code/2021-04-12_17-45.pth (torch, 20083 bytes, 18 tensors)

encoder.maxpool_conv.0.0.weight f4 [1, 1, 2, 50]
-0.027578564 0.0480718 0.07055811 0.094737224 -0.026376644 -0.09273635 0.017429676 -0.036090758
-0.010803145 0.051088717 0.055014342 -0.078960136 0.016058866 0.023237918 -0.053435422 -0.033246055
0.060732998 0.100891784 -0.037794434 -0.011750923 0.016256308 -0.009113577 -0.07173057 0.0308465
0.11152001 0.010295996 0.067182794 0.05461063 -0.00985664 -0.110978834 -0.013135256 -0.056092538
0.09034753 -0.00035640225 -0.098058596 -0.073144756 0.021737158 -0.034908973 0.10539672 -0.054954268
-0.04222956 -0.08860706 0.0015633834 -0.026994556 0.12418515 -0.08041251 -0.044524867 -0.093405195
0.073529795 0.126594 -0.055406407 0.0741229 0.07858233 -0.03109126 -0.08079176 0.08252596
0.06746565 -0.02137725 0.069352895 -0.12800826 -0.0657457 -0.02692769 0.036984324 -0.060397714
-0.051429633 0.0010481601 0.010735098 -0.069882184 0.03988801 0.015362521 -0.013901501 -0.031825986
-0.03825022 -0.015266178 -0.012938786 0.074687265 0.059622098 0.013096236 0.050755292 -0.018167024
-0.040280644 0.069086894 0.023223575 -0.03088842 -0.05937175 -0.03975229 0.016177433 0.09683157
-0.06712538 -0.038218938 -0.09870827 -0.057052284 0.06571604 0.018179743 -0.06440165 0.08440505
0.0151976785 0.022440009 0.10207899 0.0727766
00000000: 71ec e1bc f0e6 443d c580 903d 9705 c23d
00000010: d513 d8bc 8eec bdbd aec8 8e3c e7d3 13bd
00000020: adff 30bc 6742 513d b856 613d dab5 a1bd
00000030: e28d 833c 725d be3c 1adf 5abd 042d 08bd
00000040: 2ac3 783d 5aa0 ce3d 56ce 1abd f186 40bc
00000050: f32b 853c 1d51 15bc 7ae7 92bd cdb1 fc3c
00000060: 9a64 e43d 8ab0 283c 2297 893d 65af 5f3d
00000070: bf7d 21bc df48 e3bd 4235 57bc 4ac1 65bd
00000080: 2008 b93d 80db bab9 f2d2 c8bd ebcc 95bd
00000090: 2012 b23c b6fc 0ebd 3cda d73d ba17 61bd
000000a0: e7f8 2cbd 9e77 b5bd 71ea cc3a b023 ddbc
000000b0: c954 fe3d 50af a4bd b55f 36bd 394b bfbd
000000c0: ca96 963d dca1 013e d4f1 62bd bfcd 973d
000000d0: c6ef a03d 19b3 febc 2676 a5bd 5f03 a93d
000000e0: 6e2b 8a3d 581f afbc e408 8e3d 9914 03be
000000f0: aea5 86bd 7597 dcbc e07c 173d 9863 77bd
00000100: e1a7 52bd 6b62 893a 44e2 2f3c 641e 8fbd
00000110: 9c61 233d 15b3 7b3c 1fc3 63bc f75b 02bd
00000120: 43ac 1cbd fe1e 7abc 34fd 53bc a3f5 983d
00000130: 4d36 743d 9891 563c c8e4 4f3d 03d3 94bc
00000140: 51fd 24bd 6e7d 8d3d 5e3f be3c b609 fdbc
00000150: cb2f 73bd 4cd3 22bd 8986 843c a14f c63d
00000160: 0879 89bd 768b 1cbd 9027 cabd a8af 69bd
00000170: 2296 863d afed 943c 03e5 83bd 8edc ac3d
00000180: afff 783c 1cd4 b73c ca0e d13d e60b 953d

encoder.maxpool_conv.2.0.weight f4 [1, 1, 2, 50]
-0.058012187 0.07650889 0.09484325 -0.042853937 0.07145875 -0.093291715 0.031096708 0.05894216
-0.029985758 0.0734117 0.028319487 -0.04673819 0.04145324 0.030735113 -0.03264059 0.019389233
-0.01961991 -0.010810489 -0.029618109 -0.10486611 0.020618081 -0.00417776 -0.051794652 -0.1194123
0.00072675996 0.05843433 0.014537572 0.0691592 0.05859509 0.08056419 0.04679068 -0.022301534
0.09623663 0.028265374 -0.023446187 -0.017038003 0.040745806 0.098755926 0.090533994 0.059117157
-0.023958625 0.102043904 0.017472062 0.049485613 0.016919257 0.07579629 0.09071246 -0.015028931
0.1030835 0.1159508 0.060693365 -0.043292683 0.046358455 -0.054287236 0.08632598 -0.023227753
0.028695444 0.011764056 -0.089897335 0.0055807866 -0.005003993 -0.067025654 0.01693888 -0.03406618
-0.0761206 0.031993028 0.011616903 0.017686388 0.08853084 0.010911086 -0.017457474 0.07884086
0.074941814 -0.026985234 0.029446939 0.02832619 -0.09212321 -0.070798 0.023856554 0.08537526
-0.08738536 -0.009197374 0.062058683 -0.053862832 0.064816244 0.077708565 -0.037506234 0.07669314
-0.03572334 -0.00835583 0.09857543 0.098134466 -0.051484805 0.04554057 -0.004534928 -0.029249739
0.09014748 -0.058916744 -0.032642208 0.13710365
00000000: 309e 6dbd b1b0 9c3d 2e3d c23d 9c87 2fbd
00000010: f758 923d ba0f bfbd 86be fe3c 566d 713d
00000020: b1a4 f5bc e058 963d 45fe e73c 8b70 3fbd
00000030: dfca 293d 34c8 fb3c 24b2 05bd 2bd6 9e3c
00000040: efb9 a0bc 7a1e 31bc ada1 f2bc 0bc4 d6bd
00000050: 40e7 a83c 97e5 88bb a126 54bd 708e f4bd
00000060: 0984 3e3a d658 6f3d ff2e 6e3c 57a3 8d3d
00000070: 6801 703d d7fe a43d 96a7 3f3d b5b1 b6bc
00000080: b617 c53d c98c e73c 3812 c0bc 4893 8bbc
00000090: 13e5 263d 8c40 ca3d e369 b93d d524 723d
000000a0: e144 c4bc 65fc d03d 9221 8f3c 6db1 4a3d
000000b0: 419a 8a3c 163b 9b3d 74c7 b93d e83b 76bc
000000c0: 711d d33d 9d77 ed3d 9b99 783d ab53 31bd
000000d0: 5de2 3d3d 4b5c 5ebd adcb b03d 2148 bebc
000000e0: b512 eb3c 07be 403c 181c b8bd 08df b63b
000000f0: 89f8 a3bb bf44 89bd 68c3 8a3c fb88 0bbd
00000100: 1ee5 9bbd 1f0b 033d d354 3e3c 0be3 903c
00000110: a84f b53d 69c4 323c fa02 8fbc 5177 a13d
00000120: 187b 993d 2310 ddbc b53a f13c 530c e83c
00000130: 18ab bcbd 8bfe 90bd d26e c33c 39d9 ae3d
00000140: 18f7 b2bd 95b0 16bc 3f31 7e3d 469f 5cbd
00000150: 61be 843d ab25 9f3d 23a0 19bd 4b11 9d3d
00000160: a352 12bd e4e6 08bc eae1 c93d b9fa c83d
00000170: bbe1 52bd c088 3a3d bc99 94bb 269d efbc
00000180: 3e9f b83d af52 71bd d6b3 05bd e664 0c3e

decoder.linear1.weight f4 [32, 4]
0.07751981 0.51164013 0.2752361 -0.38321388 0.53436065 0.38554704 0.5639471 0.4284508
-0.33297998 -0.23127699 0.03842727 -0.34467474 -0.24252701 -0.005417679 -0.08266019 -0.27303505
-0.3789152 -0.19913243 -0.33128548 -0.14909309 0.102091625 0.4436715 0.3101603 -0.19206564
0.18331453 0.20450541 0.06392917 -0.2573751 -0.022460362 -0.17172803 0.4942886 0.27455693
-0.07235475 0.3292251 0.31408885 -0.03592034 -0.32927635 0.23895526 -0.39199275 -0.27647662
0.582538 0.5109816 0.076058894 -0.04669195 -0.18002002 0.032761205 0.22709578 -0.30549923
0.08653649 0.44863144 -0.3793787 -0.63302463 -0.09303016 0.28540584 -0.4197899 0.29625326
0.04064661 0.19477847 0.3278954 -0.24978071 -0.36980668 0.54216456 0.6331527 -0.12196964
0.047938082 0.080711015 0.3123168 0.2838965 0.5687561 0.48490196 0.26816228 0.21105021
-0.020617127 -0.3245927 -0.36189938 -0.24904478 0.44794482 0.32142177 -0.36623546 0.5146955
0.15504256 -0.036399078 0.45144293 0.24714023 0.14097531 0.2589995 -0.33917442 -0.3370808
0.13257398 0.12806669 -0.26195762 -0.19815174 0.57194245 0.49147052 -0.31911176 0.4601862
-0.10949775 0.0029868623 0.03811937 -0.4018805 0.55996895 -0.16735218 -0.019612934 -0.09460147
0.33712578 0.2723198 0.22025622 -0.45356646 -0.186528 0.3389423 -0.32570255 -0.26367024
-0.20908415 0.10132727 -0.2764553 -0.25644356 -0.48412097 -0.34438044 0.20269388 -0.08752096
0.1945981 0.11649911 0.26337084 0.5188041 0.48802364 0.28448823 0.30907527 -0.60317135
00000000: b5c2 9e3d d9fa 023f bfeb 8c3e 9c34 c4be
00000010: dccb 083f 6c66 c53e d65e 103f e75d db3e
00000020: 5a7c aabe e0d3 6cbe ea65 1d3d 3579 b0be
00000030: 0059 78be c986 b1bb bf49 a9bd 40cb 8bbe
00000040: 2c01 c2be 5fe9 4bbe 409e a9be dcab 18be
00000050: 6a15 d13d e928 e33e 55cd 9e3e dbac 44be
00000060: ceb6 3b3e de69 513e 4ced 823d abc6 83be
00000070: cbfe b7bc 79d9 2fbe 6513 fd3e ba92 8c3e
00000080: ba2e 94bd 3190 a83e 41d0 a03e 3521 13bd
00000090: e996 a8be b0b0 743e 46b3 c8be 588e 8dbe
000000a0: 3621 153f b1cf 023f c4c4 9b3d 0f40 3fbd
000000b0: 2b57 38be 9d30 063d cc8b 683e 656a 9cbe
000000c0: 0b3a b13d 05b3 e53e ed3d c2be e70d 22bf
000000d0: 9986 bebd b720 923e b4ee d6be 82ae 973e
000000e0: 0f7d 263d 0274 473e e8e1 a73e 84c6 7fbe
000000f0: 4d57 bdbe 4ccb 0a3f 4c16 223f 38cb f9bd
00000100: b95a 443d d14b a53d fde7 9f3e e25a 913e
00000110: 009a 113f 1245 f83e 914c 893e 8c1d 583e
00000120: 40e5 a8bc 0431 a6be e04a b9be 9805 7fbe
00000130: 0659 e53e 6591 a43e 3783 bbbe 16c3 033f
00000140: 7ac3 1e3e 3317 15bd 8723 e73e 5412 7d3e
00000150: d55b 103e 959b 843e 45a8 adbe db95 acbe
00000160: 79c1 073e ea23 033e 4f1f 86be 4ae8 4abe
00000170: d26a 123f 06a2 fb3e 9e62 a3be 879d eb3e
00000180: 5b40 e0bd 3cbf 433b 0e23 1c3d 48c3 cdbe
00000190: 205a 0f3f 5f5e 2bbe 4eab a0bc 6abe c1bd
000001a0: c09b ac3e 806d 8b3e d98a 613e dd39 e8be
000001b0: 3201 3fbe d889 ad3e 7cc2 a6be c9ff 86be
000001c0: 281a 56be ac84 cf3d 8d8b 8dbe 924c 83be
000001d0: b4de f7be a252 b0be fc8e 4f3e 303e b3bd
000001e0: b944 473e 1697 ee3d 8bd8 863e 58d0 043f
000001f0: 3cde f93e 71a8 913e 1d3f 9e3e 7069 1abf

decoder.linear1.bias f4 [32]
-0.30862942 -0.11144887 0.41151157 0.3412848 0.54775745 -0.35351503 -0.41223285 -0.18849565
-0.47849175 0.5097 -0.24516128 0.63994676 -0.27368367 0.10308875 0.06853112 -0.3390773
-0.00016890309 -0.08999617 -0.17214644 -0.3722178 0.18506005 0.14015214 0.38209254 0.47588506
0.44119468 -0.33919308 -0.45637986 0.56908107 0.09022291 -0.42103553 0.000128361 -0.45564598
00000000: ad04 9ebe 4e3f e4bd a5b1 d23e e2bc ae3e
00000010: d539 0c3f ecff b4be 2f10 d3be 0105 41be
00000020: dffc f4be b37b 023f 8f0b 7bbe 8dd3 233f
00000030: 4420 8cbe 3220 d33d 0b5a 8c3d 8a9b adbe
00000040: 941b 31b9 e94f b8bd 2847 30be 5593 bebe
00000050: 6280 3d3e 0b84 0f3e a2a1 c33e 35a7 f33e
00000060: 45e4 e13e b7aa adbe 9faa e9be 4caf 113f
00000070: cac6 b83d f891 d7be a598 0639 6e4a e9be

decoder.linear2.weight f4 [10, 32]
0.025945306 -0.06122687 -0.16920984 -0.027756352 -0.1211443 0.22582854 -0.031282637 0.04220445
0.21470876 -0.1806505 0.24129423 -0.23482509 -0.08116199 0.17709851 -0.10385705 0.054497443
0.17429867 0.044201765 -0.020195315 0.1604348 -0.07665301 -0.110454455 0.09066151 0.17623726
-0.11962969 0.18246832 0.079453126 -0.17156765 -0.1547182 -0.09824936 0.22002801 -0.04752645
0.016344093 0.14697912 -0.03675697 -0.068969354 -0.19739458 0.23246595 0.013879766 -0.10001936
-0.0688767 -0.2940815 0.14426495 -0.16009316 -0.08898041 -0.12358604 0.019417055 0.1267218
-0.08172286 0.012509199 0.0036420566 0.031215154 0.22244541 0.004373736 -0.112128176 0.20304754
-0.07900412 0.22245137 0.12203264 -0.32099214 -0.08484164 0.02003716 -0.00456651 0.18923514
0.20712635 0.17976007 -0.10164189 -0.08703627 -0.15757066 0.24959633 0.24185382 0.1002385
0.21701302 -0.23521313 -0.032332398 -0.16044605 0.022953393 -0.10405781 -0.11800268 0.11343429
0.09746185 0.2268607 -0.104652606 0.03954371 -0.014629706 0.04266739 -0.17096649 0.081670836
-0.1615807 -0.018791081 0.015292681 -0.26832044 -0.009013336 0.007611257 -0.062134285 -0.012981028
-0.032587044 0.08203783 -0.1802222 -0.1147132 -0.20438673 -0.07637657 -0.076736584 0.1286688
0.15379591 -0.08043644 0.2251873 -0.27389765 0.08187476 0.12359419 -0.11365552 0.028509231
0.17657304 0.09260644 0.096407376 0.13890481 0.034741808 -0.026803965 -0.12428257 0.06942138
0.029421283 -0.10011076 -0.10181836 -0.14974093 0.015267645 0.17586878 0.20728922 -0.14321226
-0.15312086 0.15663376 -0.13711168 -0.21220635 0.034608018 0.08001871 -0.1233365 0.09337172
0.103559904 0.012289892 0.06562064 -0.11143047 -0.045884944 0.14795476 0.17178944 0.044193286
-0.003374391 0.12478302 -0.020663757 0.17078707 -0.012212895 -0.20504196 0.057535235 -0.14144683
-0.18779892 0.026887223 -0.036632948 -0.20847626 -0.23525026 0.0217224 0.23078942 -0.1468232
-0.16226234 0.17419334 -0.014534973 -0.13623595 -0.09656785 0.07333232 -0.12342156 0.1489362
-0.043244045 -0.11359224 0.10802862 0.13521323 -0.089596696 0.0019281018 -0.09448044 -0.20034656
0.1293813 0.12652744 0.111890376 0.047438797 0.08658723 -0.112406455 -0.1668351 -0.12798816
-0.014646558 -0.04534796 -0.035755973 0.07805447 0.030731086 -0.16627595 0.13704686 -0.18530625
-0.029376449 -0.06783567 -0.060097918 0.004026618 0.022535251 -0.11038115 0.040890142 0.13094385
-0.14714804 -0.0040074233 0.072871946 0.010418234 0.24066266 -0.022403214 0.14078628 0.01567163
0.1360002 -0.03071094 0.12651618 -0.106230244 0.21574022 -0.06899488 -0.18933761 0.08096752
-0.2185268 0.062352143 0.08134918 -0.17367339 -0.26899728 -0.0030171664 0.19544296 0.11719005
-0.065943 0.095053814 -0.05588415 -0.10306706 0.0028458526 -0.1390897 -0.035979234 0.013660002
-0.18958654 -0.019384785 0.11353502 0.15891096 0.0924773 0.04817369 -0.015713256 0.08477016
0.18786639 0.040830057 0.15923433 0.058094475 0.058083 0.043730296 -0.06550896 0.026349638
-0.120954655 -0.11904363 0.0040334454 0.07124687 -0.048216857 0.12088226 0.06268996 -0.044676054
00000000: 408b d43c 07c9 7abd 5845 2dbe 4a61 e3bc
00000010: 811a f8bd 993f 673e 3922 00bd 93de 2c3d
00000020: 9ddc 5b3e 72fc 38be d615 773e fd75 70be
00000030: 4238 a6bd 5059 353e 01b3 d4bd b638 5f3d
00000040: 5a7b 323e e90c 353d a570 a5bc 0549 243e
00000050: 41fc 9cbd f235 e2bd beac b93d 8a77 343e
00000060: 6900 f5bd fad8 3a3e 52b8 a23d 6eaf 2fbe
00000070: 736e 1ebe f636 c9bd 064f 613e 18ab 42bd
00000080: 0ce4 853c b281 163e 7a8e 16bd ce3f 8dbd
00000090: ce21 4abe 8e0b 6e3e f567 633c f3d6 ccbd
000000a0: 3a0f 8dbd da91 96be 31ba 133e 76ef 23be
000000b0: 5c3b b6bd ae1a fdbd 8410 9f3c 5cc3 013e
000000c0: 515e a7bd 62f3 4c3c 92af 6e3b ecb6 ff3c
000000d0: bbc8 633e 8f51 8f3b 75a3 e5bd b2eb 4f3e
000000e0: e9cc a1bd 4bca 633e 40ec f93d 1559 a4be
000000f0: 74c1 adbd f824 a43c aaa2 95bb dbc6 413e
00000100: ee18 543e 0613 383e a029 d0bd 1240 b2bd
00000110: 345a 21be 2e96 7f3e 87a8 773e d849 cd3d
00000120: a938 5e3e b6db 70be fa6e 04bd f84b 24be
00000130: c108 bc3c 431c d5bd 64ab f1bd 3d50 e83d
00000140: 149a c73d 2c4e 683e 1b54 d6bd 96f8 213d
00000150: 6fb1 6fbc 00c4 2e3d d711 2fbe 0a43 a73d
00000160: 6975 25be c1ef 99bc 278e 7a3c 4c61 89be
00000170: acac 13bc da67 f93b 8580 7ebd 61ae 54bc
00000180: fe79 05bd 7303 a83d 2b8c 38be c1ee eabd
00000190: c14a 51be 526b 9cbd 1228 9dbd c1c1 033e
000001a0: ad7c 1d3e dcbb a4bd 8097 663e 503c 8cbe
000001b0: f4ad a73d f31e fd3d 3ac4 e8bd 318c e93c
000001c0: 90cf 343e 72a8 bd3d 3b71 c53d 103d 0e3e
000001d0: 6d4d 0e3d fd93 dbbc dc87 febd cc2c 8e3d
000001e0: e704 f13c df06 cdbd 2586 d0bd b055 19be
000001f0: 2525 7a3c f216 343e a043 543e 3ca6 12be
00000200: b7cb 1cbe 9a64 203e 0167 0cbe 9f4c 59be
00000210: 23c1 0d3d d9e0 a33d d997 fcbd ac39 bf3d
00000220: 3717 d43d 8b5b 493c 1d64 863d a935 e4bd
00000230: daf1 3bbd 7481 173e 92e9 2f3e 0504 353d
00000240: e324 5dbb 3d8e ff3d 0a47 a9bc cee2 2e3e
00000250: 9818 48bc 85f6 51be 11aa 6b3d 70d7 10be
00000260: 5c4e 40be 9842 dc3c 6e0c 16bd cd7a 55be
00000270: 72e5 70be 2df3 b13c 1054 6c3e d258 16be
00000280: 1928 26be bd5f 323e 1824 6ebc 7081 0bbe
00000290: 5dc5 c5bd 412f 963d 71c4 fcbd bb82 183e
000002a0: ab20 31bd 0ca3 e8bd 1c3e dd3d 5675 0a3e
000002b0: 797e b7bd 5cb8 fc3a f67e c1bd a627 4dbe
000002c0: 887c 043e 6990 013e c826 e53d 2f4f 423d
000002d0: a554 b13d 5b35 e6bd d2d6 2abe 540f 03be
000002e0: 1ef8 6fbc c8be 39bd db74 12bd 06db 9f3d
000002f0: c2bf fb3c 3e44 2abe 0356 0c3e ecc0 3dbe
00000300: e1a6 f0bc 6eed 8abd 3c29 76bd b8f1 833b
00000310: d99b b83c 830f e2bd 6c7c 273d 2516 063e
00000320: faad 16be b450 83bb e33d 953d 3eb1 2a3c
00000330: 4670 763e f286 b7bc 472a 103e ca61 803c
00000340: a343 0b3e 8295 fbbc 758d 013e 3e8f d9bd
00000350: 01eb 5c3e 304d 8dbd b8e1 41be 4dd2 a53d
00000360: 7dc5 5fbe f664 7f3d 669a a63d 70d7 31be
00000370: 03ba 89be a7bb 45bb 3322 483e 5601 f03d
00000380: 200d 87bd 93ab c23d c7e6 64bd d314 d3bd
00000390: 7c81 3a3b 886d 0ebe f65e 13bd 33ce 5f3c
000003a0: f922 42be d7cc 9ebc 0c85 e83d 8eb9 223e
000003b0: bd64 bd3d c651 453d 16b9 80bc fa9b ad3d
000003c0: 0c60 403e 6b3d 273d 530e 233e 79f4 6d3d
000003d0: 71e8 6d3d 8a1e 333d 9029 86bd 32db d73c
000003e0: 13b7 f7bd 26cd f3bd fe2a 843b e1e9 913d
000003f0: 0a7f 45bd 1e91 f73d 9863 803d 3dfe 36bd

decoder.linear2.bias f4 [10]
0.09361415 -0.17026114 -0.048174087 -0.11964757 -0.008548947 -0.0819177 0.085934 -0.068062864
0.14550415 0.102567635
00000000: c7b8 bf3d f058 2ebe 3152 45bd c909 f5bd
00000010: e210 0cbc 78c4 a7bd 2afe af3d 8b64 8bbd
00000020: 0aff 143e fb0e d23d

exp_avg f4 [1, 1, 2, 50]
0.00052864995 0.00037760238 0.00018582049 0.00023509956 0.00012638097 0.0003334775 0.00019656833 0.00033812269
0.00022100798 0.00014569834 0.0003701169 0.00038148777 0.00043427575 0.0003752056 0.00058796705 0.0007377977
0.0008525081 0.000854601 0.0008925269 0.0011892039 0.00090608443 0.0005377165 0.0006040688 0.00037419458
0.0008039529 0.0005721053 0.0010095097 0.0013358527 0.0014759423 0.0011381232 0.000919529 0.0007901842
0.00065474136 0.0007361789 0.000652667 0.00042562638 0.00032065058 0.00035793724 0.00029952123 0.0001637031
0.00016928052 0.0001284737 -0.0003130204 -0.00032048143 5.959206e-05 0.00021848388 0.0002386621 0.00015720788
-5.3508443e-06 -0.0005085569 0.0005546331 0.00048149712 0.0004280645 0.00034547035 0.00016100214 0.00038763793
0.00038462103 0.0006243314 0.0003509489 0.00031705794 0.0004380354 0.00042993244 0.0004969514 0.0005602103
0.00082935544 0.0007595378 0.00085971365 0.0008271653 0.0010895703 0.0013455262 0.0010226262 0.00073118554
0.000704159 0.0005009483 0.0009999537 0.0009469549 0.0011866689 0.0015203736 0.001467086 0.0011636453
0.0010060662 0.00085691834 0.0007964093 0.0008950582 0.0006619086 0.0004680792 0.0005318116 0.00042708253
0.00037166293 0.0002761939 0.00013268203 0.00031710987 -0.00018106762 -0.0002167972 0.00020811903 0.0004518075
0.00035746212 0.00021476667 1.6239792e-05 -0.0005729156
00000000: 1995 0a3a eff8 c539 cfd8 4239 0f85 7639
00000010: 2285 0439 98d6 ae39 e91d 4e39 0f46 b139
00000020: 61be 6739 9ac6 1839 400c c239 6c02 c839
00000030: 81af e339 3eb7 c439 cd21 1a3a c468 413a
00000040: da7a 5f3a 4d07 603a 77f8 693a 10df 9b3a
00000050: 4c86 6d3a 8bf5 0c3a 5f5a 1e3a 8c2f c439
00000060: 5ec0 523a 56f9 153a 8651 843a c717 af3a
00000070: 6874 c13a 142d 953a 8c0c 713a 5d24 4f3a
00000080: f3a2 2b3a 21fc 403a be17 2b3a 9b26 df39
00000090: fe1c a839 86a9 bb39 0f09 9d39 b7a7 2b39
000000a0: e580 3139 e5b6 0639 e31c a4b9 4a06 a8b9
000000b0: 7df2 7938 d218 6539 5f41 7a39 2bd8 2439
000000c0: 678b b3b6 ad50 05ba cc64 113a 7371 fc39
000000d0: d86d e039 3f20 b539 afd2 2839 e23b cb39
000000e0: f6a6 c939 2caa 233a 90ff b739 cc3a a639
000000f0: 1ea8 e539 8e68 e139 d845 023a 14db 123a
00000100: 1a69 593a b81b 473a 685e 613a 20d6 583a
00000110: eacf 8e3a 5e5c b03a a409 863a 08ad 3f3a
00000120: 5097 383a 1252 033a e110 833a 113d 783a
00000130: 008a 9b3a 4647 c73a 3d4b c03a 7585 983a
00000140: fbdd 833a d1a2 603a 20c6 503a 57a2 6a3a
00000150: ef83 2d3a 8768 f539 4669 0b3a 0cea df39
00000160: c1db c239 1ece 9039 9020 0b39 c441 a639
00000170: f8dc 3db9 0e54 63b9 873a 5a39 93e0 ec39
00000180: c169 bb39 fd32 6139 b03a 8837 b72f 16ba

exp_avg_sq f4 [1, 1, 2, 50]
4.679249e-05 5.178e-05 4.2503547e-05 3.235219e-05 3.300587e-05 3.3041186e-05 3.7495072e-05 3.0214032e-05
2.8461038e-05 3.198109e-05 2.9382172e-05 2.715114e-05 2.8058053e-05 2.8274579e-05 2.7454273e-05 2.6344274e-05
2.4321189e-05 2.2986855e-05 2.3939103e-05 1.9907027e-05 1.9322886e-05 1.895873e-05 1.651406e-05 1.6004991e-05
1.4398598e-05 1.49641555e-05 1.4380487e-05 1.3895297e-05 1.3224253e-05 1.1358703e-05 1.1821052e-05 1.2090112e-05
1.1269149e-05 1.0128813e-05 9.655151e-06 9.990744e-06 9.067937e-06 1.0313569e-05 1.1219056e-05 1.1189995e-05
1.0439686e-05 1.0421603e-05 1.1333182e-05 1.2427973e-05 1.2037073e-05 1.3883952e-05 1.752496e-05 2.4026585e-05
2.3230297e-05 2.6707097e-05 5.267816e-05 5.9168106e-05 4.4851997e-05 3.4737248e-05 3.6379464e-05 3.7112175e-05
3.9071576e-05 3.26327e-05 3.115345e-05 3.4385455e-05 3.3527904e-05 2.9446059e-05 3.00045e-05 3.1055482e-05
2.785682e-05 2.7404727e-05 2.4418952e-05 2.3471297e-05 2.2947825e-05 1.9398745e-05 1.8469555e-05 1.8361337e-05
1.6230628e-05 1.534766e-05 1.4922144e-05 1.5399626e-05 1.4446508e-05 1.4534427e-05 1.3222075e-05 1.1509789e-05
1.2679935e-05 1.3282032e-05 1.23324835e-05 1.05083245e-05 1.0160247e-05 9.758281e-06 9.638441e-06 1.08844815e-05
1.18555945e-05 1.10935025e-05 9.9149875e-06 1.0802299e-05 1.1048633e-05 1.1549888e-05 1.1620207e-05 1.2356535e-05
1.6213613e-05 2.1296619e-05 2.0111196e-05 2.3730383e-05
00000000: 0e43 4438 5a2e 5938 d645 3238 e6b1 0738
00000010: c86f 0a38 b495 0a38 0744 1d38 2474 fd37
00000020: 9dbf ee37 6f23 0638 bc79 f637 a1c2 e337
00000030: 365e eb37 322f ed37 9a4d e637 e6fd dc37
00000040: 5b05 cc37 e5d3 c037 d5d0 c837 04fe a637
00000050: 9517 a237 9009 9f37 ac87 8a37 7542 8637
00000060: 8291 7137 8f0e 7b37 b943 7137 d91f 6937
00000070: bcdd 5d37 4291 3e37 0853 4637 a3d6 4a37
00000080: a010 3d37 ecee 2937 8ffc 2137 eb9d 2737
00000090: 7e22 1837 7108 2d37 7b39 3c37 aabc 3b37
000000a0: 1c26 2f37 72d8 2e37 a523 3e37 bd81 5037
000000b0: d6f2 4937 1fef 6837 9102 9337 b38c c937
000000c0: afde c237 0e09 e037 bef2 5c38 452b 7838
000000d0: 771f 3c38 d6b2 1138 2796 1838 e5a8 1b38
000000e0: c9e0 2338 18df 0838 c3aa 0238 1a39 1038
000000f0: 50a0 0c38 ee02 f737 2cb2 fb37 9241 0238
00000100: 11ae e937 34e3 e537 4dd7 cc37 3ae4 c437
00000110: 1480 c037 7dba a237 11ef 9a37 ac06 9a37
00000120: 0227 8837 d9be 8037 1f5a 7a37 722e 8137
00000130: 485f 7237 e3d8 7337 61d4 5d37 2b1a 4137
00000140: e8bb 5437 e5d5 5e37 9de7 4e37 e94c 3037
00000150: ee75 2a37 7fb7 2337 cab4 2137 7e9c 3637
00000160: 64e7 4637 3b1e 3a37 8c58 2637 853b 3537
00000170: 845d 3937 64c6 4137 69f4 4237 ea4e 4f37
00000180: 7802 8837 24a6 b237 77b4 a837 9c10 c737

exp_avg f4 [1, 1, 2, 50]
0.00015165714 0.00025073907 0.00028144763 0.00027681427 0.00022623558 0.00015713782 -5.8624133e-05 -0.00011544387
-6.415728e-05 0.00017013782 0.00042651113 0.00043274826 0.00050521747 0.00029199861 0.00022368722 0.00021093634
0.00041051034 0.00041231708 0.00039404974 0.00039157312 0.0001826513 -0.00034682354 -0.000748648 -0.00055483123
-0.00024612885 -0.00012340689 -0.0003092542 -0.00012292685 -0.00038070948 -0.00032178956 -5.7218647e-05 0.00036417594
8.139428e-05 5.2076375e-05 -7.1371e-05 -8.904913e-05 -4.7827994e-05 0.00021830102 0.00027356658 0.00017565493
-3.2974436e-05 0.00010924538 0.00011852963 -1.9285955e-05 -0.00012263258 -0.00033612145 -0.00043521993 -0.00046897106
-0.00014829107 -7.24417e-05 0.00011110002 0.00028575692 0.00027597975 0.0001265863 0.0001865311 0.00013807879
9.0619724e-05 -2.0159527e-05 -3.5733508e-06 0.00016226867 0.00038080406 0.00046246452 0.0004276981 0.00025333095
0.00017493239 0.0001817581 0.00036754127 0.00042313166 0.00045052898 0.00046565186 0.00011874749 -0.0004598346
-0.0007433822 -0.00052491634 -2.5021782e-05 0.00016681223 -0.00029291236 -0.00028481623 -0.0004888071 -0.00012398572
3.7446032e-05 0.00029457064 -6.143875e-05 8.654871e-05 -0.00015238769 -7.060399e-05 -1.2867026e-05 0.0002406128
0.00025602785 0.00011337496 -1.7838902e-05 5.8489346e-05 4.981014e-05 -8.95233e-05 -0.0002026946 -0.0003127887
-0.0004550711 -0.00046762632 -6.969526e-05 8.018279e-05
00000000: 2706 1f39 a175 8339 438f 9339 6221 9139
00000010: a739 6d39 5dc5 2439 2fe3 75b8 751a f2b8
00000020: 2d8c 86b8 0667 3239 5b9d df39 7de2 e239
00000030: 9270 043a 6417 9939 958d 6a39 cb2e 5d39
00000040: c439 d739 432c d839 7698 ce39 0e4c cd39
00000050: 1686 3f39 ded5 b5b9 eb40 44ba 1872 11ba
00000060: db0a 81b9 c966 01b9 6523 a2b9 ede5 00b9
00000070: f699 c7b9 ddb5 a8b9 0efe 6fb8 deee be39
00000080: 39b2 aa38 956c 5a38 04ad 95b8 e3bf bab8
00000090: eb9a 48b8 bce7 6439 7c6d 8f39 0330 3839
000000a0: 084e 0ab8 ab1a e538 1c93 f838 46c8 a1b7
000000b0: ef96 00b9 7539 b0b9 3b2e e4b9 3be0 f5b9
000000c0: 957e 1bb9 d7eb 97b8 5efe e838 a5d1 9539
000000d0: 60b1 9039 40bc 0439 9097 4339 3ec9 1039
000000e0: 180b be38 411c a9b7 b3cd 6fb6 aa26 2a39
000000f0: a8a6 c739 f076 f239 ab3c e039 81d1 8439
00000100: 0e6e 3739 5296 3e39 8eb2 c039 c5d7 dd39
00000110: fa34 ec39 bc22 f439 1308 f938 f515 f1b9
00000120: 89df 42ba 8a9a 09ba dee5 d1b7 51ea 2e39
00000130: 0892 99b9 6353 95b9 4a23 00ba 2a02 02b9
00000140: 5f0f 1d38 9a70 9a39 aed8 80b8 7c81 b538
00000150: 42ca 1fb9 3a11 94b8 75df 57b7 024d 7c39
00000160: 7a3b 8639 b8c3 ed38 c0a4 95b7 7552 7538
00000170: 3beb 5038 75be bbb8 6b8a 54b9 cafd a3b9
00000180: 9c96 eeb9 be2b f5b9 5c29 92b8 cf27 a838

exp_avg_sq f4 [1, 1, 2, 50]
4.949862e-06 4.225118e-06 4.283354e-06 2.701956e-06 2.0349846e-06 1.9300523e-06 3.751927e-06 3.6171032e-06
3.0251047e-06 2.400294e-06 2.109016e-06 2.0688433e-06 1.9172937e-06 2.0390623e-06 2.1921098e-06 2.330146e-06
3.05174e-06 3.2984487e-06 2.3109546e-06 2.6418181e-06 1.6982574e-06 1.6758023e-06 2.1170704e-06 1.8935553e-06
3.0988742e-06 5.2966275e-06 3.3411673e-06 6.9522075e-06 9.500041e-06 8.087308e-06 5.296198e-06 5.780073e-06
3.546759e-06 3.265396e-06 2.8151196e-06 2.2342888e-06 3.0084784e-06 4.215145e-06 4.7242834e-06 5.553668e-06
6.9125435e-06 7.3888605e-06 4.9832615e-06 3.9811575e-06 3.5764426e-06 3.8026617e-06 3.748437e-06 3.2018618e-06
2.586669e-06 3.8888015e-06 5.7179673e-06 4.0836244e-06 4.077797e-06 2.5686004e-06 1.8074737e-06 2.4246185e-06
4.1558865e-06 3.5450967e-06 2.7524582e-06 2.2282989e-06 2.1018932e-06 1.9665802e-06 1.8808967e-06 1.8491909e-06
2.1763562e-06 2.5883744e-06 3.4009533e-06 3.7130046e-06 2.5768459e-06 2.6993278e-06 1.645299e-06 2.2859967e-06
2.2145098e-06 1.94836e-06 3.4298807e-06 5.332131e-06 3.3455074e-06 6.9229227e-06 8.12214e-06 8.421852e-06
5.26241e-06 5.5158457e-06 3.6679105e-06 3.512587e-06 2.8599413e-06 2.308244e-06 3.2617727e-06 4.3716186e-06
4.4426465e-06 4.98984e-06 7.218718e-06 7.707953e-06 4.8290703e-06 3.8309886e-06 3.6386714e-06 3.58857e-06
3.607156e-06 3.2627593e-06 2.7918372e-06 4.3822733e-06
00000000: fe16 a636 7dc5 8d36 bbb9 8f36 4053 3536
00000010: c590 0836 0c86 0136 9dc9 7b36 5cbd 7236
00000020: e702 4b36 bd14 2136 9e88 0d36 75d6 0a36
00000030: dbaa 0036 d3d6 0836 291c 1336 9a5f 1c36
00000040: 7ecc 4c36 eb5a 5d36 e615 1b36 174a 3136
00000050: aeef e335 21ec e035 fe12 0e36 1126 fe35
00000060: 41f6 4f36 afb9 b136 d138 6036 0247 e936
00000070: 5e62 1f37 b9ae 0737 ffb5 b136 73f2 c136
00000080: db04 6e36 1323 5b36 63eb 3c36 caf0 1536
00000090: 44e5 4936 d26f 8d36 4985 9e36 a559 ba36
000000a0: 4cf2 e736 d4ed f736 e435 a736 e295 8536
000000b0: d102 7036 3b31 7f36 a88d 7b36 91df 5636
000000c0: a396 2d36 8d7c 8236 f7dc bf36 1106 8936
000000d0: 02d4 8836 3860 2c36 5398 f235 a1b6 2236
000000e0: cb72 8b36 4ce8 6d36 dfb6 3836 e289 1536
000000f0: 400e 0d36 97f9 0336 1e73 fc35 b731 f835
00000100: 840d 1236 efb3 2d36 ef3b 6436 ef2c 7936
00000110: e0ed 2c36 1926 3536 0bd4 dc35 2069 1936
00000120: fd9c 1436 92c0 0236 e72c 6636 a8ea b236
00000130: 6183 6036 744b e836 5344 0837 944b 0d37
00000140: c293 b036 c114 b936 3926 7636 c9b9 6b36
00000150: 6bed 3f36 54e7 1a36 d4e4 5a36 ebaf 9236
00000160: 0b12 9536 666e a736 5138 f236 6851 0137
00000170: 6609 a236 f18b 8036 e62f 7436 2ad3 7036
00000180: 7812 7236 c7f5 5a36 665b 3b36 710b 9336

exp_avg f4 [32, 4]
3.9319264e-05 2.798226e-05 3.8447346e-05 1.3876126e-05 2.694379e-05 2.075074e-05 3.5155938e-06 1.0731692e-05
-3.4312434e-06 4.733238e-07 6.713333e-06 2.1438395e-07 2.7128133e-06 2.2867403e-06 6.1178544e-06 3.059452e-06
-3.5607911e-06 -2.8077858e-07 -8.5844e-08 3.3429542e-06 7.32314e-05 2.0051684e-05 7.240081e-05 2.3524271e-05
2.986837e-05 2.817081e-05 1.9304834e-05 1.3739321e-05 -9.418364e-06 2.9639511e-06 -1.2233922e-05 6.5830404e-06
2.6406999e-05 2.4898622e-05 3.549948e-05 2.8293904e-05 -2.5429545e-06 -7.154331e-06 -2.4528993e-06 -1.2252273e-06
4.07327e-05 1.6245333e-05 4.748649e-05 2.1289594e-05 -8.1136604e-05 -5.1837036e-05 -6.923398e-05 -2.678611e-05
4.8326824e-06 7.942711e-06 3.551407e-06 2.2247702e-06 4.562878e-06 3.919915e-06 7.3876317e-06 4.0037194e-06
-1.0382255e-05 2.5689144e-07 -2.7377153e-05 -1.3444068e-05 -2.3086702e-06 -5.8414653e-06 8.7438735e-07 -4.3564296e-06
-1.2010102e-05 -6.9049006e-06 1.07369715e-05 1.5713e-05 2.015565e-05 1.6678141e-05 5.231067e-06 7.1904897e-06
0.0 0.0 0.0 0.0 2.1627215e-05 1.4985973e-05 2.0620915e-05 7.697301e-06
1.6236801e-05 4.0642017e-06 5.8221553e-06 -6.3244347e-06 1.575957e-05 1.1022894e-05 5.4841803e-06 5.4813268e-06
6.0804477e-06 4.9366104e-06 1.336708e-05 3.3744368e-06 6.5010965e-05 2.4839157e-05 6.401214e-05 1.3269503e-06
-2.7063345e-05 -1.3016223e-05 -1.39023205e-05 -3.3931383e-06 7.46651e-05 1.9879993e-05 5.732339e-05 1.8571709e-05
5.41789e-05 2.0469479e-05 4.665251e-05 1.0721706e-05 -7.415282e-07 8.22848e-06 -1.451406e-05 2.6025534e-06
5.2430273e-06 1.2769125e-06 -2.0276045e-07 -3.0437715e-08 0.0 0.0 0.0 0.0
-1.8235676e-08 -1.9673e-06 3.580035e-06 1.2296364e-05 5.265989e-05 2.28123e-05 3.9238614e-05 5.12395e-06
00000000: bdea 2438 72bb ea37 8642 2138 82cd 6837
00000010: 5905 e237 e011 ae37 71ed 6b36 440c 3437
00000020: 5044 66b6 211d fe34 1743 e136 6931 6634
00000030: c70d 3636 e675 1936 f847 cd36 fc50 4d36
00000040: edf5 6eb6 eabd 96b4 3d59 b8b3 8457 6036
00000050: cf93 9938 aa34 a837 e4d5 9738 fd55 c537
00000060: d68d fa37 5b50 ec37 d1f0 a137 ef81 6637
00000070: 9103 1eb7 4be8 4636 4b40 4db7 e3e3 dc36
00000080: 9984 dd37 62dd d037 47e5 1438 b258 ed37
00000090: a0a7 2ab6 3c0f f0b6 7d9c 24b6 7d72 a4b5
000000a0: 67d8 2a38 9646 8837 3b2c 4738 0e97 b237
000000b0: e227 aab8 986b 59b8 b631 91b8 bcb2 e0b7
000000c0: 6d28 a236 af41 0537 b554 6e36 434d 1536
000000d0: d31a 9936 d087 8336 46e3 f736 b057 8636
000000e0: 722f 2eb7 e4ea 8934 fda7 e5b7 d58d 61b7
000000f0: a7ee 1ab6 ce01 c4b6 71b7 6a35 722d 92b6
00000100: ff7e 49b7 a5b0 e7b6 f122 3437 69cf 8337
00000110: ee13 a937 09e8 8b37 8686 af36 d645 f136
00000120: 0000 0000 0000 0000 0000 0000 0000 0000
00000130: 176c b537 446c 7b37 14fb ac37 a823 0137
00000140: 4434 8837 3a5f 8836 ef5b c336 7b36 d4b6
00000150: 6b33 8437 f8ee 3837 c004 b836 3dec b736
00000160: a606 cc36 29a5 a536 2c43 6037 6274 6236
00000170: 7f56 8838 af5d d037 423e 8638 aa19 b235
00000180: 1706 e3b7 4160 5ab7 033e 69b7 acb5 63b6
00000190: 8595 9c38 f6c3 a637 856e 7038 71ca 9b37
000001a0: 273e 6338 dfb5 ab37 c0ac 4338 60e1 3337
000001b0: 6e0d 47b5 0d0d 0a37 6a81 73b7 87a7 2e36
000001c0: 43ed af36 6162 ab35 5eb6 59b4 9fba 02b3
000001d0: 0000 0000 0000 0000 0000 0000 0000 0000
000001e0: ada4 9cb2 f505 04b6 8840 7036 7b4c 4e37
000001f0: 20df 5c38 0b5d bf37 2494 2438 65ee ab36

exp_avg_sq f4 [32, 4]
3.4678944e-08 2.8600748e-08 7.649234e-09 5.4658513e-09 1.4765618e-08 1.40303165e-08 1.3011344e-08 1.2077406e-08
4.051682e-11 1.6316736e-11 1.8888997e-10 8.3213395e-11 1.6659256e-10 2.1546163e-10 5.089572e-10 2.7518218e-10
1.0266847e-10 5.9363015e-11 9.761823e-11 2.1868359e-10 7.7213336e-08 6.3500224e-08 4.6429395e-08 3.657111e-08
2.3103205e-08 1.9202119e-08 2.7647054e-09 1.4988111e-09 5.2730615e-09 4.9223408e-09 6.6317507e-09 5.034176e-09
6.250918e-08 6.064234e-08 2.8927998e-08 3.139908e-08 6.1213195e-09 4.547435e-09 2.1429893e-10 2.786128e-10
3.276082e-08 2.8053629e-08 2.1429566e-08 2.4867504e-08 2.8146864e-08 2.5326536e-08 1.9908658e-08 1.728928e-08
6.213265e-08 4.4657092e-08 9.6960204e-11 9.436247e-12 8.289244e-09 9.635694e-09 4.37063e-09 7.0488158e-09
5.5311805e-08 4.508048e-08 1.3090849e-08 1.3510283e-08 4.9274636e-08 3.905258e-08 8.236124e-09 7.313883e-09
5.5581147e-08 4.680151e-08 1.5880133e-08 1.8686853e-08 1.8787139e-08 1.6869693e-08 1.1200359e-08 9.372351e-09
0.0 0.0 0.0 0.0 3.2836763e-08 2.5682828e-08 9.158993e-09 1.0584196e-08
1.7364783e-08 1.3597019e-08 5.838973e-09 5.578417e-09 3.264892e-09 3.6273966e-09 1.0935984e-09 1.1462573e-09
8.174831e-09 8.063831e-09 3.9673953e-09 4.3762425e-09 7.609215e-08 5.6316708e-08 2.4759006e-08 1.9570175e-08
2.1974246e-08 1.4697125e-08 1.9276716e-09 9.1645946e-10 9.159403e-08 6.4859655e-08 1.606987e-08 1.1440037e-08
9.061261e-08 6.519036e-08 1.0386287e-08 7.605098e-09 5.178527e-08 4.3435914e-08 6.5014114e-09 7.566947e-09
1.0331153e-11 1.0569703e-11 2.248601e-13 4.2705002e-13 0.0 0.0 0.0 0.0
3.341779e-08 3.1597228e-08 1.9373243e-08 2.2870049e-08 7.382187e-08 5.3800758e-08 1.1093538e-08 7.900404e-09
00000000: e7f1 1433 b6ad f532 b069 0332 23ce bb31
00000010: e0ab 7d32 fc09 7132 7f88 5f32 fe7c 4f32
00000020: e231 322e 0686 8f2d cdaf 4f2f fafc b62e
00000030: a32b 372f 0fe7 6c2f aee6 0b30 7348 972f
00000040: 36c5 e12e 688a 822e 2eaa d62e f571 702f
00000050: 7bd0 a533 9e5d 8833 a969 4733 5c12 1d33
00000060: 7c74 c632 e8f1 a432 36fd 3d31 bafe cd30
00000070: 572e b531 5e21 a931 7fdd e331 15f9 ac31
00000080: c93c 8633 7b3a 8233 577d f832 a7db 0633
00000090: b253 d231 a93f 9c31 c99f 6b2f 442b 992f
000000a0: e7b4 0c33 95fa f032 1d14 b832 389c d532
000000b0: 9cc7 f132 a48d d932 9a03 ab32 8783 9432
000000c0: c96d 8533 fecc 3f33 be37 d52e 1401 262d
000000d0: 7b68 0e32 3b8a 2532 782c 9631 0a32 f231
000000e0: f98f 6d33 839e 4133 2ae6 6032 da1a 6832
000000f0: 09a2 5333 c4ba 2733 db7e 0d32 984d fb31
00000100: 1eb8 6e33 ce02 4933 c868 8832 d384 a032
00000110: 5b61 a132 d9e8 9032 b36b 4032 0904 2132
00000120: 0000 0000 0000 0000 0000 0000 0000 0000
00000130: 6708 0d33 239d dc32 ad59 1d32 c9d5 3532
00000140: 9029 9532 5298 6932 26a0 c831 46ac bf31
00000150: 965c 6031 d645 7931 934d 9630 588a 9d30
00000160: 4971 0c32 1b89 0a32 9451 8831 d65d 9631
00000170: 1a68 a333 e0e0 7133 a1ad d432 451b a832
00000180: e1c1 bc32 a47e 7c32 f577 0431 1aea 7b30
00000190: 5ab2 c433 f948 8b33 050a 8a32 d189 4432
000001a0: cf96 c233 c8fe 8b33 606f 3232 93a7 0232
000001b0: 826a 5e33 4b8e 3a33 0563 df31 c9ff 0132
000001c0: 60bf 352d b6f1 392d 832b 7d2a 6568 f02a
000001d0: 0000 0000 0000 0000 0000 0000 0000 0000
000001e0: 4087 0f33 85b5 0733 366a a632 c573 c432
000001f0: 0188 9e33 8f12 6733 e595 3e32 58ba 0732

exp_avg f4 [32]
2.4741415e-05 -3.4823988e-06 -1.2339993e-05 9.704228e-06 -5.0180042e-06 3.7534843e-05 1.5751302e-05 -1.1081844e-05
2.0638214e-05 -5.6757403e-06 2.6550915e-05 -5.7224952e-05 5.6145295e-06 9.150812e-06 -2.421307e-05 -4.012629e-06
-6.205026e-06 -4.574627e-06 0.0 9.368635e-06 -1.1563662e-05 4.716296e-06 2.3344144e-05 4.545521e-05
-3.8509293e-06 4.16958e-05 3.3400534e-05 -3.451709e-05 3.71648e-06 0.0 2.9552486e-06 3.402057e-05
00000000: c98b cf37 28b3 69b6 de07 4fb7 58cf 2237
00000010: 5460 a8b6 bb6e 1d38 aa21 8437 28ec 39b7
00000020: 3a20 ad37 3d72 beb6 a8b9 de37 d304 70b8
00000030: 7164 bc36 7086 1937 2c1d cbb7 38a4 86b6
00000040: c434 d0b6 bf7f 99b6 0000 0000 fb2d 1d37
00000050: 8d01 42b7 ad40 9e36 2bd3 c337 29a7 3e38
00000060: 3b37 81b6 86e2 2e38 8d17 0c38 71c6 10b8
00000070: a468 7936 0000 0000 c952 4636 4fb1 0e38

exp_avg_sq f4 [32]
4.888627e-09 4.4354476e-09 2.0986897e-09 3.218543e-09 2.714219e-09 1.854736e-08 1.966868e-09 2.7094935e-09
1.2733365e-08 4.8783044e-09 8.085291e-09 8.976513e-09 4.3647237e-09 3.2993113e-09 1.0589562e-08 5.971149e-09
1.2278245e-08 3.4599292e-09 0.0 4.6533972e-09 2.8426799e-09 1.1860929e-09 5.968274e-09 1.1210357e-08
5.707044e-09 1.0425001e-08 9.204526e-09 2.0202563e-08 1.7896362e-09 0.0 1.1197551e-08 8.380696e-09
00000000: d1f8 a731 9c66 9831 8a38 1031 352d 5d31
00000010: 0c85 3a31 1352 9f32 8229 0731 ea31 3a31
00000020: eec1 5a32 059e a731 7ce7 0a32 1f37 1a32
00000030: 84f8 9531 19ba 6231 63ed 3532 c82a cd31
00000040: 4bf0 5232 b8c3 6d31 0000 0000 b7e3 9f31
00000050: f458 4331 ef03 a330 7e11 cd31 ac97 4032
00000060: b117 c431 a419 3332 ef21 1e32 e889 ad32
00000070: 3af7 f530 0000 0000 5a5f 4032 b1fa 0f32

exp_avg f4 [10, 32]
1.9791534e-05 0.00013753303 3.2360596e-05 2.3929479e-05 3.6570273e-05 2.7448052e-05 -2.6688838e-06 4.9839142e-05
8.1239405e-06 3.1084546e-05 5.861485e-05 9.9125515e-05 -1.0495814e-06 -1.3124185e-06 5.7153935e-05 2.9137469e-05
5.315809e-05 0.00010078624 0.0 -2.5847821e-06 0.0001102472 3.1691175e-06 3.1585267e-05 0.00010426127
4.3078806e-05 2.9431338e-05 1.943844e-05 4.0191826e-05 4.7867165e-06 0.0 6.769891e-05 4.173146e-05
3.26459e-05 0.00017194526 1.529597e-05 8.113037e-06 1.1506834e-05 4.2205385e-05 4.5156803e-06 3.3167442e-05
1.5358017e-05 8.8519455e-06 0.00010900575 5.523591e-05 1.1900211e-06 3.0373096e-06 5.7536774e-05 2.9689041e-05
5.2597992e-05 0.00014678155 0.0 4.6738292e-05 9.861266e-05 7.134318e-06 2.8805525e-05 0.00013703552
2.6062155e-05 4.554337e-05 3.523607e-05 1.7286904e-05 1.223353e-06 0.0 7.699136e-05 6.5162036e-05
2.4976884e-05 0.00011195522 5.35316e-06 9.925159e-07 2.0103157e-06 3.157623e-05 6.26121e-06 2.6546137e-05
1.8521996e-05 -4.439e-07 6.2295214e-05 1.4975241e-05 6.6205547e-07 5.084161e-06 2.676572e-05 3.2181848e-05
4.1919502e-05 9.066249e-05 0.0 4.4411012e-05 5.778365e-05 4.152972e-06 9.312682e-06 8.526652e-05
2.71807e-06 1.0660037e-05 1.8728431e-05 2.686898e-06 1.5581384e-07 0.0 6.173033e-05 2.7263863e-05
5.6530193e-06 3.9947932e-05 -4.8918737e-06 -2.4581548e-06 -4.8518e-06 1.134654e-05 4.4023956e-08 1.551007e-05
1.2036104e-05 -3.651321e-06 8.534339e-06 -1.1072628e-05 7.793044e-07 4.827732e-06 -9.1063185e-07 2.4629444e-05
2.3195284e-05 2.7297196e-05 0.0 2.041002e-05 1.502031e-05 9.516067e-07 -6.9932194e-06 2.8876495e-05
-6.622726e-06 -2.3530793e-05 -1.2507817e-05 -3.5943556e-06 -3.1545392e-07 0.0 3.3791686e-05 -2.3520395e-05
-6.974917e-06 -2.9062403e-05 -1.3291896e-05 -4.0733116e-06 -7.2553266e-06 -8.288017e-06 8.273122e-07 -2.9900326e-05
-4.980086e-06 -6.448284e-06 4.1913e-06 -4.254392e-05 -1.2504091e-07 8.332276e-07 -2.524355e-05 -2.7164338e-05
-1.8735705e-05 -9.6505755e-06 0.0 1.1766842e-05 -3.8032606e-05 -1.7659074e-06 -3.2263074e-06 1.0781922e-05
-2.0908272e-05 2.155481e-06 -6.6869684e-06 -6.4241144e-06 -2.0234471e-07 0.0 -1.3726223e-05 -1.50827345e-05
-3.749895e-06 -6.544432e-06 -1.5231364e-05 -1.1329703e-05 -1.4721684e-05 -2.7243395e-06 -2.6311912e-07 1.1543987e-06
8.1200334e-08 -1.3288044e-05 -6.812338e-06 -3.0508298e-05 -1.8030792e-07 -2.631979e-06 -1.0986605e-05 -1.5474702e-06
-2.9801174e-06 -6.119287e-06 0.0 -1.2947406e-06 -1.212479e-05 -4.6255313e-06 -1.4254341e-05 -1.8387991e-05
-1.8135734e-05 1.7881563e-07 -1.6020776e-06 -2.0861056e-05 -8.937915e-08 0.0 -1.5247124e-06 -3.531679e-06
-7.1051027e-06 -5.7051908e-05 -2.8345441e-06 -5.262269e-06 -8.138489e-06 -1.175337e-05 -3.7457366e-07 -1.17196605e-05
-5.843082e-06 -1.33675485e-05 -3.449574e-05 -2.3154173e-05 -9.885339e-07 -9.59973e-06 -1.5563503e-05 -1.2563984e-05
-1.8607063e-05 -5.204927e-05 0.0 -1.3810963e-05 -3.159759e-05 -1.4371766e-05 -2.2297878e-05 -7.1224356e-05
-1.146674e-05 -8.5917975e-07 -1.6718122e-06 -2.352722e-05 3.398111e-07 0.0 -3.0665986e-05 -5.2568107e-06
-1.29758e-05 -8.395183e-05 -3.4987163e-06 1.2550278e-06 3.0984552e-06 -1.6955191e-05 -1.2492305e-06 -1.6744161e-05
-7.3960505e-06 6.6130533e-06 -4.120421e-05 -2.6347445e-05 -3.2140295e-07 -6.7567453e-06 -2.26556e-05 -2.0014095e-05
-3.3458775e-05 -6.657682e-05 0.0 -2.4353865e-05 -5.0667793e-05 2.683191e-06 -9.061327e-06 -7.264211e-05
-7.876825e-06 -8.235953e-07 -5.0642216e-06 -2.6712075e-06 1.2727996e-06 0.0 -4.828487e-05 -7.859765e-06
00000000: ff05 a637 be36 1039 edba 0738 2abc c837
00000010: 0863 1938 3e40 e637 131b 33b6 5f0a 5138
00000020: 0f4c 0837 c760 0238 37d9 7538 9be1 cf38
00000030: 58df 8cb5 5b26 b0b5 92b8 6f38 3d6c f437
00000040: 11f6 5e38 335d d338 0000 0000 3876 2db6
00000050: 8434 e738 06ad 5436 6c7a 0438 d8a6 da38
00000060: 84af 3438 51e3 f637 bb0f a337 a593 2838
00000070: 959d a036 0000 0000 93f9 8d38 d008 2f38
00000080: 45ed 0838 344c 3439 d84f 8037 3b1d 0837
00000090: 7a0d 4137 b005 3138 6685 9736 451d 0b38
000000a0: 17d5 8037 d182 1437 049a e438 1bad 6738
000000b0: d0b8 9f35 95d4 4b36 a453 7138 bb0c f937
000000c0: aa9c 5c38 5fe9 1939 0000 0000 dc08 4438
000000d0: 45ce ce38 5363 ef36 65a3 f137 31b1 0f39
000000e0: 0da0 da37 d205 3f38 71ca 1338 5803 9137
000000f0: 1732 a435 0000 0000 6c76 a138 9aa7 8838
00000100: 7385 d137 80c9 ea38 4b9f b336 9636 8535
00000110: f6e8 0636 b870 0438 6217 d236 65af de37
00000120: af5f 9b37 2751 eeb4 7da4 8238 2c3e 7b37
00000130: 1bb8 3135 9c98 aa36 f286 e037 fffa 0638
00000140: b9d2 2f38 0e22 be38 0000 0000 f645 3a38
00000150: b95c 7238 c259 8b36 aa3d 1c37 1dd1 b238
00000160: 1668 3636 83d8 3237 001b 9d37 8e50 3436
00000170: c84d 2734 0000 0000 3875 8138 b3b4 e437
00000180: 11af bd36 c48d 2738 e024 a4b6 c7f6 24b6
00000190: a5cc a2b6 055d 3e37 da14 3d33 9f1b 8237
000001a0: acee 4937 3809 75b6 b52e 0f37 93c4 39b7
000001b0: 6431 5135 e7fd a136 2572 74b5 549b ce37
000001c0: 7e93 c237 48fc e437 0000 0000 2f36 ab37
000001d0: bdff 7b37 ea71 7f35 4ca7 eab6 cd3b f237
000001e0: c838 deb6 fe63 c5b7 aad8 51b7 8f36 71b6
000001f0: a85b a9b4 0000 0000 8cbb 0d38 aa4d c5b7
00000200: 150a eab6 09cb f3b7 4200 5fb7 7bad 88b6
00000210: c872 f3b6 c30c 0bb7 7614 5e35 76d2 fab7
00000220: 9d1a a7b6 565e d8b6 fea2 8c36 3071 32b8
00000230: fc42 06b4 f7aa 5f35 1cc2 d3b7 f9de e3b7
00000240: 9f2a 9db7 e8e8 21b7 0000 0000 346a 4537
00000250: 3385 1fb8 1e04 edb5 8a83 58b6 01e4 3437
00000260: 2c64 afb7 e2a6 1036 9f60 e0b6 b98e d7b6
00000270: 1744 59b4 0000 0000 ae49 66b7 da0b 7db7
00000280: b5a6 7bb6 3e98 dbb6 368a 7fb7 b414 3eb7
00000290: 27fd 76b7 ccd3 36b6 d142 8db4 d6f0 9a35
000002a0: 5b60 ae33 b7ef 5eb7 8a95 e4b6 12ec ffb7
000002b0: aa9a 41b4 0ea1 30b6 1c53 38b7 acb2 cfb5
000002c0: 07fe 47b6 4654 cdb6 0000 0000 f3c6 adb5
000002d0: 946b 4bb7 0335 9bb6 ee25 6fb7 e93f 9ab7
000002e0: 3122 98b7 7700 4034 f806 d7b5 c7fe aeb7
000002f0: b5f0 bfb3 0000 0000 b8a4 ccb5 c901 6db6
00000300: 5e68 eeb6 054b 6fb8 1939 3eb6 8c92 b0b6
00000310: 8b8a 08b7 5730 45b7 0319 c9b4 8f9f 44b7
00000320: b10f c4b6 2f45 60b7 85af 10b8 353b c2b7
00000330: c4ad 84b5 870e 21b7 5e8e 82b7 e6c9 52b7
00000340: 5d16 9cb7 7a4f 5ab8 0000 0000 a2b5 67b7
00000350: a787 04b8 441e 71b7 540c bbb7 495e 95b8
00000360: 4661 40b7 62a2 66b5 0863 e0b5 525c c5b7
00000370: 486f b634 0000 0000 5a9f 00b8 a963 b0b6
00000380: a3b2 59b7 4c0f b0b8 7dcb 6ab6 6d72 a835
00000390: 0eef 4f36 ff3a 8eb7 3cab a7b5 d075 8cb7
000003a0: 972b f8b6 b2e5 dd36 afd2 2cb8 b504 ddb7
000003b0: 498d acb4 00b8 e2b6 880c beb7 f1e3 a7b7
000003c0: 1656 0cb8 289f 8bb8 0000 0000 874b ccb7
000003d0: 2184 54b8 df10 3436 1a06 18b7 7057 98b8
000003e0: b526 04b7 0a15 5db5 55ed a9b6 ff42 33b6
000003f0: 10d5 aa35 0000 0000 7c85 4ab8 6fdd 03b7

exp_avg_sq f4 [10, 32]
3.4554194e-08 8.59576e-07 2.7360647e-09 3.2824443e-09 6.6274803e-09 5.6675844e-08 1.262394e-09 3.744247e-08
1.541387e-08 4.7179745e-09 2.849342e-07 1.7188228e-08 3.7114375e-10 1.4573593e-08 3.2016935e-08 3.7497585e-08
1.1755056e-07 5.8328834e-07 0.0 1.7133478e-07 1.8561202e-07 1.8690112e-09 6.721045e-09 6.9130033e-07
5.801324e-09 8.027904e-09 1.4431159e-08 8.656485e-09 3.0307454e-11 0.0 2.8602338e-07 3.710693e-08
1.4011309e-08 3.2572302e-07 1.2127245e-09 1.2994544e-09 2.3430418e-09 2.106056e-08 6.094015e-10 2.3196373e-08
6.307976e-09 1.9303255e-09 9.44369e-08 9.25763e-09 3.776042e-10 9.669995e-10 1.7341083e-08 1.4741628e-08
4.4135565e-08 2.0469417e-07 0.0 3.8933848e-08 7.936337e-08 1.4647977e-09 3.0283622e-09 1.9602624e-07
2.7132523e-09 7.981431e-09 9.985373e-09 3.428577e-09 1.7471026e-11 0.0 9.6728726e-08 2.7890973e-08
2.4925379e-08 3.101443e-07 9.854983e-10 1.0633554e-09 1.8726696e-09 3.2024733e-08 1.2971209e-09 1.9268795e-08
1.434461e-08 1.8148129e-09 9.338328e-08 4.128143e-09 1.7978043e-10 1.2712956e-09 1.781006e-08 3.3651816e-08
4.3365663e-08 1.9751423e-07 0.0 3.834371e-08 6.121363e-08 9.449672e-10 1.8261976e-09 1.642761e-07
2.0974213e-09 1.7544103e-09 1.12538565e-08 3.1163578e-09 1.7941721e-11 0.0 9.176363e-08 2.5251602e-08
7.255363e-09 2.4705986e-07 8.0824414e-10 8.415279e-10 1.7476957e-09 1.2912495e-08 1.4941777e-10 2.1458243e-08
6.254838e-09 1.4384445e-09 5.446871e-08 2.482359e-09 2.8996082e-11 1.409335e-09 8.229758e-09 1.4461964e-08
3.9504442e-08 1.4220178e-07 0.0 3.806467e-08 5.457405e-08 3.714011e-10 1.2212212e-09 1.3066625e-07
1.3811071e-09 1.8747306e-09 2.7185054e-09 2.1647195e-09 1.6455783e-11 0.0 8.912842e-08 7.780831e-09
3.9877492e-09 1.3601871e-07 9.907208e-10 8.718778e-10 1.9829076e-09 6.9804025e-09 5.487381e-11 1.186291e-08
2.7804954e-09 1.5868856e-09 2.9633878e-08 4.3639226e-09 1.1073735e-11 8.303507e-10 6.323509e-09 9.2140695e-09
2.2221592e-08 7.802966e-08 0.0 1.8496976e-08 3.378203e-08 2.0998041e-10 1.0309675e-09 7.2738544e-08
1.7419699e-09 7.014293e-10 1.2908765e-09 2.1172133e-09 2.038748e-11 0.0 4.7773447e-08 3.999094e-09
1.4384564e-09 5.3782614e-08 1.3737221e-09 1.1574369e-09 2.46623e-09 2.369596e-09 2.1989742e-11 4.7377036e-09
8.0097173e-10 1.7921128e-09 1.132936e-08 3.6608676e-09 6.4154728e-12 3.1706457e-10 2.2623152e-09 2.9688314e-09
9.160178e-09 3.082419e-08 0.0 5.3362146e-09 1.4058623e-08 1.9240202e-10 1.1683281e-09 2.992603e-08
1.926756e-09 1.7185593e-10 4.351107e-10 2.4118552e-09 2.3395471e-11 0.0 1.9625842e-08 1.3733388e-09
2.035318e-09 6.793375e-08 1.3380689e-09 1.3438753e-09 2.8732754e-09 3.0661347e-09 4.356266e-11 8.383042e-09
8.855095e-10 2.5051297e-09 1.4480115e-08 3.4958128e-09 4.5384054e-11 4.348655e-10 3.0709981e-09 3.790561e-09
1.1902316e-08 3.803394e-08 0.0 5.4958327e-09 1.9260128e-08 6.0806404e-10 2.0576085e-09 3.574744e-08
2.251907e-09 4.4063306e-10 7.664759e-10 3.4297363e-09 2.562688e-11 0.0 2.4412278e-08 2.3875828e-09
3.5976198e-09 7.387966e-08 1.6323812e-09 1.423205e-09 2.848334e-09 5.0047264e-09 9.4386686e-11 4.185851e-09
1.320722e-09 2.3527016e-09 2.2581935e-08 5.1145688e-09 5.8465274e-11 1.0752661e-09 3.5267607e-09 4.4188413e-09
1.0904233e-08 4.8473822e-08 0.0 1.06133315e-08 1.6918886e-08 4.3302315e-10 1.9632316e-09 5.5126133e-08
2.5393738e-09 3.4186634e-10 1.2507663e-09 3.3813088e-09 2.6273901e-11 0.0 2.4456673e-08 3.5016585e-09
00000000: bd68 1433 9dbd 6635 5c05 3c31 5f91 6131
00000010: efb7 e331 c06b 7333 8a80 ad30 6ed0 2033
00000020: 7567 8432 be1b a231 0ff9 9834 50a5 9332
00000030: d709 cc2f 575f 7a32 fe82 0933 080d 2133
00000040: 1b70 fc33 4593 1c35 0000 0000 25f8 3734
00000050: a54c 4734 fe6f 0031 f0ee e631 cc91 3935
00000060: fc54 c731 18eb 0932 e9ec 7732 a0b7 1432
00000070: 294b 052e 0000 0000 c18e 9934 805f 1f33
00000080: 63b6 7032 08df ae34 f3ac a630 7d98 b230
00000090: 3a03 2131 a9e8 b432 d182 2730 5d41 c732
000000a0: 8bbd d831 a5a6 0431 3ccd ca33 7d0b 1f32
000000b0: 1197 cf2f 45e7 8430 72f5 9432 5e42 7d32
000000c0: 918f 3d33 e8c9 5b34 0000 0000 3838 2733
000000d0: 796e aa33 fd51 c930 831b 5031 487b 5234
000000e0: 0a74 3a31 b41e 0932 238c 2b32 2a9c 6b31
000000f0: 41ad 992d 0000 0000 2eb9 cf33 e694 ef32
00000100: 7d1b d632 e881 a634 2472 8730 7e25 9230
00000110: 5ab0 0031 918b 0933 6246 b230 8784 a532
00000120: 4370 7632 0d6d f930 008a c833 88d7 8d31
00000130: b1ab 452f bdb9 ae30 bcfc 9832 9088 1033
00000140: 0d41 3a33 4c14 5434 0000 0000 5baf 2433
00000150: 8d74 8333 14e0 8130 9efd fa30 df63 3034
00000160: 3a22 1031 d31f f130 fc56 4132 8c27 5631
00000170: 2ad1 9d2d 0000 0000 970f c533 dce8 d832
00000180: d94a f931 a6a3 8434 202b 5e30 4351 6730
00000190: 9333 f030 c1d5 5d32 5d49 242f 2d53 b832
000001a0: 23ea d631 c4b2 c530 fbf0 6933 1f96 2a31
000001b0: 5f0d ff2d 91b2 c130 dc62 0d32 6474 7832
000001c0: 98ab 2933 21b0 1834 0000 0000 8c7c 2333
000001d0: cd64 6a33 0f2e cc2f e7d7 a730 444d 0c34
000001e0: 63d1 bd30 9cd4 0031 74d0 3a31 26c2 1431
000001f0: 21bf 902d 0000 0000 de66 bf33 75ac 0532
00000200: 9d04 8931 8a0c 1234 e429 8830 f2a8 6f30
00000210: ae43 0831 45d8 ef31 6b56 712e a1cd 4b32
00000220: fe12 3f31 9319 da30 968d fe32 78f1 9531
00000230: abcf 422d bc3e 6430 2c46 d931 e84b 1e32
00000240: cce1 be32 4291 a733 0000 0000 48e3 9e32
00000250: bc17 1133 3be0 662f f2b1 8d30 7034 9c33
00000260: 1e6a ef30 b3ce 4030 ae6a b130 697e 1131
00000270: 8654 b32d 0000 0000 762f 4d33 6768 8931
00000280: 2fb3 c530 9cfe 6633 8dcd bc30 b113 9f30
00000290: 617a 2931 60d6 2231 7f6c c12d 48c9 a231
000002a0: 602b 5c30 5d4e f630 0da3 4232 aa92 7b31
000002b0: 71b9 e12c df4e ae2f 1277 1b31 3c04 4c31
000002c0: e45e 1d32 8e63 0433 0000 0000 d759 b731
000002d0: 7a86 7132 5b8c 532f e492 a030 0588 0033
000002e0: da67 0431 25f5 3c2f 6334 ef2f cebd 2531
000002f0: ebc9 cd2d 0000 0000 af95 a832 10c0 bc30
00000300: b1dd 0b31 f9e2 9133 1de7 b730 69b3 b830
00000310: 3273 4531 03b4 5231 3297 3f2e 0205 1032
00000320: 3168 7330 b526 2c31 38c4 7832 fd3a 7031
00000330: e799 472e e111 ef2f 9209 5331 213e 8231
00000340: f07a 4c32 c25a 2333 0000 0000 dbd5 bc31
00000350: 7871 a532 b424 2730 d565 0d31 ba88 1933
00000360: f8bf 1a31 973d f22f f2af 5230 8fb0 6b31
00000370: 9b6a e12d 0000 0000 2bb3 d132 cd12 2431
00000380: ff39 7731 c6a7 9e33 4f5a e030 939a c330
00000390: 6cbc 4331 0af6 ab31 fb8e cf2e 23d3 8f31
000003a0: c684 b530 2aad 2131 33fa c132 39bc af31
000003b0: 0691 802e 90c8 9330 6e5b 7231 8ad4 9731
000003c0: 5355 3b32 8831 5033 0000 0000 ed55 3632
000003d0: 0655 9132 970e ee2f 89e9 0631 d3c3 6c33
000003e0: 2381 2e31 69f1 bb2f 6de7 ab30 9d5c 6831
000003f0: 911b e72d 0000 0000 cb14 d232 d4a1 7031

exp_avg f4 [10]
0.00014724702 9.75574e-05 3.878405e-05 -4.991222e-06 -3.9990824e-05 -3.982092e-05 -4.9297785e-05 -5.1439136e-05
-6.077167e-05 -3.7276906e-05
00000000: 5266 1a39 bb97 cc38 0eac 2238 457a a7b6
00000010: d2bb 27b8 6305 27b8 18c5 4eb8 5ac0 57b8
00000020: 15e5 7eb8 c659 1cb8

exp_avg_sq f4 [10]
1.4516401e-07 5.2445635e-08 2.4560544e-08 1.553104e-08 1.5239173e-08 1.2638684e-08 1.4368802e-08 1.9698504e-08
3.280149e-08 2.1696285e-07
00000000: 61de 1b34 9640 6133 35f9 d232 1e69 8532
00000010: 4ce7 8232 8521 5932 a9da 7632 7835 a932
00000020: 9fe1 0c33 4bf6 6834
