code/2021-04-12_17-27.pth (torch, 20083 bytes, 18 tensors)

encoder.maxpool_conv.0.0.weight f4 [1, 1, 2, 50]
0	0xbc97286c	-0.018451892
1	0xbbe21745	-0.0068997466
2	0xbd256113	-0.04037578
3	0xbd4b2e7b	-0.049604874
4	0x3d9f6dca	0.077846125
5	0x3cb3fc68	0.021970943
6	0x3d1f530c	0.03889756
7	0xbc4f87d0	-0.012666658
8	0xbcb9b286	-0.022668134
9	0xbced9563	-0.029001897
10	0xbc9ce740	-0.019153237
11	0x3d1189ad	0.03553169
12	0x3d719725	0.058982033
13	0xbb2f38eb	-0.0026736807
14	0x3deef119	0.116670795
15	0xbd06f8bf	-0.032952067
16	0x3de71589	0.112834044
17	0x3d81e727	0.06342917
18	0xbd0ef0be	-0.03489756
19	0xbd8f3811	-0.06993116
20	0xbd4e7fe4	-0.050414935
21	0x3c4ea7d3	0.012613255
22	0x3c2d4a6b	0.010576825
23	0xbda4e9d6	-0.08052413
24	0x3cbe2b76	0.023214083
25	0xbd334671	-0.04376835
26	0x3d4dccba	0.05024407
27	0x3dc92750	0.098219514
28	0xbd1f8878	-0.038948506
29	0x3ce95c12	0.028486285
30	0x3daf5dee	0.085628375
31	0xbc9d5fb4	-0.019210674
32	0xbd3d1d27	-0.04617038
33	0xbd503120	-0.0508281
34	0xbd66be18	-0.05633363
35	0x3c8c5398	0.017129704
36	0xbb75bbe5	-0.0037496027
37	0xbde90121	-0.113771684
38	0x3cf6c615	0.03012375
39	0xbcc39750	-0.023875862
40	0xbdd172d1	-0.102269776
41	0xbd725a02	-0.05916787
42	0xbc57770f	-0.013150944
43	0xbced3d4d	-0.028959895
44	0xbbeec965	-0.0072871917
45	0xbc5838e5	-0.013197158
46	0x3d96ef31	0.07369841
47	0xbda32f2d	-0.079679824
48	0xba635fec	-0.0008673656
49	0x3dc79780	0.09745693
50	0x3dc3cb2b	0.095602356
51	0xbcc5971a	-0.024119902
52	0x3d459300	0.048235893
53	0x3d1e4649	0.038641248
54	0x3d2e61c5	0.04257371
55	0x3c1db1ea	0.009624938
56	0x3dda7b70	0.10668075
57	0x3cd4bf1e	0.025970038
58	0x3e278d69	0.16362537
59	0x3e02f127	0.12787305
60	0x3debeb1c	0.11519453
61	0x3d2eafb6	0.04264804
62	0xbd927930	-0.07152021
63	0x3d9c6752	0.07636894
64	0x3dd57dc7	0.10424381
65	0x3d978d41	0.07399989
66	0xbd04890b	-0.032357257
67	0x3dd6e1d5	0.10492293
68	0x3d44cdcf	0.048047837
69	0xbadec4b8	-0.0016995883
70	0x3d029ee3	0.031889807
71	0xbd019abd	-0.03164171
72	0x3da92382	0.08258726
73	0x3d3c78f6	0.046013795
74	0x3dd4316e	0.103609905
75	0xbd723fff	-0.059143063
76	0xbc261f07	-0.010139233
77	0x3d67413e	0.056458704
78	0x3cd2de1c	0.025740676
79	0xbd87d196	-0.06631772
80	0x3da0280c	0.07820138
81	0xbb85a469	-0.004078437
82	0x3baae659	0.005215448
83	0x3c52f36a	0.012875417
84	0x3d6bd743	0.057578336
85	0x3d82d59b	0.06388398
86	0xbd12c0be	-0.035828345
87	0xbb395582	-0.0028279726
88	0x3d4372df	0.04771697
89	0xbd69914a	-0.057023324
90	0xbd8c4690	-0.06849396
91	0x3d40cba7	0.047069218
92	0xbd8b6563	-0.06806447
93	0x3dc4656b	0.095896564
94	0x3ce083d8	0.027406618
95	0x3dd6a259	0.10480184
96	0x3d98b4cc	0.07456359
97	0xbd370490	-0.044682086
98	0x3ca7cd78	0.020483717
99	0x3daa1129	0.08304054

encoder.maxpool_conv.2.0.weight f4 [1, 1, 2, 50]
0	0xbbc23152	-0.0059262896
1	0xbc79856a	-0.015229562
2	0xbdbcf635	-0.09226648
3	0xbd365034	-0.04451008
4	0xbd1a3feb	-0.037658613
5	0x3d91ceb1	0.071195014
6	0xbc289cea	-0.0102913175
7	0xbbc10bc4	-0.005891295
8	0xbd3c5b92	-0.045985766
9	0x3d707dd9	0.058713768
10	0x3d134491	0.035954062
11	0x3dc60979	0.096697755
12	0x3d4430c5	0.047898073
13	0xbd994f07	-0.074857764
14	0x3dd24e4f	0.102688424
15	0xbda18927	-0.07887488
16	0x3cec6e45	0.028861174
17	0xbd8480b9	-0.064698644
18	0xbdc9971c	-0.09843275
19	0xbe157990	-0.14597154
20	0xbd75135d	-0.05983292
21	0x3bd3cad6	0.006463389
22	0xbd85a732	-0.065260306
23	0xbb47cc12	-0.0030486626
24	0xbdadfd96	-0.08495633
25	0x3cc81279	0.024422871
26	0xbd907518	-0.07053584
27	0xbda86147	-0.08221679
28	0x3c5c3a91	0.013441698
29	0xbc5488dc	-0.012972083
30	0x3dad961c	0.08475897
31	0xbd6d3385	-0.05791046
32	0x3d4e246a	0.050327696
33	0x3d008619	0.031377885
34	0x3d7ac5c1	0.06122375
35	0x3cbf0493	0.02331761
36	0x3d30c4f1	0.043156568
37	0xbd0b0ae4	-0.033945933
38	0x3c46305d	0.012096492
39	0xbceb678c	-0.028735898
40	0xbd89144c	-0.066933244
41	0x3b5e2fac	0.0033902926
42	0xbd38c7bd	-0.04511236
43	0x3c937182	0.01799846
44	0xbdf77d38	-0.120844305
45	0x3bab0911	0.0052195867
46	0xbd8f8364	-0.07007483
47	0x3d81e220	0.06341958
48	0xbde0db90	-0.10979378
49	0xbd3b947f	-0.045795914
50	0x3b835c5e	0.0040088138
51	0x3d8e4086	0.069459006
52	0x3d598d93	0.05311353
53	0xbcfedc6d	-0.031110967
54	0x3be39956	0.0069457693
55	0x3d50d2f2	0.050982423
56	0xbcca03f6	-0.024660092
57	0xbda34c2d	-0.07973514
58	0xbd45b401	-0.04826737
59	0x3d417315	0.04722889
60	0xbd135795	-0.035972197
61	0xbd235eae	-0.039885215
62	0xbd1155a0	-0.03548205
63	0x3c78a251	0.015175418
64	0xbd23f809	-0.040031467
65	0x3cc817c3	0.024425393
66	0x3a2d413a	0.0006609146
67	0xbd0a6503	-0.03378774
68	0xbd9af3c9	-0.075660296
69	0xbc520aa3	-0.012819919
70	0xbd31a464	-0.043369666
71	0xbd91b0d6	-0.07113807
72	0xbbacc586	-0.00527257
73	0xbdb3e4c6	-0.087838694
74	0xbda245d2	-0.079234734
75	0xbd8342f5	-0.064092554
76	0xbdf672da	-0.12033625
77	0x3ce3dc2c	0.027814947
78	0xbdef23e4	-0.116767675
79	0xbdb9c897	-0.090714626
80	0xbd7b7f07	-0.06140044
81	0xbb508357	-0.0031816566
82	0xbd9b0464	-0.07569197
83	0x3d90618e	0.07049857
84	0xbcad6eea	-0.021171052
85	0xba44bccf	-0.00075049413
86	0xbda31fd1	-0.07965053
87	0x3c0fed53	0.00878461
88	0x3dc71535	0.09720842
89	0xbcae1926	-0.021252226
90	0x3ca715d7	0.020396156
91	0x3d6daaac	0.058024094
92	0x3890c5e8	6.903318e-05
93	0x3d9c8a96	0.07643621
94	0x3ca1583d	0.019695396
95	0x3dc740ed	0.097291805
96	0x3ce18748	0.027530327
97	0x3b7c942e	0.003854047
98	0x3ba9a87c	0.0051775556
99	0x3dcb8e9e	0.099393114

decoder.linear1.weight f4 [32, 4]
0	0xbef0241e	-0.46902555
1	0xbd2b2b29	-0.041789208
2	0x3eabe549	0.33573368
3	0xbe219276	-0.15778527
4	0x3e3ad571	0.18245484
5	0x3e322aff	0.17399214
6	0xbeb0465c	-0.3442868
7	0x3e044fb2	0.12921026
8	0x3ebca756	0.36846417
9	0xbbd874ae	-0.006605706
10	0x3ebe18b8	0.37128234
11	0x3dfeb678	0.12437147
12	0xbef80ad0	-0.4844575
13	0x3c87fe00	0.016600609
14	0x3e85c7f3	0.26129112
15	0xbefa2d70	-0.4886279
16	0xbee9a784	-0.45635617
17	0x3a816400	0.0009871721
18	0x3e5bbe88	0.214594
19	0xbeea94fe	-0.45816797
20	0x3f0c5682	0.548195
21	0xbc0d2669	-0.008615115
22	0xbe427b65	-0.18992384
23	0xbe5ddfbb	-0.21667378
24	0xbea653bc	-0.3248576
25	0x3c07ba6f	0.008284195
26	0x3f11c428	0.56939936
27	0xbdd58f89	-0.10427768
28	0xbe560aa2	-0.20902494
29	0xbe7b5689	-0.2454473
30	0x3eadd97b	0.33954987
31	0xbe691015	-0.22760041
32	0xbef03ef8	-0.4692304
33	0xbe5b24e1	-0.21400787
34	0x3e0fb6ce	0.14034578
35	0x3d9207d7	0.071304016
36	0x3ea89330	0.32924795
37	0x3eb01846	0.3439352
38	0xbeee4098	-0.46533656
39	0x3f0349fb	0.5128476
40	0x3e093145	0.13397701
41	0x3ed0dc80	0.40793228
42	0x3f17997c	0.59218574
43	0xbdfced97	-0.12350004
44	0xbc79ea13	-0.015253562
45	0xbebfd149	-0.3746436
46	0x3e5de2f0	0.21668601
47	0x3bbaf512	0.005705484
48	0xbed17850	-0.40912104
49	0x3ef46e25	0.47740284
50	0x3db5bc57	0.088738136
51	0x3d1fcbbe	0.039012663
52	0xbf04c71f	-0.51866335
53	0xbd193e0f	-0.0374127
54	0x3e8ad500	0.2711563
55	0xbeceeace	-0.40413517
56	0x3e83db5e	0.257533
57	0x3e9f9cca	0.31174308
58	0xbeacdba1	-0.33761314
59	0xbe11ac72	-0.14225939
60	0xbe299210	-0.16559625
61	0x3ce12b06	0.027486335
62	0x3ec94541	0.3931065
63	0xbee9a46f	-0.45633265
64	0xbc7d3b6c	-0.015456062
65	0xbeb884bf	-0.36038777
66	0xbf05682c	-0.5211208
67	0xbe45c68b	-0.1931402
68	0x3ed75f5b	0.42064938
69	0x3e802982	0.25031668
70	0x3f1e10c4	0.6174433
71	0xbeb13b8c	-0.34615743
72	0xbea5f656	-0.32414502
73	0xbe85d555	-0.26139322
74	0xbdda9e0a	-0.10674675
75	0x3ef72953	0.48273715
76	0xbd8d0ae9	-0.068868466
77	0x3ec714dd	0.38883105
78	0xbee96fe0	-0.45593166
79	0x3e960c1a	0.29306108
80	0xbb4499d1	-0.0029998908
81	0x3eb559f8	0.35420203
82	0xbe8946bc	-0.2681178
83	0x3e6b46a8	0.22976172
84	0xbef8bbeb	-0.4858087
85	0x3d33fd98	0.043943018
86	0xbe6bbd5d	-0.23021455
87	0x3f18459b	0.5948121
88	0xbc9f6757	-0.019458456
89	0xbd4199b2	-0.047265716
90	0xbed36fc9	-0.41296223
91	0x3eecd92d	0.46259442
92	0x3dc8d524	0.09806278
93	0x3e4a00d4	0.19726878
94	0x3ef7be6d	0.4838747
95	0xbebddd68	-0.37082982
96	0x3eaf5fdf	0.3425283
97	0xbe7ac6a0	-0.24489832
98	0x3f099f6e	0.53758895
99	0xbc3871c4	-0.011257593
100	0x3ebb006b	0.36523756
101	0xbe2dbbf2	-0.16966227
102	0xbc7cf753	-0.015439826
103	0x3c7c8bb7	0.01541417
104	0x3c341ab2	0.010992693
105	0x3cf37ce9	0.029722648
106	0xbea4dbcd	-0.32198945
107	0xbed2a69b	-0.41142735
108	0xbbae8880	-0.0053263307
109	0xbee78642	-0.45219618
110	0x3e88feed	0.26756993
111	0xbed73482	-0.42032248
112	0xbe7a03b3	-0.24415474
113	0x3dfca0d2	0.123353615
114	0xbebd2200	-0.36940002
115	0x3e8bcafd	0.27303305
116	0x3d07f19a	0.033189394
117	0xbde162ec	-0.11005196
118	0xbea2f8f4	-0.3183056
119	0x3f21b427	0.63165516
120	0xbecc456e	-0.3989672
121	0x3e0198f0	0.12655997
122	0xbebd3dba	-0.36961156
123	0xbec13dcc	-0.3774246
124	0x3e85a33c	0.261011
125	0x3dfa0ecd	0.12209854
126	0x3eb07020	0.34460545
127	0x3e8c7509	0.2743304

decoder.linear1.bias f4 [32]
0	0xbdef5ff4	-0.116882235
1	0xbc559543	-0.013036075
2	0x3deb4826	0.114883706
3	0xbef1fb22	-0.47261912
4	0xbee26aba	-0.4422205
5	0x3ebe03f5	0.37112394
6	0x3e54078d	0.20706005
7	0x3eb6cc8b	0.3570293
8	0xbe470bd2	-0.19438103
9	0x3e4063da	0.1878809
10	0xbebb38c3	-0.36566743
11	0xbe36cbf7	-0.17851244
12	0xbea46cc1	-0.32114223
13	0xbdeb347f	-0.11484622
14	0xbe738b60	-0.23783636
15	0x3ece9d3c	0.40354335
16	0x3efd52d9	0.4947727
17	0xbdc8c5e2	-0.09803368
18	0x3ea1ebac	0.31625116
19	0xbe2c555b	-0.16829436
20	0x3b00a99d	0.0019632347
21	0x3caa58a3	0.020794218
22	0x3d14b313	0.03630359
23	0x3e8d0741	0.27544597
24	0x3eb2fee1	0.34960082
25	0x3e9f99cb	0.31172022
26	0x3ec05c2a	0.37570316
27	0xbee0ee36	-0.4393174
28	0x3ed9c2bb	0.4253138
29	0x3e8379b7	0.256788
30	0xbefa9562	-0.48942095
31	0xbdcf3f3a	-0.101194814

decoder.linear2.weight f4 [10, 32]
0	0xbe1814fe	-0.14851758
1	0xbdb2ecb7	-0.08736556
2	0x3d9b6436	0.07587473
3	0x3cc86c35	0.02446566
4	0x3e18e077	0.14929377
5	0xbe5ef550	-0.21773267
6	0xbe6b03dd	-0.22950692
7	0xbe61ab88	-0.2203809
8	0xbd745273	-0.059648942
9	0x3e105f14	0.1409877
10	0xbd0fd26f	-0.035112794
11	0xbe026ca5	-0.12736757
12	0x3e412293	0.18860845
13	0xbe1d9aed	-0.15391131
14	0x3e08e148	0.13367188
15	0xbe3733c4	-0.17890841
16	0xbe6b1f43	-0.22961144
17	0xbe7023b7	-0.23451124
18	0x3e080eac	0.13286847
19	0x3e405c0b	0.18785112
20	0x3e4db006	0.20086679
21	0x3ddaa4f8	0.106759965
22	0x3e490dc0	0.19634151
23	0xbc8cdd1b	-0.017195275
24	0xbe42507b	-0.18976013
25	0xbcb51791	-0.022105964
26	0xbe47f3ce	-0.19526598
27	0xbc5836b7	-0.013196639
28	0x3e2bb4f6	0.1676825
29	0xbe278e06	-0.16362771
30	0x3db58166	0.088625714
31	0x3dedf816	0.11619584
32	0x3d922dfa	0.071376756
33	0x3e3f2147	0.18665038
34	0xbdbd0adb	-0.09230586
35	0x3d8db5ee	0.06919466
36	0x3e2e283a	0.17007533
37	0x3da7e6c6	0.081983134
38	0xbe4fa187	-0.20276462
39	0xbdd373d0	-0.10324824
40	0xbd945d18	-0.07244319
41	0x3e03eb6b	0.12882774
42	0xbd694a07	-0.056955364
43	0xbc71b13d	-0.01475173
44	0x3e39e353	0.18153124
45	0x3e12fce0	0.14354277
46	0xbe2007da	-0.15627995
47	0xbe22af33	-0.15887146
48	0xbe75f6da	-0.24019948
49	0xbe4eda85	-0.20200546
50	0x3da3f77b	0.080061875
51	0x3e83472c	0.25640237
52	0x3e4f92e1	0.20270874
53	0x3dbc79c2	0.09202911
54	0x3ea99921	0.3312464
55	0xbde0429e	-0.10950206
56	0xbe1609b5	-0.1465214
57	0xbe7b64c2	-0.24550155
58	0xbe3f50fb	-0.18683235
59	0xbe27f6d1	-0.16402747
60	0xbd3568c1	-0.044289354
61	0xbd47e0f1	-0.048798505
62	0x3d2e176a	0.0425028
63	0x3e1123b9	0.14173783
64	0xbd6ff046	-0.058578752
65	0xbd0db3f7	-0.034595456
66	0xbde9e36e	-0.11420332
67	0xbde6d87f	-0.11271762
68	0x3defac54	0.11702791
69	0xbe23fdc1	-0.16014768
70	0x3d6d9dbb	0.05801175
71	0xbe68f644	-0.22750193
72	0x3dcf0807	0.10108953
73	0x3e04761f	0.12935685
74	0xbe513575	-0.20430548
75	0xbd017f39	-0.03161547
76	0x3e9cb5de	0.30607504
77	0x3d45deb1	0.04830808
78	0x3e3ce9e9	0.18448605
79	0xbdd6257a	-0.10456367
80	0x3c85ae19	0.016318368
81	0x3d32c7ce	0.04364758
82	0x3cf6bdf6	0.030119877
83	0x3e0b95d5	0.13631375
84	0x3e607494	0.21919471
85	0x3e4517b5	0.19247325
86	0x3e876747	0.26445982
87	0xbe715295	-0.23566659
88	0xbdac6c6a	-0.08419116
89	0xbe8121cb	-0.25221094
90	0xbe2ae169	-0.1668755
91	0x3ce5033d	0.027955646
92	0x3c4731d3	0.012157875
93	0x3e4398d0	0.19101262
94	0x3db63337	0.08896487
95	0x3d8047a9	0.06263668
96	0xbd8f801b	-0.07006856
97	0xbca2e9fa	-0.01988696
98	0xbdb8b193	-0.090182446
99	0xbe1e3fea	-0.15454069
100	0xbd598c26	-0.05311217
101	0xbdd4073a	-0.10352941
102	0xbe5785cd	-0.21047135
103	0xbd7712fa	-0.06032083
104	0xbc1bee80	-0.009517312
105	0xbc136659	-0.00899657
106	0x3d9dbeb3	0.077023886
107	0xbe31c374	-0.17359716
108	0x3e9e8d2f	0.3096709
109	0x3d56c45d	0.05243336
110	0xbc090d6f	-0.008365019
111	0xbd82dc64	-0.063896924
112	0xbe1cdc71	-0.15318467
113	0x3bca2cb8	0.0061698817
114	0xbc95ffee	-0.018310513
115	0x3ea1aebf	0.31578633
116	0x3e148305	0.14503105
117	0x3e71dcfb	0.23619454
118	0x3eb41ec1	0.35179713
119	0xbe3ca553	-0.18422441
120	0xbe079813	-0.13241605
121	0xbdfce610	-0.123485684
122	0xbcb22889	-0.021747844
123	0x3d6bb203	0.057542812
124	0x3e2463b6	0.16053662
125	0x3e5864eb	0.21132247
126	0x3e063445	0.13105877
127	0xbd0cb43b	-0.03435157
128	0x3cd39683	0.025828606
129	0x3d757a6f	0.059931215
130	0xbde640ec	-0.112428516
131	0xbe12121c	-0.1426472
132	0xbd364189	-0.044496093
133	0xbdd9b72c	-0.106306404
134	0xbe66f044	-0.22552592
135	0x3d36698f	0.044534262
136	0xbdae15d9	-0.08500261
137	0x3e0a1a68	0.13486636
138	0xbd94f141	-0.07272578
139	0xbdecdaaf	-0.11565148
140	0x3e9b0ed2	0.30284745
141	0x3e0be135	0.13660128
142	0x3df6cbe6	0.12050609
143	0xbe474ecd	-0.19463654
144	0xbe7ae3e0	-0.2450099
145	0xbd0b1b39	-0.03396151
146	0x3dae8d5f	0.08523058
147	0x3e22fd17	0.15916859
148	0x3d5d1c79	0.05398223
149	0x3e9f6ba5	0.31136814
150	0x3ec066dc	0.37578475
151	0xbe36aedd	-0.17840143
152	0xbd94e6b6	-0.07270567
153	0xbe40ad05	-0.18816002
154	0xbae56c11	-0.001750352
155	0xbda7cb6b	-0.08193096
156	0x3d3929d0	0.04520589
157	0x3e12d1bd	0.14337821
158	0x3c4c6a69	0.012476542
159	0xbd55b29b	-0.052172285
160	0xbe0fffc6	-0.14062414
161	0x3cbcc0bf	0.023041127
162	0x3dd63f50	0.10461295
163	0xbe2851e3	-0.16437487
164	0xbdfcaf0e	-0.123380765
165	0x3d6b01ac	0.05737464
166	0xbd83981f	-0.06425499
167	0xbe5ea540	-0.21742725
168	0x3d1215c0	0.035665274
169	0x3d96f660	0.07371211
170	0xbe36276f	-0.1778848
171	0x3d16998a	0.03676752
172	0x3e6bcc66	0.2302719
173	0xbe2f5813	-0.17123441
174	0xbd246d85	-0.04014351
175	0xbd949805	-0.07255558
176	0xbe5a185d	-0.21298356
177	0xbe69d4da	-0.22835103
178	0x3e953522	0.291421
179	0x3e976716	0.29570836
180	0x3d49e0f2	0.04928679
181	0x3e2cc23f	0.16870974
182	0x3eaced7d	0.3377494
183	0xbdfc5a40	-0.12321901
184	0xbe849c3b	-0.25900444
185	0xbe1bf0eb	-0.15228622
186	0xbe688497	-0.22706829
187	0xbe2757a6	-0.16342029
188	0x3db810e1	0.089875944
189	0x3d98015b	0.074221335
190	0x3e11642b	0.14198367
191	0x3d05d384	0.03267242
192	0xbd905a01	-0.07048417
193	0x3e1f709d	0.15570302
194	0xbdd03f81	-0.101683624
195	0x3dd24200	0.10266495
196	0x3e241053	0.16021852
197	0x3c0f1a7d	0.008734343
198	0xbe52b5d1	-0.2057717
199	0x3d2cf0fe	0.042222016
200	0xbde59593	-0.1121017
201	0x3e4b75c0	0.19869137
202	0xbe305a92	-0.1722205
203	0xbe119703	-0.14217763
204	0x3de60255	0.112309135
205	0xbd9a3f9f	-0.07531666
206	0xbd988759	-0.074476905
207	0xbe01f506	-0.12691125
208	0xbe3a4799	-0.18191375
209	0xbe43cd8a	-0.19121376
210	0x3e9322b0	0.28737402
211	0x3e41687b	0.18887512
212	0x3e059417	0.13044773
213	0x3e235b69	0.15952839
214	0x3e37686b	0.17910926
215	0xbd2253d5	-0.03963073
216	0xbe8a6642	-0.27031142
217	0xbe459954	-0.19296771
218	0xbe0750aa	-0.13214365
219	0xbdce9a1d	-0.100879885
220	0x3e02018d	0.12695904
221	0x3cadb695	0.021205226
222	0xbdb005fe	-0.08594893
223	0x3de57d49	0.11205537
224	0x3cae5644	0.021281369
225	0x3e155e5c	0.14586776
226	0xbe167e5b	-0.14696638
227	0xbda38933	-0.07985153
228	0xbd097b28	-0.033564717
229	0xbd96aa91	-0.07356752
230	0x3ccd35af	0.025050012
231	0xbdd9b3ef	-0.10630023
232	0xbc4e3462	-0.012585731
233	0x3e5ec296	0.21753916
234	0xbd5f65e0	-0.054540515
235	0x3de04941	0.10951472
236	0x3e57923d	0.21051879
237	0xbd19d12a	-0.03755299
238	0xbd4fe010	-0.050750792
239	0xbe186e8c	-0.1488592
240	0xbd5fbc88	-0.054623157
241	0xbe2cadb3	-0.16863136
242	0x3e568cc5	0.20952137
243	0x3dc86020	0.097839594
244	0xbd178802	-0.03699494
245	0x3e80307a	0.25036985
246	0x3e37817d	0.1792049
247	0xbe7ab694	-0.2448371
248	0xbdb231d0	-0.08700907
249	0x3b141ce9	0.002260024
250	0xbdb66e8a	-0.089078024
251	0xbe3b68bd	-0.18301673
252	0x3dfa5371	0.122229464
253	0x3e764074	0.24048024
254	0x3dcd8c44	0.10036519
255	0xbde01af5	-0.10942642

decoder.linear2.bias f4 [10]
0	0x3c0d5b34	0.008627702
1	0x3d03c8af	0.03217381
2	0xbda55f30	-0.08074796
3	0xbdfca83b	-0.12336775
4	0xbd50e47c	-0.05099915
5	0xbd8b2235	-0.06793634
6	0xbdbf67ac	-0.09345946
7	0xbe3eb26a	-0.18622747
8	0xbe049169	-0.12946095
9	0xbdc19b41	-0.094534405

exp_avg f4 [1, 1, 2, 50]
0	0xb9836324	-0.00025060133
1	0x3a499dfc	0.0007691083
2	0x3a674261	0.0008821842
3	0xba1274e9	-0.0005586879
4	0x3ac09023	0.0014691394
5	0x3c0adb54	0.008475143
6	0x3c1427c4	0.009042684
7	0x3c1d3d9a	0.0095972065
8	0x3c41b537	0.01182299
9	0x3c80908b	0.015693923
10	0x3c8cc6d0	0.017184645
11	0x3c85549c	0.016275696
12	0x3c8fb6d9	0.017543243
13	0x3c8915e3	0.01673407
14	0x3c61d8ad	0.01378457
15	0x3c71d50a	0.014760265
16	0x3c98eca0	0.01866752
17	0x3caf1843	0.021373874
18	0x3cbafd57	0.02282588
19	0x3cba7bef	0.022764174
20	0x3ccac607	0.02475263
21	0x3cea275e	0.028583225
22	0x3ce4b55c	0.02791851
23	0x3cc7f85d	0.024410421
24	0x3cb89f91	0.022537025
25	0x3ca38efe	0.019965645
26	0x3c9266e1	0.017871322
27	0x3c0c3ced	0.008559448
28	0x3b9bd861	0.004756019
29	0xba4680a4	-0.00075722695
30	0xbc12040d	-0.008912099
31	0xbc4db1be	-0.012554584
32	0xbc8a7d88	-0.016905561
33	0xbca8a89b	-0.02058821
34	0xbc801e19	-0.015639352
35	0xbc493639	-0.012280994
36	0xbbfa76d6	-0.007643561
37	0x3882010c	6.199078e-05
38	0xb96f96de	-0.00022849019
39	0xb96b715e	-0.00022453579
40	0x3b08d3bd	0.002087816
41	0x3bee7682	0.007277311
42	0x3c34fd1b	0.011046673
43	0x3c671fcf	0.014106705
44	0x3c6db282	0.014507892
45	0x3c92c826	0.017917704
46	0x3ca8cc1f	0.020605145
47	0x3cb88043	0.022522097
48	0x3cfb956d	0.0307109
49	0x3d08021c	0.033205137
50	0xbc9cf521	-0.019159855
51	0xbca3c295	-0.019990245
52	0xbc971937	-0.01844464
53	0xbc979f83	-0.018508678
54	0xbc77d6af	-0.015126868
55	0xbc3afecf	-0.01141329
56	0xbc564dcf	-0.013080074
57	0xbc30299d	-0.010752109
58	0xbc0c16b8	-0.008550338
59	0xbb4dbc9b	-0.0031392935
60	0xbb250b91	-0.0025183896
61	0xbb522947	-0.003206806
62	0xbaf824b4	-0.0018931837
63	0xbb1fe41d	-0.002439744
64	0xbad21dac	-0.0016030571
65	0x3b84ffca	0.0040588127
66	0x3bbfee67	0.005857277
67	0x3bebbe16	0.007194291
68	0x3c1f724b	0.009731839
69	0x3c37d37c	0.011219855
70	0x3c3c7955	0.011503537
71	0x3c439d55	0.011939366
72	0x3c49ac1d	0.012309101
73	0x3c1901ec	0.009338837
74	0x3bdf37fc	0.006812094
75	0x3bb92083	0.0056496277
76	0x3992834f	0.00027945123
77	0xbb68f355	-0.0035545428
78	0xbbcb0882	-0.0061960826
79	0xbc7558c7	-0.014974779
80	0xbcd40528	-0.025881365
81	0xbd03a554	-0.03214009
82	0xbd17b17f	-0.037034508
83	0xbd326f6c	-0.04356329
84	0xbd269a4b	-0.04067449
85	0xbd0bd789	-0.034141097
86	0xbceb3bca	-0.028715033
87	0xbcbdb29f	-0.023156462
88	0xbcbda447	-0.023149623
89	0xbcab3c6b	-0.020902833
90	0xbc9bdd78	-0.019026503
91	0xbc5dff8b	-0.013549696
92	0xbb9b306a	-0.004735996
93	0x399e5d78	0.00030205748
94	0x3a9a114a	0.001175442
95	0x3b75f6db	0.003753117
96	0x3bc63d41	0.0060497825
97	0x3c329260	0.010899156
98	0x3c872fe4	0.016502328
99	0x3c80826d	0.015687192

exp_avg_sq f4 [1, 1, 2, 50]
0	0x3c70b344	0.014691178
1	0x3c4e29e2	0.012583228
2	0x3c390a2f	0.011293932
3	0x3c2b60e5	0.010460113
4	0x3c276a61	0.010218234
5	0x3c23b042	0.009990754
6	0x3c21dbae	0.009879036
7	0x3c19e554	0.009393055
8	0x3c1f9eaa	0.009742418
9	0x3c32a77b	0.010904188
10	0x3c41213b	0.011787708
11	0x3c43d61f	0.011952906
12	0x3c4b191c	0.012396123
13	0x3c4c5052	0.012470322
14	0x3c3d0ae9	0.011538246
15	0x3c3c9f2b	0.011512558
16	0x3c315172	0.010822641
17	0x3c1db401	0.009625436
18	0x3c1cc58e	0.009568585
19	0x3c183d02	0.009291889
20	0x3c1fcba5	0.0097531425
21	0x3c27f953	0.010252315
22	0x3c396fdd	0.011318174
23	0x3c4ca5c4	0.0124906935
24	0x3c60fdff	0.013732432
25	0x3c796fa5	0.015224372
26	0x3c8b0cc9	0.01697387
27	0x3c97bb3c	0.018521897
28	0x3caa696f	0.020802228
29	0x3cbf2b40	0.023336053
30	0x3ccc2ad6	0.02492277
31	0x3cd7330c	0.026269458
32	0x3cde49c5	0.027134785
33	0x3ceb09de	0.028691228
34	0x3cf16288	0.029465929
35	0x3ce85b44	0.028363831
36	0x3ce74d23	0.028235024
37	0x3ce5742e	0.0280095
38	0x3cecef3a	0.028922666
39	0x3cf2257b	0.029558888
40	0x3cf4e7aa	0.029895622
41	0x3cf34674	0.02969668
42	0x3cf7d58f	0.0302532
43	0x3cf9dce7	0.030500842
44	0x3cecd255	0.028908888
45	0x3ce31132	0.02771816
46	0x3cd1d39c	0.025613599
47	0x3cbb91a6	0.022896599
48	0x3cb76ed8	0.022391722
49	0x3cac61d7	0.021042747
50	0x3c0e4156	0.0086825695
51	0x3beb17e1	0.0071744774
52	0x3bc26b9b	0.0059332377
53	0x3b9b8241	0.004745752
54	0x3b81e586	0.003964129
55	0x3b59dd39	0.0033243431
56	0x3b3f49d6	0.0029188297
57	0x3b2e7bc0	0.0026624054
58	0x3b308515	0.0026934792
59	0x3b4bd0eb	0.0031099867
60	0x3b57d32e	0.003293227
61	0x3b5e9e58	0.0033968892
62	0x3b4737ae	0.0030398178
63	0x3b25e5e8	0.0025314037
64	0x3b007981	0.0019603672
65	0x3b0a35f7	0.0021089294
66	0x3afb0d58	0.0019153757
67	0x3b0cac79	0.0021465106
68	0x3b39d6ea	0.0028356859
69	0x3b742fba	0.0037259893
70	0x3bad6926	0.0052920757
71	0x3bcab3e9	0.0061859977
72	0x3bfc87c1	0.007706613
73	0x3c1c0d2e	0.009524627
74	0x3c4e5610	0.012593761
75	0x3c7c2375	0.015389313
76	0x3c9ccccf	0.01914063
77	0x3caa849a	0.020815182
78	0x3cc5c07d	0.024139637
79	0x3cdd4d3b	0.027014365
80	0x3cee1538	0.029062852
81	0x3ceeb21c	0.029137664
82	0x3cf8886a	0.030338485
83	0x3d05081c	0.032478437
84	0x3d099bd4	0.033595875
85	0x3d01ac4f	0.031658467
86	0x3cfc8296	0.030823987
87	0x3d00018b	0.03125147
88	0x3d039d56	0.03213247
89	0x3d053200	0.032518387
90	0x3d0478c5	0.032341737
91	0x3d06b16d	0.03288405
92	0x3d0809aa	0.03321234
93	0x3d08ee5b	0.03343044
94	0x3d021ed7	0.031767692
95	0x3cf21920	0.029552996
96	0x3ce1fe49	0.027587073
97	0x3ccaab48	0.024739876
98	0x3cc16ce5	0.023611495
99	0x3cb12b37	0.021627052

exp_avg f4 [1, 1, 2, 50]
0	0x3cf6b346	0.030114781
1	0x3cb946fc	0.022616856
2	0x3c85b659	0.016322302
3	0x3c328c5d	0.010897723
4	0x3c5a53cd	0.013325644
5	0x3c7c7bfe	0.015410421
6	0x3bfc03c9	0.007690881
7	0xb999f10d	-0.0002936203
8	0xbb6c6ac7	-0.0036074386
9	0xbba6be53	-0.0050886064
10	0xbb4081c1	-0.0029374214
11	0xbbe88d08	-0.0070968904
12	0xbc36dcab	-0.01116101
13	0xbc46988f	-0.012121334
14	0xbc26504e	-0.010150982
15	0xbc0ce480	-0.0085994005
16	0xbba27dee	-0.0049588596
17	0xbb13f40e	-0.0022575888
18	0x392d7666	0.00016542673
19	0x3ac894d6	0.0015303146
20	0x3b4a5695	0.003087436
21	0x3b7a2473	0.0038168698
22	0x3b5c9421	0.0033657628
23	0x3b4f5e6f	0.003164198
24	0x3a9650ca	0.0011468169
25	0x39e15430	0.0004297807
26	0xb9dfb47b	-0.00042668343
27	0xba8b36d9	-0.0010621204
28	0xba4ebfb8	-0.00078868447
29	0x3b00853a	0.001961066
30	0x3b774835	0.0037732248
31	0x3bbfe70d	0.005856401
32	0x3c4fe574	0.012688983
33	0x3c8182fd	0.01580953
34	0x3c87c168	0.016571715
35	0x3c9d9569	0.019236283
36	0x3caf3fff	0.02139282
37	0x3c8c53d8	0.017129824
38	0x3be80d26	0.0070816455
39	0xbacdae86	-0.0015692271
40	0xb9ae6e7b	-0.0003327018
41	0x3b27011e	0.0025482844
42	0x3b475401	0.003041506
43	0x378d27ac	1.6826983e-05
44	0xbb790014	-0.0037994431
45	0xbbb3b75b	-0.005484504
46	0xbc2f21b6	-0.01068919
47	0xbc42d7c2	-0.011892261
48	0xbc2c98c9	-0.010534474
49	0xbc4325a5	-0.011910831
50	0xbc9681ef	-0.018372504
51	0xbc87519f	-0.016518412
52	0xbc69ab48	-0.014262028
53	0xbc464190	-0.012100592
54	0xbbccf99f	-0.006255343
55	0xbbbe18a7	-0.0058012786
56	0xbc262151	-0.010139779
57	0xbc24e6b6	-0.010064771
58	0xbc247fe7	-0.01004026
59	0xbc3f104d	-0.011661601
60	0xbc16c86a	-0.009203056
61	0xbbf97761	-0.007613108
62	0xbb88bb3e	-0.0041727116
63	0xbbc27a7a	-0.0059350105
64	0xbc115b80	-0.008871913
65	0xbbfbf37f	-0.007688939
66	0xbc03f2e3	-0.008053514
67	0xbc0eaa1e	-0.008707551
68	0xbc081ec0	-0.008308113
69	0xbbf601ef	-0.0075075547
70	0xbbebc8ff	-0.0071955915
71	0xbc0b19d1	-0.008490042
72	0xbc0f63cf	-0.008751824
73	0xbc1d6ffb	-0.009609218
74	0xbc1c361d	-0.009534386
75	0xbc2a2db2	-0.010386871
76	0xbc540ad9	-0.012942039
77	0xbc84a6dd	-0.016192848
78	0xbca76b1e	-0.02043682
79	0xbcc460b0	-0.023971885
80	0xbcba23fe	-0.02272224
81	0xbcb18810	-0.021671325
82	0xbcbd3a97	-0.023099227
83	0xbce7df6d	-0.02830478
84	0xbd0a3e6f	-0.033750948
85	0xbd11eaaf	-0.035624202
86	0xbd107727	-0.035269883
87	0xbcf3fd34	-0.029783823
88	0xbcd96f37	-0.02654229
89	0xbcc7a92d	-0.024372661
90	0xbcd4f919	-0.025997685
91	0xbcd00c33	-0.025396442
92	0xbcdee9b1	-0.027211042
93	0xbd00584c	-0.031334206
94	0xbd1119cb	-0.03542499
95	0xbd1c8516	-0.03821286
96	0xbd1f9508	-0.038960487
97	0xbd1e890b	-0.038704913
98	0xbd2d5f10	-0.042326987
99	0xbd417742	-0.047232874

exp_avg_sq f4 [1, 1, 2, 50]
0	0x3cc13e93	0.023589408
1	0x3cb45f22	0.02201802
2	0x3ca9ca58	0.020726368
3	0x3ca0dda4	0.019636936
4	0x3c96185f	0.018322168
5	0x3c8c8f19	0.017158078
6	0x3c7fb543	0.015607181
7	0x3c5ccf0a	0.013477096
8	0x3c4223b9	0.011849337
9	0x3c3069ec	0.010767441
10	0x3c1e5ae5	0.009665226
11	0x3c07fecf	0.008300497
12	0x3bef8f6c	0.0073107984
13	0x3bda48d3	0.0066615134
14	0x3bc68df1	0.006059401
15	0x3bb7da4a	0.005610739
16	0x3bad4cb2	0.005288684
17	0x3ba0d9b4	0.0049087647
18	0x3b9636f5	0.004584188
19	0x3b958ec8	0.00456414
20	0x3b946b7b	0.004529414
21	0x3b9885dc	0.004654629
22	0x3ba29ab2	0.004962289
23	0x3bb50f0b	0.005525475
24	0x3bcf946b	0.0063348315
25	0x3be68785	0.007035198
26	0x3c045f18	0.008079313
27	0x3c145e17	0.009055636
28	0x3c25b6dd	0.010114399
29	0x3c3350a3	0.010944518
30	0x3c3f4658	0.011674486
31	0x3c4b9b0b	0.012427102
32	0x3c5b50b3	0.013385939
33	0x3c76378a	0.01502789
34	0x3c8d903a	0.017280687
35	0x3ca3cd53	0.019995367
36	0x3cbebd1e	0.023283537
37	0x3cd6ccd8	0.026220724
38	0x3cf91379	0.030404793
39	0x3d0d68ac	0.03452365
40	0x3d1d84d6	0.03845676
41	0x3d2c5155	0.04206975
42	0x3d3f6937	0.0467312
43	0x3d4a27bb	0.049354296
44	0x3d569ec1	0.052397493
45	0x3d695cdb	0.05697332
46	0x3d809184	0.06277755
47	0x3d872613	0.06599059
48	0x3d8df5ba	0.06931634
49	0x3d8c153f	0.0683999
50	0x3cdf24f2	0.027239297
51	0x3cd2ed94	0.025748052
52	0x3cd21bca	0.025648016
53	0x3ccf56d5	0.02530996
54	0x3cc8b5b3	0.024500703
55	0x3cbf7bea	0.023374517
56	0x3cabd4b9	0.020975458
57	0x3c86c332	0.016450498
58	0x3c5a5eec	0.013328295
59	0x3c303f92	0.010757344
60	0x3c158649	0.009126254
61	0x3c017ae7	0.007902837
62	0x3bfc38bd	0.0076971934
63	0x3bf97e90	0.0076139644
64	0x3be02178	0.0068399273
65	0x3bd5701f	0.00651361
66	0x3bc9c5f3	0.0061576306
67	0x3ba0d324	0.0049079824
68	0x3b866792	0.004101702
69	0x3b70861a	0.0036701025
70	0x3b542431	0.0032370205
71	0x3b3e5072	0.0029039648
72	0x3b3aa688	0.0028480608
73	0x3b3a0f10	0.0028390326
74	0x3b3e544c	0.0029041944
75	0x3b4cc8ec	0.0031247688
76	0x3b6f2be5	0.003649467
77	0x3b8d8cb2	0.0043197507
78	0x3bab36d7	0.0052250433
79	0x3bc71706	0.0060757427
80	0x3bec1e00	0.0072057247
81	0x3c0eb970	0.008711204
82	0x3c281b0e	0.010260357
83	0x3c48cce7	0.012255884
84	0x3c77ddad	0.015128535
85	0x3c911d05	0.017714033
86	0x3cadc31d	0.021211201
87	0x3ccedecb	0.02525272
88	0x3cecd768	0.028911307
89	0x3d01d2d5	0.031695206
90	0x3d0f2807	0.034950282
91	0x3d162232	0.036653705
92	0x3d1dc0e3	0.03851403
93	0x3d2193e6	0.039447688
94	0x3d2d181e	0.042259328
95	0x3d3436d2	0.043997593
96	0x3d39e486	0.045383953
97	0x3d366882	0.04453326
98	0x3d3d0640	0.04614854
99	0x3d3730b7	0.044724192

exp_avg f4 [32, 4]
0	0x35ada3cd	1.2937177e-06
1	0x36a5e786	4.944336e-06
2	0x3818c0d5	3.6419213e-05
3	0x38024d0f	3.106618e-05
4	0xba6f7c55	-0.00091356534
5	0xbb4785d2	-0.0030444753
6	0xba76a6e4	-0.0009409024
7	0xbb53a8c5	-0.003229664
8	0x3a656990	0.0008751387
9	0x3b2b8f76	0.0026178039
10	0x3a6f3cfa	0.00091262127
11	0x3b2da58f	0.0026496386
12	0x00000000	0.0
13	0x00000000	0.0
14	0x80000004	-6e-45
15	0x00000000	0.0
16	0x00000000	0.0
17	0x00000000	0.0
18	0x00000000	0.0
19	0x00000000	0.0
20	0x3a7a776b	0.0009554538
21	0x3b17ae6c	0.0023144735
22	0x3a82d765	0.0009982405
23	0x3b1007f6	0.0021977401
24	0x3b1b1034	0.002366078
25	0x3bd7d668	0.0065868385
26	0x3b24156a	0.0025037178
27	0x3bd14174	0.0063859764
28	0x3883db99	6.28747e-05
29	0xb92b9dca	-0.00016366612
30	0xb79b534d	-1.851623e-05
31	0xb9cdc880	-0.0003925003
32	0x80000004	-6e-45
33	0x00000004	6e-45
34	0x00000004	6e-45
35	0x00000004	6e-45
36	0xbae82982	-0.0017712566
37	0xbbaec162	-0.0053331116
38	0xbaf9eca1	-0.0019067713
39	0xbbaf9880	-0.0053587556
40	0x3ac6a6b1	0.0015155879
41	0x3bac54e4	0.005259143
42	0x3ae91f1f	0.0017785764
43	0x3baefd91	0.005340286
44	0x00000004	6e-45
45	0x00000004	6e-45
46	0x00000004	6e-45
47	0x80000004	-6e-45
48	0xbbac008e	-0.0052490896
49	0xbc24214d	-0.010017705
50	0xbbaf7632	-0.005354666
51	0xbc1aa0ab	-0.00943772
52	0x00000004	6e-45
53	0x80000004	-6e-45
54	0x00000004	6e-45
55	0x00000004	6e-45
56	0xb89e346f	-7.5437936e-05
57	0xb9aa1cc5	-0.00032446362
58	0xb8454030	-4.702824e-05
59	0xb9a255c1	-0.0003096294
60	0xb913eae6	-0.00014106519
61	0x3a4473db	0.00074940705
62	0xb9152f2a	-0.00014227317
63	0x3a2ee652	0.00066718936
64	0x3889248f	6.5394786e-05
65	0xb9451a52	-0.00018797189
66	0x3911366c	0.00013848551
67	0xb909a89c	-0.0001312815
68	0x3b0be599	0.0021346568
69	0x3ba2534a	0.0049537765
70	0x3b1ae10b	0.0023632671
71	0x3ba966dc	0.0051697325
72	0xbb19cd0c	-0.0023468165
73	0xbbeddeb8	-0.007259216
74	0xbb235398	-0.0024921652
75	0xbbf415e7	-0.0074489
76	0xbb3a8e6a	-0.0028466233
77	0xbc0fba94	-0.008772511
78	0xbb3df271	-0.0028983618
79	0xbc04deac	-0.00810973
80	0xbadabb0c	-0.0016687824
81	0xbb937052	-0.0044994736
82	0xbaf828bb	-0.0018933037
83	0xbb8918ab	-0.004183849
84	0xbbd13cd6	-0.006385426
85	0xbc55533f	-0.013020336
86	0xbbe24945	-0.006905707
87	0xbc590cb3	-0.013247657
88	0xbb796439	-0.0038054122
89	0xbc3a5b25	-0.01137427
90	0xbb8001c8	-0.0039064623
91	0xbc3337a4	-0.010938559
92	0x3b035b70	0.0020043515
93	0x3baa1933	0.0051909923
94	0x3b0aa911	0.00211579
95	0x3ba66b99	0.0050787446
96	0x3b097042	0.0020971452
97	0x3b9fbcc9	0.0048748
98	0x3b15870e	0.0022816095
99	0x3b9f80f5	0.004867668
100	0x3b02c865	0.001995587
101	0x3b95ce5c	0.004571719
102	0x3b0a04f8	0.002106009
103	0x3b8f1ef9	0.004367706
104	0xb920da4d	-0.00015340112
105	0xb9f0bc8e	-0.0004591685
106	0x38dbeab7	0.00010486453
107	0xb954b01f	-0.00020283506
108	0x00000000	0.0
109	0x00000000	0.0
110	0x80000004	-6e-45
111	0x80000004	-6e-45
112	0xbaa8d8c9	-0.001288199
113	0xbb7a7fd0	-0.0038223155
114	0xbab85fd0	-0.001406664
115	0xbb7cdd49	-0.0038584045
116	0xbad1356d	-0.0015961357
117	0xbb98f78f	-0.004668183
118	0xbaddd0d3	-0.0016923196
119	0xbba17203	-0.0049269213
120	0x00000000	0.0
121	0x00000000	0.0
122	0x00000000	0.0
123	0x00000000	0.0
124	0xb99960cb	-0.0002925455
125	0xba1de70d	-0.0006023504
126	0xb9a1a2be	-0.00030829565
127	0xb9b90b15	-0.00035294206

exp_avg_sq f4 [32, 4]
0	0x30df9a04	1.6269159e-09
1	0x3225d5b4	9.6528545e-09
2	0x334a0926	4.704011e-08
3	0x32e05ef5	2.6120214e-08
4	0x37cec8f1	2.4650684e-05
5	0x38773ced	5.894613e-05
6	0x37d2ea26	2.5142985e-05
7	0x38774ab8	5.8958976e-05
8	0x37d12bd8	2.4935158e-05
9	0x3887e041	6.479072e-05
10	0x37d6b6fd	2.5595999e-05
11	0x388784a1	6.462006e-05
12	0x00000000	0.0
13	0x00000000	0.0
14	0x2fe901a1	4.238361e-10
15	0x00000000	0.0
16	0x00000000	0.0
17	0x00000000	0.0
18	0x00000000	0.0
19	0x00000000	0.0
20	0x380c39c2	3.3432392e-05
21	0x38b4b417	8.616613e-05
22	0x3810f0a4	3.455639e-05
23	0x38b56e4d	8.651298e-05
24	0x3945573d	0.00018819883
25	0x39fbaf51	0.00048005072
26	0x394e002c	0.00019645755
27	0x39fc0e9e	0.00048076076
28	0x364fd32a	3.0968317e-06
29	0x369c647b	4.6608598e-06
30	0x3682561c	3.8843264e-06
31	0x36c7a28c	5.949585e-06
32	0x2d475d24	1.1332522e-11
33	0x2e02b7a0	2.972167e-11
34	0x30af3ed4	1.2750783e-09
35	0x318a7a2b	4.0302175e-09
36	0x390924ec	0.00013079093
37	0x39b40c54	0.0003434146
38	0x390da243	0.00013507255
39	0x39b34267	0.00034191014
40	0x38dafe2b	0.000104423925
41	0x398d629c	0.00026967085
42	0x38e1f2d1	0.00010774064
43	0x398e5c7a	0.0002715325
44	0x3182447b	3.7912833e-09
45	0x30711d9b	8.771736e-10
46	0x32f33abf	2.8315638e-08
47	0x327b2c20	1.4620156e-08
48	0x397112ae	0.0002299051
49	0x3a595769	0.0008290918
50	0x3983354e	0.00025025982
51	0x3a579677	0.000822402
52	0x2e08d814	3.1114736e-11
53	0x2dc30149	2.2169504e-11
54	0x302e97ef	6.351674e-10
55	0x2dd11353	2.376913e-11
56	0x35bcea29	1.4075241e-06
57	0x3705fe65	7.986649e-06
58	0x3593a2cb	1.0999732e-06
59	0x36f12fb0	7.1879113e-06
60	0x38674c1d	5.5145578e-05
61	0x38b1dda1	8.481299e-05
62	0x38718dac	5.759082e-05
63	0x38b58b38	8.656684e-05
64	0x35761e55	9.168628e-07
65	0x36899e8e	4.1013764e-06
66	0x354234a7	7.234725e-07
67	0x36d6bc3b	6.39961e-06
68	0x394eb843	0.00019714334
69	0x39de795a	0.00042433554
70	0x39550d5a	0.00020318237
71	0x39e18f98	0.0004302233
72	0x390f84c0	0.00013686996
73	0x39c51499	0.00037590115
74	0x39181487	0.00014503497
75	0x39c74e7f	0.00038014722
76	0x39a301b4	0.00031091052
77	0x3a680fc2	0.0008852446
78	0x39aa0b0c	0.00032433157
79	0x3a6720aa	0.0008816818
80	0x39005377	0.00012238124
81	0x39b5b123	0.00034654987
82	0x390612a9	0.00012786187
83	0x39b4e30a	0.00034501433
84	0x3940112b	0.00018316942
85	0x3a2af3e8	0.000652133
86	0x394f15f7	0.00019749241
87	0x3a2baee0	0.0006549191
88	0x3a0e5a01	0.0005430282
89	0x3ad18024	0.0015983623
90	0x3a14c7b3	0.00056755095
91	0x3ad07958	0.0015905304
92	0x3900baec	0.00012276665
93	0x399eb62c	0.00030271837
94	0x39046471	0.00012625918
95	0x399f59fa	0.0003039388
96	0x3911d4aa	0.00013907501
97	0x39b4aada	0.0003445957
98	0x3916b745	0.00014373388
99	0x39b78d5f	0.0003500981
100	0x3906ee5b	0.0001286803
101	0x39b8dc1c	0.0003525921
102	0x390be992	0.00013343085
103	0x39b876a3	0.00035183606
104	0x35a98972	1.2631483e-06
105	0x367362bd	3.6267295e-06
106	0x354af45f	7.560647e-07
107	0x366f3f3a	3.5650578e-06
108	0x00000000	0.0
109	0x00000000	0.0
110	0x2ed3f0cc	9.637943e-11
111	0x2af8a112	4.4165415e-13
112	0x38369b8c	4.3537046e-05
113	0x38ea4c02	0.00011172147
114	0x38391f50	4.41366e-05
115	0x38e722ee	0.000110214445
116	0x38839c94	6.275732e-05
117	0x39205882	0.00015291761
118	0x388542a2	6.3543455e-05
119	0x39210cc3	0.0001535891
120	0x00000000	0.0
121	0x00000000	0.0
122	0x00000000	0.0
123	0x00000000	0.0
124	0x3788f6d2	1.6327398e-05
125	0x38513528	4.987899e-05
126	0x378f0920	1.7051178e-05
127	0x38506663	4.968642e-05

exp_avg f4 [32]
0	0x3856fdee	5.1258066e-05
1	0xbb0b92d8	-0.0021297242
2	0x3997963d	0.000289129
3	0x80000004	-6e-45
4	0x00000000	0.0
5	0xba365882	-0.0006955938
6	0xb8e1f9d0	-0.00010775367
7	0xbb74ec3a	-0.0037372247
8	0x00000004	6e-45
9	0xb9653c5a	-0.00021861625
10	0x3b77a1ae	0.0037785578
11	0x00000004	6e-45
12	0xbbe07172	-0.0068494612
13	0x00000004	6e-45
14	0xb939b1d7	-0.00017709225
15	0xbb446e35	-0.0029972915
16	0xbba3ab42	-0.0049947808
17	0x3b8dd910	0.0043288544
18	0xbaf48b3f	-0.0018657221
19	0xbbb94954	-0.0056544933
20	0x3ab7aca2	0.001401324
21	0xbb4aeac8	-0.0030962694
22	0x3a7d517d	0.0009663327
23	0xb810f5ad	-3.456108e-05
24	0xba301f34	-0.0006718517
25	0xbab1c317	-0.001356217
26	0xbb833aa1	-0.004004792
27	0x80000004	-6e-45
28	0xb9e93b57	-0.00044485435
29	0xbadf133c	-0.0017019282
30	0x00000000	0.0
31	0xb8af3f9e	-8.3565e-05

exp_avg_sq f4 [32]
0	0x333cfe64	4.4003528e-08
1	0x37dbe762	2.621458e-05
2	0x35644401	8.503558e-07
3	0x2eff3188	1.1604856e-10
4	0x00000000	0.0
5	0x36d025b1	6.203271e-06
6	0x3619af5c	2.290085e-06
7	0x38c189b0	9.2286034e-05
8	0x309498a9	1.0811806e-09
9	0x353edb70	7.109984e-07
10	0x39033e43	0.00012516328
11	0x32718c8e	1.4060005e-08
12	0x39a015be	0.00030533777
13	0x30af5663	1.2757478e-09
14	0x360f1ac9	2.1324252e-06
15	0x38603615	5.345613e-05
16	0x397452f4	0.00023300556
17	0x39530701	0.00020125137
18	0x37f095b1	2.8679935e-05
19	0x39b5278a	0.0003455247
20	0x38b4e1d0	8.62513e-05
21	0x38c91915	9.589099e-05
22	0x3836c8b2	4.3579093e-05
23	0x36f5ae6a	7.3218735e-06
24	0x377261c1	1.4447084e-05
25	0x37a5b8c7	1.9755576e-05
26	0x38fad41b	0.00011960437
27	0x2dd939bc	2.4695683e-11
28	0x3590c7b0	1.0786953e-06
29	0x379b1116	1.8485396e-05
30	0x00000000	0.0
31	0x37cbb539	2.4283874e-05

exp_avg f4 [10, 32]
0	0x37053c6d	7.941487e-06
1	0x38170d20	3.601343e-05
2	0x3918b697	0.0001456387
3	0x80000004	-6e-45
4	0x00000000	0.0
5	0x3adcd2f4	0.0016847537
6	0x3a653894	0.00087440875
7	0x3af20d2d	0.0018467061
8	0x00000004	6e-45
9	0x3a3c9d4e	0.0007195071
10	0xba765098	-0.00093961647
11	0x80000004	-6e-45
12	0xb91162d0	-0.00013865088
13	0x80000004	-6e-45
14	0x3914fcc4	0.00014208542
15	0x3b00f713	0.0019678518
16	0x3b191b83	0.0023362346
17	0xba3590e3	-0.0006926192
18	0x3b0b1107	0.0021219866
19	0xb9052484	-0.00012697472
20	0xb92c16ad	-0.00016411646
21	0x3a2c3002	0.0006568433
22	0x39ff388d	0.00048679524
23	0x3a5dcda7	0.00084611255
24	0x3abed976	0.0014560658
25	0x3aca753d	0.0015446317
26	0x3aeaff99	0.0017928957
27	0x80000004	-6e-45
28	0x3b1da223	0.002405294
29	0x3ad0768c	0.001590447
30	0x00000000	0.0
31	0xba1dfa1b	-0.00060263433
32	0x371b87ae	9.27031e-06
33	0xb995ee7d	-0.00028597182
34	0xb997b723	-0.00028937412
35	0x80000004	-6e-45
36	0x00000000	0.0
37	0x3acfcdae	0.0015854144
38	0x3a51b251	0.00079992885
39	0x3b00b16a	0.0019636997
40	0x80000004	-6e-45
41	0xb9fc67c7	-0.00048142506
42	0xba96baa2	-0.0011499713
43	0x80000004	-6e-45
44	0xb9c290e0	-0.00037110504
45	0x00000004	6e-45
46	0x38185860	3.632193e-05
47	0x3b0e4b87	0.0021712498
48	0x3b22070e	0.0024723443
49	0xba39500e	-0.0007069119
50	0x3ae2bf7b	0.0017299497
51	0xba22863e	-0.0006199813
52	0xba599531	-0.00083001243
53	0x381fd75e	3.810913e-05
54	0x381984a6	3.660158e-05
55	0x3a430c54	0.00074404967
56	0x3aa62157	0.0012674731
57	0x3ab89e17	0.00140852
58	0x3afc9881	0.0019271524
59	0x80000004	-6e-45
60	0x3ae6f29b	0.001761991
61	0x3a546639	0.00081023906
62	0x00000000	0.0
63	0xba969ca7	-0.0011490778
64	0x36cb94c8	6.067192e-06
65	0xba2ee488	-0.0006671627
66	0xba9f0c24	-0.0012134355
67	0x00000004	6e-45
68	0x00000000	0.0
69	0x3a739c83	0.00092930364
70	0x39ea6a70	0.0004471126
71	0x3ae453b9	0.0017419971
72	0x80000004	-6e-45
73	0xbb093fd8	-0.0020942595
74	0xbab6711d	-0.0013919208
75	0x80000004	-6e-45
76	0xb9e2477c	-0.0004315934
77	0x00000004	6e-45
78	0xb674304f	-3.6386953e-06
79	0x3af7d3d9	0.001890774
80	0x3b13fd41	0.002258137
81	0xba948368	-0.0011330666
82	0x3a78eefd	0.0009496061
83	0xba85c0c4	-0.0010204543
84	0xbac45b6d	-0.001498086
85	0xba1a5b3e	-0.000588823
86	0xb9f3a2b6	-0.000464698
87	0x391caafa	0.00014941013
88	0x39b0cfc2	0.00033724128
89	0x3a3b8c18	0.00071543595
90	0x3ae4f28c	0.0017467304
91	0x00000004	6e-45
92	0x3a3c99fe	0.00071945775
93	0xb9dda15b	-0.00042272624
94	0x00000000	0.0
95	0xbb007565	-0.0019601223
96	0x35b1211c	1.3197164e-06
97	0xba5ba988	-0.0008379449
98	0xbadb8836	-0.0016748968
99	0x00000004	6e-45
100	0x00000000	0.0
101	0x39dcbf7e	0.00042104343
102	0x36b41984	5.3673884e-06
103	0x3aa6f241	0.0012736992
104	0x80000004	-6e-45
105	0xbb3e0b85	-0.0028998565
106	0xbabf868e	-0.0014612244
107	0x80000004	-6e-45
108	0xba27f9ac	-0.00064077484
109	0x00000004	6e-45
110	0xb88e6670	-6.790168e-05
111	0x3aba54b7	0.0014215921
112	0x3af1efd3	0.0018458314
113	0xba9f91bd	-0.0012174171
114	0x39c12f0c	0.0003684688
115	0xbaa64c17	-0.0012687471
116	0xbaeeba1c	-0.0018213424
117	0xba6dfaee	-0.0009078224
118	0xba275935	-0.00063838373
119	0xb9c22234	-0.00037028047
120	0xb9ba3148	-0.00035513402
121	0x3976d7ac	0.00023540732
122	0x3abdc1d9	0.0014477327
123	0x00000004	6e-45
124	0xb8f7e1f4	-0.00011819965
125	0xba907ae5	-0.0011022954
126	0x00000000	0.0
127	0xbb14bf33	-0.0022696971
128	0xb5a3abf9	-1.2194497e-06
129	0xba75fb35	-0.0009383441
130	0xbaebebc4	-0.0017999341
131	0x00000004	6e-45
132	0x00000000	0.0
133	0x39cd4496	0.00039151747
134	0xb8375725	-4.371176e-05
135	0x3a8e54b1	0.001085898
136	0x80000004	-6e-45
137	0xbb54e717	-0.0032486373
138	0xbaadc10e	-0.0013256387
139	0x80000004	-6e-45
140	0xba3fd3be	-0.0007317624
141	0x00000004	6e-45
142	0xb7fc01fa	-3.0041661e-05
143	0x3aa29f3b	0.0012407074
144	0x3ad5c168	0.001630825
145	0xba9a4e8e	-0.0011772679
146	0xb8819505	-6.1789564e-05
147	0xbac81555	-0.0015265147
148	0xbafe79ce	-0.0019414963
149	0xbaad203e	-0.0013208461
150	0xba7188ae	-0.0009213787
151	0xb9a700cf	-0.00031853325
152	0xb9f194d4	-0.00046077988
153	0x38d30e6a	0.00010063949
154	0x3aa11ec8	0.0012292499
155	0x00000004	6e-45
156	0xb9e80b95	-0.00044259118
157	0xbacec59d	-0.0015775446
158	0x00000000	0.0
159	0xbb21981a	-0.002465731
160	0xb6350f5e	-2.6980047e-06
161	0xba96606a	-0.0011472825
162	0xbb1f72dc	-0.0024329936
163	0x00000004	6e-45
164	0x00000000	0.0
165	0x37d0c45d	2.4886971e-05
166	0xb9e04f38	-0.00042783632
167	0x3a3e96a5	0.00072703726
168	0x80000004	-6e-45
169	0xbb8e5662	-0.0043437937
170	0xbadf211e	-0.001702342
171	0x80000004	-6e-45
172	0xba6ee116	-0.000911252
173	0x00000004	6e-45
174	0xb8629c17	-5.402797e-05
175	0x3a6df374	0.000907711
176	0x3a9b8a93	0.001186686
177	0xbac0d28c	-0.0014711185
178	0xba4a24b1	-0.0007711156
179	0xbaf8568e	-0.0018946694
180	0xbb1dbf56	-0.0024070344
181	0xbaf49f26	-0.0018663153
182	0xbaa8bb1c	-0.0012873146
183	0xba3c0b34	-0.00071733
184	0xba96771c	-0.0011479589
185	0xb9b8e07a	-0.00035262463
186	0x3a72a799	0.00092565414
187	0x00000004	6e-45
188	0xbaa7faf2	-0.0012815876
189	0xbb23f76a	-0.0025019296
190	0x00000000	0.0
191	0xbb4b5301	-0.0031024816
192	0xb66a92c8	-3.4954155e-06
193	0xbabfb9f6	-0.0014627564
194	0xbb2d60a7	-0.0026455314
195	0x00000004	6e-45
196	0x00000000	0.0
197	0xb947f6b7	-0.00019070027
198	0xba0914c0	-0.0005229227
199	0x3a2db694	0.00066266325
200	0x80000004	-6e-45
201	0xbbb2fa53	-0.00546197
202	0xbabb2d7d	-0.0014280524
203	0x80000004	-6e-45
204	0xba8c2737	-0.0010692839
205	0x00000004	6e-45
206	0xb900d412	-0.00012286034
207	0x3a5803c8	0.00082403095
208	0x3a9a7f7e	0.0011787263
209	0xba970f3b	-0.0011524925
210	0xbab972dd	-0.0014148612
211	0xbb1e6e34	-0.0024174573
212	0xbb449b8f	-0.0029999947
213	0xbb2a909b	-0.0026026133
214	0xbaefda05	-0.0018299228
215	0xba457141	-0.000753183
216	0xbaa8e33d	-0.0012885105
217	0xba170a8b	-0.0005761764
218	0x3a6f6f4e	0.0009133712
219	0x00000004	6e-45
220	0xbb107073	-0.0022039681
221	0xbb604fa1	-0.003422715
222	0x00000000	0.0
223	0xbb59ecc5	-0.0033252698
224	0xb660160a	-3.339143e-06
225	0xbabf4b8a	-0.0014594656
226	0xbb10ecd9	-0.0022113828
227	0x00000004	6e-45
228	0x00000000	0.0
229	0xb9490ab2	-0.00019172838
230	0xba0049d8	-0.0004893816
231	0x3a04f7ff	0.00050723547
232	0x80000004	-6e-45
233	0xbbb0c349	-0.0053943736
234	0xba5f2c8d	-0.00085134135
235	0x80000004	-6e-45
236	0xba929469	-0.0011183146
237	0x00000004	6e-45
238	0xb8efbfad	-0.000114321105
239	0x3a26600c	0.00063467096
240	0x3a75f3fc	0.0009382365
241	0xba1196d0	-0.0005553784
242	0xbaf2560e	-0.0018488781
243	0xbb24ddd5	-0.0025156636
244	0xbb43d4f9	-0.002988158
245	0xbb4214bb	-0.0029614407
246	0xbb05b8b6	-0.0020404286
247	0xba0e454e	-0.00054271973
248	0xba880b62	-0.0010379369
249	0xba13f17e	-0.000564359
250	0x3a35be36	0.00069329457
251	0x00000004	6e-45
252	0xbb30a157	-0.0026951635
253	0xbb6e8f8d	-0.003640148
254	0x00000000	0.0
255	0xbb3a710c	-0.002844873

exp_avg_sq f4 [10, 32]
0	0x3157378f	3.13182e-09
1	0x37b1f9bc	2.1216336e-05
2	0x391ff600	0.00015255064
3	0x2765548f	3.1825973e-15
4	0x00000000	0.0
5	0x37e2af51	2.7022938e-05
6	0x371a9a99	9.21511e-06
7	0x37dc4742	2.6259226e-05
8	0x2ebeea14	8.68178e-11
9	0x39b9efcd	0.00035464615
10	0x38cdbea5	9.810672e-05
11	0x2fc05813	3.4987177e-10
12	0x374ce149	1.2211801e-05
13	0x2f1aaefe	1.4068388e-10
14	0x35136609	5.491025e-07
15	0x380db19c	3.378243e-05
16	0x38462052	4.723698e-05
17	0x38ab01c0	8.1542414e-05
18	0x380c72d4	3.3485543e-05
19	0x383a1d23	4.437299e-05
20	0x38c55912	9.410283e-05
21	0x382c46fc	4.1074105e-05
22	0x37cba9c4	2.4278539e-05
23	0x37fad11c	2.9899697e-05
24	0x38820696	6.20011e-05
25	0x37c14d75	2.3043462e-05
26	0x37e4a333	2.7255714e-05
27	0x29d68936	9.5273114e-14
28	0x389f3150	7.590896e-05
29	0x38f5c5d9	0.000117193624
30	0x00000000	0.0
31	0x39542164	0.00020230334
32	0x3148eb29	2.9237504e-09
33	0x379b8e40	1.854368e-05
34	0x391174b0	0.00013871747
35	0x29054719	2.95936e-14
36	0x00000000	0.0
37	0x3797cf42	1.8097115e-05
38	0x36e293e3	6.752541e-06
39	0x37ba217e	2.2188524e-05
40	0x2ef7a5c1	1.12617034e-10
41	0x399e9c95	0.0003025277
42	0x38c63814	9.451821e-05
43	0x2fb5c67f	3.3064748e-10
44	0x373bfdf7	1.1205199e-05
45	0x2f4ba3fe	1.8521004e-10
46	0x34f344b0	4.5312254e-07
47	0x37e57e9c	2.7357884e-05
48	0x382a5f08	4.0619663e-05
49	0x38a2ef71	7.7693614e-05
50	0x37ae80f2	2.0802461e-05
51	0x38222f7f	3.8668044e-05
52	0x38ae3960	8.3076535e-05
53	0x3808f1a9	3.264999e-05
54	0x37a11e65	1.920685e-05
55	0x37c7a870	2.3801083e-05
56	0x38577327	5.136724e-05
57	0x37804704	1.5291858e-05
58	0x37c463a3	2.3411418e-05
59	0x2b27d127	5.9620576e-13
60	0x3846cb2a	4.739609e-05
61	0x38bc0576	8.965556e-05
62	0x00000000	0.0
63	0x3946f8ac	0.00018975389
64	0x312fb284	2.5567326e-09
65	0x378b3e8b	1.6599215e-05
66	0x39065fbc	0.000128149
67	0x2402d4c5	2.836948e-17
68	0x00000000	0.0
69	0x373e767a	1.13524675e-05
70	0x369d5a76	4.6894957e-06
71	0x37a30770	1.9434578e-05
72	0x2ef79f9d	1.12606126e-10
73	0x398ac1de	0.00026465853
74	0x38bdd762	9.0523405e-05
75	0x3010c684	5.2669e-10
76	0x3728cfc9	1.0061959e-05
77	0x2f268880	1.5146107e-10
78	0x34c17499	3.6033887e-07
79	0x37be642b	2.269641e-05
80	0x3816eb67	3.5982022e-05
81	0x389d071d	7.487668e-05
82	0x374e81f6	1.2308816e-05
83	0x3810523c	3.4408862e-05
84	0x389cf6e7	7.484649e-05
85	0x37e56cb8	2.7349553e-05
86	0x37874891	1.6127045e-05
87	0x379e4175	1.8865549e-05
88	0x382ed44f	4.168256e-05
89	0x37192c55	9.1298325e-06
90	0x37ac9e38	2.0577674e-05
91	0x278f17fc	3.9716477e-15
92	0x37ee7377	2.8425578e-05
93	0x389380c8	7.0334936e-05
94	0x00000000	0.0
95	0x393c79ac	0.00017974403
96	0x31ab882f	4.9922373e-09
97	0x37799c49	1.48779445e-05
98	0x38f3d380	0.00011626538
99	0x2a4c98ae	1.8171811e-13
100	0x00000000	0.0
101	0x36ea599e	6.9841763e-06
102	0x36367f5e	2.719425e-06
103	0x379571f3	1.7815246e-05
104	0x2ec628bf	9.0112355e-11
105	0x3971a5a3	0.00023045256
106	0x38af7d27	8.367962e-05
107	0x308a2a14	1.0052781e-09
108	0x3720b40a	9.578662e-06
109	0x30800c5d	9.31674e-10
110	0x34e5b1ce	4.2783944e-07
111	0x37a34853	1.9464793e-05
112	0x380ff78f	3.4324414e-05
113	0x389362a0	7.0278766e-05
114	0x36f0c39e	7.17533e-06
115	0x3801bfff	3.0934807e-05
116	0x388d0989	6.72518e-05
117	0x37c023e2	2.2904893e-05
118	0x3763d014	1.3578701e-05
119	0x37723c6c	1.4438392e-05
120	0x380b9b58	3.3284858e-05
121	0x36ade7a0	5.1827665e-06
122	0x37a26f24	1.9363659e-05
123	0x2c5a0da0	3.0987227e-12
124	0x37874ad1	1.6128093e-05
125	0x38652f3a	5.4641838e-05
126	0x00000000	0.0
127	0x392db4fc	0.00016565988
128	0x3166ee5e	3.36049e-09
129	0x374f11ce	1.2342307e-05
130	0x38d8e612	0.000103425366
131	0x29a48240	7.305658e-14
132	0x00000000	0.0
133	0x36b4009f	5.3644903e-06
134	0x3606b38a	2.0072061e-06
135	0x3792060e	1.7407376e-05
136	0x2ec09410	8.75745e-11
137	0x3947eebc	0.00019067054
138	0x3899b89b	7.329994e-05
139	0x303c924a	6.860189e-10
140	0x37085d4c	8.127954e-06
141	0x301cfee6	5.71147e-10
142	0x34942c1f	2.759925e-07
143	0x3799877b	1.830211e-05
144	0x381093dc	3.446998e-05
145	0x388704af	6.438174e-05
146	0x36a41d45	4.8909883e-06
147	0x37d96820	2.5916903e-05
148	0x386c841d	5.6389825e-05
149	0x37a1c501	1.9284433e-05
150	0x37399d50	1.1063486e-05
151	0x374449e7	1.1699717e-05
152	0x37f11943	2.8741202e-05
153	0x365c9025	3.2866458e-06
154	0x37a22dfd	1.933332e-05
155	0x2baec610	1.2418417e-12
156	0x371d16ab	9.363207e-06
157	0x382f629c	4.181509e-05
158	0x00000000	0.0
159	0x391b4bee	0.00014810238
160	0x310dda6a	2.0642354e-09
161	0x373ba21f	1.1183815e-05
162	0x38d52b38	0.000101646816
163	0x290543d7	2.9590774e-14
164	0x00000000	0.0
165	0x36cc90d2	6.096533e-06
166	0x361d7f3e	2.3468888e-06
167	0x37900ce6	1.7172144e-05
168	0x2eed68b9	1.0796115e-10
169	0x3936d84e	0.00017437452
170	0x3890e2af	6.908678e-05
171	0x2fdb82bd	3.9928763e-10
172	0x36fe4d06	7.5787566e-06
173	0x2f984016	2.7694175e-10
174	0x349ea2a8	2.954814e-07
175	0x3795bd51	1.7850341e-05
176	0x38116218	3.466205e-05
177	0x3889a50f	6.5634136e-05
178	0x36bcadb0	5.6230565e-06
179	0x37c3f857	2.3361454e-05
180	0x38546cea	5.0646173e-05
181	0x37980777	1.8123288e-05
182	0x3725f4af	9.891736e-06
183	0x37556bc2	1.2720879e-05
184	0x38050c4e	3.172113e-05
185	0x368e854a	4.2474467e-06
186	0x37a2852b	1.9373916e-05
187	0x2b05d93c	4.7552565e-13
188	0x37221872	9.661644e-06
189	0x381de46e	3.764446e-05
190	0x00000000	0.0
191	0x39141a27	0.00014124122
192	0x30f3619b	1.7708318e-09
193	0x374320d2	1.1630547e-05
194	0x38e3189f	0.000108287895
195	0x290fa780	3.189766e-14
196	0x00000000	0.0
197	0x37135eba	8.783938e-06
198	0x3678803f	3.7029529e-06
199	0x37917d85	1.7343797e-05
200	0x2eaefc69	7.957441e-11
201	0x3943e946	0.0001868355
202	0x389204f9	6.962749e-05
203	0x2f5b3333	1.9936124e-10
204	0x3709b90a	8.208919e-06
205	0x2f8777e4	2.4641544e-10
206	0x34a482eb	3.0642636e-07
207	0x3796cccc	1.797676e-05
208	0x38145243	3.5362562e-05
209	0x38931cda	7.01488e-05
210	0x37192b3e	9.129579e-06
211	0x37d7e35f	2.5735875e-05
212	0x385d0042	5.2690746e-05
213	0x37b4564b	2.1497855e-05
214	0x3744c217	1.17277e-05
215	0x378d29f2	1.6828042e-05
216	0x382b3d81	4.0826857e-05
217	0x36fd86fa	7.555701e-06
218	0x37a6fc68	1.9906278e-05
219	0x2b233a43	5.799009e-13
220	0x3795c18b	1.785231e-05
221	0x383ebede	4.547729e-05
222	0x00000000	0.0
223	0x3916cac0	0.00014380645
224	0x31526415	3.0615912e-09
225	0x37617c13	1.3439933e-05
226	0x39039e37	0.00012552073
227	0x2a282c39	1.493674e-13
228	0x00000000	0.0
229	0x3751dd7e	1.2508941e-05
230	0x36cddc5f	6.1351307e-06
231	0x37907d55	1.72245e-05
232	0x2edca867	1.0034356e-10
233	0x39692483	0.00022234213
234	0x38a05498	7.645151e-05
235	0x3024a1fc	5.9893046e-10
236	0x37299342	1.0107471e-05
237	0x3021a1f0	5.8801586e-10
238	0x34b585ab	3.3811133e-07
239	0x379abf43	1.8447294e-05
240	0x38129047	3.494348e-05
241	0x38a77b6c	7.98617e-05
242	0x375ca45d	1.3151291e-05
243	0x3805da62	3.1913056e-05
244	0x387f9cc2	6.094273e-05
245	0x37ee264d	2.8389646e-05
246	0x377d3feb	1.5094857e-05
247	0x37cb1dcc	2.4213361e-05
248	0x38723e3d	5.775526e-05
249	0x3756ea9c	1.2810018e-05
250	0x37a59817	1.9740355e-05
251	0x2c2fb147	2.4967404e-12
252	0x37e60a2c	2.7422873e-05
253	0x387d1d44	6.0347156e-05
254	0x00000000	0.0
255	0x3926786f	0.00015875859

exp_avg f4 [10]
0	0x3ba6a3eb	0.0050854585
1	0x3b8f8055	0.004379312
2	0x3b1cb7c7	0.002391325
3	0x3a2a63bc	0.0006499847
4	0x39782889	0.00023666224
5	0xbaa8de54	-0.0012883642
6	0xbb20a381	-0.0024511518
7	0xbb415cce	-0.0029504779
8	0xbb27f72b	-0.0025629501
9	0xbb64b519	-0.0034897982

exp_avg_sq f4 [10]
0	0x397e6f49	0.00024264785
1	0x39185ec0	0.00014531147
2	0x389d3be9	7.4975025e-05
3	0x37f51db9	2.9220117e-05
4	0x37230164	9.715881e-06
5	0x37723872	1.4437466e-05
6	0x3827ad2a	3.9977174e-05
7	0x389ce51c	7.4813346e-05
8	0x39056536	0.00012721572
9	0x39491173	0.00019175354
