code/2021-04-12_20-25.pth (torch, 96051 bytes, 26 tensors)

encoder.maxpool_conv.0.0.weight f4 [32, 1, 2, 10]
00000000: 8803 663e 217e c73d 060e bfbd 5e69 44be
00000010: 3905 a03c ee62 e33d bec7 db3c 7886 45bd
00000020: 3a65 543e 3fbf f23b 1c7b c33d f482 40bd
00000030: bf6e aabc 32f6 c03c ddc4 59be b0f1 19be
00000040: 03c5 783c 5fde 5ebe aa3e 1b3e 1324 62bd
00000050: 566d ba3d 1b2e 2cbe a438 9abd c4a7 e4bd
00000060: 2a47 50be ae17 153e 5377 96bd 23cd 0e3d
00000070: d6b7 a13c 8240 98bd 7aea e33c d0d4 f5bb
00000080: 851b 233e 9335 82bd bf02 473e 8498 28be
00000090: 4566 f93d 218e 0dbe 045f 6a3e a645 7d3e
000000a0: fda9 15be 6987 40be 883c edbd 25c2 97bd
000000b0: b86a 8abb 88a5 1dbc ee2d 013e c0d9 12be
000000c0: aae6 68bd ca65 3b3e 1c98 793b f411 ca3d
000000d0: d42b 5d3e 497c 49be c3b2 933c 659b 2e3e
000000e0: e3a3 383e 606f 23be 61d6 e0ba 91f5 f93c
000000f0: 4542 bd3d 1a35 6f3e 7ada ea3c a6a5 64bd
00000100: 882e 1ebe 6419 353e 311e 123d cb10 ab3d
00000110: 4b75 4fbe d857 be3d 83c4 04bd 24e3 68be
00000120: 77c4 943d f471 073e c891 373e 74da 84be
00000130: 4ed9 7cbe a518 12be 9b9e 0c3d 9531 d13d
00000140: 9dde 593e d108 593e 92ee 9ebd dd03 5f3e
00000150: f3b9 07be c332 33be 391b 663d 3e54 15bd
00000160: 911a 3b3e ebb3 25be 36d4 8fbd 6c28 60be
00000170: c3e4 aa3d ef8f fa3d 3e4c 2a3e a291 3cbe
00000180: 91b1 733d 9f22 1bbe d7b4 3ebe 8b1a 38bd
00000190: 30c0 ad3d e37d fc3c 733c 26bd 93a7 083d
000001a0: a98e 7f3c 4be5 70be 72bf dbbd 4370 1dbe
000001b0: b12a 5bbd db57 fe3d fa7a 123c a40d 75bb
000001c0: 66fa aa3d 0445 303e effb 32be 3e3d 78bd
000001d0: 679a 63be 87b6 3abd d70b 89bc ea7b 4bbc
000001e0: a90a 79be 3477 233e 1f2b 113e 4122 f73d
000001f0: 129f 1abe 432b c6bd 4934 943c 12ed 20be
00000200: 8429 2fbe c3f0 51be 193b c7bc 058d 143e
00000210: a76f 2c3e 426e 8d3d bd08 d0bd 3800 20be
00000220: c2e1 b63a 7a89 db3d 10f3 463e dfdd ec3c
00000230: 507a 60be aa01 073e 3c3d c6bd 681a 713c
00000240: 0f9a 07be c030 443e 2433 0fbe 45ee fd3d
00000250: 16ff 5dbe a0de 3ebe 5d40 403e 428f 853d
00000260: 5477 293e b658 72bc 6ae2 23be d851 dfbd
00000270: 0cf6 023c fa87 133d 01b6 d33d 23bd 363e
00000280: 1cdd 253e d062 0a3d e284 e6bc bf5a 11be
00000290: 845b 3bbe 859b 753c 0716 08be 12fc 0a3e
000002a0: b60a 2cbe 647f 173d d032 41be 224e a8bd
000002b0: adba 383e 1412 11be f8cc 043e 0001 783d
000002c0: f59f cabd b755 41be f2be 233e 96e5 773e
000002d0: ffe5 53bd 0275 f4bd 48df 323e 36c8 893d
000002e0: 3a8f 5abd a4f5 4ebd 8088 5cbd ce00 143e
000002f0: 0900 473e 5e0e 043e f90f 44be 7abe f13d
00000300: 8768 35be f82f 433e 3a3a 07bd 718b 6e3c
00000310: 1f39 aabc a203 c2bd bd6a 233e 7a0f d5bd
00000320: d6d7 82bd e9fa 1f3c 78c3 5bbd aa98 58bd
00000330: 44ff c63d 711d 1b3e c2c4 083e 7de3 84bd
00000340: cbcc b03d e3a9 efbc 2521 ba3d 3aa2 573e
00000350: c75e 153d f3e2 143e 7c45 0a3e c843 223d
00000360: 2964 4c3e b229 b03c a70a 363e 6ffc 1cbe
00000370: 99da 2bbe fea6 cbbd 13e2 15be 858b 4e3e
00000380: 0269 16be ee82 08bb 8548 55be a944 993c
00000390: 19ed d7bd bd78 c73d b8ee 673d 9f7a 1f3e
000003a0: b3dd c7bd 0dce 713d 9276 e33d 8bb8 17bc
000003b0: 4d1e d9bd f7dc 1e3e ab14 c13c b771 1c3e
000003c0: 747a 8ebd cc2f 2d3e 6939 9e3d adce 693b
000003d0: 1a9f e6bd fc31 a4bd 19dd 98bc b57b 62be
000003e0: 8592 57be 3741 68bd d5ac 763e 684b 34bd
000003f0: 1b37 9cbd 756a f83d 1247 18be 4150 013e
0.22462285 0.09740854 -0.09328847 -0.1918082 0.01953374 0.11102854 0.026828643 -0.048223943
0.2074174 0.007408052 0.095449656 -0.046999887 -0.020804761 0.023554895 -0.21266504 -0.15033603
0.01518369 -0.21764515 0.15160623 -0.055210184 0.091028854 -0.16814463 -0.075303346 -0.11164811
-0.20339647 0.14559814 -0.07346978 0.034863602 0.01974098 -0.07434179 0.027821768 -0.007502176
0.15928467 -0.06357875 0.19434641 -0.1646443 0.121777095 -0.13823749 0.22887808 0.247336
-0.14615627 -0.18801655 -0.11583811 -0.07410077 -0.0042241476 -0.009621985 0.12615177 -0.14340878
-0.056860603 0.18300548 0.003808505 0.098667055 0.2159875 -0.19676317 0.018029576 0.17051466
0.18031268 -0.15960455 -0.0017153734 0.030512603 0.092411555 0.233601 0.02866863 -0.055822037
-0.15447438 0.17685467 0.035673324 0.083528124 -0.20259587 0.092940986 -0.03241397 -0.22742897
0.07264035 0.13227063 0.17926705 -0.25947917 -0.2469227 -0.14267214 0.034330945 0.10214535
0.21276326 0.2119477 -0.077603474 0.21778817 -0.13254528 -0.17499833 0.056178305 -0.036457293
0.18271853 -0.16181915 -0.07022898 -0.2189042 0.08344414 0.122344844 0.16630647 -0.1841493
0.059495512 -0.15149926 -0.18623672 -0.04494719 0.084839225 0.030821746 -0.040584993 0.033362936
0.015597978 -0.23524968 -0.10729875 -0.15374856 -0.05350751 0.12419101 0.008940453 -0.0037392164
0.08348541 0.17213827 -0.17478918 -0.06060528 -0.22226869 -0.045584228 -0.016729278 -0.01241968
-0.24320473 0.15963441 0.14176606 0.1206708 -0.15099743 -0.0967622 0.018091338 -0.15715435
-0.1710568 -0.20502 -0.024320172 0.1450692 0.16839467 0.06905796 -0.10157917 -0.15625083
0.0013952779 0.10719581 0.19428658 0.02891439 -0.21921659 0.13184229 -0.09679648 0.014715768
-0.13242362 0.19159222 -0.13984352 0.12398962 -0.21679339 -0.18639612 0.18774553 0.06521465
0.16549426 -0.014791658 -0.16004339 -0.10904282 0.007993232 0.03601835 0.10337449 0.17845587
0.16197628 0.03378564 -0.028139535 -0.14194773 -0.18296629 0.014990692 -0.13289653 0.1357272
-0.16800961 0.036986724 -0.1886704 -0.08218028 0.18039961 -0.14167053 0.12968814 0.06054783
-0.09893791 -0.18880354 0.15990809 0.24208674 -0.051733013 -0.1193638 0.17467988 0.0672764
-0.053359248 -0.05052723 -0.053841114 0.14453432 0.19433607 0.12896106 -0.19146718 0.11803909
-0.17715655 0.19061267 -0.033014514 0.014559613 -0.02077919 -0.09473349 0.15958686 -0.104033425
-0.06388824 0.0097644115 -0.05365321 -0.052879967 0.09716657 0.1514795 0.13356307 -0.064887024
0.08632811 -0.029255813 0.09088353 0.21057978 0.03646734 0.145397 0.13503069 0.039615422
0.19960083 0.021504257 0.17777501 -0.15330671 -0.16782607 -0.099439606 -0.14637022 0.2017041
-0.14688495 -0.0020829993 -0.20828445 0.018709498 -0.1054327 0.09739826 0.056624144 0.1557412
-0.09759083 0.059034396 0.111066 -0.009260307 -0.106014825 0.15513979 0.023569426 0.15277754
-0.0695695 0.16912764 0.07725794 0.0035676167 -0.11260815 -0.08017346 -0.018660115 -0.22117503
-0.21051987 -0.05670282 0.24089368 -0.044017226 -0.07627698 0.1212968 -0.14870861 0.1262827

encoder.maxpool_conv.0.1.weight f4 [32]
00000000: 7ef5 773f 2971 683f b00e 803f 4a32 813f
00000010: 325f 7a3f 9751 643f 9286 803f ef7d 843f
00000020: bf2c 7a3f f86e 793f 6f3c 753f a05c 823f
00000030: eead 833f 73d3 7c3f 8166 773f e598 833f
00000040: 9232 7b3f f80d 763f 0fb8 833f 6852 833f
00000050: 5b32 713f 532a 883f 528c 7d3f dc30 7e3f
00000060: a0bc 723f fb97 7a3f c215 7e3f 36a9 813f
00000070: b161 7a3f 602e 783f 178f 803f cb11 7b3f
0.96858966 0.9079767 1.0004482 1.0093472 0.97801507 0.89186996 1.0041068 1.0350932
0.9772453 0.9743495 0.9579534 1.0184517 1.0287454 0.98760146 0.96640784 1.0281035
0.9812404 0.96115065 1.0290545 1.0259523 0.9421746 1.0637916 0.99042237 0.99293303
0.9481907 0.97888154 0.9925195 1.0129764 0.97805315 0.9694576 1.0043668 0.98074025

encoder.maxpool_conv.0.1.bias f4 [32]
00000000: f2ce 1ebc 8cd5 c8bd c35c 0f3e 9da4 153e
00000010: cf38 1c3d 170c e8bd eab4 03bc 8c33 033e
00000020: ee1f 58bc d2a0 b4bc cf19 36bd 468d d93d
00000030: a4e6 0a3e ca08 39bc 35c2 08bd f885 263e
00000040: b0d6 abbc 03d2 5ebc 2e98 003e 1342 e23d
00000050: 4aa5 34bd 48ce 2c3e 01da 433d e1ed ed3d
00000060: f131 8dbb fe45 28bc 5c1a df3a d9c5 ec3d
00000070: 96d8 b63a 3775 caba 619d dd3c ed42 e83d
-0.009692894 -0.09806356 0.1400023 0.14613576 0.038140114 -0.11330431 -0.008038739 0.12812632
-0.013191206 -0.022049341 -0.044458207 0.10622649 0.13564545 -0.011293599 -0.033388335 0.16262043
-0.020976394 -0.013599875 0.12558052 0.11047759 -0.044102944 0.16875565 0.047815327 0.116176374
-0.004308932 -0.010270594 0.0017021406 0.11561174 0.0013950046 -0.001544631 0.027052583 0.1134089

encoder.maxpool_conv.0.1.running_mean f4 [32]
00000000: 1207 dec0 ecc7 0142 bdb6 e0c0 218a c2c0
00000010: 4958 8ac1 8972 b8c2 9eea b5c1 92a2 11c1
00000020: c0c0 e5c1 8339 0b42 5f8e 3043 5952 dcc0
00000030: 1e93 cbc1 c749 4f42 86b1 76c2 51ec a1c1
00000040: b14c 2543 fe38 2343 36a1 09c1 f15a 83c0
00000050: e937 eec1 65df 31c1 3d4f 3bc1 9ac2 ac41
00000060: 53cc 27c2 8851 fb42 7c1a 4742 d6ae 6ac0
00000070: 43b2 9ec1 6e04 6842 e590 9ec0 1365 b8c0
-6.938363 32.445236 -7.022307 -6.0793614 -17.293108 -92.2237 -22.73956 -9.10219
-28.719116 34.806164 176.55614 -6.885052 -25.446835 51.82205 -61.673363 -20.240389
165.29958 163.22263 -8.601858 -4.1048512 -29.7773 -11.11704 -11.706845 21.59502
-41.949535 125.65924 49.775864 -3.6669211 -19.837042 58.004326 -4.9551873 -5.762338

encoder.maxpool_conv.0.1.running_var f4 [32]
00000000: 799e e13f eb8f 5f40 953d d23f a0d2 a73f
00000010: ea37 4b40 8513 9d41 e526 6140 635f 9c3f
00000020: 6df5 3740 058d 7b40 4f5d 7942 e91b c43f
00000030: ecea 6e40 0df0 c140 dfa5 fd40 12cf a740
00000040: c4ad 5842 727f 4e42 dd48 c13f 48b6 dd3f
00000050: d094 4340 a8e2 2340 5034 cf3f 7552 2f40
00000060: 1841 9e40 ae71 1242 f124 f140 af32 bf3f
00000070: 39ae 0f40 2137 f040 65e0 5d40 e77e c73f
1.7626487 3.493159 1.6425043 1.3111153 3.1752877 19.634531 3.517999 1.221661
2.8743546 3.9304821 62.34112 1.5321018 3.7330885 6.060553 7.926498 5.244027
54.169693 51.62446 1.5100361 1.7321253 3.0559578 2.560709 1.618784 2.7394078
4.945446 36.611015 7.5357594 1.4937342 2.2450087 7.5067296 3.466821 1.5585603

encoder.maxpool_conv.2.0.weight f4 [1, 32, 2, 10]
00000000: 7623 bebb 63af f7bc d31e 3b3c 81b6 12bc
00000010: 31c3 bebb 2e16 d4bb dd29 623c 8a26 eabc
00000020: f43a 09bd 54c9 2cbd c995 193d 34d1 843c
00000030: 7acd febb 98a5 cc3c fbcb 683b 3c68 65bc
00000040: bd60 203d 278a a9bc eba7 c5bb 6e84 083d
00000050: dfae 94bc 1865 6c3c ad77 b6bc d918 a4bc
00000060: 841e bb3b 69ce cebc 96fa 273d 42a9 e03c
00000070: 3718 f63c a317 d1ba 40d8 89bb c866 a5ba
00000080: 7682 1abc 9ff8 753b 0725 3bbb 78c5 b2bc
00000090: 4f15 8a3b b0aa e13a 5326 80bb a2d4 a83c
000000a0: 3f97 e93c d34c 003d 817b a03c 6a31 d83c
000000b0: ce41 e3bc 5ab6 dbbc 0d53 3f3c 4143 6f3b
000000c0: 2129 3d3d 0b85 1ebb aca3 8cbd 3446 5dbd
000000d0: fffb 59bd 6ebc da3b 80fc 32bd 608a 9db9
000000e0: 109f 603b ec48 203c bb15 6c3c 86a8 653a
000000f0: 552d d4bc ba64 8abc b696 8abc 5d23 f1bc
00000100: da1b bcbc f0ff 75bd 93a2 3abd 3032 a5bc
00000110: bf2f dfbc 3873 3bbd cb25 2c3d 1c0c a5bb
00000120: 7e04 f33c f8ee d63c 0a0a 8cbc aa11 3d3c
00000130: 450c ce3c ab4e 103d 1b9d 193d c472 8bbb
00000140: f18c 63bc da5e c2bc 19ee 80bc 2992 a2bc
00000150: b9a7 e7bc e350 c339 7be1 30bb 6c47 36bc
00000160: 25a9 43bd 2e8e 4fbd 2622 4f3c 2733 08bc
00000170: 5add 7c3c 9954 7f3a 3541 263b 4cd1 333d
00000180: 5b7a e23c 4218 853c 4f2c cc3a 8aed 163d
00000190: e9a9 16bc f5fc 05bd 40a3 c83b 6cb1 90bc
000001a0: 9c84 49bc 0514 75bc c768 223b ecdf 073d
000001b0: 2df2 c03a 5a46 ea3c 13e1 a7bb 549c 99ba
000001c0: 0e24 0d3b 83f7 cf3c 0c5d 9fbb b057 043b
000001d0: 49fa 6dbc c4b9 c23a 603c 49bc 97bf 903c
000001e0: 1bda 133d 6807 0b3d 38a6 3a3d 7b12 68bb
000001f0: 9ff0 543d 65df 2b3d af0d 38bc 7038 db3c
00000200: 2685 18bc 5ec6 393c 3dfb 77bc 4a43 9fbc
00000210: ad3a 13bd 0a32 3e3a a635 16bd b094 26bc
00000220: 65ac 233c 9894 2ebd f10a 1ebd 5871 fcbc
00000230: 3a1a 0a3d 4d1c 5c3d ddc1 663d fa1e 213d
00000240: 0b7b 5c3d 429d 6b3d 8ab4 353d 804f 383c
00000250: 3c03 703c be9b 663c 6275 8fbd 979e 12bd
00000260: 5bd5 a4bc fadd 7ebd bb74 3bbd c7f2 8ebd
00000270: 3ccf 84bd 1297 70bd 935b 96bd aa85 9ebd
00000280: 0c26 773a 57c9 ebbc a816 2cbc 22fc 9639
00000290: 3c8d 84bb 6159 31bc e8b3 143d 5845 95bc
000002a0: 0ecc 74ba 8c64 153d d958 b9bc b39b b23b
000002b0: 7328 9e3b 7563 c93a 77a6 6ebc 7c44 fc3b
000002c0: 037f 70bb b1d5 c6bc 9d07 f3bc be1d dfbc
000002d0: cfc9 9f3c 891a 1bbd 993a 833c b3da 7a3c
000002e0: 3fc2 d7bc a894 e0bc f244 573c f9a9 63bb
000002f0: b8c8 06bc 1f48 f2bc 533d 65bc 0114 493c
00000300: b9be 0e3d deb7 02bc b765 4d3d 0ed3 2c3d
00000310: 18fa bd3b 30a3 1d3d bac4 a7bb 1c56 3b3d
00000320: fff9 debc a188 ff3b 6bb4 55bc 95c3 733b
00000330: 87d2 3a3b 1619 9a3c b63a b6bc 68df ed3c
00000340: ac01 713b e388 923c 89a2 cabc 69c8 c8bc
00000350: ed38 34bc 65dd 00bd 730e cfbb 77f8 db3c
00000360: aad5 3b3c de78 13bd d953 e13c 98d8 2cbc
00000370: 1d52 4a3d 0a22 1a3d 9641 3d3d cae3 113d
00000380: 41be be3c cd46 183d 5571 81bc 6a4a 5aba
00000390: 63fe 0f3d 7ba7 f03c dd9a 78bd db4b 2ebd
000003a0: 9203 32bd a3b8 babb 6be2 40bd 63ad 2fbd
000003b0: 3393 19bd 1904 febc ec79 bfb8 99d6 3bbd
000003c0: e5df a43b 8e2a ca3c 3900 683c 57ee 2b3d
000003d0: 590f daba e867 543d 954e 743c 50ba 803b
000003e0: 2dce 6d3d 1de6 c53c fff7 e9bc b2d3 2abc
000003f0: b41e 84bb bb32 cabc c7eb b7bc 9c18 dbbc
-0.005802567 -0.030234998 0.011420923 -0.008954645 -0.0058216085 -0.0064723706 0.013803926 -0.02858283
-0.033503488 -0.04218419 0.037496362 0.016213037 -0.0077759596 0.024981305 0.0035521972 -0.014001902
0.039154757 -0.020695759 -0.0060319803 0.03332942 -0.018149791 0.0144283995 -0.022273863 -0.02003138
0.005710425 -0.025244908 0.04101046 0.027424458 0.030040843 -0.0015952479 -0.004206687 -0.0012619132
-0.009430518 0.0037532223 -0.0028556006 -0.021822676 0.004213966 0.0017217007 -0.0039108186 0.020609204
0.028514503 0.031323265 0.019590141 0.02639075 -0.027741339 -0.02682035 0.011677516 0.0036508592
0.0461818 -0.0024188187 -0.068671554 -0.05402203 -0.053218838 0.0066752946 -0.043697834 -0.0003004847
0.0034274496 0.009783011 0.014409478 0.00087607687 -0.025900522 -0.016893733 -0.016917568 -0.029435808
-0.0229625 -0.060058534 -0.0455652 -0.020165533 -0.027244447 -0.045764178 0.04202823 -0.005036844
0.029665228 0.026236996 -0.01709463 0.011539856 0.025152335 0.035231274 0.037503343 -0.0042556245
-0.0138885835 -0.02372687 -0.015738534 -0.019845085 -0.028278219 0.00037253564 -0.0026989866 -0.011125427
-0.04776873 -0.050672702 0.012642419 -0.008312977 0.015433634 0.0009740084 0.0025368456 0.043900773
0.027646234 0.016246919 0.001557717 0.03684763 -0.009195783 -0.03271194 0.0061229765 -0.017662726
-0.012299683 -0.014958386 0.002478169 0.033172533 0.0014720612 0.028598 -0.0051232665 -0.0011719563
0.0021536383 0.025386577 -0.004863387 0.0020193867 -0.014525005 0.0014856388 -0.012282461 0.017669482
0.036096673 0.03394261 0.045568675 -0.0035411406 0.051987287 0.041961093 -0.011233731 0.02676031
-0.009309089 0.011338798 -0.0151355835 -0.019441266 -0.03594463 0.0007255381 -0.036672257 -0.010167286
0.0099898325 -0.04262218 -0.038584653 -0.030815765 0.033716418 0.053737927 0.056337226 0.039336182
0.05382828 0.05752302 0.04436163 0.011249423 0.014649209 0.014075218 -0.07004811 -0.035795774
-0.020121267 -0.062223412 -0.04576562 -0.069799 -0.06484839 -0.058737822 -0.07341685 -0.07740338
0.00094279717 -0.02878253 -0.010503449 0.00028798083 -0.0040451568 -0.010824532 0.036304384 -0.018221542
-0.0009338268 0.036472842 -0.022625374 0.0054506897 0.0048265993 0.0015364724 -0.0145660555 0.0076985937
-0.0036696799 -0.024271818 -0.029666716 -0.027235862 0.01950541 -0.037867103 0.016019152 0.015310931
-0.026337741 -0.027414635 0.013138996 -0.0034738763 -0.008226566 -0.029575406 -0.013991672 0.012272836
0.034849856 -0.007978408 0.05014583 0.042193465 0.0057976358 0.038485706 -0.005119887 0.045736417
-0.027218817 0.00779827 -0.013043503 0.0037195433 0.0028506832 0.01881079 -0.022244792 0.029037192
0.0036774678 0.017887538 -0.024735706 -0.024509626 -0.0109999 -0.03146114 -0.006318861 0.026851876
0.011464516 -0.03600394 0.027505802 -0.010549687 0.049394716 0.03763012 0.046205126 0.035617627
0.02328408 0.037176896 -0.015801111 -0.00083271286 0.03515471 0.029376736 -0.060694564 -0.04255281
-0.043460436 -0.00569828 -0.04709093 -0.042889964 -0.037493896 -0.031007813 -9.1302994e-05 -0.045858953
0.005031573 0.024678495 0.014160209 0.041975345 -0.0016636654 0.051856905 0.014911314 0.00392846
0.058057953 0.024157578 -0.028560637 -0.010426449 -0.0040319804 -0.024682393 -0.022451295 -0.026745133

decoder.linear1.weight f4 [32, 164]
00000000: 40e7 423e 43e0 50bd e312 853e 88c9 bdbd
00000010: 7b89 a53e 928a abbc 5c8d 5e3e 887b 17bd
00000020: 0bb7 5f3e b9e4 3a3c b8ec 913e 34e7 a1bd
00000030: 9211 813e 6901 9bbd b838 4b3e fb65 91bd
00000040: 0ec1 923e 5228 2e3d cc1d 5f3e 8adc edbc
00000050: 9ede ac3e 3c04 973b 7674 ad3e e255 953d
00000060: f408 8d3e 9661 4c3d d5a4 8a3e 07c6 cfbb
00000070: a306 923e 5f5e 7bbd 31b3 8a3e dd3d 34bd
00000080: ba0f 573e b475 61bd b80c 873e 0ab8 7dbd
00000090: c1d1 4f3e 48f9 09bd 9c04 a43e 0052 9c3b
000000a0: 3d2e 403e b165 51bd 395a 633e 92bb c93b
000000b0: c1cb 973e 4feb ff3a bd09 a43e 0409 93bd
000000c0: 568d 963e 4c3a 4d3d 56f4 583e e3f9 95bd
000000d0: f832 783e b70c 0e3d b96a 673e a0a7 59bd
000000e0: 275c 653e 8cf8 553d f938 8a3e 24ab c2bc
000000f0: f7ef 953e 0131 253c ae2e 593e 11db 6abd
00000100: 8403 5f3e d993 06bc f7e3 613e 300b 7cbc
00000110: 19fc a93e a5de 8d3d 453a 4f3e c718 5bbc
00000120: 4f48 a33e ebb1 c33c 4f4a 613e 8228 9abc
00000130: 38fb 5f3e 0752 523d 5cd2 a33e 5f24 7bbc
00000140: de0e a63e 1f33 24bd 250b 993e 49a3 15bd
00000150: 828b 963e ec29 a8bd 72c5 a53e 395f b53c
00000160: d610 9c3e a861 9dbd f486 6c3e 582a 93bd
00000170: fe74 4f3e 508b 8bbd 0653 583e 9a8a 823d
00000180: e362 6a3e 8bf5 643d d924 513e a7c8 9b3b
00000190: 9672 713e e0b4 6d3d 8c1a 9f3e 9488 88bd
000001a0: da1b ab3e 23bc 66bc 50d5 763e 15a8 993d
000001b0: 6cc1 803e 96eb adbb c720 833e 7d7f 8e3d
000001c0: 2448 983e e05b 683b bb1c 9a3e 6e07 a03d
000001d0: c187 6e3e c7bc fb3c 5412 953e dbde db3c
000001e0: 2e45 763e 228e 00bd e5c4 a13e 3758 5b3d
000001f0: d8fa 7e3e 9da9 0e3d eb90 6a3e 979e 3b3b
00000200: 36fc 9a3e db10 a23d 6939 723e dbe5 993d
00000210: e14c 8a3e cc04 3dbd 68a1 8e3e a032 aebb
00000220: add7 773e f26d 5a3d c0a0 a63e 6258 8c3d
00000230: d147 733e b567 5bbd ca72 803e 6878 20bd
00000240: 2cd0 a73e 685b ccbc 16e2 ac3e 601d 3a3d
00000250: 1a8c ab3e 007f a2bc f1e5 523e f847 77bd
00000260: 1a0a 9e3e 4995 7b3d a8cc 903e 9ab7 a8bc
00000270: a237 a63e 3876 a5bc 8f81 983e ad02 c53d
00000280: d61e 8c3e 43d7 b43d 2171 983e 15b2 933c
00000290: 6082 03bd b142 023d 79c0 fdbc 798a aa3c
000002a0: 98b7 47bd 72a7 38bd d628 333d 3452 b8bc
000002b0: d85d 4a3d 0b68 78bc 3f58 193d a278 1dbd
000002c0: 5a6d 6c3d 2a43 fe3c 910f b93c c75c 67bd
000002d0: 336b 823d b63b 953d 999f 73bd d16d 06bd
000002e0: 1826 83bd 81fd 1d3d 4f04 a63c a25d 873b
000002f0: 2bb1 28bd 11eb 94bd a3c9 45ba 4a67 1e3d
00000300: a736 fe3c 4e3c 3abd 2bf9 b83c 14aa 3f3d
00000310: c1e3 4fbd ae6d 45bd 9c83 e63c 7b62 4ebc
00000320: c5ae e2bc fa18 2abd 0ed4 87bb ea80 de3c
00000330: 0732 a8bd d114 ce3c 329a 8f3d 8696 62bd
00000340: 14f6 7dbc 780d 643d 4d47 48bc 5809 82bc
00000350: 5823 5d3c 3d5b 833d a1b4 69ba 9b7f 29bb
00000360: d7dd 86bc e876 83bd 5204 f63c 28ab fcba
00000370: d8ab 58bd 6815 0e3c f68a ffbb 0d33 f23b
00000380: f230 0f3d f4ba 0ebc 1ac9 343d 755d 293c
00000390: f52d 443d 185a 91bd 6fb8 613c b0ca 363b
000003a0: 0b7c a9bd f9ec 803d a918 e3bc 8200 dbbb
000003b0: 0cb4 81bd 45ed 1dbc dfb6 6e3d 6e89 9bbd
000003c0: 7fe4 42bc 516a 04bc f3db 883d 4e36 26bc
000003d0: b96b 8fbd 4f53 2cbd ff7d 34bd d055 ccbc
000003e0: d3c7 b83c fde0 733d 2360 82bd 95ee 803c
000003f0: b6f3 1b3d 87ef e73c c854 37bd 10df 873d
0.19033527 -0.050995123 0.25990972 -0.09266955 0.32331452 -0.020940099 0.21733612 -0.036983043
0.21847169 0.011407071 0.28500915 -0.079054266 0.25208718 -0.07568628 0.19845855 -0.07099529
0.28662914 0.04251892 0.2178871 -0.029035825 0.33763593 0.004608659 0.33877915 0.072917715
0.27545893 0.049897753 0.27078882 -0.0063407454 0.28520688 -0.061369296 0.27089837 -0.04400431
0.21002093 -0.05504389 0.2637689 -0.06194309 0.20294859 -0.033685 0.32034767 0.0047705173
0.18767639 -0.05112237 0.22202386 0.0061563933 0.2964764 0.0019525083 0.3203868 -0.07179454
0.29404706 0.050104424 0.21186957 -0.07323053 0.24238193 0.034680095 0.22599305 -0.053138375
0.22398435 0.052238986 0.26996592 -0.023763247 0.2928464 0.010082484 0.21209213 -0.057337824
0.21778685 -0.008213961 0.22059618 -0.015383527 0.33200148 0.06927232 0.20237072 -0.013372607
0.31891105 0.023888549 0.22001003 -0.018818144 0.21873176 0.05134776 0.3199643 -0.015328496
0.32433218 -0.040087815 0.29891315 -0.036532674 0.2940331 -0.08211121 0.323772 0.022140132
0.30481595 -0.07684642 0.23098356 -0.07185811 0.20259473 -0.06813681 0.21125421 0.063740924
0.22889285 0.05589823 0.20424213 0.004754144 0.23578867 0.058033824 0.3107494 -0.06666675
0.33419687 -0.014082941 0.2410481 0.07502762 0.2514757 -0.005307625 0.25610945 0.0695791
0.2974254 0.0035455152 0.30100045 0.07813917 0.23293974 0.030729664 0.29115546 0.026839664
0.24049827 -0.03138555 0.3159553 0.053550925 0.24900377 0.034829725 0.22906844 0.0028628462
0.30270547 0.07913371 0.23654713 0.075145446 0.2701178 -0.046147153 0.27857518 -0.0053160936
0.24203368 0.05332751 0.32544518 0.06852795 0.23757865 -0.0535657 0.25087577 -0.03917733
0.3277601 -0.02494593 0.3376624 0.04543817 0.33505327 -0.019835949 0.20595528 -0.06037137
0.30867082 0.061421666 0.2828114 -0.02059536 0.3246432 -0.020197973 0.29786345 0.09619651
0.27367276 0.088301204 0.2977381 0.018029252 -0.032106757 0.031801883 -0.030975567 0.020817982
-0.048759073 -0.045081563 0.043740116 -0.022500135 0.049405903 -0.0151615245 0.037437674 -0.038445123
0.057721473 0.031037886 0.02259043 -0.056484964 0.06368103 0.072867796 -0.059478376 -0.032819573
-0.0640375 0.03857184 0.020265726 0.004131035 -0.041184586 -0.07271398 -0.0007545 0.038672723
0.03103192 -0.045467667 0.02257975 0.04679306 -0.050754312 -0.0482003 0.028138928 -0.012596722
-0.027671227 -0.041527726 -0.004145152 0.02716108 -0.08212667 0.02515641 0.07011832 -0.05531933
-0.015500564 0.055676907 -0.012224031 -0.015873596 0.013497196 0.06413887 -0.00089151604 -0.0025863412
-0.016463203 -0.06419164 0.030031357 -0.0019277083 -0.052898258 0.008672096 -0.007798548 0.0073913396
0.034958787 -0.008711565 0.044137098 0.010337223 0.04789539 -0.07097262 0.013776883 0.0027891807
-0.082756124 0.06295199 -0.02772172 -0.00668341 -0.06333169 -0.009639089 0.05827987 -0.07594572
-0.011895298 -0.008081988 0.06682577 -0.010144783 -0.07002968 -0.042071637 -0.04406547 -0.024943262
0.022556221 0.059540737 -0.06365993 0.015738765 0.038074218 0.028312458 -0.044758588 0.06634343

decoder.linear1.bias f4 [32]
00000000: c0fb a23e c3e7 093d 4cd9 593e 6e0f a4bd
00000010: c8c2 8c3e 73fa 173e 8baf 173e c3c5 413b
00000020: 55af 6abc 827a 4bbc ef25 793e 6b6d 123d
00000030: 925e 9e3e f9ac 9eba e5e0 7b3d c58b c33c
00000040: 75b5 80bd 9723 273e ab51 853e bf5d 783e
00000050: fae3 9f3e c6c1 9b3e 6da5 933e 7740 4f3d
00000060: 5390 4f3e 1abb c1b9 0931 ad3b 325e 5a3e
00000070: 5cca c2bc 310e 793e db39 8abd 8819 733e
0.31832695 0.03366829 0.21274298 -0.080107555 0.27492356 0.14841633 0.14813058 0.0029567338
-0.014324029 -0.012419345 0.24330877 0.03574888 0.30931526 -0.0012105993 0.061493773 0.023870358
-0.0628461 0.1632217 0.2603887 0.24254511 0.3122862 0.30421275 0.28837147 0.050598588
0.20269899 -0.0003695123 0.0052853865 0.21324995 -0.023778133 0.2432182 -0.06749316 0.23740208

decoder.linear2.weight f4 [10, 32]
00000000: d122 bf3e 9096 03be e377 da3e 593a 15bd
00000010: 8d5d 743e 90bf 993e 001a b23e 3325 2dbe
00000020: fdfc b9bc 6d8a d03d 8c70 1f3e f1a9 363d
00000030: c684 df3e 5498 233e 915f 28be 3e5a 45bd
00000040: 2bc4 f4bd b3c0 a93e e37b 3f3e 9880 303e
00000050: 6061 283e f64c a43e dd13 a03e 345d 133d
00000060: effb 083e 5238 203e 0c07 0e3e be80 4b3e
00000070: a21e c43d eb74 e23e 5389 f4bd 1154 d53e
00000080: e1f0 ff3d 4b5d d4bd 8741 eb3d f25f 0e3d
00000090: 8128 7b3e 600c cb3e 9a76 b33e f16b 2c3d
000000a0: 399b 4dbd a248 f33d 2dc8 ac3e 9e44 2c3e
000000b0: e538 6c3e 45f7 51bd acb2 4e3d e416 c7bd
000000c0: 4e5f 9abd bda9 d63e 8530 d03e fb9d a63e
000000d0: fbca 333e 0825 c13e 4a97 d93e 9f01 ec3d
000000e0: c578 613e b891 64bd ae38 08be 0219 a63e
000000f0: 3b7f 1b3a 8d45 bf3e cc4d 8c3d 6436 ef3d
00000100: e6d6 923e 9110 3ebd d85a b03e 0414 20be
00000110: 5f39 4d3e 9cce b53e 1ff4 bc3e b3bf fb3d
00000120: 8e46 c4bd 81c9 b63d 4842 223e 39e0 a43a
00000130: e901 003e a95e 4bbd fc24 74bd 2117 30bd
00000140: 8019 6ebd bc40 b33e 2116 b93e c66f 3e3e
00000150: 7f93 a73e fbea aa3e bb8d 0e3e 0235 dc3c
00000160: 296f 993e e913 0fbd c4e8 cf3c 1bc7 c53e
00000170: 5e3f 1abe 6dbd c53e ce29 fd3c 1c5c b43e
00000180: b710 e93e 0e36 033c cc2e 113e 182b fe3c
00000190: 93fa 643e 3aac cd3e 4d15 a13e f5a2 b0bd
000001a0: 3f50 b1bd 94b3 23bd e8f0 e83d 3a76 78bd
000001b0: bb19 3e3e ae4c 3cbc 85a3 14be 4ed4 193e
000001c0: a62e 9a3d 44f2 703e a0d3 373e c168 ae3e
000001d0: c0df c53e a76e f63d a583 d93e 42e1 af3d
000001e0: aac3 e03e 1864 e3bd a4c5 20be e8cc d23e
000001f0: 1888 f4bd 6882 553e 7143 11be faba c73e
00000200: ca9f cb3e d2f6 76bd 70b5 083e 7fb5 b4bb
00000210: 4842 b53e 2e78 333e cd4a 923e 7424 293e
00000220: dc06 83bd e0e5 97bd 6f12 b53e f6ff 27be
00000230: a6da c13e 6481 febd 1d6c fb3d a1ee a4bd
00000240: 1926 2fbe 99f3 b43e 5e3e 483e cd29 d33e
00000250: f756 883e 7fce 983e ce3b 113e 2fcb 513b
00000260: b9aa d23e e74d a9bd c84b b2bd 7ee9 b03e
00000270: db6c 2b3e e7ca c73d 47cc 413d 66c1 a93e
00000280: 75fc 173e e955 c93b 9078 463e 5651 85bd
00000290: c655 5d3e fc4f ba3e 60fa da3e 89c5 ac3d
000002a0: 5f7c 023e cf1e cdbc 9e26 e13e 9e93 533c
000002b0: dd67 6b3e ad6f 22be b422 f4bb a321 483d
000002c0: 14f3 a23c 3268 d33e 7a0b 803e 584c f23d
000002d0: 0c67 573e afbe bd3e 3ac7 c33e 3d56 2dbc
000002e0: d701 893e 7baa 6bba c5e1 9a3d 1705 553e
000002f0: 4672 f8bd 0245 c53e 388e 033e 3744 aa3e
00000300: ed68 8a3e 89cb 3a3d 9718 ca3e 479e 323e
00000310: 3ec9 513e 0298 ae3e 86bb a03e bee6 debd
00000320: 3219 ee3d eeaf bebd 15ad 963e 4d0a 063e
00000330: df04 643e fdc1 993c aebb ea3d a4cf 153c
00000340: 19ca 92bd 6c26 7d3e 3c8f b23e f0e4 563e
00000350: 02d8 db3e fcb7 ee3e e054 4e3e 4fcd 2bbe
00000360: 46a9 983e fada 29be 6d2d c13d aeb6 603e
00000370: 466c 983d 8dda 9e3e 8442 ebbd 11a5 0d3e
00000380: 4e7e 5a3e 558d 26be e64a 553e 130f 09be
00000390: 716e cd3e 704f 963e fe69 ae3e 2476 233e
000003a0: 9035 5dbd 1f20 6a3d b6f7 8d3e 0f48 e5bd
000003b0: 0d66 bf3e ae6c ab3d 79f3 29bc bab4 87bd
000003c0: 4935 d43d 4706 893e 4b48 8a3e e30c 943e
000003d0: fbd0 b73e b8fc 083e 279e 4f3e 7725 21be
000003e0: 9112 b23e 34b1 40bd da08 f9bd 013d ce3e
000003f0: 5a88 efbd 40a1 493e 6d8b 11be 4de5 c13e
0.3733125 -0.12850404 0.4266959 -0.036432598 0.23863812 0.30028963 0.3478546 -0.16908722
-0.022703642 0.101826526 0.15570277 0.044595663 0.43655986 0.15976077 -0.16442706 -0.048181765
-0.119514786 0.3315483 0.18699603 0.17236555 0.16443396 0.32089967 0.31265154 0.035977557
0.13377355 0.15646484 0.13869876 0.1987333 0.09576155 0.44229826 -0.11940255 0.416657
0.12497116 -0.10369357 0.11487108 0.03475947 0.2452717 0.3965788 0.35051423 0.04209513
-0.05019686 0.11879088 0.33746472 0.1682305 0.23068579 -0.051261205 0.050463364 -0.09721163
-0.07537709 0.41926375 0.40662017 0.32542405 0.175579 0.37723565 0.42498237 0.11523747
0.22018726 -0.05580303 -0.13302872 0.32440954 0.00059317396 0.3735775 0.06850776 0.11680296
0.2867958 -0.046402518 0.34444308 -0.15632635 0.20041417 0.35509193 0.36905 0.12292423
-0.0958377 0.089251526 0.15845597 0.0012579031 0.12500729 -0.04965082 -0.059605584 -0.042990807
-0.058129787 0.35010326 0.36149696 0.18597326 0.32729718 0.333824 0.13921253 0.026880745
0.2996762 -0.034931097 0.025379546 0.38628468 -0.15063235 0.38621083 0.030903723 0.35226524
0.45520565 0.008008493 0.14178008 0.031026408 0.22361211 0.4017046 0.31461564 -0.086248316
-0.08657884 -0.03996618 0.11374074 -0.060659625 0.18564503 -0.011492891 -0.14515503 0.15022394
0.07528429 0.23529917 0.17951822 0.34064296 0.3864727 0.12032824 0.4248325 0.085878864
0.4389928 -0.11103076 -0.15700394 0.41171956 -0.1194002 0.20850527 -0.14185883 0.3900984
0.39770347 -0.06029398 0.13350463 -0.0055148 0.3540213 0.17526314 0.28572693 0.16517812
-0.06397793 -0.07416892 0.35365626 -0.16406235 0.37862128 -0.12427023 0.1227648 -0.08053327
-0.17104377 0.353421 0.19555041 0.4124283 0.2662885 0.29845044 0.1418297 0.0032011976
0.41145876 -0.08266812 -0.087058604 0.3455314 0.16740744 0.097554974 0.047313955 0.33155364
0.14842398 0.0061442745 0.19381928 -0.06509654 0.21614751 0.36389148 0.42769146 0.08436114
0.12742756 -0.025039105 0.43974775 0.012913613 0.2298884 -0.15862913 -0.007450426 0.048860203
0.0198913 0.41290432 0.25008756 0.11830968 0.21035403 0.37059543 0.38237935 -0.010579643
0.26759216 -0.0008989942 0.07562593 0.20802723 -0.12131171 0.3852921 0.12847221 0.3325517
0.27033177 0.045604263 0.39471886 0.1744319 0.20486924 0.34100348 0.3139307 -0.10883854
0.116258994 -0.093109 0.29428926 0.13089867 0.22267483 0.018769259 0.11461578 0.009143744
-0.07167453 0.24721688 0.34874904 0.2098577 0.42938238 0.46624744 0.20149565 -0.16777538
0.29816645 -0.16587439 0.094324924 0.21944687 0.074425265 0.31026116 -0.11487296 0.13832499
0.21337244 -0.16264851 0.20829353 -0.13384657 0.40123323 0.2935748 0.3406524 0.15963036
-0.05400616 0.05715954 0.2772805 -0.11195385 0.37382546 0.083703384 -0.01037299 -0.06626268
0.10361726 0.26762602 0.2700828 0.28916082 0.35901627 0.13377655 0.20275174 -0.15736948
0.3477979 -0.047043994 -0.121598914 0.40280917 -0.11695929 0.19690418 -0.14213343 0.37870255

decoder.linear2.bias f4 [10]
00000000: a303 ab3d 8ea7 d1bc 0c7b 82bc 32ee 203e
00000010: c2ec 04bd 01fd a43e 0656 8f3e 2998 4fbc
00000020: 7ab3 923e 6dcd 203e
0.08350303 -0.025592592 -0.015927814 0.15715864 -0.032452352 0.32224277 0.27995318 -0.012670555
0.28652555 0.15703364

exp_avg f4 [32, 1, 2, 10]
00000000: 6c1e c140 1f9d bf40 466c c140 7cf8 bd40
00000010: 81c6 b740 7795 b840 6a01 b940 70e4 b540
00000020: d9dc b340 44df ae40 c7c3 ae40 b735 af40
00000030: 8589 ac40 92c5 ac40 b764 a940 2aba a440
00000040: 9504 a640 6e80 9f40 f6b0 9b40 0bd3 9640
00000050: d701 213f 4afa 0a3f 0a2d c63e 79a2 9c3e
00000060: e51f 5e3e e35b f53d 1901 993c d210 07be
00000070: dfbf 92be db7a cebe d902 513f 93eb 383f
00000080: 2342 133f 4843 013f 32fc de3e ba68 c53e
00000090: 45b9 973e 6c6f 393e 5d46 b53c 3b63 c0bd
000000a0: 77f2 d740 eb1b e540 3c03 f640 4bfe f740
000000b0: 8e17 f940 a2a0 fb40 2532 fa40 be66 eb40
000000c0: 29f4 e040 8670 e240 32c8 df40 5556 ec40
000000d0: af12 fe40 f5f7 fd40 a5dd 0041 a099 0141
000000e0: aa40 fe40 75c3 ed40 e7cb ec40 eca2 e740
000000f0: c5e3 9841 ace1 9741 b970 9741 5693 9941
00000100: 2826 9a41 374c 9c41 d76c 9b41 5990 9741
00000110: a152 9641 6e7f 9441 f844 8941 3f75 8741
00000120: 15b5 8741 5c53 8a41 02f1 8941 fe9a 8941
00000130: 9412 8941 5e0f 8541 927f 8341 d9ad 8041
00000140: d61f a040 eee7 9640 19f2 9540 4eda 8e40
00000150: 5216 8a40 6f92 8840 f164 8140 b2df 8040
00000160: 5095 8240 c4c2 7640 a13f 9540 2710 9040
00000170: dc83 8d40 6539 8640 4a8e 8240 01bb 7a40
00000180: 680b 6d40 8bf3 6940 57d7 6340 61fa 5840
00000190: eb5b 38be 13de 0cbe df47 e0bd 0326 a2bd
000001a0: 26fa 89bd 64a6 8ebd cc56 90bd 1ce9 93bd
000001b0: 52f9 01be 2391 38be 2797 05be 0f6e c2bd
000001c0: 6069 8abd 2243 2fbd 2a39 babc 49c0 9abc
000001d0: 8677 7dbc b6c1 39bc a931 98bd dfd5 f2bd
000001e0: 4e2d 9140 f70b 8f40 7b3a 8740 ebd6 6c40
000001f0: b7a0 4140 5de7 2a40 9b2b 1f40 b878 0d40
00000200: fb77 0840 5429 f73f 3d3d 6a40 7027 6140
00000210: d2db 4f40 8ceb 2f40 78b7 0840 59b8 e33f
00000220: 30a5 cb3f 629b ac3f 129c aa3f 01ae 983f
00000230: 649e 0842 15df 0542 f3ca f641 46f5 e041
00000240: 3e2f cf41 c2a3 cc41 c96f c141 2e29 c441
00000250: f8d6 b741 ed66 af41 ea5e 0542 da61 fc41
00000260: d321 e641 8a7c d241 92d8 c141 c28c bd41
00000270: 057d b741 2422 b641 9b47 ad41 71cb ac41
00000280: 3e45 d13e 0820 b03e 217a 803e 6166 093e
00000290: 1c35 883d b14c c53c 2c46 7ebd cb13 2bbe
000002a0: a137 2bbe 1211 48be 7a28 153e 519e af3d
000002b0: fe06 c33c 6ead 9ebd f986 bebd bd5e 19be
000002c0: 928a 55be a47f acbe 52d0 a6be 7724 b4be
000002d0: bd18 bebf 264e bfbf 177e c6bf 6eda c0bf
000002e0: 573f babf f7fc bdbf e6f2 babf c428 c0bf
000002f0: 16fe c5bf b3ad a9bf 7fb7 6cc0 a5ec 6fc0
00000300: f0ad 6ec0 1d79 6ac0 ca4f 69c0 ce75 6ac0
00000310: 9350 6fc0 3ed1 73c0 795c 72c0 4105 64c0
00000320: 2038 e4bd b450 e5bd 32c5 f5bd fd8a 0dbe
00000330: 7f9f 1abe 76f6 1abe 8577 0fbe cdc7 a6bd
00000340: 5f4a e6bc 86bf ff3c 859f 8a3d 323a 733d
00000350: c7c5 4a3d a1e0 023d 95c8 cf3c 19db eb3c
00000360: 9854 203d 15c8 bf3d d4c8 183e 619f 583e
00000370: 80c2 9441 24a7 9841 fc73 9a41 f9ba a241
00000380: ec3b a241 95c1 a041 e9fc 9c41 4c8e a341
00000390: 0149 a841 a687 ae41 4446 9341 782f 9941
000003a0: bde6 9741 9912 9f41 ccb6 9f41 8b1a 9c41
000003b0: cde9 9b41 a610 a441 de30 a741 7535 ad41
000003c0: 57bf cb40 e105 bf40 efad b240 b358 a540
000003d0: 215e 9940 7b8c 8d40 2cb8 8040 e471 6b40
000003e0: 3154 5a40 e595 5240 6122 b740 58db a440
000003f0: 3a62 9a40 403d 9040 b66e 8240 9d61 7340
6.0349636 5.98793 6.044467 5.9365826 5.7429814 5.768245 5.7814226 5.6841354
5.620709 5.464754 5.4613986 5.475307 5.391787 5.3991175 5.2935443 5.147725
5.1880593 4.9844275 4.8653517 4.713262 0.6289343 0.5428816 0.38706237 0.30592707
0.21691854 0.119804166 0.018677281 -0.1319001 -0.2866201 -0.40328106 0.8164497 0.7223446
0.5752279 0.5049329 0.43551785 0.38556463 0.29633537 0.1810891 0.022128278 -0.09393927
6.7483478 7.159658 7.687895 7.7497916 7.7841253 7.8633585 7.818621 7.356292
7.0298047 7.076236 6.993188 7.3855386 7.9397807 7.936518 8.054112 8.100006
7.9453936 7.4301095 7.3998904 7.238638 19.111216 18.985191 18.93004 19.196941
19.268631 19.537214 19.428144 18.945482 18.790346 18.562222 17.158676 16.93225
16.963419 17.290703 17.24268 17.20068 17.134071 16.632504 16.43729 16.084887
5.003886 4.7158117 4.685803 4.4641485 4.3152246 4.267875 4.043572 4.0273066
4.0807266 3.8556376 4.664017 4.5019717 4.422346 4.194506 4.0798693 3.9176638
3.7038212 3.6554897 3.5600183 3.390282 -0.18003814 -0.1375659 -0.10951208 -0.079174064
-0.06737165 -0.0696533 -0.07047805 -0.072221965 -0.12692764 -0.18024115 -0.13045941 -0.09493648
-0.0675838 -0.042788632 -0.022732336 -0.018890517 -0.015470391 -0.011337688 -0.07431347 -0.11857199
4.5367804 4.4702106 4.2258887 3.7006176 3.0254343 2.6703713 2.4870365 2.210493
2.132323 1.9309487 3.6599877 3.518032 3.2477918 2.7487516 2.136198 1.7790633
1.5909786 1.3484919 1.3328879 1.1928102 34.15468 33.467854 30.849096 28.119762
25.898067 25.57996 24.179583 24.520107 22.979965 21.925257 33.34269 31.54778
28.766516 26.31081 24.230747 23.69373 22.936045 22.76667 21.659964 21.599337
0.4087314 0.34399438 0.25093177 0.1341796 0.06650755 0.02408442 -0.06207864 -0.16706769
-0.1672044 -0.19537762 0.14566222 0.08575118 0.023807045 -0.07747923 -0.09303088 -0.14977546
-0.20853642 -0.33691132 -0.3258081 -0.3518407 -1.48513 -1.4945724 -1.550723 -1.506666
-1.455058 -1.4842824 -1.4605377 -1.5012441 -1.5468166 -1.3256134 -3.6986997 -3.7488186
-3.7293663 -3.6636422 -3.645495 -3.6634402 -3.7392929 -3.8096461 -3.786894 -3.5628207
-0.111435175 -0.111970335 -0.12000503 -0.13822551 -0.15099905 -0.1513308 -0.14010437 -0.08143578
-0.028111635 0.031219255 0.06768707 0.05938167 0.04950502 0.031952504 0.0253642 0.028790997
0.039143175 0.093643345 0.1492036 0.21154548 18.59497 19.081612 19.306633 20.341295
20.279259 20.094522 19.623491 20.44448 21.035646 21.816235 18.40931 19.148178
18.987665 19.88408 19.964256 19.51296 19.48916 20.50813 20.89886 21.651102
6.367107 5.9694676 5.583732 5.1670775 4.7927403 4.4233985 4.022482 3.6788263
3.4113886 3.2903988 5.7229466 5.1517754 4.8244905 4.507477 4.0760145 3.8028328

exp_avg_sq f4 [32, 1, 2, 10]
00000000: e0b8 6042 7a09 4642 1bb3 2942 439e 1942
00000010: 3970 0c42 e13b 0842 4463 0842 75b6 0d42
00000020: e49e 1b42 a0d4 1d42 d4eb 8342 5e72 5e42
00000030: 6051 3942 20cf 2342 8508 1342 0138 1242
00000040: 3253 1942 0499 2342 6c90 3842 11d3 3942
00000050: 81f2 2f3f c028 1d3f 7f62 0a3f 36fd f63e
00000060: fc5f d43e 5587 ab3e 22bf 903e 4af4 7b3e
00000070: 7c8f 6d3e 6b0a 893e c83c 1c3f 06db 053f
00000080: f2b9 e03e c61c be3e b3b7 903e 502a 613e
00000090: 5439 193e 24eb e13d 40da b33d 2d06 e53d
000000a0: 3279 5c42 790b 6e42 4199 8142 4395 8942
000000b0: 80ab 9342 6c7b a342 0b3f ad42 096d ab42
000000c0: 0902 af42 61f1 b742 2e84 9a42 10d8 a242
000000d0: 53f4 a742 75b2 ac42 0584 b042 4cab b642
000000e0: c7c4 b942 8fb5 ba42 e939 bd42 ffa3 bf42
000000f0: bed7 f843 c63b f943 f1b6 fc43 bf16 0144
00000100: e879 0444 b674 0844 1174 0b44 e071 0744
00000110: 2a7d 0644 4d5d 0444 9318 e343 cb24 e543
00000120: b595 e843 ccb7 eb43 534a ef43 71b3 f343
00000130: 18a2 f543 0af1 ee43 c924 ec43 5ac0 eb43
00000140: 0e84 5e42 28c8 4742 943d 3842 e7bf 2942
00000150: 39f1 2042 500c 1b42 fe92 0c42 e799 0842
00000160: db27 fb41 07f5 e641 6448 7942 9d28 6142
00000170: 26d1 4d42 a4dd 3742 1ecf 2042 0cdd 0f42
00000180: 8503 f641 4cc1 e141 1cb1 c441 535f a941
00000190: c8ff eb3d d3a1 b23d d037 783d b0df 1c3d
000001a0: 3c25 a53c 0840 2e3c e29d 073c e3f9 2a3c
000001b0: 57c1 cb3c b87c 5c3d b749 053e 9c8c ca3d
000001c0: 8b2b 913d fe5e 3d3d aedc c13c c454 583c
000001d0: 11e8 183c 9c9f 393c a231 d63c 80f3 663d
000001e0: c608 8c42 05fb 8742 093f 7b42 792e 4942
000001f0: d5ec 1542 8ab0 f341 afac ce41 1015 ad41
00000200: 09d5 9941 6d40 8941 6de1 7842 734c 6c42
00000210: 60ed 5842 3fe2 3a42 d407 2442 58a8 1642
00000220: 104b 0542 beb3 ef41 5a20 dc41 75fe c841
00000230: 299d 2645 9e70 2645 fbb0 2245 b296 2245
00000240: ad5c 2545 78a2 2345 368e 2045 d9f8 1b45
00000250: 38f8 1b45 882d 1745 2656 1545 06be 1345
00000260: cf5b 1345 9566 1a45 0f8d 2345 6b1d 2045
00000270: b808 1c45 317a 1645 be08 1945 e93f 1445
00000280: 7861 9440 4945 6f40 3bc0 3940 cb0d 0140
00000290: 88fd e73f dd87 0540 9148 1b40 ff2c 5b40
000002a0: 6365 9640 f363 cb40 e90d 0841 f601 f140
000002b0: 2b15 d540 1f60 aa40 31b9 aa40 a802 b640
000002c0: a573 c440 419b eb40 7511 1741 6c69 3541
000002d0: ad0e 4a42 4d80 2b42 c709 0742 29cb d941
000002e0: 02b4 bb41 465e a041 3615 8241 2cd5 4441
000002f0: d2ea 1b41 ec48 0a41 131b 3e42 0770 2a42
00000300: d051 1342 c2c9 0142 60eb e741 f96a d341
00000310: 8b42 c641 dbdd bf41 69e6 b941 ecd9 9d41
00000320: 4bda 833e 5705 583e 87dd 363e 870f 243e
00000330: 1409 233e 4025 3d3e acf7 6a3e 359a a33e
00000340: 2590 e03e 58b3 163f c1f6 f63d 668e b63d
00000350: b6bb 683d 7eaa 103d 676d ba3c dbb4 b73c
00000360: dbb4 373d 4998 c33d d7d7 313e ffbc 8e3e
00000370: 3191 5a44 d8ce 6244 ff34 6744 b2fc 7044
00000380: efe2 6f44 24b1 6e44 2b82 6d44 d003 7844
00000390: 6f34 7e44 e313 8444 c29e 6d44 328f 7544
000003a0: f285 7944 1b00 8044 bd45 8044 40f5 7f44
000003b0: 57d5 8044 16f6 8244 582c 8444 0531 8744
000003c0: d73e e542 a73f d742 d212 c742 f214 b442
000003d0: f3f9 a542 f328 9542 90f4 7f42 100d 5f42
000003e0: 7168 4742 902c 2d42 8400 d742 b469 cc42
000003f0: 13cb c542 18fb be42 28ae bc42 3336 ad42
56.180542 49.509254 42.424908 38.404552 35.109592 34.058475 34.09694 35.42818
38.905167 39.45764 65.9606 55.611687 46.329468 40.95227 36.75832 36.55469
38.331245 40.89943 46.141037 46.45612 0.68729407 0.61390305 0.54056543 0.4824006
0.4147948 0.33501688 0.28270823 0.24604908 0.23199266 0.2676576 0.61030245 0.5228733
0.43891865 0.37131327 0.2826515 0.21988797 0.14963275 0.11031178 0.08781862 0.111828186
55.118355 59.511204 64.799324 68.79153 73.83496 81.74106 86.62313 85.71296
87.503975 91.97144 77.25816 81.422 83.977196 86.34855 88.25785 91.334564
92.88433 93.35461 94.613106 95.820305 497.6855 498.46698 505.42923 516.3554
529.9048 545.8236 557.81354 541.7793 537.9557 529.4578 454.192 458.28745
465.1696 471.4359 478.58066 487.4019 491.26636 477.88312 472.28738 471.50275
55.62896 49.945465 46.060135 42.437405 40.23557 38.762024 35.143547 34.150295
31.39446 28.869642 62.320694 56.28966 51.454247 45.966446 40.202263 35.965866
30.751719 28.219383 24.58648 21.171545 0.11523396 0.08722272 0.060600102 0.038299263
0.020159356 0.010635383 0.008277388 0.010435554 0.024872465 0.05382988 0.13016401 0.098901
0.07088383 0.04623317 0.023664799 0.013203803 0.009332673 0.011329558 0.026146714 0.056384563
70.017136 67.99027 62.811558 50.295383 37.48128 30.4612 25.834318 21.635284
19.229021 17.156458 62.220142 59.074657 54.23181 46.720943 41.007645 37.6644
33.323303 29.962765 27.515797 25.124247 2665.8225 2663.0386 2603.0613 2601.4185
2645.7922 2618.1543 2568.8882 2495.553 2495.5137 2418.8457 2389.3843 2363.8765
2357.738 2470.4114 2616.8162 2561.8386 2496.545 2407.637 2448.5464 2371.9944
4.636898 3.7386038 2.9023578 2.0164669 1.8124247 2.0864174 2.426304 3.4246213
4.6998763 6.355951 8.503396 7.5314894 6.658834 5.3242335 5.3351064 5.6878242
6.139117 7.362702 9.441762 11.338238 50.51433 42.875294 33.75955 27.2242
23.462894 20.046032 16.260357 12.302044 9.744829 8.642803 47.52644 42.6094
36.829895 32.44703 28.98993 26.427233 24.782492 23.983328 23.237505 19.731407
0.25752482 0.21095787 0.17857943 0.16021548 0.15921432 0.18471241 0.22946042 0.31953588
0.43859974 0.58867407 0.12058783 0.08913879 0.05681964 0.035318844 0.022757245 0.022425106
0.04485021 0.095505305 0.17367493 0.27878568 874.2686 907.23193 924.82806 963.94836
959.54584 954.7678 950.0339 992.0596 1016.8193 1056.6215 950.4806 982.2374
998.0929 1024.0033 1026.1793 1023.83203 1030.6669 1047.6902 1057.3857 1081.5319
114.622734 107.62432 99.53676 90.04091 82.98818 74.57998 63.98883 55.762756
49.851994 43.293518 107.50101 102.20645 98.89663 95.49042 94.34015 86.60586

exp_avg f4 [32]
00000000: c20f 3b3e 9c05 983e 3bcf c2be 937a b43e
00000010: e298 e23c 672b a83d ec71 cfbe f92c 95bf
00000020: f95b b4bd ead6 8f3e eb40 443f 5e18 4bbf
00000030: 18c3 86be 8dcd a33d 78fb 603e f041 d0bf
00000040: ed0d 773f 63c6 283f bd51 683e 84a4 f53d
00000050: bd79 c0bc 7430 80bf e35a 74be 034a 7d3f
00000060: 0ac0 cbbe 81c3 e7bd fd47 4bbf 9091 723e
00000070: f8e9 f6bc 3c77 10be cd9c 12be e2d4 7d3e
0.1826773 0.2969178 -0.3804873 0.35249767 0.02766079 0.08211403 -0.40516603 -1.165435
-0.08806605 0.28093654 0.76661557 -0.79334056 -0.2632072 0.0799819 0.21970928 -1.6270123
0.96505624 0.65927714 0.2268743 0.119942695 -0.02349555 -1.0014787 -0.23862796 0.9894106
-0.39794952 -0.11316586 -0.7940672 0.2368834 -0.030140862 -0.14107984 -0.14317627 0.2478824

exp_avg_sq f4 [32]
00000000: 03b5 e13f cb70 123f 3f44 d53f fc97 3340
00000010: 6d7b 813f 70f1 bb3e 8050 9a40 fd7a 2242
00000020: c4fb 8140 807b 8340 0b8b 3740 e674 8e41
00000030: 9efa 2640 6d74 b940 b71c db40 dd8b 7040
00000040: 11e7 4b41 69db 963f 19b7 3240 eb56 ed40
00000050: 7ed7 c83f 539b 4040 a132 9240 2679 2f40
00000060: be64 8b40 4eb5 8340 3031 7241 0f45 9740
00000070: 51a5 5d3f 6ba2 3040 7994 023f 576c 1a3f
1.7633365 0.5720336 1.6661452 2.8061514 1.0115792 0.3670764 4.8223267 40.620106
4.061983 4.1088257 2.8678615 17.80708 2.6090465 5.795462 6.847255 3.7585366
12.743913 1.1785709 2.7924254 7.41686 1.5690763 3.0094802 4.5686803 2.7417693
4.3560476 4.115882 15.137009 4.72718 0.8658038 2.7599132 0.510078 0.60321563

exp_avg f4 [32]
00000000: 66fd 173f cf7b a93e c3e2 883e 431a 513f
00000010: 18ea a43e cd61 0a3d 3657 a43f 2956 5440
00000020: ff81 43bd 52c2 443e dad2 103f eb87 d53f
00000030: 9163 1d3f 0d78 d53d aa09 d73e 4f1e e9be
00000040: 6da8 193f 409a 003f 124e d33f 63a2 3c40
00000050: 00a5 d1bd 86f7 1240 0201 673f b6bd a93e
00000060: 6933 40be b1aa 50bd 50fd e1be ab4f 2540
00000070: ff36 523e a167 c0bd 2528 563f 1ba3 513f
0.5937103 0.3310227 0.26735505 0.816807 0.3220985 0.033784676 1.2839115 3.3177588
-0.047731396 0.19214752 0.56571734 1.6682104 0.6148005 0.104232885 0.4199956 -0.45530936
0.6002262 0.50235367 1.65082 2.9474113 -0.102365494 2.2963576 0.9023591 0.3315255
-0.18769611 -0.050944034 -0.44138575 2.5829875 0.20528792 -0.09394766 0.83655006 0.81889504

exp_avg_sq f4 [32]
00000000: 0509 313f 5ef7 8e3e d9dd 4c3f 4849 4d40
00000010: d0eb 623f 72c0 393e 6afc fe3f f533 a741
00000020: 5420 2240 7b3f c03f 4be7 d03f b964 cd40
00000030: d9ec f43f ca31 2940 6cb5 5540 515d 7140
00000040: 4224 ed40 4b69 913f 38bb a540 4b9e 2941
00000050: 4ecf 3c3f 26b0 b840 2f3a b33f 78e2 6a3f
00000060: 3be9 6040 ebda 0a40 0ef4 0441 5077 e840
00000070: d0c7 0d3f 81a4 a73f 889e 0f3f 5b76 a63f
0.6915439 0.279231 0.8002601 3.2075977 0.8864107 0.18139818 1.9920781 20.90037
2.5332232 1.5019373 1.6320585 6.4185452 1.913478 2.643664 3.339198 3.7713206
7.410676 1.1360258 5.179104 10.601146 0.7375382 5.7715025 1.4002131 0.91751814
3.5142353 2.1696117 8.309584 7.2645645 0.55383015 1.3097078 0.56101274 1.3004869

exp_avg f4 [1, 32, 2, 10]
00000000: a668 3e40 a613 2940 e18c f53f e8aa cb3f
00000010: e175 db3f 3c79 fe3f 7d6d f23f 2bb1 e63f
00000020: b1e3 8b3f f3f0 143f 0636 5b40 5607 4b40
00000030: f97f 3240 839c 3740 dc6a 5c40 1ab3 8540
00000040: 8cbc 8d40 29ab 8240 408a 5440 539f 2840
00000050: a7bf 6c3e dfea 983e 1122 093f 4363 473f
00000060: 22fd 8d3f 03ef b93f 775e c43f 9335 d63f
00000070: 3727 c13f ad85 c03f df50 d1c0 8344 c3c0
00000080: 167f b9c0 7153 b2c0 54e8 adc0 6c62 aac0
00000090: ce22 aec0 436e b2c0 9e3a b7c0 14bb b9c0
000000a0: a296 6e40 816a 8240 8196 7e40 32be 6f40
000000b0: 5e5b 6240 cd62 3d40 2715 0a40 b499 ed3f
000000c0: 7372 c83f 37b3 bf3f b8da 4c40 52e5 7b40
000000d0: dcb2 8340 55c8 8640 1a27 8b40 8728 8040
000000e0: 1af8 5c40 568a 4a40 c4f9 3240 45c7 1b40
000000f0: 1137 903e a7bd 1e3e 49d7 243f dbd1 803f
00000100: 0e88 6c3f 602c b53e c040 b5bd c860 d4be
00000110: c6a3 32bf 3cbc 33bf 2ef6 3340 0f6b 3d40
00000120: bd41 4f40 2a01 5f40 00cb 7040 4160 5c40
00000130: 52c6 3e40 6700 1140 2a92 e33f a1db b33f
00000140: a604 be3f b33f c13f ab5b b93f ced8 bc3f
00000150: 8dd1 a33f 8dcf 3c3f 1fe2 a93e acac 873e
00000160: ef58 c83d ea09 673d 559b ef3f 9bb0 ed3f
00000170: 22a1 f13f 3faf fd3f 3314 ec3f 46e5 a93f
00000180: e784 593f 56c6 273f 479f ee3e 9876 fb3e
00000190: fd28 883f b05c 563f d0b6 293f b631 213f
000001a0: e8ea 183f 6446 f53e 4dd3 b43e b0a8 843e
000001b0: b205 4c3e 67c0 553e 5190 b33f d514 973f
000001c0: 3076 843f 676a 823f d570 733f dbd0 513f
000001d0: 384f 323f 4464 103f 7425 ef3e 2d14 e93e
000001e0: 3418 62bf 6d79 7dbf 6619 24bf 86a8 0fbe
000001f0: 5b15 203e fefb 64bc 6660 a6be a3e6 bebe
00000200: 1024 eabd 80b9 e03d b082 c93f b2ae af3f
00000210: 3ab9 c83f 4e09 f83f 09b7 0940 42a4 fa3f
00000220: 6bb2 d03f e028 cd3f 4cc1 da3f 2ed3 d23f
00000230: ad2d 3fbe c191 f2be b080 06be 9162 a73e
00000240: 324b 813f 2491 943f dcfc 893f c796 153f
00000250: 8214 f43e a319 c63e bf8e 1540 e5fe e23f
00000260: 660c ca3f 5ac3 d23f 0259 eb3f bdde f73f
00000270: 3e26 e13f 8a95 ae3f 5e26 b03f 328f 9e3f
00000280: d0de 0b40 97d5 0540 48be e73f d797 b63f
00000290: 7507 913f 8168 353f 401d af3b af94 0cbf
000002a0: 34d5 65bf 6880 87bf e1c7 6540 9c99 5b40
000002b0: 9880 5140 cc62 3940 5715 2740 7b5f 0140
000002c0: 2407 a23f af84 033f 3af6 3e3e 85f5 063e
000002d0: bc49 e9c0 d2a6 ccc0 fbea b5c0 fe6b a3c0
000002e0: 7fce 9cc0 7e6a 99c0 5eda 9bc0 3408 a1c0
000002f0: 588d a4c0 e6eb a6c0 6f02 42c0 c590 1ac0
00000300: 4074 dcbf 7d53 92bf d1cb 57bf e0b9 32bf
00000310: 2c6a 1cbf 1d99 2bbf 78fb 48bf 325f 69bf
00000320: 536b cec0 becc cac0 f9fa c6c0 e2b3 c0c0
00000330: f73e b9c0 7175 aec0 be1b a2c0 5ac0 92c0
00000340: 18f1 83c0 42a2 6dc0 ba98 fac0 abbc f5c0
00000350: 1829 f1c0 6b2b eac0 6787 e1c0 9a68 d5c0
00000360: adad c7c0 1e9a b8c0 69ef aac0 96d0 9fc0
00000370: 786a 5240 a070 5540 8bb4 5640 756b 4540
00000380: 94e6 3440 c385 1a40 482d 0140 884c aa3f
00000390: 7723 713f 7ec4 4d3f 0605 8a40 a574 9340
000003a0: 7dde 9c40 3a3b 9740 1b02 9440 963b 8240
000003b0: a38c 6040 beb0 2e40 19bf 1440 8c23 1840
000003c0: c8fc 613f 57b6 313f 5811 093f 0d9d ec3e
000003d0: 1a42 dc3e 7769 503e c640 3cbd 25c3 a7be
000003e0: b5f3 e6be e2e6 adbe 4b0a 1640 3185 0a40
000003f0: a7c5 e73f df93 d33f eb69 c23f 4213 9e3f
2.9751372 2.6418242 1.9183618 1.5911531 1.7145349 1.9880748 1.8939663 1.8022817
1.0928861 0.5818016 3.4251723 3.1723228 2.7890608 2.8689277 3.4440222 4.178113
4.429266 4.0833936 3.320938 2.6347244 0.23119985 0.29866692 0.53567606 0.77885836
1.1092875 1.4526066 1.5341328 1.67351 1.5090092 1.5040795 -6.541122 -6.1021132
-5.7967634 -5.5726857 -5.4346104 -5.3245144 -5.4417486 -5.5759597 -5.7259054 -5.8040867
3.727944 4.075501 3.977936 3.7459836 3.5368266 2.9591553 2.157541 1.8562531
1.5659927 1.4976567 3.2008495 3.9358716 4.1155834 4.2119546 4.348523 4.004947
3.452643 3.1646934 2.7964945 2.4340374 0.28167012 0.15502034 0.64391 1.0064043
0.923951 0.35385418 -0.08850241 -0.41480088 -0.6978115 -0.702091 2.8119006 2.9596593
3.2383873 3.484446 3.7623901 3.4433749 2.9808545 2.2656496 1.7778981 1.40514
1.4845169 1.5097564 1.44811 1.4753664 1.2798325 0.737542 0.3318033 0.26498926
0.09782588 0.05640594 1.8719279 1.8569521 1.8877299 1.9819106 1.8443664 1.3273094
0.8496842 0.6553701 0.46605894 0.49113917 1.0637509 0.8373518 0.66294575 0.6296648
0.5973344 0.47905266 0.3531746 0.25909948 0.19924048 0.20874177 1.4028417 1.1803232
1.0348568 1.0188721 0.95094043 0.81959313 0.6965213 0.56402993 0.46708262 0.45523205
-0.8831818 -0.99013406 -0.64101255 -0.1402913 0.15633146 -0.013976095 -0.3249542 -0.37285337
-0.114326596 0.10972881 1.5743008 1.3725188 1.5681527 1.937784 2.1517966 1.9581378
1.6304449 1.6028099 1.709024 1.6470697 -0.18669768 -0.47376826 -0.13135028 0.32692388
1.0101073 1.1606793 1.0780292 0.5843319 0.47671896 0.38691434 2.3368375 1.7734038
1.5785034 1.6465867 1.8386538 1.9364849 1.7589796 1.3639386 1.3761709 1.238745
2.1854744 2.0911615 1.8104944 1.4265088 1.1330401 0.70862585 0.005344063 -0.54914373
-0.8977845 -1.0586061 3.5903246 3.4312506 3.2734737 2.896655 2.6106775 2.0214527
1.2658429 0.51374334 0.18648615 0.13179596 -7.290251 -6.395364 -5.684934 -5.1069326
-4.900207 -4.7942495 -4.870406 -5.0322514 -5.142254 -5.216296 -3.0313985 -2.415086
-1.7222977 -1.1431729 -0.84295374 -0.6981487 -0.61099505 -0.6703051 -0.7850871 -0.9116088
-6.450601 -6.337493 -6.2181363 -6.0219584 -5.788936 -5.451836 -5.0658865 -4.5859804
-4.1231804 -3.7130284 -7.8311434 -7.6792808 -7.5362663 -7.3178 -7.0477786 -6.6690187
-6.2399507 -5.768813 -5.341725 -4.994212 3.2877483 3.334999 3.3547695 3.0846837
2.8265734 2.4144142 2.0183887 1.3304605 0.9419474 0.8037795 4.313113 4.607989
4.902159 4.72598 4.625257 4.0697737 3.5085838 2.7295375 2.3241637 2.3771696
0.8827634 0.69418854 0.5354209 0.4621357 0.4301918 0.20352732 -0.04596021 -0.3276607
-0.4510781 -0.33965212 2.3443782 2.1643794 1.8107194 1.6529502 1.5188574 1.2349627
