results/2021-04-12_23-04/2021-04-12_23-04.pth (torch, 62515 bytes, 26 tensors)

encoder.maxpool_conv.0.0.weight f4 [32, 1, 2, 10]
0	0xbd8bc946	-0.06825499
1	0xbe618eaa	-0.22027078
2	0xbd001014	-0.031265333
3	0x3d2f9fe7	0.042877104
4	0x3e4aa9e5	0.19791372
5	0xbe10f5a4	-0.14156204
6	0xbe5bd30d	-0.21467228
7	0x3e14c9a2	0.14530042
8	0x3d02911a	0.03187666
9	0x3e68010d	0.22656651
10	0x3de69e95	0.11260716
11	0xbcdbf318	-0.026849315
12	0xbe677214	-0.22602111
13	0xbd9ebe51	-0.07751144
14	0x3e4a9dc9	0.19786753
15	0xbd2a0224	-0.041505948
16	0xbd1844de	-0.037175052
17	0x3c756d4c	0.014979672
18	0xbd65cac7	-0.056101587
19	0x3dd4ef90	0.103972554
20	0x3df706b0	0.120618224
21	0xbe2f029d	-0.1709084
22	0xbd32445d	-0.043522228
23	0x3d31b4e9	0.04338542
24	0x3e4660d2	0.19372872
25	0x3df2a9c6	0.11848788
26	0x3e1ea879	0.15493955
27	0xbd84e36e	-0.06488691
28	0x3e17372d	0.14767142
29	0x3d87f360	0.06638217
30	0x3d474ac1	0.048655275
31	0xbdf70bb5	-0.1206278
32	0x3a83d265	0.0010057209
33	0xbd987f7a	-0.07446189
34	0xbdc19eba	-0.09454103
35	0x3d8d512e	0.069002494
36	0xbdb35b97	-0.08757704
37	0x3c8b4b15	0.017003575
38	0x3ba5fd57	0.005065601
39	0xbe293a8f	-0.16526245
40	0x3dbe88f8	0.093034685
41	0xbcc05394	-0.023477353
42	0x3e5e5316	0.21711382
43	0x3cf11059	0.02942674
44	0xbcaa3738	-0.020778283
45	0x3e5045b1	0.20339085
46	0x3d0d72c7	0.03453329
47	0xbddb2367	-0.10700112
48	0x3d7b6477	0.061375108
49	0xbd9188dd	-0.07106183
50	0xbdf132ca	-0.11777265
51	0xbe0f3c5e	-0.13987872
52	0xbe18b021	-0.14910938
53	0x3c2be472	0.010491477
54	0x3d038050	0.03210479
55	0x3d358b73	0.044322442
56	0xbe20391d	-0.15646787
57	0x3e1e4bde	0.15458629
58	0xbe3cdeeb	-0.18444411
59	0xbd0ad393	-0.03389318
60	0x3a08d559	0.00052197796
61	0xbdf5397b	-0.11973854
62	0x3d9cff7c	0.07665917
63	0xbe2bb0b5	-0.16766627
64	0x3e182538	0.14857948
65	0x3dc17564	0.094462186
66	0x3deca726	0.115553185
67	0x3e00fcff	0.1259651
68	0x3d213da8	0.03936544
69	0xbd2243f8	-0.0396156
70	0x3e2e6411	0.1703036
71	0x3d70fe63	0.058836352
72	0x3d81ec15	0.06343857
73	0xbe66fca0	-0.22557306
74	0xbdf787bd	-0.12086437
75	0xbe58260b	-0.21108262
76	0x3c879e43	0.016554957
77	0xbdbc8288	-0.09204584
78	0xbd415f15	-0.047209818
79	0x3c3c48e7	0.011491991
80	0xbdeeef65	-0.11666755
81	0xbb8fe20b	-0.00439096
82	0x3d6d427b	0.05792473
83	0xbe456f38	-0.19280708
84	0x3cf4122a	0.029793818
85	0xbdbd138b	-0.09232243
86	0xbdf93e39	-0.12170071
87	0xbe21eeb6	-0.15813717
88	0xbe0315e2	-0.12801316
89	0xbdc10bba	-0.09426065
90	0x3c1cd401	0.00957203
91	0x3cf0ed12	0.029409919
92	0x3dddb5ee	0.10825716
93	0x3e70bdd0	0.23509908
94	0xbd1a4a19	-0.03766832
95	0x3e23e658	0.16005838
96	0x3dcce94f	0.100054376
97	0xbe0a2165	-0.13489302
98	0xbe161a81	-0.14658548
99	0x3e5d7da2	0.21629956
100	0xbdacfebb	-0.084470235
101	0xbda5128d	-0.08060179
102	0xbdeefecb	-0.11669692
103	0xbcd1e34e	-0.025621083
104	0xbe684a74	-0.22684652
105	0xbdd47ff9	-0.10375971
106	0xbe0aac4f	-0.13542293
107	0x3e0e0af3	0.13871364
108	0x3d7604d2	0.06006319
109	0xbe5a171d	-0.2129788
110	0xbdd6b06b	-0.10482868
111	0xbd046ce3	-0.032330405
112	0x3d15c735	0.03656693
113	0x3e54f61b	0.20797007
114	0x3c3dd70c	0.011586916
115	0xbbd33dbc	-0.0064465683
116	0x3dabcec0	0.08389044
117	0x3dbf6b31	0.09346617
118	0xbe2efbde	-0.17088267
119	0xbdbb30f9	-0.091402
120	0xbe56dec0	-0.2098341
121	0x3e00b9c2	0.12570861
122	0xbe03e74c	-0.12881202
123	0xbb65f628	-0.0035089348
124	0xbe62a9d9	-0.22135104
125	0x3df1ec05	0.11812595
126	0xbd1c8dc8	-0.03822115
127	0xbe04b4d7	-0.1295961
128	0xbdacb371	-0.08432663
129	0xbc84cd6f	-0.01621124
130	0x3d9cde24	0.076595575
131	0x3e1a2478	0.15052974
132	0xbe4ca82f	-0.19986032
133	0x3d0ec088	0.03485158
134	0x3e0ddc34	0.13853532
135	0x3e3d33b3	0.18476753
136	0xbdaa1ede	-0.08306669
137	0x3daf4627	0.085583024
138	0x3e460aed	0.19340105
139	0x3c4b6605	0.01241446
140	0xbc889072	-0.01667044
141	0x3e45a46d	0.19301005
142	0xbd898a73	-0.0671586
143	0x3d7bd365	0.0614809
144	0x3e5a92e4	0.21345097
145	0xbb9655d7	-0.0045878696
146	0x3af0e43c	0.0018378566
147	0x3d21a405	0.03946306
148	0xbe648ef5	-0.22320159
149	0x3e2834fb	0.1642646
150	0xbdf9dfaa	-0.12200864
151	0xbd8c36f6	-0.068464205
152	0x3e47768a	0.19478813
153	0xbdd8bf7b	-0.10583397
154	0xbde671f9	-0.11252207
155	0xbe6e7493	-0.23286657
156	0xbe6b41cf	-0.22974323
157	0xbcb6d411	-0.022317918
158	0x3e13ac0a	0.14421096
159	0x3d984f77	0.07437032
160	0xbdfd2e9a	-0.12362404
161	0xbe1dbecb	-0.15404813
162	0xbd96c818	-0.073623836
163	0xbd84ab73	-0.06478014
164	0x3dc37501	0.09543801
165	0x3d1caa1d	0.03824817
166	0xbce4db23	-0.027936524
167	0x3db0ab50	0.08626425
168	0x3e77e2c7	0.24207602
169	0x3e4feeec	0.20305985
170	0x3ceab5f3	0.028651213
171	0xbdbc7d84	-0.09203628
172	0xbd95b1f6	-0.07309334
173	0xbe5b380e	-0.21408102
174	0x3dedec8b	0.116173826
175	0xbd8d2ea9	-0.06893665
176	0xbe30f6cb	-0.17281644
177	0x3d8d0fd1	0.06887782
178	0xbbde73e2	-0.0067887167
179	0xbde1b4b7	-0.11020797
180	0x3e66535d	0.22492738
181	0xbe2bbd6c	-0.16771477
182	0x3cad70c6	0.021171939
183	0x3d7a15ee	0.06105607
184	0xbe0389be	-0.12845513
185	0x3cb31445	0.021860251
186	0xbc869cad	-0.01643213
187	0x3d078a6a	0.033090986
188	0x3cbe3fdf	0.023223815
189	0x3e6a5e17	0.22887455
190	0xbd8ee294	-0.0697681
191	0xbdbcb9af	-0.09215104
192	0xbe3ddec9	-0.18542017
193	0x3e221110	0.15826821
194	0xbe0e82cc	-0.13917083
195	0xbe15f82a	-0.14645448
196	0xbdbf0f30	-0.09329069
197	0x3e3979eb	0.18112914
198	0x3be413e9	0.0069603813
199	0xbce8b2fe	-0.028405663
200	0xbddce37c	-0.10785577
201	0xbdbee86d	-0.093216754
202	0xbc8170bb	-0.015800824
203	0x3e467240	0.1937952
204	0x3e1aedad	0.15129729
205	0x3e3df4b6	0.18550381
206	0x3df25e4e	0.118343934
207	0x3c3535bb	0.011060174
208	0x3c891c1e	0.01673704
209	0x3e3444cb	0.17604367
210	0xbe25f8fb	-0.1620826
211	0x3bedf9eb	0.0072624586
212	0xbd3c48bf	-0.045967814
213	0xbe54794e	-0.20749399
214	0xbcbc440e	-0.02298167
215	0xbd6235ea	-0.055227198
216	0xbe4746a4	-0.19460541
217	0x3e0c1f75	0.13683875
218	0x3d06d44c	0.032917306
219	0x3e2ac03d	0.16674896
220	0x3e0d10d4	0.1377595
221	0x3e06c9fe	0.13162991
222	0xbe5f659b	-0.21816103
223	0x3e11fa6d	0.14255686
224	0xbe248da3	-0.16069655
225	0xbe2a8530	-0.1665237
226	0xbe3d5e44	-0.1849299
227	0x3dd41b07	0.103567176
228	0x3cfc5a2c	0.030804716
229	0xbddd4c58	-0.10805577
230	0x3e5ad3e1	0.21369888
231	0xbdab95a8	-0.08378154
232	0xbe2312a8	-0.15925086
233	0xbd1f32a1	-0.038866643
234	0xbe6bf6dd	-0.2304339
235	0xbe3fa88d	-0.18716641
236	0xbe231371	-0.15925385
237	0xbb3ccf5f	-0.0028810126
238	0x3d4068fa	0.046975113
239	0x3d196974	0.037454084
240	0xb913fd6e	-0.00014113422
241	0x3e3eba09	0.18625654
242	0x3e352c0f	0.17692588
243	0xbe4996a7	-0.19686376
244	0xbd12970a	-0.035788573
245	0x3e0a379f	0.1349778
246	0xbda32898	-0.07966727
247	0x3d7e2112	0.062043257
248	0xbd99ba87	-0.075062804
249	0xbd75a1d7	-0.059968796
250	0x3e4db754	0.20089465
251	0xbe2765fb	-0.16347496
252	0xbb3c61fd	-0.002874493
253	0xbe21ad2e	-0.15788719
254	0xbd33ed3c	-0.043927416
255	0xbe4c18b8	-0.19931304

encoder.maxpool_conv.0.1.weight f4 [32]
0	0x3f755f34	0.95848393
1	0x3f8472f8	1.0347586
2	0x3f851087	1.0395669
3	0x3f807b75	1.0037676
4	0x3f806ba6	1.0032852
5	0x3f7609bf	0.9610862
6	0x3f815136	1.0102909
7	0x3f7e0142	0.9922067
8	0x3f7b1f3d	0.9809454
9	0x3f81144a	1.0084317
10	0x3f740802	0.9532472
11	0x3f748ef4	0.9553063
12	0x3f7c1cb5	0.98481303
13	0x3f7eefa5	0.9958442
14	0x3f77740f	0.96661466
15	0x3f7bc94a	0.9835402
16	0x3f7adfd3	0.9799778
17	0x3f7cf75f	0.9881496
18	0x3f7a5c89	0.9779745
19	0x3f80e130	1.0068722
20	0x3f85e6a4	1.0461011
21	0x3f8024b6	1.0011203
22	0x3f8072af	1.0034999
23	0x3f7de13d	0.9917181
24	0x3f7c2ccc	0.98505855
25	0x3f79a82d	0.9752224
26	0x3f833e31	1.0253354
27	0x3f7f1708	0.9964452
28	0x3f7cebb8	0.9879718
29	0x3f7ce990	0.9879389
30	0x3f78eca1	0.9723607
31	0x3f75329f	0.95780367

encoder.maxpool_conv.0.1.bias f4 [32]
0	0xbce4e51e	-0.027941283
1	0x3e11b0c3	0.14227585
2	0x3de9600f	0.11395275
3	0x3d69af20	0.057051778
4	0x3d43606a	0.04769937
5	0xbc2a0b4c	-0.01037867
6	0x3e026ca0	0.1273675
7	0x3deecaf4	0.11659804
8	0x3d1350e6	0.035965823
9	0x3dc2a7b1	0.09504641
10	0x3c071e43	0.008246961
11	0xbcf4f008	-0.029899612
12	0xbbaf9a04	-0.0053589363
13	0x3d85942a	0.06522401
14	0xbcbf1e15	-0.023329774
15	0x3d577ec2	0.05261112
16	0xbc6fc7e8	-0.014635064
17	0x3db4dcc0	0.08831167
18	0xbbc0ff3c	-0.0058898013
19	0x3ca837c1	0.020534398
20	0x3df86b71	0.12129868
21	0x3da5762d	0.08079181
22	0x3d8ce14f	0.06878912
23	0x3da2422e	0.07922779
24	0xbbccceb0	-0.006250225
25	0xbcb5eda3	-0.02220804
26	0x3dfa82d0	0.12231982
27	0x3deae435	0.11469308
28	0x3ddf7802	0.109115615
29	0x3ced9170	0.029000014
30	0xbcecb363	-0.028894132
31	0xbcf939dc	-0.030423097

encoder.maxpool_conv.0.1.running_mean f4 [32]
0	0xc1906178	-18.047592
1	0x41d286f5	26.315897
2	0xc18262b4	-16.298195
3	0xc154a18c	-13.28944
4	0xc23975c1	-46.364994
5	0xc2ee9057	-119.28191
6	0x400da121	2.2129595
7	0xc179483a	-15.580133
8	0xc23f8cc8	-47.88748
9	0xc1840724	-16.503487
10	0x423af9eb	46.74406
11	0xc3034fb2	-131.31131
12	0xc23a1284	-46.51808
13	0x42075b33	33.83906
14	0xc297519d	-75.6594
15	0xc1ff798b	-31.934347
16	0x431afeba	154.99503
17	0x41567825	13.404332
18	0x426e0c36	59.511925
19	0x42a00fee	80.03111
20	0xc03a6504	-2.9124155
21	0xc2046302	-33.096687
22	0xc2061dad	-33.52898
23	0xbfdf6c9e	-1.7455022
24	0x433d7568	189.45862
25	0xc335f72e	-181.96555
26	0x4185afbb	16.710806
27	0x40cbc2d6	6.3675337
28	0x41fb4b48	31.411758
29	0x418f3d52	17.904942
30	0x4321b8e1	161.72218
31	0x42ea9e35	117.309

encoder.maxpool_conv.0.1.running_var f4 [32]
0	0x402c23f9	2.6896956
1	0x40051135	2.0791752
2	0x3f8d76cb	1.1051878
3	0x3f5bcd2c	0.8585994
4	0x40abfc4c	5.374548
5	0x41c7f2d6	24.993572
6	0x3f5d5764	0.8646147
7	0x3fb92943	1.4465717
8	0x40eb90be	7.3614187
9	0x4007c7d8	2.1215725
10	0x40dc9b1f	6.8939357
11	0x42082a30	34.0412
12	0x40abe4d5	5.3716836
13	0x404b3565	3.175134
14	0x4126331d	10.387479
15	0x4080ecfb	4.0289283
16	0x42309f1f	44.15539
17	0x4012aa02	2.2916265
18	0x41005f3b	8.02325
19	0x413f058c	11.938854
20	0x3ff160dd	1.8857685
21	0x404a69b4	3.1627016
22	0x40335c19	2.8024962
23	0x400bffb3	2.1874816
24	0x42813f00	64.62305
25	0x4271ea91	60.47907
26	0x40174fa5	2.364236
27	0x3fde1901	1.735138
28	0x402c6804	2.6938486
29	0x40c3ba9a	6.1165285
30	0x4238909e	46.141228
31	0x41d2c910	26.348175

encoder.maxpool_conv.2.0.weight f4 [1, 32, 2, 10]
0	0xbb2ea4e2	-0.002664857
1	0x3c5f9e54	0.013648588
2	0xbd0bddf8	-0.034147233
3	0xb86fc7c3	-5.7168083e-05
4	0xbd36bdce	-0.044614606
5	0x3cc720f4	0.024307705
6	0x3c86cd32	0.016455267
7	0x3c1e8388	0.009674914
8	0xbcc8d213	-0.024514234
9	0xbd1b120d	-0.03785901
10	0xbce71ebb	-0.028212896
11	0xbc6153b3	-0.013752866
12	0x3cb3c150	0.021942765
13	0x3c63cd42	0.013903918
14	0x3a905872	0.0011012687
15	0xbc94a47e	-0.018144842
16	0xbaaec64d	-0.0013334245
17	0x3d0532f3	0.032519292
18	0xbc3e3c36	-0.011611035
19	0x3b40689b	0.0029359225
20	0xbc9c280b	-0.019062063
21	0xbd819aa7	-0.06328326
22	0x3a84149a	0.001007694
23	0xbbbc2b80	-0.0057424903
24	0xbd245ea5	-0.040129323
25	0xbd20a79a	-0.039222337
26	0x3bfeba29	0.007773657
27	0xbd7079c5	-0.05870988
28	0xbd1c6b71	-0.0381884
29	0xbd9a1393	-0.07523265
30	0x3d0d72ab	0.034533184
31	0x3d30c70e	0.043158583
32	0x3d4bded2	0.049773045
33	0x3a93afdd	0.0011267621
34	0x3d05acae	0.032635383
35	0x3b788fe6	0.0037927567
36	0x3b9f9ddd	0.0048711137
37	0xbab2133a	-0.0013586052
38	0x3d821ff7	0.06353753
39	0x3cf7b63c	0.030238263
40	0xbcb4bc30	-0.022062391
41	0xbd87e3ab	-0.06635221
42	0xbd1aaa48	-0.03776005
43	0xbd04afbc	-0.032394156
44	0xbd3c1968	-0.045922667
45	0xbcc13c86	-0.02358843
46	0xbd1da013	-0.038482737
47	0xbd4f4209	-0.050600085
48	0x3b7680c2	0.0037613367
49	0xbd3aed82	-0.04563666
50	0x3d39d7b0	0.04537171
51	0x3d501155	0.05079778
52	0xba1ecbab	-0.00060575706
53	0x3d7899a6	0.060693406
54	0x3d4ed933	0.050500106
55	0xbb84eea4	-0.0040567685
56	0x3cff77c8	0.031185046
57	0x3d83f091	0.06442369
58	0x3cda3353	0.026635801
59	0x3d25202e	0.040313892
60	0x3b87cf2c	0.00414457
61	0x3c1a97b9	0.009435588
62	0x3bb5a91f	0.0055438424
63	0xbd4878a1	-0.048943166
64	0x3b85b22f	0.004080079
65	0xbc3b28f1	-0.011423335
66	0xbd19f4f2	-0.037587114
67	0xbcf12107	-0.029434694
68	0xbbed0220	-0.0072329193
69	0xbc67007f	-0.014099239
70	0x3c8751c4	0.016518481
71	0x3b2e541c	0.0026600426
72	0x3ca82b2a	0.020528395
73	0x3ca7aa29	0.02046688
74	0x3d1ecdd0	0.038770497
75	0x3b821894	0.003970215
76	0x3d0a880c	0.03382115
77	0x3c29dee7	0.0103680855
78	0x3c4be650	0.0124450475
79	0x3d74fd93	0.05981214
80	0x3d094a68	0.033518225
81	0x3d1a71b9	0.03770611
82	0x3d3bbc5e	0.045833938
83	0x3cf8e789	0.030383842
84	0xbc0678bc	-0.008207496
85	0xbc1a99ee	-0.009436114
86	0x3d074aea	0.033030428
87	0xbcd8853e	-0.026430722
88	0x3c8a17b4	0.016857006
89	0x3a805933	0.0009792208
90	0xbd69e552	-0.057103463
91	0xbd6097d8	-0.05483231
92	0x3b87d80f	0.0041456292
93	0x3b4d0296	0.003128206
94	0x3cb56402	0.022142414
95	0xbc6ad458	-0.014332853
96	0xbc3e0d85	-0.011599903
97	0xbcd727a2	-0.026264016
98	0xbc538c20	-0.012911826
99	0xbd4a4aab	-0.049387615
100	0x3ca581ad	0.020203436
101	0xbc827fcb	-0.015930077
102	0xbcd77668	-0.026301578
103	0x3c66567d	0.014058706
104	0x3c95de45	0.018294463
105	0x3b70dba4	0.003675201
106	0x3ca55f72	0.020187113
107	0xbb035c79	-0.0020044132
108	0xbac5c464	-0.0015088436
109	0x3d3ebdd3	0.04656775
110	0xbb9eb1d5	-0.0048429766
111	0x3c68235f	0.014168589
112	0xbcaebc1d	-0.021329934
113	0xbcd535c5	-0.026026616
114	0xbc804ad4	-0.01566068
115	0x3c835e73	0.016036248
116	0x3c86ebc0	0.016469836
117	0xbc8d3303	-0.017236238
118	0xbbe4ef25	-0.006986516
119	0xbd03f8d6	-0.03221973
120	0x3d34263e	0.043981783
121	0x3d015ce5	0.03158273
122	0x3d4ed52e	0.050496273
123	0xbc1de47e	-0.009636996
124	0xbc45d1b9	-0.012073928
125	0x3d4ed4b8	0.050495833
126	0xbb43a8cd	-0.0029855252
127	0x3c0efdf6	0.008727541
128	0x3c939a9c	0.01801806
129	0x3c21a175	0.0098651545
130	0xbd6812dd	-0.056658614
131	0xbce0b43e	-0.027429696
132	0xbd16c15b	-0.036805492
133	0xbd237e74	-0.039915517
134	0xbd323b1c	-0.043513402
135	0xbd0b5973	-0.034020852
136	0xbd4685f4	-0.04846759
137	0x3a89a2f0	0.001050083
138	0xbc1311dc	-0.008976426
139	0xbd22a268	-0.039705664
140	0xbd807b87	-0.06273561
141	0xbd053c2e	-0.032528095
142	0xbc9c0bcb	-0.019048592
143	0xbb8d2504	-0.004307391
144	0xbcafdc62	-0.021467391
145	0x3caa72b9	0.020806657
146	0x3c930cdd	0.01795047
147	0xbcdfea75	-0.027333478
148	0x3bd78917	0.0065776217
149	0xbd2c768b	-0.04210524
150	0x3cc3d5cb	0.023905655
151	0x3d71c482	0.059025295
152	0x3abbd68d	0.0014330909
153	0x3bf88a3f	0.0075848396
154	0x3d2ec761	0.04267061
155	0x3c6a0e1f	0.014285593
156	0x3b500bb5	0.003174526
157	0x3c7f0ded	0.015567285
158	0xbcabadf8	-0.020956978
159	0x3c9982b3	0.01873908
160	0xbc65af8b	-0.0140189035
161	0xbc403946	-0.011732405
162	0x3cbe12b2	0.023202274
163	0xbd23ae05	-0.03996088
164	0xbc866780	-0.016406775
165	0x3bd7c37e	0.006584584
166	0xbd1412de	-0.036150806
167	0xbcb7f673	-0.022456383
168	0xbd1a0ebd	-0.03761171
169	0xb8a3c583	-7.809235e-05
170	0x39a2f6f5	0.00031083045
171	0x3caf4e8b	0.021399757
172	0xbcccad5b	-0.024985006
173	0x3cabbafc	0.020963185
174	0x3cff286c	0.031147204
175	0xbc3f66bf	-0.011682211
176	0x3cb95a5a	0.02262609
177	0x3c1f96e3	0.009740564
178	0x3cdb2a89	0.02675368
179	0x3d3e8696	0.04651507
180	0xbca34bdf	-0.01993364
181	0xbcdfd6f1	-0.027324172
182	0xb9a40877	-0.00031286824
183	0xbd25b6f9	-0.0404577
184	0xbd045cf4	-0.03231521
185	0xbd0a49ed	-0.033761907
186	0xbc9f07b1	-0.019412847
187	0xbb86cae0	-0.00411354
188	0xbd0be1aa	-0.034150757
189	0xbd054d60	-0.032544494
190	0x3d03796c	0.03209822
191	0x3c8e04a8	0.017336205
192	0x3d3ef551	0.04662067
193	0xbc4022cb	-0.011727045
194	0x3ce9a09d	0.02851897
195	0x3d2c2c6e	0.04203456
196	0x3c077ccf	0.008269503
197	0xbc8e0e16	-0.017340701
198	0xbbf82531	-0.007572793
199	0x3d15e396	0.036593996
200	0xb8eda214	-0.0001133123
201	0xbc092ba0	-0.008372217
202	0xbc7f6765	-0.015588616
203	0xbc888e9f	-0.01666957
204	0x3b925df8	0.0044667684
205	0xbd29b978	-0.041436642
206	0xbd28ef8e	-0.041244082
207	0x3cb1af4c	0.021690033
208	0x3c957b40	0.018247247
209	0x3bddfabb	0.006774274
210	0x3a7ead4d	0.0009715155
211	0x3c471697	0.012151382
212	0x3a9a791f	0.0011785364
213	0xbc56344b	-0.013073991
214	0x3d2820d4	0.041046932
215	0xbc462fc9	-0.012096354
216	0x3d0295e6	0.031881236
217	0xba37a61b	-0.00070056476
218	0xbc39ea0b	-0.011347304
219	0x3d457470	0.048206747
220	0x3bd29911	0.0064269383
221	0x3c845d16	0.016157668
222	0x3ce7d19e	0.028298195
223	0xbc82f0c0	-0.01598394
224	0xbd0ebaca	-0.034846105
225	0xbcc91369	-0.024545388
226	0xbc8838b6	-0.016628604
227	0x3d1afa2d	0.037836242
228	0x3c84a5d9	0.016192364
229	0x3bef28b3	0.007298553
230	0xbcaad7c5	-0.02085484
231	0x3cb6f875	0.02233527
232	0xbccae383	-0.02476669
233	0xbb66822c	-0.0035172803
234	0xbcaa6196	-0.020798486
235	0x3c008847	0.007844991
236	0xbc2804af	-0.010255023
237	0x3cafd051	0.021461638
238	0x3d1b8b68	0.037974745
239	0xbcb924d4	-0.022600569
240	0xbcc97c76	-0.02459548
241	0x3c9b4de6	0.018958043
242	0x3c856a20	0.016285956
243	0x3c61fe67	0.013793564
244	0xbd01d68c	-0.03169875
245	0x3b7174fc	0.003684341
246	0x3aced534	0.0015780092
247	0xbd023f31	-0.031798545
248	0xbbc0d740	-0.005885035
249	0xbbf6461a	-0.007515681
250	0x3cc4a952	0.02400652
251	0x3ccf8583	0.025332218
252	0x3d27e89a	0.04099331
253	0xbbc466e3	-0.0059937104
254	0x3d1fd51f	0.039021607
255	0xbb93959a	-0.004503918

decoder.linear1.weight f4 [16, 164]
0	0x3c174d52	0.009234743
1	0x3d2698a0	0.0406729
2	0x3c713c11	0.014723794
3	0xbcc8293d	-0.024433726
4	0xbd810783	-0.06300261
5	0xbd79abcd	-0.060954858
6	0xbd5cc69f	-0.053900357
7	0xbc212984	-0.009836558
8	0x3d5106e7	0.051031973
9	0x3d33de1b	0.04391299
10	0xbd59b26c	-0.053148672
11	0xbd9badb9	-0.07601494
12	0x3d695a04	0.05697061
13	0xbd29fd41	-0.041501287
14	0x3b4e61e6	0.0031491457
15	0xbbef204a	-0.0072975503
16	0xbcff9d24	-0.03120286
17	0x3d6df8d4	0.05809863
18	0x3cabbc8e	0.020963933
19	0x3c099111	0.008396403
20	0xbc949573	-0.01813767
21	0xbd351447	-0.04420879
22	0xbd836403	-0.0641556
23	0xbd1ee5c3	-0.038793337
24	0x3c749b97	0.014929674
25	0x3c9644be	0.018343326
26	0xbce6aca9	-0.028158503
27	0x3bf05ad3	0.007335046
28	0xbd89dce0	-0.06731582
29	0x3c8d2c6d	0.017233098
30	0x3d91c9d2	0.07118572
31	0xbd3fc65e	-0.046820037
32	0xbd31ee32	-0.04344005
33	0xbcbccc35	-0.023046592
34	0xbd30c235	-0.04315396
35	0x3d29afc6	0.041427396
36	0x3d3aa09c	0.045563325
37	0xbd5cfe06	-0.053953193
38	0xbd47d88b	-0.048790496
39	0xbd1c930d	-0.038226176
40	0x3d9a5a13	0.075367115
41	0x3d5d2d01	0.053997997
42	0xbd830011	-0.06396497
43	0xbc1c8d64	-0.0095551945
44	0x3d233967	0.039849665
45	0x3d764d1c	0.06013213
46	0x3c9f934a	0.019479413
47	0x3cd719d1	0.026257427
48	0x3b2d0a88	0.0026403982
49	0xbd19c490	-0.037540972
50	0xbd8f1cca	-0.06987913
51	0x3cd05584	0.025431402
52	0x3d54740a	0.051868476
53	0x3d170c39	0.03687689
54	0xbd5fea9d	-0.054667104
55	0x3d8a46f0	0.067518115
56	0xbd9653e0	-0.07340217
57	0x3d2ba420	0.04190457
58	0x3d535a71	0.051599924
59	0x3d0e30d3	0.03471453
60	0xbd8bd2d0	-0.06827319
61	0xbcee3ef8	-0.02908276
62	0x3d002fae	0.03129547
63	0x3d538e98	0.05164966
64	0xbd79d974	-0.060998395
65	0x3d45ad77	0.048261132
66	0x3c42ad3c	0.011882123
67	0xbd72168d	-0.059103537
68	0xbc6c9458	-0.014439665
69	0xbc83332e	-0.016015615
70	0xbcc4c9da	-0.024022032
71	0x3cfb2f06	0.030662071
72	0x3d9df8bc	0.07713458
73	0x3cedf6ef	0.029048411
74	0x3d84736e	0.06467329
75	0xbd85cda0	-0.065333605
76	0xbd93fef8	-0.07226366
77	0xbcdcb446	-0.02694143
78	0x3d2cb3de	0.042163722
79	0xbc4b8927	-0.012422836
80	0x3d25ba1b	0.040460687
81	0x3d452c8d	0.04813819
82	0xbcef33c6	-0.029199492
83	0x3d7fd866	0.062462233
84	0xbd95441b	-0.07288381
85	0x3d8915c1	0.06693602
86	0xbb5274ab	-0.0032112997
87	0xbc96a6f5	-0.018390158
88	0xbd9baa0e	-0.07600795
89	0xbd7c3a74	-0.061579183
90	0x3b69d80f	0.003568176
91	0x3b854195	0.004066656
92	0x3d7c865b	0.06165157
93	0xbd8a9f2a	-0.067686394
94	0x3d3b2ca6	0.045696877
95	0xbcc870f1	-0.024467917
96	0x3c481779	0.012212628
97	0xbcf53f06	-0.029937278
98	0xbd86f838	-0.06590313
99	0xbd1d13cc	-0.038348958
100	0x3d94b5be	0.07261227
101	0xbd473dc4	-0.04864289
102	0xbcd6e3d2	-0.02623168
103	0x3d880feb	0.06643661
104	0xbd4e26e2	-0.05033005
105	0xbd26fbf4	-0.040767625
106	0x3c7343ee	0.014847739
107	0xbc380fa8	-0.0112342015
108	0xbd09b6bc	-0.033621535
109	0x3cad29d8	0.021138117
110	0xbc2b02bf	-0.010437666
111	0xbca55ff0	-0.020187348
112	0xbd06088a	-0.032722987
113	0x3b968539	0.004593518
114	0x3d8e4e7e	0.06948565
115	0x3b76fc33	0.0037686944
116	0xb9469aaf	-0.00018940376
117	0xbd92f568	-0.07175714
118	0xbb2118f6	-0.0024581528
119	0xbc3e7b9e	-0.011626152
120	0xbd32ee20	-0.043684125
121	0xbcffbe36	-0.03121863
122	0xbd3b1c2a	-0.045681156
123	0x3cf7df69	0.030257897
124	0x3d288006	0.041137718
125	0xbd1785fb	-0.036993008
126	0x3bc6c9ed	0.006066552
127	0xbcd0b271	-0.025475712
128	0xbc0384cd	-0.008027268
129	0x3a94ed74	0.001136227
130	0x3cc32a37	0.02382384
131	0xbd971de3	-0.07378747
132	0x3d7a3f42	0.061095484
133	0xbd14bfaf	-0.036315616
134	0xbce99088	-0.0285113
135	0xbc20c069	-0.009811499
136	0x3d9800a9	0.07422001
137	0xbd09bcae	-0.033627205
138	0x3bc11577	0.0058924514
139	0x3d38419d	0.04498445
140	0xbd4b66f1	-0.04965872
141	0x3d9724d1	0.07380069
142	0xbcb942a2	-0.02261478
143	0x3d813c4e	0.0631033
144	0xbd8093e9	-0.062782116
145	0xbd822489	-0.06354625
146	0xbd636fdb	-0.055526596
147	0x3d9701f1	0.07373417
148	0xbd76a7a4	-0.06021847
149	0xbd36e90e	-0.044655852
150	0xbd8aeaf3	-0.06783094
151	0xbd7ff388	-0.06248811
152	0x3c17fd36	0.009276679
153	0xbd3d91b6	-0.04628154
154	0x3d148a3c	0.036264643
155	0x3d099cbe	0.033596747
156	0x3cb64c64	0.022253223
157	0x3d386e42	0.045027025
158	0x3c7c89ed	0.015413743
159	0x3d880a08	0.06642538
160	0x3d94af16	0.072599575
161	0x3b239357	0.0024959648
162	0x3d84b07d	0.06478975
163	0x3d06b9b0	0.03289193
164	0x3d8273f9	0.06369776
165	0xbc601b87	-0.013678438
166	0xbd972c6f	-0.07381522
167	0xbd807055	-0.06271426
168	0xbd0c4751	-0.0342477
169	0x3d8f42f3	0.069951914
170	0x3c5eb2b0	0.013592407
171	0xbc52938e	-0.012852563
172	0xbd6655e7	-0.056234267
173	0xbd20ca7f	-0.039255615
174	0x3d4e0cc3	0.05030514
175	0xbcd0d8a5	-0.02549393
176	0xbcd776d1	-0.026301773
177	0xbd9a8d2b	-0.07546457
178	0xbb96392a	-0.004584451
179	0xbd79a633	-0.060949516
180	0xbbe16e80	-0.0068796277
181	0x3d02e880	0.03196001
182	0x3d68bb88	0.05681947
183	0xbd7ddf43	-0.061980497
184	0x3c8c51e6	0.017128896
185	0x3d95064e	0.07276593
186	0xbbe212b8	-0.006899204
187	0xbd0017e2	-0.031272776
188	0x3d317f94	0.04333456
189	0x3d9c03aa	0.07617886
190	0x3d3c9bce	0.046047024
191	0xbd8927f0	-0.066970706
192	0xbd4f1c89	-0.050564323
193	0xbd22fd2e	-0.039792232
194	0xbd6dc649	-0.058050428
195	0x3d979e9a	0.07403298
196	0xbd1d232c	-0.03836362
197	0xbcdbc400	-0.026826859
198	0xbcf4a41f	-0.029863415
199	0x3d4eb7a8	0.050468117
200	0x3d1ccfe6	0.038284205
201	0xbc600dfa	-0.013675207
202	0xbd293caf	-0.041317638
203	0x3ca2301b	0.01979833
204	0x3bcbcb05	0.00621927
205	0x3cb4a46b	0.022051057
206	0x3d0ae035	0.033905227
207	0x3c4dede6	0.012568926
208	0xbd9e626a	-0.07733615
209	0xbc9136e7	-0.017726375
210	0xbb5615e7	-0.0032666863
211	0x3cadb7e3	0.021205848
212	0x3d8d54af	0.06900918
213	0xbd56059d	-0.052251447
214	0xbd11f245	-0.035631437
215	0xbd212491	-0.039341513
216	0xbcba509a	-0.022743512
217	0xbcf028b6	-0.029316287
218	0xbc26a04a	-0.010170052
219	0x3bb57f06	0.005538824
220	0x3d7c1d9c	0.061551675
221	0x3d959a86	0.07304864
222	0x3d0659f2	0.032800622
223	0xbd64a14d	-0.05581789
224	0xbcb4196d	-0.02198478
225	0xbd97d80f	-0.07414257
226	0x3d064c04	0.032787338
227	0xbd24a588	-0.040196925
228	0xbd2a041e	-0.041507833
229	0x3d52d1d4	0.05146964
230	0x3d15be4e	0.03655844
231	0x3a79309c	0.00095058396
232	0x3d7403f7	0.059574094
233	0xbd6b03b5	-0.057376582
234	0x3b2a0910	0.0025945343
235	0x3d488c4f	0.048961934
236	0x3d42914a	0.04750184
237	0x3d07569d	0.033041585
238	0xbd8efecb	-0.06982192
239	0xbcfffa10	-0.031247169
240	0x3c2a15cb	0.010381172
241	0x3cc41259	0.02393453
242	0xbc80a142	-0.015701894
243	0x3d684931	0.056710426
244	0xbce4c7f4	-0.027927376
245	0x3d65d459	0.056110714
246	0x3d8357f8	0.06413263
247	0x3d16f268	0.03685227
248	0x3d42dfe5	0.047576804
249	0xbc7a71c8	-0.015285917
250	0x3ccd099d	0.025028998
251	0xbd0d0d7e	-0.034436695
252	0xbd565e1b	-0.05233584
253	0xbd3c5299	-0.04597721
254	0xbbd3b613	-0.006460914
255	0xbc48aae7	-0.012247778

decoder.linear1.bias f4 [16]
0	0x3c0c2fc1	0.008556307
1	0xbd0b8f8a	-0.034072436
2	0xbd901796	-0.07035749
3	0x3e66663f	0.22499941
4	0x3d597d13	0.053097796
5	0x3dfa60f8	0.122255266
6	0x3d7f3027	0.06230178
7	0x3e002b76	0.12516579
8	0xbd841427	-0.06449156
9	0x3cac0b7d	0.021001572
10	0x3e41e14e	0.18933603
11	0x3d8a3a56	0.06749408
12	0x3e476ab0	0.19474292
13	0x3e5514d8	0.20808733
14	0x3d5a944a	0.053364076
15	0x3e12ab3b	0.14323132

decoder.linear2.weight f4 [10, 16]
0	0xbdaa5728	-0.08317405
1	0x3e5e8aac	0.21732587
2	0x3d8054c4	0.06266168
3	0x3e8a1255	0.2696711
4	0xbe78701f	-0.24261521
5	0x3ec5833a	0.3857668
6	0x3e2e0e6e	0.16997692
7	0x3e059686	0.13045701
8	0x3e5be7e2	0.21475175
9	0xbe753113	-0.23944502
10	0x3ebc2a7b	0.3675116
11	0x3e0b7bb9	0.13621415
12	0x3eb345e8	0.35014272
13	0x3eb60f1e	0.35558408
14	0xbe015262	-0.12629083
15	0x3d13bbd9	0.036067817
16	0x3e793f50	0.24340558
17	0xbd7e3df8	-0.062070817
18	0xbe7685d9	-0.24074496
19	0x3d2fe2eb	0.042941015
20	0xbdb92638	-0.09040493
21	0x3e8841ad	0.26612607
22	0xbc25d9d5	-0.010122736
23	0x3ec60939	0.3867891
24	0x3cff28e3	0.031147426
25	0xbd95ad2d	-0.07308421
26	0x3ed09984	0.40742123
27	0x3e7fa055	0.24963506
28	0x3ea8bd45	0.329569
29	0x3ccd1aa8	0.025037125
30	0x3d9dd8c8	0.07707363
31	0x3edb036e	0.42776054
32	0xbe2ab546	-0.16670713
33	0x3e64f984	0.22360808
34	0x3e4af939	0.19821633
35	0x3e10eaa0	0.14152002
36	0xbe6f2c95	-0.2335685
37	0x3e63353d	0.22188278
38	0x3e162d54	0.14665729
39	0x3ef1e51c	0.4724511
40	0xbdaa5302	-0.08316614
41	0x3e4c02c8	0.19922936
42	0x3cbc24d7	0.022966785
43	0xbd911219	-0.0708353
44	0x3ec32504	0.38114178
45	0x3e63dd92	0.22252491
46	0x3c8b1f50	0.016982704
47	0x3d5b001b	0.053466897
48	0x3d2e3558	0.04253134
49	0x3db192c0	0.086705685
50	0xbde1907e	-0.11013888
51	0x3d579379	0.052630875
52	0x3cf4f403	0.02990151
53	0x3ef496c6	0.4777128
54	0xbd1e791f	-0.03868973
55	0x3dc0fd48	0.094233096
56	0x3c54e097	0.0129929995
57	0x3d01d114	0.031693533
58	0x3ee66394	0.44997847
59	0xbe32f431	-0.17475964
60	0x3d050ada	0.032481052
61	0x3e0dc493	0.13844518
62	0x3cfb0600	0.03064251
63	0x3e6d423f	0.23169802
64	0xbae5c300	-0.0017529428
65	0xbcbf37e0	-0.023342073
66	0x3d3f6c55	0.046734173
67	0x3ea2dc03	0.3180848
68	0xbe515faa	-0.20446649
69	0x3e3f9d0b	0.18712251
70	0x3e394429	0.18092407
71	0x3eea5faf	0.45776126
72	0xbc5f50d6	-0.013630113
73	0x3e085d11	0.13316752
74	0x3da6d9fe	0.081470475
75	0xbe0c4325	-0.13697489
76	0x3eb3ac20	0.35092258
77	0x3e05d06c	0.13067788
78	0x3c60b200	0.0137143135
79	0x3ea4e624	0.32206833
80	0xbd7b5b80	-0.061366558
81	0x3e2f8346	0.1713992
82	0x3e0e9a26	0.1392599
83	0x3e92834c	0.28615797
84	0xbbe9f2ed	-0.0071395547
85	0x3e7e5def	0.2484052
86	0x3e59248e	0.21205351
87	0x3e8169dc	0.25276077
88	0x3dfde50f	0.12397205
89	0xbd9133ca	-0.07089956
90	0x3d55d12a	0.052201428
91	0x3d902faf	0.07040345
92	0x3ee42da7	0.4456608
93	0x3ebaae17	0.36460945
94	0xbd940e68	-0.0722931
95	0x3e5fa270	0.21839309
96	0x3dd2edb4	0.102992445
97	0x3d074500	0.033024788
98	0xbe7893a7	-0.24275075
99	0x3ea7a07c	0.32739627
100	0x3b9eecf9	0.0048500267
101	0x3e755f9c	0.23962253
102	0xbc8985d2	-0.016787443
103	0x3eb0d2ff	0.34535977
104	0xbd0bb44d	-0.034107495
105	0xbe5a0773	-0.21291904
106	0x3e967fb0	0.29394293
107	0x3e10f93d	0.14157577
108	0x3eafe20e	0.34352154
109	0x3e9b6f09	0.3035815
110	0xbe03c912	-0.12869671
111	0x3cf42160	0.02980107
112	0xbdf1f1c8	-0.11813694
113	0xbc861e50	-0.016371876
114	0xbe46731e	-0.19379851
115	0x3e41cdc1	0.18926145
116	0xbe1db141	-0.15399648
117	0x3e66175b	0.22469847
118	0x3e3cd64a	0.1844112
119	0x3e06257a	0.13100234
120	0xbe731503	-0.23738484
121	0x3e51dffe	0.20495602
122	0x3e4b4c65	0.19853361
123	0xbe1b726d	-0.15180369
124	0x3db3f815	0.08787552
125	0x3ebe20be	0.37134355
126	0xbe58d8ac	-0.21176404
127	0x3e8ecf0e	0.27892345
128	0x3ddb1fc8	0.10699421
129	0xbe4d1316	-0.20026812
130	0xbdadbd6b	-0.08483394
131	0x3e946918	0.2898643
132	0xbd986eb3	-0.07442989
133	0x3eca18dc	0.3947209
134	0xbdffe667	-0.12495118
135	0x3d045fca	0.032317914
136	0xbe30c467	-0.17262422
137	0xbe4f2249	-0.20227922
138	0x3cb0c2ce	0.021577265
139	0xbd278e26	-0.040907048
140	0x3ea8d225	0.32972828
141	0x3eb2224f	0.347918
142	0xbdddf8b4	-0.10838452
143	0x3ee62436	0.44949502
144	0x3e119340	0.14216328
145	0xbe442d6c	-0.19157952
146	0xbcd6f015	-0.026237527
147	0x3ec39666	0.38200682
148	0xbe1d97f6	-0.1539
149	0x3e80fc52	0.25192505
150	0x3e6ece8c	0.23320979
151	0x3ea4efc7	0.32214186
152	0xbe085fb2	-0.13317755
153	0x3d0feb9e	0.03513681
154	0x3e95ffe5	0.29296795
155	0xbc1f8668	-0.009736635
156	0x3e8d7a30	0.27632284
157	0x3d90ea6b	0.07075962
158	0xbe19dd22	-0.15025762
159	0x3dcb63af	0.099311225

decoder.linear2.bias f4 [10]
0	0x3e4c143f	0.19929598
1	0xbd0cd7d8	-0.034385532
2	0x3eb138e8	0.3461373
3	0x3eb67ce5	0.35642162
4	0x3d87aa14	0.06624237
5	0x3ddc3ba8	0.10753566
6	0x3e505930	0.20346522
7	0x3e3f734f	0.1869633
8	0x3c2ab2bf	0.010418593
9	0x3e86151b	0.26187977

exp_avg f4 [32, 1, 2, 10]
0	0xbf47e36a	-0.7808138
1	0xbf3c027d	-0.73441297
2	0xbf3def6f	-0.7419347
3	0xbf44a0d7	-0.7680792
4	0xbf4d357f	-0.80159754
5	0xbf4c2bcc	-0.7975433
6	0xbf642c9b	-0.8913056
7	0xbf78acdf	-0.9713878
8	0xbf83e8e4	-1.0305448
9	0xbf838e10	-1.0277729
10	0xbf189980	-0.5960922
11	0xbf14bea2	-0.5810338
12	0xbf17cb0d	-0.59294206
13	0xbf140eaf	-0.57834905
14	0xbf1bd447	-0.60870785
15	0xbf1a68dd	-0.6031626
16	0xbf319983	-0.69374865
17	0xbf48683e	-0.7828406
18	0xbf4a59d0	-0.79043293
19	0xbf4a39e1	-0.78994566
20	0x40990c54	4.782755
21	0x409ef9ac	4.9679775
22	0x408f50eb	4.4786277
23	0x406987a3	3.6489036
24	0x402fb8e1	2.745659
25	0x40038243	2.0548255
26	0x3fe6218c	1.7978988
27	0x3fd2dab1	1.6472989
28	0x3fc4e5f2	1.5382674
29	0x3fc6bc4b	1.5526212
30	0x408d8ff2	4.4238214
31	0x408fa14b	4.488439
32	0x407f18f6	3.9858985
33	0x4046dd6e	3.107265
34	0x401147a9	2.2699988
35	0x3fc2e10d	1.522493
36	0x3fb9257e	1.4464567
37	0x3faca008	1.3486338
38	0x3fad09a2	1.3518565
39	0x3fb21af0	1.3914471
40	0x4087f452	4.2485743
41	0x407cd01b	3.9502017
42	0x408113f8	4.0336876
43	0x40819dbc	4.0505047
44	0x407d4f74	3.9579744
45	0x407edb9c	3.982154
46	0x4046d459	3.1067107
47	0x401a37ab	2.4096477
48	0x3fe77287	1.8081826
49	0x3fb528bf	1.415306
50	0x4096ff0e	4.7186346
51	0x4089a88d	4.301825
52	0x408e1e83	4.4412246
53	0x408d1eeb	4.410024
54	0x4090bc6b	4.5230002
55	0x408a59bd	4.3234544
56	0x405b7112	3.4287763
57	0x40418055	3.0234578
58	0x4012e912	2.2954755
59	0x400d432e	2.2072253
60	0x4021a99b	2.525977
61	0x4003fb45	2.0622113
62	0x3ff38e76	1.9027851
63	0x3fb8d6ee	1.4440591
64	0x3fb88823	1.4416546
65	0x3fbab605	1.4586798
66	0x3fd8600d	1.6904312
67	0x3fea046c	1.82826
68	0x3fe79d7e	1.8094938
69	0x3fddd97b	1.7331995
70	0x40359f3e	2.8378444
71	0x401781ba	2.367293
72	0x4001de52	2.0291944
73	0x3fdc5482	1.721329
74	0x3fe0c3bb	1.7559732
75	0x3fed8c2e	1.8558404
76	0x40050d7c	2.078948
77	0x40098117	2.148504
78	0x400429c9	2.0650504
79	0x3ffa9293	1.9575981
80	0x3f5093f5	0.81475765
81	0x3f6a6b8a	0.9157034
82	0x3f64117f	0.89089197
83	0x3f3e5981	0.7435532
84	0x3f0c3c6b	0.5477969
85	0x3e977f05	0.29589096
86	0x3d90db07	0.07073026
87	0xbdc5dea0	-0.09661603
88	0xbe23bb3c	-0.15989393
89	0xbd23390c	-0.039849326
90	0x3e8abcbc	0.27097118
91	0x3edf6f58	0.43639636
92	0x3ee4443e	0.44583315
93	0x3ea746fb	0.3267134
94	0x3df177e9	0.11790449
95	0xbdf7f92b	-0.12108072
96	0xbec31262	-0.38099962
97	0xbf1906e7	-0.5977616
98	0xbf1e16e8	-0.617537
99	0xbef7eaf5	-0.48421445
100	0x3c2a1da1	0.010383041
101	0x3bbf806c	0.0058441665
102	0x3b6b2394	0.003587936
103	0xba6f89ef	-0.000913768
104	0xbbfde343	-0.007748039
105	0xbb7a10c2	-0.003815696
106	0x3b8c0332	0.004272842
107	0x3c18dea9	0.00933043
108	0x3bc9288e	0.0061388677
109	0xbc15f7a1	-0.009153278
110	0xbe2d01a5	-0.16895159
111	0xbe397cfe	-0.18114087
112	0xbe358029	-0.1772467
113	0xbe35adfe	-0.17742154
114	0xbe3b00a7	-0.18261968
115	0xbe380875	-0.17971976
116	0xbe33992d	-0.175389
117	0xbe2ca285	-0.16858871
118	0xbe280079	-0.1640643
119	0xbe30c16f	-0.17261289
120	0x40889376	4.2680006
121	0x408a21c5	4.3166223
122	0x4088417d	4.257994
123	0x407ad66e	3.9193377
124	0x407d7ac3	3.9606178
125	0x4061d808	3.5288105
126	0x40630440	3.5471344
127	0x405c22a5	3.4396145
128	0x40421ad1	3.0328867
129	0x40343e27	2.8162935
130	0x407a5ebd	3.9120324
131	0x4084d6ed	4.151236
132	0x407cbaed	3.948909
133	0x40772e8f	3.8622167
134	0x40718230	3.773571
135	0x406df3b3	3.7179992
136	0x406341eb	3.5508983
137	0x40594884	3.395051
138	0x403fe2a1	2.9982073
139	0x4034ca13	2.8248336
140	0x3fa4194f	1.2820224
141	0x3fbeeaa3	1.4915355
142	0x3fb322b9	1.3994972
143	0x3f9d1deb	1.2274755
144	0x3f81a5c0	1.0128708
145	0x3f349373	0.7053749
146	0x3f0a0bf5	0.53924495
147	0x3f2a978d	0.666375
148	0x3f4e540f	0.80597013
149	0x3f84754c	1.0348296
150	0x3feff9eb	1.8748144
151	0x40000d65	2.0008175
152	0x3ff01dbd	1.8759075
153	0x3fc97ce1	1.5741235
154	0x3fae40e2	1.3613551
155	0x3f85e59e	1.0460699
156	0x3f7748e7	0.96595615
157	0x3f883556	1.0641277
158	0x3faac77a	1.3342125
159	0x3fba285b	1.4543566
160	0xbef32c89	-0.47494915
161	0xbef5960a	-0.47966033
162	0xbed78214	-0.4209143
163	0xbec361fd	-0.38160697
164	0xbeb8946b	-0.36050734
165	0xbea481b6	-0.32130212
166	0xbe85c047	-0.26123258
167	0xbe50b976	-0.20383248
168	0xbe58d3a3	-0.21174483
169	0xbe6d7ff0	-0.23193336
170	0x3d454f15	0.04817112
171	0x3d02f541	0.031972174
172	0x3cdd2485	0.026994953
173	0x3ce62404	0.028093345
174	0x3d3a2dde	0.0454539
175	0x3da67657	0.0812804
176	0x3e0aa576	0.13539681
177	0x3e47a7c7	0.19497596
178	0x3e4371de	0.19086406
179	0x3e305b49	0.17222323
180	0xbf821a0a	-1.0164196
181	0xbf98eb76	-1.1946857
182	0xbfabe3b3	-1.3428863
183	0xbfa2c100	-1.2715149
184	0xbfa11b3e	-1.2586439
185	0xbf825c55	-1.0184427
186	0xbf5aa858	-0.8541312
187	0xbf3f848f	-0.74811643
188	0xbf44aa95	-0.7682279
189	0xbf47e471	-0.7808295
190	0xbe22bf74	-0.15893346
191	0xbea5c788	-0.32378793
192	0xbef130db	-0.47107586
193	0xbf01cd06	-0.50703466
194	0xbeeca781	-0.46221545
195	0xbeb061dc	-0.3444966
196	0xbe3de375	-0.18543799
197	0xbd51d3f6	-0.051227532
198	0xbdc764be	-0.09736012
199	0xbd8a9545	-0.06766752
200	0x3f0914c3	0.53547305
201	0x3f025438	0.5090976
202	0x3ee1bd23	0.44089612
203	0x3ec59350	0.38588953
204	0x3ea83a39	0.3285692
205	0x3e9912d6	0.29897183
206	0x3ea76313	0.32692775
207	0x3ebbdc09	0.3669131
208	0x3ebe3fb1	0.37157968
209	0x3eacfef1	0.33788255
210	0x3f121825	0.5706809
211	0x3f0b747d	0.5447462
212	0x3efccf65	0.4937698
213	0x3edca502	0.4309464
214	0x3eb32f6b	0.34997115
215	0x3ea47e79	0.3212774
216	0x3ea96d04	0.33090985
217	0x3eb241cc	0.34815824
218	0x3eb49b85	0.35274902
219	0x3e96d49a	0.29459077
220	0xbc3df064	-0.011592958
221	0xba994a15	-0.0011695052
222	0x3b5593b1	0.0032589252
223	0x3bfd96a6	0.007738906
224	0x3c820f53	0.015876448
225	0x3c082567	0.008309699
226	0xbb9ba19f	-0.0047494913
227	0xb8d03d4c	-9.92963e-05
228	0xbbb99fe4	-0.0056648124
229	0xbbec6678	-0.0072143637
230	0xbd334433	-0.04376621
231	0xbcc32343	-0.023820525
232	0xbc8f4b93	-0.017492091
233	0xbc428d75	-0.011874546
234	0xbbf1bc9b	-0.00737722
235	0xbc9c0bef	-0.01904866
236	0xbd05e702	-0.03269101
237	0xbd034516	-0.032048307
238	0xbd165b76	-0.036708318
239	0xbd1acadd	-0.03779112
240	0x3f107704	0.56431603
241	0x3efcddf2	0.4938808
242	0x3ec6ed85	0.38853088
243	0x3e599cd8	0.21251237
244	0x3d967332	0.073461905
245	0xba7a8ada	-0.00095574337
246	0xbd3f0ce6	-0.04664316
247	0xbdd78dbb	-0.1052508
248	0xbe0139d9	-0.12619723
249	0xbdd5a9c0	-0.10432768
250	0x3f6bfe8a	0.9218527
251	0x3f506a5c	0.8141229
252	0x3f2e1a38	0.68008757
253	0x3f02e0ba	0.51124156
254	0x3eca8885	0.3955728
255	0x3e9ea1d8	0.30982852

exp_avg_sq f4 [32, 1, 2, 10]
0	0x3e4b016c	0.19824761
1	0x3e49336e	0.19648525
2	0x3e57f9c3	0.2109137
3	0x3e773ba1	0.2414384
4	0x3e8d9b07	0.2765734
5	0x3e9b3cbb	0.3031977
6	0x3ea8e5a2	0.32987696
7	0x3eb8b009	0.36071804
8	0x3ec29ea8	0.3801167
9	0x3ec90c0f	0.39267012
10	0x3e4b7373	0.19868259
11	0x3e4dc313	0.20093946
12	0x3e629d34	0.2213028
13	0x3e80d725	0.25164142
14	0x3e93964a	0.288256
15	0x3ea20f37	0.31652233
16	0x3eaf2248	0.34205842
17	0x3ebf3506	0.3734514
18	0x3ec64038	0.3872087
19	0x3eca1251	0.394671
20	0x42aaaa2e	85.33238
21	0x42b6f756	91.48308
22	0x42c3c275	97.8798
23	0x42d29d7a	105.30757
24	0x42e68e3f	115.277824
25	0x42f76526	123.697556
26	0x4305c11e	133.75436
27	0x43115725	145.34041
28	0x431dffec	157.9997
29	0x4325e731	165.90309
30	0x429d280b	78.57821
31	0x42a8f0b6	84.47014
32	0x42b46c97	90.21209
33	0x42c3d07a	97.90718
34	0x42d4e316	106.44353
35	0x42e481b4	114.25333
36	0x42f99026	124.78154
37	0x430844f0	136.26929
38	0x431290aa	146.5651
39	0x4319bebd	153.74507
40	0x422c18f5	43.024372
41	0x422f278c	43.78862
42	0x42401267	48.01797
43	0x42490e54	50.263992
44	0x42510fdc	52.265488
45	0x4257a563	53.91151
46	0x42492665	50.287495
47	0x423d8760	47.382202
48	0x423ac335	46.69063
49	0x4235aad5	45.41683
50	0x42422afd	48.54198
51	0x4248c1f6	50.189415
52	0x425e6b28	55.604645
53	0x426be9e9	58.978428
54	0x42747327	61.112453
55	0x4272b09b	60.672466
56	0x425f0633	55.756054
57	0x42510bb4	52.26143
58	0x4246613c	49.594955
59	0x42411e92	48.279854
60	0x412f5df7	10.960441
61	0x411f6dfd	9.964353
62	0x41123aba	9.139338
63	0x4104ad3a	8.292292
64	0x4107260b	8.446788
65	0x410c9d8c	8.788464
66	0x41243b8e	10.26454
67	0x41364f04	11.394291
68	0x4149434f	12.578933
69	0x4153423b	13.20367
70	0x41422b34	12.135548
71	0x4129ac69	10.604592
72	0x4113016c	9.187847
73	0x40fddc80	7.9331665
74	0x41070285	8.438115
75	0x41157031	9.3398905
76	0x4139f542	11.622377
77	0x414d2546	12.8216
78	0x41630e52	14.190996
79	0x4172c5b1	15.1732645
80	0x3f60cc03	0.878113
81	0x3f5c8061	0.8613339
82	0x3f533bea	0.82513297
83	0x3f3f8bd5	0.7482274
84	0x3f2dd52d	0.67903405
85	0x3f1f0dd0	0.6213045
86	0x3f12a346	0.57280385
87	0x3f101bb6	0.56292284
88	0x3efee625	0.4978496
89	0x3eea3d6a	0.4574998
90	0x3fbb2279	1.4619895
91	0x3fb7b30c	1.4351516
92	0x3fb39d21	1.4032327
93	0x3faf6a1e	1.3704259
94	0x3faeda58	1.3660383
95	0x3fb1836f	1.3868235
96	0x3fb59487	1.4185952
97	0x3fc066d3	1.503138
98	0x3faf6c6d	1.3704964
99	0x3f960a28	1.172185
100	0x3bb449db	0.0055019683
101	0x3ba456a4	0.005015211
102	0x3ba2da6b	0.004969885
103	0x3b94f9a6	0.004546362
104	0x3b66e43b	0.003523125
105	0x3b6145f5	0.0034373973
106	0x3b805c0f	0.0039172242
107	0x3b9b1fc8	0.004734013
108	0x3ba81dca	0.0051305043
109	0x3bc8cd66	0.006128001
110	0x3d605d40	0.05477643
111	0x3d665f05	0.05624296
112	0x3d65ca8f	0.056101378
113	0x3d655e21	0.05599797
114	0x3d6b8e12	0.057508536
115	0x3d6a4f49	0.05720452
116	0x3d6127f1	0.05496973
117	0x3d5e656e	0.05429595
118	0x3d702a6f	0.058634218
119	0x3d7eeeee	0.06223958
120	0x428a91b8	69.28461
121	0x428ac563	69.38552
122	0x428c8dc4	70.276886
123	0x428f0112	71.50209
124	0x4290fd2d	72.494484
125	0x42938092	73.751114
126	0x42931ffc	73.56247
127	0x429232a2	73.09889
128	0x428f503a	71.65669
129	0x428d05db	70.51144
130	0x42803304	64.09964
131	0x427e7a42	63.619392
132	0x4280db29	64.42805
133	0x42836023	65.68777
134	0x42840b7a	66.022415
135	0x428516d6	66.5446
136	0x4284a9a6	66.331345
137	0x42822979	65.081
138	0x428046ff	64.138664
139	0x427c1e6d	63.029713
140	0x401edf6f	2.4823873
141	0x4028454b	2.6292293
142	0x40254539	2.58235
143	0x401d16c0	2.4545135
144	0x401930f5	2.393613
145	0x400d2fca	2.2060418
146	0x40157b8a	2.3356652
147	0x4035b1cf	2.8389776
148	0x4063078a	3.5473351
149	0x408c207b	4.378965
150	0x404c5031	3.1923945
151	0x405bc1ad	3.433696
152	0x405dd993	3.4664047
153	0x4041d9ca	3.0289178
154	0x40311226	2.7667327
155	0x40230aaa	2.547526
156	0x402bf57c	2.6868582
157	0x405ee8de	3.482963
158	0x408d1c55	4.4097085
159	0x40ac213f	5.3790584
160	0x3ea3234a	0.3186286
161	0x3eadeacd	0.339682
162	0x3eb54e9b	0.35411534
163	0x3eb6521a	0.35609514
164	0x3eae40a8	0.34033704
165	0x3eb2bd30	0.34909964
166	0x3ec0231b	0.37526783
167	0x3ecf682f	0.40509173
168	0x3ed8a6e3	0.42314824
169	0x3ed66c59	0.41879538
170	0x3ddad106	0.10684399
171	0x3ddcc9f4	0.10780707
172	0x3e021025	0.12701471
173	0x3e21404b	0.15747182
174	0x3e483d2a	0.19554582
175	0x3e787147	0.24261962
176	0x3e9ce953	0.30646762
177	0x3ec5e042	0.38647658
178	0x3ee72214	0.45143187
179	0x3ee8ab9c	0.45443428
180	0x4015fd60	2.3435898
181	0x40173565	2.362634
182	0x40215cfe	2.5213008
183	0x40373b17	2.8629816
184	0x404852b5	3.130048
185	0x406b937f	3.6808774
186	0x40836ed1	4.1072774
187	0x4094ef1f	4.6541896
188	0x40a63f72	5.195245
189	0x40b1f072	5.560601
190	0x403d6ae3	2.9596488
191	0x4034b2a2	2.823403
192	0x4037da25	2.8726895
193	0x404f86e3	3.2426078
194	0x4066f27f	3.6085508
195	0x408a0e10	4.3142166
196	0x409da869	4.926808
197	0x40baaa3a	5.8332796
198	0x40ceee73	6.4666076
199	0x40dd8fd9	6.9238095
200	0x3ea3df6e	0.320064
201	0x3e99f0e1	0.3006659
202	0x3e896522	0.2683497
203	0x3e63132e	0.22175285
204	0x3e3fd866	0.18734893
205	0x3e2023db	0.15638678
206	0x3e08e29f	0.13367699
207	0x3de48bce	0.11159478
208	0x3dc8cdaf	0.09804856
209	0x3db4b8c1	0.088243015
210	0x3e8b0d8d	0.27158776
211	0x3e853be3	0.26022252
212	0x3e7abff2	0.24487284
213	0x3e6b394f	0.2297108
214	0x3e636d2a	0.22209612
215	0x3e5ac50b	0.21364228
216	0x3e4f59b8	0.20249069
217	0x3e4b37e1	0.19845535
218	0x3e47a7ff	0.19497679
219	0x3e40414c	0.18774909
220	0x3cb20bf5	0.021734217
221	0x3c800b9a	0.015630532
222	0x3c280074	0.010254014
223	0x3bbbfb9d	0.0057367817
224	0x3b4101c9	0.0029450527
225	0x3ae2d5cb	0.0017306147
226	0x3b1d77f2	0.0024027792
227	0x3b9e4d71	0.004831009
228	0x3c02ee9a	0.007991457
229	0x3c38fcd9	0.011290752
230	0x3cb52eaf	0.022116987
231	0x3c812b85	0.015767822
232	0x3c1b1a12	0.009466665
233	0x3b98b61c	0.004660381
234	0x3b030e01	0.001999736
235	0x3a93647e	0.0011245159
236	0x3b1a6516	0.0023558787
237	0x3ba71f3d	0.0051001594
238	0x3c093ecf	0.008376791
239	0x3c420a4c	0.011843275
240	0x3eff714f	0.49891135
241	0x3ee76bea	0.4519952
242	0x3ec86bcd	0.39144745
243	0x3eae50a2	0.34045893
244	0x3e96c64c	0.29448164
245	0x3e83cbf2	0.25741535
246	0x3e6289ef	0.2212293
247	0x3e543726	0.20724162
248	0x3e515f9a	0.20446625
249	0x3e62d288	0.22150624
250	0x3ecca9b8	0.39973235
251	0x3ea785db	0.3271931
252	0x3e75df36	0.2401093
253	0x3e262a7e	0.16227147
254	0x3deffbdb	0.117179595
255	0x3d9f0453	0.07764497

exp_avg f4 [32]
0	0x3d66f897	0.056389417
1	0x3e937d70	0.2880664
2	0xbf43ca6e	-0.7648076
3	0xbe524b8e	-0.20536634
4	0xbea76eec	-0.32701814
5	0x3d28bfe9	0.041198645
6	0xbdd78644	-0.10523656
7	0xbe3af84e	-0.18258783
8	0xbd86985e	-0.065720305
9	0xbeb7be6f	-0.35887477
10	0x3eb52121	0.35376838
11	0x3da27637	0.07932704
12	0xbe18b582	-0.1491299
13	0x3eadaa2d	0.33918896
14	0x3e47b1e8	0.1950146
15	0x3c0f1b10	0.00873448
16	0x3dcccb01	0.099996574
17	0x3dd7e68e	0.10542022
18	0x3e90ce24	0.28282273
19	0x3e82f0ba	0.25574285
20	0xbe58d33f	-0.21174334
21	0xbecc75bf	-0.39933583
22	0xbdfa71d2	-0.12228741
23	0x3e4368ba	0.19082919
24	0x3df876b7	0.12132018
25	0xbe0b4fea	-0.13604704
26	0x3f0d997a	0.5531231
27	0xbe0a0858	-0.13479745
28	0x3f0241c8	0.50881624
29	0x3d8add43	0.067804836
30	0x3d671341	0.056414846
31	0x3dd41ccb	0.10357054

exp_avg_sq f4 [32]
0	0x3c94d2ff	0.018167017
1	0x3e8a3bad	0.26998654
2	0x3f5d0115	0.86329776
3	0x3e83d3d0	0.25747538
4	0x3e4d7030	0.20062327
5	0x3cb614e1	0.022226753
6	0x3f4e3b43	0.80559176
7	0x3dc91b78	0.098196924
8	0x3d3148a5	0.04328217
9	0x3dc513c5	0.09622911
10	0x3d327ee5	0.043578047
11	0x3cc6ffc9	0.02429189
12	0x3dc8b43d	0.09800003
13	0x3e1aed74	0.15129644
14	0x3da0b406	0.07846837
15	0x3d874385	0.06604675
16	0x3d08b10e	0.033371978
17	0x3d4c134c	0.04982309
18	0x3d82ade6	0.06380825
19	0x3f24c240	0.643589
20	0x3f574f7b	0.8410565
21	0x3e74a3ec	0.23890656
22	0x3daa4871	0.08314598
23	0x3d3c0590	0.045903742
24	0x3e0d84ad	0.13820143
25	0x3df109ab	0.11769422
26	0x3e9a2619	0.3010719
27	0x3dd63549	0.10459382
28	0x3e07096a	0.13187185
29	0x3c9ad0d1	0.0188984
30	0x3d83d16e	0.0643643
31	0x3c8692fe	0.016427513

exp_avg f4 [32]
0	0x3ddda8d6	0.108232185
1	0xbe9dd4ef	-0.30826518
2	0xbe8707a5	-0.2637302
3	0x3d98a536	0.074533865
4	0xbd189089	-0.037247214
5	0x3d45bf6c	0.048278257
6	0xbf5ac13a	-0.8545109
7	0x3cc1e226	0.023667406
8	0x3e93840f	0.2881169
9	0x3e2ef69b	0.1708626
10	0xbdfdfc5a	-0.12401648
11	0xbc5aea02	-0.013361456
12	0x3cbef3a8	0.023309544
13	0xbe00b79b	-0.1257004
14	0x3d81a390	0.06330025
15	0xbed7c679	-0.4214361
16	0x3d9bd86a	0.07609637
17	0xbe007b0c	-0.12546939
18	0x3de80d01	0.11330605
19	0x3e835504	0.256508
20	0xbfe8563e	-1.8151319
21	0x3d9fb705	0.0779858
22	0xbd2a7857	-0.04161867
23	0xbe9e49fd	-0.30915824
24	0x3bc796d6	0.006090979
25	0xbcb94ed6	-0.0226206
26	0xbe8c77b4	-0.27435076
27	0xbe7098dd	-0.23495813
28	0xbde53af4	-0.11192885
29	0x3d8172d2	0.06320728
30	0x3de14b1f	0.11000656
31	0x3d5b2124	0.053498402

exp_avg_sq f4 [32]
0	0x3c5c3cf9	0.013442271
1	0x3f9b2c38	1.212287
2	0x3e927fe2	0.28613192
3	0x3da7733e	0.081762776
4	0x3da143b3	0.07874241
5	0x3c8cb872	0.017177794
6	0x3e736ef9	0.23772801
7	0x3d8a4c5a	0.06752844
8	0x3cb28013	0.021789586
9	0x3dfea1f6	0.12433235
10	0x3cb9ffbf	0.022704957
11	0x3c3a6f24	0.011379037
12	0x3d7932fd	0.06083964
13	0x3d3847d8	0.04499039
14	0x3d6205a0	0.055181146
15	0x3d01f872	0.031731077
16	0x3c858f97	0.01630382
17	0x3d101fe3	0.03518666
18	0x3d7f444a	0.062320985
19	0x3eb7338a	0.3578151
20	0x3fa3cf8b	1.2797712
21	0x3d874120	0.066042185
22	0x3cc5cf1e	0.024146613
23	0x3cffd59a	0.031229783
24	0x3decbc73	0.11559381
25	0x3dc0578c	0.09391698
26	0x3f013dc0	0.5048485
27	0x3ea112e3	0.31459722
28	0x3e885dc9	0.26634052
29	0x3c55c42b	0.013047258
30	0x3d14a23d	0.036287535
31	0x3c235c18	0.009970687
