results/2021-04-12_21-02_best/2021-04-12_21-02.pth (torch, 96051 bytes, 26 tensors)

encoder.maxpool_conv.0.0.weight f4 [32, 1, 2, 10]
-0.024821581 0.14951602 0.19421211 -0.2104885 -0.25829864 -0.07051082 -0.1386962 0.023681367
0.04765724 0.03522426 -0.13764194 -0.07527093 0.09160837 -0.18480381 -0.11156953 -0.08656044
-0.17033957 -0.06879966 0.22183335 -0.10658458 -0.16153546 -0.043638654 -0.044352803 0.13006921
0.057152145 -0.1652744 -0.00015269675 -0.15310434 0.22737424 -0.1652418 0.10083463 -0.08351051
-0.1419483 -0.19456272 -0.18753801 0.0011799309 -0.0027362744 -0.20101306 -0.13987291 -0.19643591
-0.12804471 0.11133885 -0.19115525 0.15244961 -0.19359888 0.2187271 0.017466098 0.06769147
0.20041709 0.063500196 -0.0032879252 0.038795907 0.11089894 0.00066367636 -0.04529544 -0.019000353
-0.11925873 -0.1980066 0.1707155 -0.043061145 -0.12072724 0.15739508 0.14987446 0.1781677
0.18976435 -0.032316893 0.047970094 -0.154347 -0.10367956 0.15208375 -0.22898127 -0.11299094
-0.2498191 0.06383757 0.10934502 -0.06511858 -0.16729411 0.018066697 -0.012981853 0.098564096
0.191348 0.19579917 0.21340421 0.15711552 -0.08977442 0.1067152 0.011905175 0.00013601115
0.11243592 -0.069752805 0.13608348 -0.10802788 -0.19567652 0.17860924 -0.021158088 0.15754181
0.12330546 0.0899967 -0.23893493 -0.12775983 0.09070176 -0.16875134 -0.1646607 0.16579664
-0.18030271 -0.16803843 0.07861124 -0.10262469 -0.07045539 -0.18600512 -0.20269556 0.074391246
-0.08796401 -0.22058947 0.016286436 0.20145266 0.162227 -0.1986561 0.09863847 -0.14784954
-0.053059008 0.1668136 0.11639077 -0.15047857 0.15041143 0.15532398 0.12908685 0.19894345
-0.18517122 0.2072604 0.14864813 0.062356602 0.061297096 0.18987142 0.22455439 -0.1427468
-0.118426345 -0.1915486 0.03760198 0.10852088 0.04930992 0.009797286 0.102757424 -0.049233805
-0.13881645 0.07326263 -0.12286892 0.17749605 0.17698045 -0.09058323 -0.23377004 -0.040193077
-0.17785303 -0.08599996 -0.13706855 0.034590792 0.006907072 -0.037964933 0.17959458 -0.24274626
-0.123002164 0.14049502 0.25960705 -0.090516105 0.13234806 -0.12145252 0.07357415 -0.19011955
-0.121243626 0.17436151 0.048550125 0.080476776 -0.018905463 0.051712494 0.054359663 -0.10530669
-0.11481322 -0.06539656 -0.16678995 -0.19380046 0.03496083 -0.091511995 -0.1320962 -0.03877142
-0.02097176 0.18324353 0.11564738 0.14049405 -0.0434053 0.019642422 0.28148758 0.11315958
0.024966381 -0.16285667 0.06326439 0.22567676 -0.10717292 0.069765486 0.13759947 -0.14514537
0.2276574 0.21200068 -0.12179067 -0.025619227 -0.08401623 0.033435956 0.11954756 0.059413
-0.13624382 -0.046549834 -0.0012715923 0.09192924 0.09010625 -0.12778693 -0.01889917 0.08167113
-0.09419895 -0.06342314 -0.07331936 -0.06614249 0.10401236 -0.05895449 0.07708256 -0.20003116
0.11144624 -0.009585838 -0.13643134 0.05372968 -0.1857326 0.1675331 0.23326096 0.0036811924
-0.09714147 0.19902892 -0.07992641 -0.18026626 -0.04424158 -0.23789302 -0.013502875 0.058299173
0.11377256 -0.20519896 0.15772206 0.18176617 0.025958747 -0.124776 -0.16479966 -0.11513637
-0.06584652 0.06079814 0.18520047 0.20414084 0.063573994 -0.12630354 -0.10642929 -0.18757387
00000000: a156 cbbc ba1a 193e 8adf 463e 4c8a 57be
00000010: b83f 84be fa67 90bd 6006 0ebe 6dff c13c
00000020: 3d34 433d 5047 103d 02f2 0cbe a527 9abd
00000030: 2b9d bb3d 363d 3dbe 917e e4bd 9a46 b1bd
00000040: 7f6d 2ebe d6e6 8cbd 4828 633e 0449 dabd
00000050: 8d69 25be 72be 32bd 49ab 35bd dd30 053e
00000060: 5e18 6a3d b13d 29be 391d 20b9 62c7 1cbe
00000070: cbd4 683e 2535 29be 6382 ce3d 8f07 abbd
00000080: e55a 11be 733b 47be f709 40be e9a7 9a3a
00000090: 1153 33bb 5ed6 4dbe d83a 0fbe 7f26 49be
000000a0: 271e 03be 9f05 e43d 34be 43be c01b 1c3e
000000b0: c93e 46be fff9 5f3e 1015 8f3c d3a1 8a3d
000000c0: 233a 4d3e 640c 823d 3b7a 57bb 75e8 1e3d
000000d0: fc1e e33d 91fa 2d3a b687 39bd a1a6 9bbc
000000e0: ec3d f4bd 3ec2 4abe 0bd0 2e3e e260 30bd
000000f0: d83f f7bd 2d2c 213e b178 193e 9871 363e
00000100: 9651 423e b85e 04bd 4a7c 443d 240d 1ebe
00000110: f355 d4bd d8bb 1b3e 117a 6abe cb67 e7bd
00000120: 94d0 7fbe 46bd 823d 48f0 df3d e45c 85bd
00000130: 264f 2bbe 9c00 943c d7b1 54bc f9db c93d
00000140: bbf0 433e 947f 483e a286 5a3e e4e2 203e
00000150: a7db b7bd 808d da3d ec0d 433c 379e 0e39
00000160: ce44 e63d 8fda 8ebd 7859 0b3e b93d ddbd
00000170: 6d5f 48be 57e5 363e ba53 adbc a452 213e
00000180: 9387 fc3d 3150 b83d 5cab 74be 79d3 02be
00000190: d8c1 b93d 27cd 2cbe d19c 28be 98c6 293e
000001a0: 46a1 38be 4412 2cbe eefe a03d e52c d2bd
000001b0: ea4a 90bd 2078 3ebe 6d8f 4fbe 705a 983d
000001c0: 7a26 b4bd 35e2 61be 226b 853c 9b49 4e3e
000001d0: d61e 263e 816c 4bbe f702 ca3d df65 17be
000001e0: 6754 59bd 2fd1 2a3e 495e ee3d 0e17 1abe
000001f0: 7405 1a3e 400d 1f3e 582f 043e d5b7 4b3e
00000200: 869d 3dbe 123c 543e 3737 183e a369 7f3d
00000210: aa12 7b3d a76d 423e 96f1 653e 382c 12be
00000220: 8389 f2bd 5125 44be 8904 1a3d 3240 de3d
00000230: 33f9 493d cc84 203c 7c72 d23d 63a9 49bd
00000240: e625 0ebe b80a 963d b3a2 fbbd 86c1 353e
00000250: 5d3a 353e b383 b9bd 6a61 6fbe 7fa1 24bd
00000260: 1b1f 36be bf20 b0bd b35b 0cbe 13af 0d3d
00000270: b854 e23b 1e81 1bbd a4e7 373e 7a92 78be
00000280: 8fe8 fbbd eddd 0f3e 37eb 843e 8260 b9bd
00000290: 4086 073e 19bc f8bd 0bae 963d b3ae 42be
000002a0: 944e f8bd d38b 323e 7fdc 463d 02d1 a43d
000002b0: a1df 9abc 7bd0 533d 3da8 5e3d 09ab d7bd
000002c0: 3223 ebbd a2ee 85bd fcca 2abe a173 46be
000002d0: 1633 0f3d a46a bbbd 3a44 07be c8ce 1ebd
000002e0: f8cc abbc 31a4 3b3e 89d8 ec3d acdd 0f3e
000002f0: c1c9 31bd 25e9 a03c 241f 903e 36c0 e73d
00000300: 4c86 cc3c e6c3 26be c390 813d cf17 673e
00000310: 7a7d dbbd 35e1 8e3d e0e6 0c3e fda0 14be
00000320: 051f 693e b516 593e 636d f9bd 6adf d1bc
00000330: b410 acbd 24f4 083d 5ad5 f43d 0c5b 733d
00000340: 8083 0bbe 0aab 3ebd 8fab a6ba 6645 bc3d
00000350: a089 b83d 94da 02be 6fd2 9abc 3243 a73d
00000360: 61eb c0bd fee3 81bd 7628 96bd b775 87bd
00000370: 6f04 d53d 437a 71bd 76dd 9d3d f8d4 4cbe
00000380: ed3d e43d eb0d 1dbc a8b4 0bbe a713 5c3d
00000390: b030 3ebe cc8d 2b3e f6db 6e3e 2940 713b
000003a0: 1bf2 c6bd 3dce 4b3e 75b0 a3bd b897 38be
000003b0: a936 35bd 3a9a 73be 2a3b 5dbc 1dcb 6e3d
000003c0: 9701 e93d ad1f 52be e481 213e e920 3a3e
000003d0: 70a7 d43c 8f8a ffbd 3ec1 28be 9ecc ebbd
000003e0: 8ada 86bd 7807 793d 31a5 3d3e 4c0a 513e
000003f0: 1533 823d b755 01be 99f7 d9bd 5d13 40be

encoder.maxpool_conv.0.1.weight f4 [32]
0.9765451 0.9917195 0.98907214 1.0489488 0.95351714 0.9754884 0.9487424 0.9883115
0.97717357 0.9732303 0.9762311 0.9414804 0.9823043 0.9376688 0.97038275 0.9819271
1.037703 0.98508525 1.0261841 1.0008434 1.0286727 1.0605175 0.97493905 0.98235154
0.959137 0.97423166 0.97267115 0.9818745 0.96319336 0.98279107 0.99991226 0.97507966
00000000: dcfe 793f 54e1 7d3f d533 7d3f f443 863f
00000010: b319 743f 9cb9 793f c8e0 723f fc01 7d3f
00000020: 0c28 7a3f 9f25 793f 48ea 793f dc04 713f
00000030: 4b78 7b3f 100b 703f 016b 783f 935f 7b3f
00000040: 74d3 843f 8c2e 7c3f 005a 833f a31b 803f
00000050: 8cab 833f 0abf 873f 9b95 793f 647b 7b3f
00000060: 018a 753f 3f67 793f fa00 793f 215c 7b3f
00000070: d793 763f 3298 7b3f 40fa 7f3f d29e 793f

encoder.maxpool_conv.0.1.bias f4 [32]
-0.026994897 0.0033795321 0.0024904218 0.18228693 -0.036605623 -0.024942873 -0.04941125 -0.0024886476
-0.031407416 -0.026697349 -0.0089938 -0.04848923 -0.020193256 -0.009308205 -0.012942754 -0.008573851
0.17290217 0.0037109286 0.17290816 0.095483914 0.0414467 0.17491768 -0.025686145 0.026577694
-0.0117233815 -0.024023287 -0.028828718 0.024023796 -0.024580384 0.18950562 0.064610064 -0.03374664
00000000: 6724 ddbc 247b 5d3b 5836 233b 6da9 3a3e
00000010: c7ef 15bd ff54 ccbc 7363 4abd 9418 23bb
00000020: 10a5 00bd 66b4 dabc bb5a 13bc a59c 46bd
00000030: 546c a5bc 7181 18bc d80d 54bc 5679 0cbc
00000040: 440d 313e 0d33 733b d60e 313e 128d c33d
00000050: 04c4 293d 9f1d 333e c06b d2bc 77b9 d93c
00000060: 6d13 40bc 7ccc c4bc 342a ecbc 8dcd c43c
00000070: cd5c c9bc c30d 423e 4852 843d eb39 0abd

encoder.maxpool_conv.0.1.running_mean f4 [32]
-139.91878 -215.73581 31.667429 -9.033623 129.18477 -160.42134 176.03401 -87.99165
-49.181255 105.94049 10.741334 -38.996952 -61.484325 129.24521 -100.23714 -33.22928
-3.9195673 -22.929104 -4.538758 -1.6658146 -20.915623 1.6381534 86.25045 22.272196
-60.537285 255.60753 -24.97314 -4.0544477 -62.20702 6.307595 -2.9905436 -36.345734
00000000: 35eb 0bc3 5ebc 57c3 e556 fd41 b889 10c1
00000010: 4d2f 0143 dd6b 20c3 b508 3043 bafb afc2
00000020: 9bb9 44c2 88e1 d342 81dc 2b41 e1fc 1bc2
00000030: f3ef 75c2 c63e 0143 6a79 c8c2 c8ea 04c2
00000040: 31da 7ac0 ce6e b7c1 813d 91c0 6a39 d5bf
00000050: 3253 a7c1 03af d13f 3b80 ac42 752d b241
00000060: 2e26 72c2 879b 7f43 fec8 c7c1 09be 81c0
00000070: fdd3 78c2 d1d7 c940 1165 3fc0 0862 11c2

encoder.maxpool_conv.0.1.running_var f4 [32]
40.84333 89.302086 2.6092389 1.9532266 36.08476 49.255165 60.4621 16.50296
8.485483 22.521008 2.8684647 5.4453716 12.710237 32.66058 20.187933 3.145756
1.0901974 4.816875 0.82280564 0.659507 2.4230735 0.9022291 18.418354 1.848246
7.9735355 126.19657 2.253719 0.54990214 10.489761 1.9797126 0.86749655 4.811077
00000000: 925f 2342 ab9a b242 c5fd 2640 5403 fa3f
00000010: cb56 1042 4a05 4542 31d9 7142 1006 8441
00000020: 8ac4 0741 062b b441 ed94 3740 7c40 ae40
00000030: 215d 4b41 6fa4 0242 e380 a141 1154 4940
00000040: 978b 8b3f d723 9a40 64a3 523f 73d5 283f
00000050: a313 1b40 7cf8 663f ca58 9341 5393 ec3f
00000060: 3427 ff40 a564 fc42 ef3c 1040 63c6 0c3f
00000070: 10d6 2741 3967 fd3f 4114 5e3f 58f4 9940

encoder.maxpool_conv.2.0.weight f4 [1, 32, 2, 10]
0.008824296 -0.014416769 0.015704831 -0.004452602 0.029186431 0.014654483 0.021422546 0.0023225637
-0.0069007315 -0.016125873 -0.017507514 0.017066773 0.027692528 -0.020683585 -0.015372169 -0.029652424
0.029596234 -0.0064329756 0.022146653 -0.01871703 -0.024574218 -0.0056966715 0.014317587 0.02088482
-0.018658057 0.018289533 0.016429506 0.0007804243 0.024609145 -0.024198076 -0.025363117 -0.020950379
-0.042380765 -0.0061139446 -0.02366282 -0.012647045 -0.028482277 -0.024985038 -0.0378084 -0.004468539
0.019255348 0.0077418974 0.00089717825 0.037028283 0.021473562 -0.035362355 0.001817082 0.024059989
0.028280957 0.04593928 0.017651724 -0.00076522416 -0.01915476 0.027282774 0.013634734 -0.007804348
0.004414442 -0.028945807 0.014714126 -0.036422286 0.052921623 0.017690876 0.043334335 0.009519038
0.03502134 -0.0009729494 -0.0027884294 -0.00042184733 -0.011699239 0.019110931 -0.087676466 -0.053831838
-0.07732975 -0.020998819 -0.026948797 -0.047425646 -0.0512455 -0.011615178 -0.058110747 0.0030387635
0.023061773 0.01387813 -0.033493057 -0.0105297165 0.027990554 0.033118237 0.032750007 -0.0015621161
0.0025543263 -0.019690583 0.012192094 -0.015364542 0.015057043 -0.028032312 0.010116873 -0.04299088
-0.013772453 0.0069365297 -0.01230635 -0.010940162 0.02775777 0.011100251 0.020091482 -0.011574905
0.01691067 0.01754273 -0.035251804 -0.026950097 -0.02354915 0.027712896 0.014966115 0.0097629735
0.01678154 -0.010296112 0.008662721 0.008029455 -0.023892492 -0.014292331 0.00043662256 -0.03465923
0.031799342 0.0071329554 0.02304947 0.016430618 -0.019520184 -0.01195091 -0.026687395 0.0260752
-0.019327145 0.02216731 -0.0023658164 -0.0053367373 0.010550619 0.022127064 -0.009792862 -0.022973517
-0.006857401 0.01997671 -0.017783528 -0.023988267 0.0025002076 0.004615327 0.00964123 0.008624123
0.022386385 -0.026431846 0.009463086 -0.03264756 0.01799669 -0.01698774 -0.010478839 0.018951247
-0.046506077 0.017532093 -0.02696315 -0.018567903 -0.020345949 -0.0189495 -0.031944126 -0.045107953
-0.020285724 0.029434543 0.002589162 0.039955266 -0.016913647 -0.0012070049 0.028905751 -0.022292245
-0.0071113002 0.015632398 0.004256985 0.0069803298 0.0077387495 0.0019110473 0.008876545 0.00029541244
0.034942683 0.036414474 -0.042196568 -0.042996455 -0.0055912575 -0.02016482 -0.035618734 0.011847354
0.017417006 -0.016755177 0.025011908 -0.016312676 -0.0005750094 -0.013670699 -0.01879484 0.03572693
0.018202808 0.013243252 -0.03356959 0.00143792 -0.014574524 -0.008528328 0.00794395 -0.015032369
-0.004263875 0.009036068 0.027023086 0.001183154 -0.0004890514 0.008724764 -0.023842812 0.018441984
-0.011683915 -0.010934661 -0.0396541 -0.021159766 -0.009822833 -0.023920009 -0.021918364 -0.020568954
-0.0083084 -0.0005785091 -0.0038485215 0.016924601 -0.018515605 -0.022562673 0.013861798 0.006364558
0.018343765 0.01014053 0.029073345 -0.021562565 0.04527729 -0.0066470155 -0.025872594 0.019410873
0.03978512 0.01871413 0.031690348 -0.0032028253 -0.012086632 -0.0043850443 -0.01702493 -0.022568896
0.028136482 -0.009870354 -0.035911683 0.03348764 0.016850125 0.005914345 0.0500765 0.038078588
0.007187973 -0.0018779009 0.023740225 0.03776023 -0.034575965 0.007988971 -0.018965175 -0.007729657
00000000: c893 103c 5034 6cbc 6ba7 803c 22e7 91bb
00000010: 6218 ef3c 5b19 703c 567e af3c 2736 183b
00000020: 881f e2bb 681a 84bc eb6b 8fbc 9ecf 8b3c
00000030: 71db e23c 9f70 a9bc 8ddb 7bbc a4e9 f2bc
00000040: cd73 f23c b6cb d2bb e66c b53c 7554 99bc
00000050: df4f c9bc 25ab babb 5094 6a3c a416 ab3c
00000060: c8d8 98bc eed3 953c 2c97 863c 6395 4c3a
00000070: 1e99 c93c 0b3b c6bc 50c6 cfbc 21a0 abbc
00000080: 7497 2dbd 7c57 c8bb 88d8 c1bc 8d35 4fbc
00000090: aa53 e9bc 6cad ccbc fbdc 1abd d26c 92bb
000000a0: 64bd 9d3c beaf fd3b 9d30 6b3a f8aa 173d
000000b0: 53e9 af3c 1ed8 10bd 282b ee3a 7419 c53c
000000c0: 77ad e73c d42a 3c3d 599a 903c 5399 48ba
000000d0: 71ea 9cbc 2080 df3c 3864 5f3c 9ebb ffbb
000000e0: 06a7 903b c21f edbc 8413 713c 892f 15bd
000000f0: 58c4 583d 75ec 903c 587f 313d bdf5 1b3c
00000100: 8972 0f3d 870d 7fba 15be 36bb 642b ddb9
00000110: 2aae 3fbc 878e 9c3c b88f b3bd c67e 5cbd
00000120: 0f5f 9ebd b705 acbc b9c3 dcbc 6541 42bd
00000130: cde6 51bd 964d 3ebc 8905 6ebd fe25 473b
00000140: 0bec bc3c 1961 633c 0430 09bd d584 2cbc
00000150: 724c e53c fda6 073d df24 063d ebbf ccba
00000160: 7c66 273b 254e a1bc 59c1 473c 8fbb 7bbc
00000170: d1b1 763c 05a4 e5bc 3ec1 253c 3417 30bd
00000180: dba5 61bc d44b e33b 93a0 49bc 5e3e 33bc
00000190: 4364 e33c d4dd 353c e496 a43c aca4 3dbc
000001a0: 3f88 8a3c c5b5 8f3c 3264 10bd 73c6 dcbc
000001b0: 26ea c0bc 2806 e33c 7034 753c e1f4 1f3c
000001c0: 7179 893c 06b1 28bc 16ee 0d3c fa8d 033c
000001d0: 30ba c3bc 622a 6abc 7dea e439 d6f6 0dbd
000001e0: 0740 023d 91bb e93b 3ed2 bc3c 8199 863c
000001f0: cbe8 9fbc c0cd 43bc 869f dabc a89b d53c
00000200: f653 9ebc 3898 b53c d00b 1bbb ccdf aebb
00000210: 81dc 2c3c d143 b53c 3e72 20bc f532 bcbc
00000220: 0db4 e0bb 33a6 a33c c3ae 91bc 0b83 c4bc
00000230: 86da 233b 2b3c 973b 40f6 1d3c 324c 0d3c
00000240: a763 b73c 9987 d8bc 0f0b 1b3c 73b9 05bd
00000250: cb6d 933c df29 8bbc 70af 2bbc a53f 9b3c
00000260: 287d 3ebd 779f 8f3c d3e1 dcbc b71b 98bc
00000270: 8cac a6bc fb3b 9bbc d8d7 02bd 1ec3 38bd
00000280: 3f2e a6bc b620 f13c eeae 293b 22a8 233d
00000290: 7d8e 8abc 5d34 9eba c1cb ec3c 3a9e b6bc
000002a0: e905 e9bb 840f 803c 2e7e 8b3b 40bb e43b
000002b0: 5695 fd3b 1b7c fa3a ee6e 113c 96e1 9a39
000002c0: 0f20 0f3d 5827 153d 4fd6 2cbd 0d1d 30bd
000002d0: de36 b7bb b130 a5bc f3e4 11bd 671b 423c
000002e0: 1cae 8e3c 2742 89bc c6e5 cc3c 29a2 85bc
000002f0: 3abc 16ba 11fb 5fbc a3f7 99bc 6756 123d
00000300: 0e1e 953c 3afa 583c 4480 09bd 9778 bc3a
00000310: fcc9 6ebc 66ba 0bbc 5727 023c 534a 76bc
00000320: fab7 8bbb 040c 143c 855f dd3c 0f14 9b3a
00000330: af33 00ba 50f2 0e3c 0052 c3bc a513 973c
00000340: e46d 3fbc 4b27 33bc 566c 22bd 3f57 adbc
00000350: f3ef 20bc e5f3 c3bc 248e b3bc 3980 a8bc
00000360: f51f 08bc 17a7 17ba 7a37 7cbb 76a5 8a3c
00000370: 0aae 97bc 5bd5 b8bc 981c 633c c88d d03b
00000380: aa45 963c 7724 263c 392b ee3c faa3 b0bc
00000390: ae74 393d 35cf d9bb c3f2 d3bc 8d03 9f3c
000003a0: b9f5 223d 604e 993c bdcd 013d 7ee6 51bb
000003b0: 0207 46bc 6bb0 8fbb de77 8bbc 68e2 b8bc
000003c0: 7b7e e63c 44b7 21bc 2118 13bd 562a 093d
000003d0: 4609 8a3c 1fcd c13b 041d 4d3d 4bf8 1b3d
000003e0: 1689 eb3b e623 f6ba dc7a c23c 79aa 1a3d
000003f0: 879f 0dbd 2ce4 023c db5c 9bbc 1049 fdbb

decoder.linear1.weight f4 [32, 164]
0.064898364 0.20741755 0.084360026 0.17633264 -0.035708603 0.19633946 0.012971005 0.13489519
0.042279463 0.20298792 -0.052758694 0.15083194 0.06899369 0.13866471 0.018538674 0.19223751
-0.042731546 0.230284 -0.0033389942 0.2563235 0.033135414 0.18081 0.06025609 0.26082572
0.026362287 0.1952798 -0.061718807 0.18096752 0.062191565 0.15807115 0.032988396 0.19818127
0.082002826 0.13785698 -0.009900284 0.19134519 0.0421065 0.15098543 -0.046932917 0.18855546
0.028505422 0.21904579 0.00055691856 0.14740582 -0.024596909 0.17984898 -0.02342598 0.13620631
-0.006692831 0.15920773 0.06176616 0.18187754 -0.009403358 0.2763436 -0.018111464 0.14232057
0.07341795 0.12756413 -0.029740745 0.15685965 0.07297369 0.23073603 0.010887367 0.23835902
0.0059432173 0.19257829 0.026949279 0.26397026 0.06587753 0.1569579 -0.06295358 0.21255192
0.02216404 0.12851565 0.07650266 0.16773565 0.08639101 0.13487025 0.042396855 0.20263183
-0.051978234 0.21180001 0.0039910474 0.20556884 -0.027141651 0.1442093 0.024105828 0.14418963
-0.05677263 0.1262659 -0.048615627 0.24462375 0.0416704 0.15415218 0.05645342 0.15490757
0.0038961726 0.18932922 0.0016879679 0.26186758 0.047910634 0.14156115 0.022643382 0.17106569
0.07546928 0.2674895 0.0299629 0.23801582 -0.026193947 0.26017943 -0.05584376 0.13950285
0.016825328 0.22973028 -0.00090476143 0.1749432 -0.024469413 0.237979 0.0012932434 0.13097192
-0.06230725 0.17469 -0.047830697 0.2055779 0.054023493 0.26560026 0.025424028 0.17794453
0.07596762 0.14086862 0.04691613 0.23334613 -0.054877274 0.13280809 -0.038033836 0.13063034
0.06678065 0.15851061 0.052048706 0.13965231 -0.03110682 0.25319174 0.07231402 0.25904813
-0.04983034 0.20480484 0.06174528 0.15827504 -0.0572312 0.20583694 -0.027334116 0.15650165
-0.017779825 0.13797683 -0.03537304 0.20526867 0.05588104 0.24504124 -0.056059305 0.2498863
0.03878592 0.21672085 0.0668303 0.2445716 -0.042004485 0.28013813 -0.028599763 0.21654183
-0.04023016 0.16241643 0.037623078 0.17881368 -0.0063848346 0.1730944 -0.03432936 0.19397123
0.017817728 0.22882634 -0.032273497 0.17965196 0.00346359 0.25997156 0.08342831 0.16170524
0.09370725 0.29237863 -0.034488462 0.1790516 -0.01821343 0.17820676 -0.03864427 0.25777817
0.07777952 0.23172688 -0.050661854 0.28105968 0.033992935 0.265583 -0.009753152 0.20106038
0.018165985 0.24983014 0.08209698 0.1989326 -0.012827983 0.3070527 -0.034903206 0.2541243
0.08068709 0.2669251 -0.018714026 0.21945795 -0.004472936 0.20941223 0.05207533 0.23388404
0.07967026 0.19541317 -8.5748485e-05 0.25826555 0.07414684 0.17430146 -0.031043386 0.23721139
0.001970796 0.16293721 0.03271836 0.29388985 0.034442246 0.20144758 0.02792449 0.28777
0.007673015 0.18103015 0.052478623 0.24036454 -0.050596215 0.29948357 0.006686374 0.27821693
0.04847224 0.20804493 -0.030270936 0.24557962 0.07771897 0.18607841 0.056738626 0.27513412
-0.061444677 0.20847191 -0.0023947952 0.20279033 0.08034447 0.17643662 -0.06539829 0.25464758
00000000: 6fe9 843d 4465 543e f3c4 ac3d 8b90 343e
00000010: 2f43 12bd 360d 493e 5784 543c f721 0a3e
00000020: 3b2d 2d3d 11dc 4f3e 8019 58bd b073 1a3e
00000030: 904c 8d3d 1ffe 0d3e 6bde 973c e9d9 443e
00000040: 4607 2fbd 92cf 6b3e 07d3 5abb d53c 833e
00000050: 00b9 073d 4226 393e 17cf 763d f38a 853e
00000060: b9f5 d73c 6ef7 473e dccc 7cbd 8d4f 393e
00000070: 95bc 7e3d 67dd 213e d71e 073d 08f0 4a3e
00000080: 19f1 a73d 612a 0d3e cd34 22bc feef 433e
00000090: de77 2c3d ed9b 1a3e bb3c 40bd af14 413e
000000a0: 3484 e93c 8a4d 603e 2cfe 113a 8df1 163e
000000b0: 757f c9bc 552a 383e d7e7 bfbc ab79 0b3e
000000c0: 894f dbbb 5a07 233e 83fe 7c3d 1b3e 3a3e
000000d0: 8b10 1abc e97c 8d3e 7e5e 94bc 7cbc 113e
000000e0: 265c 963d 2ca0 023e dda2 f3bc d19f 203e
000000f0: 3b73 953d 1146 6c3e ed60 323c 6314 743e
00000100: 52bf c23b 3e33 453e bcc4 dc3c 1c27 873e
00000110: ccea 863d 92b9 203e ceed 80bd 36a7 593e
00000120: 5c91 b53c 9b99 033e 6dad 9c3d e5c2 2b3e
00000130: c5ed b03d 6d1b 0a3e 53a8 2d3d b87e 4f3e
00000140: 21e7 54bd 1ae2 583e 55c7 823b a380 523e
00000150: 2b58 debc 9aab 133e 9679 c53c 72a6 133e
00000160: 6b8a 68bd d94b 013e 2e21 47bd a67e 7a3e
00000170: 95ae 2a3d 12da 1d3e b43b 673d 17a0 1e3e
00000180: ee56 7f3b 85df 413e ce3e dd3a 8213 863e
00000190: f13d 443d 68f5 103e 9d7e b93c d82b 2f3e
000001a0: a38f 9a3d 62f4 883e c174 f53c 6bba 733e
000001b0: b094 d6bc 3d36 853e 6dbc 64bd d6d9 0e3e
000001c0: 45d5 893c 6a3e 6b3e 832d 6dba 4f24 333e
000001d0: 1474 c8bc c4b0 733e 0c82 a93a 811d 063e
000001e0: e335 7fbd efe1 323e 1fea 43bd 0383 523e
000001f0: bd47 5d3d c2fc 873e 0d46 d03c 1737 363e
00000200: e994 9b3d dd3f 103e 212b 403d 4af2 6e3e
00000210: fec6 60bd d8fe 073e 5ec9 1bbd f6c3 053e
00000220: 4bc4 883d 9b50 223e 0631 553d 0401 0f3e
00000230: bbd3 febc 59a2 813e 5f19 943d f5a1 843e
00000240: e61a 4cbd 5cb8 513e 9ee8 7c3d da12 223e
00000250: 436b 6abd ebc6 523e cceb dfbc f841 203e
00000260: ffa6 91bc cc49 0d3e 52e3 10bd f331 523e
00000270: 84e3 643d 17ec 7a3e 719e 65bd 32e2 7f3e
00000280: fcdd 1e3d 12ec 5d3e 53de 883d fa70 7a3e
00000290: e50c 2cbd 446e 8f3e 0d4a eabc 24bd 5d3e
000002a0: 61c8 24bd 7e50 263e a81a 1a3d ef1a 373e
000002b0: e037 d1bb a93f 313e f19c 0cbd 65a0 463e
000002c0: 7cf6 913c 7451 6a3e 3731 04bd aff6 373e
000002d0: 66fd 623b fe1a 853e 76dc aa3d 0f96 253e
000002e0: 96e9 bf3d a7b2 953e c643 0dbd 4d59 373e
000002f0: 5534 95bc d57b 363e 7449 1ebd 80fb 833e
00000300: de4a 9f3d d049 6d3e ce82 4fbd 0ee7 8f3e
00000310: 2d3c 0b3d 7ffa 873e afcb 1fbc c6e2 4d3e
00000320: d5d0 943c 79d3 7f3e 7622 a83d fdb4 4b3e
00000330: 762c 52bc 0336 9d3e aaf6 0ebd 951c 823e
00000340: 463f a53d 68aa 883e 284e 99bc 96b9 603e
00000350: b591 92bb 2970 563e f14c 553d 4c7f 6f3e
00000360: 292a a33d 641a 483e ded3 b3b8 623b 843e
00000370: 4cda 973d 157c 323e b34e febc 8be7 723e
00000380: 7828 013b 03d9 263e b003 063d bb78 963e
00000390: 5013 0d3d 4648 4e3e e6c1 e43c 9756 933e
000003a0: ea6d fb3b f85f 393e d3f3 563d 1f22 763e
000003b0: fa3d 4fbd e955 993e 5f19 db3b 7372 8e3e
000003c0: d48a 463d bb09 553e c1fa f7bc 3979 7b3e
000003d0: 202b 9f3d 578b 3e3e c366 683d 61de 8c3e
000003e0: 6aad 7bbd a979 553e fff1 1cbb 45a8 4f3e
000003f0: a48b a43d cdab 343e 8aef 85bd 2b61 823e

decoder.linear1.bias f4 [32]
0.22772375 0.29406554 0.24673508 0.19467412 0.16883412 0.23751466 0.1957792 0.23790579
0.18860124 0.14215283 0.037285253 0.16873406 -0.067274556 0.1744155 0.24227245 0.21922424
0.27157784 0.048171952 0.25312883 0.17465633 0.25126436 0.26898783 0.028858352 -0.07648936
-0.034161694 0.23046674 -0.062929966 -0.037400097 0.01755782 0.19226736 0.13001412 0.2453081
00000000: 6a30 693e c28f 963e 1fa8 7c3e a758 473e
00000010: dae2 2c3e 0b37 733e 587a 483e 939d 733e
00000020: af20 413e 8390 113e 6cb8 183d 9fc8 2c3e
00000030: 3ec7 89bd fa99 323e 4516 783e 527c 603e
00000040: 400c 8b3e f44f 453d 1a9a 813e 1cd9 323e
00000050: b9a5 803e c6b8 893e 5a68 ec3c 74a6 9cbd
00000060: 22ed 0bbd 79ff 6b3e 6de1 80bd d830 19bd
00000070: 6bd5 8f3c bce1 443e 6c22 053e 0c32 7b3e

decoder.linear2.weight f4 [10, 32]
0.10441598 0.3543342 0.31002554 0.4018974 0.3796586 0.19948585 0.34631583 0.2971814
0.2085374 0.14722647 -0.100872345 0.38647857 -0.006780919 0.35232663 0.3684746 0.22349373
0.34554854 -0.14530495 0.06565904 0.10957291 0.05511237 0.34681883 0.15586397 -0.07433428
-0.17127086 0.2310759 -0.11134161 0.025315756 -0.0792459 0.2967234 0.37134954 0.1160298
0.38624492 0.34634092 0.24715956 0.39145428 0.19822715 0.27513552 0.22146636 0.18118753
0.17326513 0.2338441 -0.047099143 0.18728292 -0.057372447 0.2624612 0.34026086 0.2166977
0.33708623 -0.07023584 0.3954437 0.3266734 0.11299923 0.08269906 -0.17032437 0.0154884495
-0.011745319 0.33782318 0.053733114 0.033423033 0.028832322 0.20722486 0.33301237 0.23892833
0.37298888 0.21157204 0.36154962 0.19768302 0.080570064 0.36550623 0.3073319 0.31696466
0.39414662 0.25265142 -0.053809743 0.32948402 -0.14725766 0.21153858 0.13828576 0.0703489
0.22900729 -0.14369649 0.38780218 0.20742725 0.3723253 0.38588038 -0.0005859962 0.048261996
0.13629314 0.0692091 0.042439256 -0.06084611 -0.02406425 0.24059899 0.12858994 0.36360222
0.38111898 0.25232315 0.22244714 0.12531923 0.12137858 0.2222843 0.19545208 0.14564541
0.23332052 0.3091146 0.09148675 0.31388032 0.0703547 0.098368004 0.38560218 0.24079853
0.3925073 -0.121842444 0.27021667 0.13523915 0.3300171 0.28041694 -0.13775209 0.08677274
-0.1503994 0.37680173 -0.10748146 -0.065149486 -0.10236925 0.39214256 0.3319216 0.2889473
0.31651926 0.20767955 0.16589874 0.13120098 0.30255362 0.36829665 0.14727198 0.3312743
0.36717135 0.2855264 0.110747 0.11378213 0.109487616 0.15180866 0.32333067 0.10578855
0.15050124 0.0701906 0.3382653 0.27077538 0.35211605 0.2903981 -0.09122858 -0.13120838
0.10773164 0.33675364 -0.086268134 0.072689325 0.11716818 0.3914544 0.40058416 0.17498173
0.39573866 0.22563936 0.38522395 0.31311047 0.24964684 0.19390729 0.41318923 0.24746896
0.29594725 0.23268728 0.14324594 0.15381576 0.17397726 0.17760026 0.18168837 0.114197984
0.30357736 -0.13483515 0.21842372 0.42278326 0.25231355 0.13740155 -0.12223257 0.12813495
0.009666953 0.35206452 -0.08632679 -0.15629296 0.094937965 0.18675289 0.17190097 0.399138
0.372927 0.19528827 0.09373091 0.24539252 0.3930787 0.06482005 0.3477344 0.24162944
0.19344887 0.2310507 0.023153475 0.31143725 0.046491843 0.18730551 0.31727982 0.39909378
0.1548004 0.015348372 0.08008297 0.2954337 0.22916527 0.30043796 -0.04015525 0.0037878067
-0.05625986 0.32671446 -0.07760577 -0.144491 -0.06193177 0.35488206 0.40304026 0.30149823
0.4158936 0.2714108 0.42078617 0.26734498 0.44191617 0.14228842 0.12634806 0.1047639
0.13517039 0.114752606 -0.1048096 0.40749907 -0.08053341 0.43156087 0.41166195 0.3508123
0.41299522 -0.015731229 0.13667935 0.1657731 0.21118906 0.20463136 0.11628726 0.13734673
-0.090538576 0.22259864 -0.09563913 0.10369361 0.06779742 0.25495845 0.18399455 0.20910122
00000000: 0cd8 d53d 4b6b b53e abbb 9e3e 7fc5 cd3e
00000010: 9d62 c23e 0546 4c3e 4f50 b13e 2928 983e
00000020: d48a 553e 89c2 163e 2996 cebd 85e0 c53e
00000030: 7932 debb 2864 b43e b4a8 bc3e 8adb 643e
00000040: bdeb b03e d2ca 14be 3f78 863d c367 e03d
00000050: 82bd 613d 3d92 b13e ce9a 1f3e 923c 98bd
00000060: a161 2fbe 299f 6c3e 1207 e4bd fd62 cf3c
00000070: ad4b a2bd 21ec 973e 8721 be3e 08a1 ed3d
00000080: e5c1 c53e 9953 b13e 6517 7d3e b26c c83e
00000090: 0ffc 4a3e 90de 8c3e 14c8 623e 3989 393e
000000a0: 6a6c 313e d474 6f3e 08eb 40bd 18c7 3f3e
000000b0: 5fff 6abd 5061 863e ac36 ae3e 00e6 5d3e
000000c0: 9196 ac3e cfd7 8fbd 9977 ca3e bc41 a73e
000000d0: 246c e73d 205e a93d 8369 2ebe 44c3 7d3c
000000e0: 706f 40bc 29f7 ac3e 4117 5c3d 97e6 083d
000000f0: c331 ec3c c132 543e 9980 aa3e a1a9 743e
00000100: 66f8 be3e 57a6 583e 081d b93e 6b6d 4a3e
00000110: eb01 a53d a223 bb3e 9b5a 9d3e 3149 a23e
00000120: 96cd c93e 875b 813e 9b67 5cbd 21b2 a83e
00000130: b6ca 16be 929d 583e c89a 0d3e 1613 903d
00000140: e380 6a3e 2c25 13be 028e c63e cf67 543e
00000150: 6ca1 be3e 1d92 c53e 8a9d 19ba 5fae 453d
00000160: 6e90 0b3e 80bd 8d3d c9d4 2d3d c539 79bd
00000170: 6422 c5bc 955f 763e 15ad 033e 122a ba3e
00000180: 0722 c33e 8030 813e 2fc9 633e af53 003e
00000190: 5595 f83d 7f9e 633e 9724 483e 1224 153e
000001a0: 93eb 6e3e 4544 9e3e 685d bb3d ecb4 a03e
000001b0: 2016 903d 2a75 c93d a66d c53e e493 763e
000001c0: b8f6 c83e 8888 f9bd d759 8a3e 227c 0a3e
000001d0: 00f8 a83e cf92 8f3e e20e 0dbe e8b5 b13d
000001e0: 4d02 1abe 28ec c03e 3d1f dcbd 186d 85bd
000001f0: f8a6 d1bd e9c6 c83e a1f1 a93e e7f0 933e
00000200: d00e a23e f3a9 543e 5ce1 293e 8d59 063e
00000210: 4fe8 9a3e 6191 bc3e 77ce 163e c99c a93e
00000220: e2fd bb3e 8430 923e 53cf e23d 9b06 e93d
00000230: 0b3b e03d bb73 1b3e 998b a53e aba7 d83d
00000240: ff1c 1a3e 17c0 8f3d 1c31 ad3e 12a3 8a3e
00000250: 8e48 b43e 0faf 943e 0dd6 babd 7d5b 06be
00000260: 68a2 dc3d f96a ac3e 59ad b0bd 24de 943d
00000270: dff5 ef3d b66c c83e 5e19 cd3e 692e 333e
00000280: 429e ca3e 010e 673e 133c c53e 0450 a03e
00000290: 6ca3 7f3e a28f 463e 8a8d d33e 8168 7d3e
000002a0: 6686 973e 9345 6e3e 10af 123e e181 1d3e
000002b0: 1827 323e d8dc 353e 840c 3a3e a2e0 e93d
000002c0: 7e6e 9b3e 3a12 0abe 78aa 5f3e 0c77 d83e
000002d0: 3e2f 813e feb2 0c3e 1255 fabd cf35 033e
000002e0: 2462 1e3c cd41 b43e 1acc b0bd 430b 20be
000002f0: d66e c23d 263c 3f3e cf06 303e d15b cc3e
00000300: 4af0 be3e a6f9 473e fef5 bf3d 2d48 7b3e
00000310: 9d41 c93e 60c0 843d 3e0a b23e b56d 773e
00000320: 7617 463e 8e98 6c3e 5bac bd3c b474 9f3e
00000330: 3b6e 3e3d 04cd 3f3e 8072 a23e 0556 cc3e
00000340: ff83 1e3e bd77 7b3c 8a02 a43d 1643 973e
00000350: 4daa 6a3e 01d3 993e d579 24bd da3c 783b
00000360: bd70 66bd 1e47 a73e c6ef 9ebd 73f5 13be
00000370: 2bac 7dbd 1ab3 b53e 4b5b ce3e fa5d 9a3e
00000380: 02f0 d43e 5bf6 8a3e 4971 d73e 71e1 883e
00000390: d642 e23e 0eb4 113e 6361 013e 758e d63d
000003a0: 1b6a 0a3e 6a03 eb3d 6aa6 d6bd b8a3 d03e
000003b0: b3ee a4bd 8cf5 dc3e 5bc5 d23e ab9d b33e
000003c0: 1c74 d33e c7de 80bc acf5 0b3e 6cc0 293e
000003d0: f241 583e e28a 513e 0428 ee3d 9fa4 0c3e
000003e0: 4a6c b9bd e6f0 633e 73de c3bd 515d d43d
000003f0: 60d9 8a3d ea89 823e 1169 3c3e a11e 563e

decoder.linear2.bias f4 [10]
0.091166094 0.15072577 0.25661257 0.004449925 0.18305962 0.07982698 -0.03271557 0.16083801
0.14287771 0.29446647
00000000: 4ab5 ba3d db57 1a3e b962 833e add0 913b
00000010: fb73 3b3e 547c a33d c300 06bd b8b2 243e
00000020: 894e 123e 4fc4 963e

exp_avg f4 [32, 1, 2, 10]
-0.17388107 -0.16961779 -0.15223989 -0.119473696 -0.10431967 -0.08268121 -0.0740084 -0.058484666
-0.053205144 -0.038180243 -0.03781103 -0.033165075 -0.01372018 0.020612406 0.03554414 0.0533871
0.058995873 0.06662679 0.07317837 0.08700615 -0.30659196 -0.30887884 -0.31743017 -0.3151622
-0.31035557 -0.30675945 -0.29594317 -0.30255118 -0.31534708 -0.32846636 0.115391485 0.1151118
0.10667435 0.11009868 0.1086972 0.108058244 0.117680274 0.1016837 0.08543933 0.0668461
1.7360969 1.4403322 1.2374476 0.99678504 0.8717086 0.55734766 0.40190288 0.079705514
-0.33416763 -0.4062488 -0.23283452 -0.50959545 -0.7368572 -0.9212784 -1.1175616 -1.4631337
-1.6330689 -1.9250671 -2.4105625 -2.5232506 5.774424 7.084414 7.393253 8.069059
8.055259 8.135345 7.9144936 7.5263567 7.244139 8.153909 7.050964 8.435243
9.086457 9.574001 9.92964 10.0029745 9.323992 9.072745 9.0384865 9.750659
-0.0020831304 -0.02181489 -0.03355965 -0.025447417 -0.009298555 0.005402802 0.008948071 0.013488144
0.027169684 0.039880063 -0.46189994 -0.4748537 -0.47902435 -0.45182395 -0.432831 -0.41814506
-0.42708588 -0.4340335 -0.43338698 -0.43071607 0.011710894 -0.028032225 -0.06945848 -0.09931589
-0.11359803 -0.11698683 -0.098740265 -0.05693587 -0.018823102 0.013505596 0.110171266 0.06060276
0.018080251 -0.014198665 -0.035086498 -0.03583694 -0.014171048 0.027589062 0.06261647 0.0876294
0.044981968 0.057680633 0.07980443 0.08038196 0.08351733 0.076745115 0.074854575 0.06703523
0.051354937 0.04847566 -0.16747066 -0.14684275 -0.12428713 -0.12400767 -0.12477913 -0.13298662
-0.13704892 -0.14004803 -0.15261306 -0.15312006 -0.70904744 -0.7401422 -0.8416844 -0.9279982
-0.9480442 -0.9395516 -0.8700458 -0.8492055 -0.8299521 -0.8830563 -0.010292734 -0.053931553
-0.16066103 -0.24807256 -0.2795526 -0.26779053 -0.21018107 -0.19690773 -0.19851826 -0.26900104
0.6826182 0.61052793 0.548453 0.46512264 0.4347753 0.35692397 0.38910213 0.39294088
0.3831184 0.415081 0.7190508 0.64985025 0.55089223 0.46738154 0.41473722 0.350541
0.40639406 0.4131256 0.39801487 0.41488287 -0.19666128 -0.1524604 -0.13582309 -0.12608853
-0.12755322 -0.12128355 -0.09811658 -0.091340944 -0.08522007 -0.06849921 0.012907883 0.043073956
0.051099468 0.051843602 0.05386954 0.054439154 0.07159886 0.06460881 0.06759499 0.08700296
-0.8037102 -0.6561023 -0.70910203 -0.7162422 -0.64827555 -0.5398349 -0.41448334 -0.33426934
-0.30287838 -0.14498001 -1.7195308 -1.5254915 -1.4967941 -1.43863 -1.360081 -1.2134573
-1.0969708 -1.0033312 -0.90722483 -0.8132372 0.84154373 0.7280941 0.569161 0.5111898
0.5105465 0.49933535 0.572786 0.6363724 0.647886 0.6551629 0.8785479 0.7582339
0.59411514 0.5481819 0.5283466 0.5118685 0.62538135 0.62859786 0.6894603 0.678496
1.3940996 1.3305482 1.3204811 1.1823115 1.0643181 0.85101783 0.7704245 0.74355805
0.7356196 0.72737324 1.6000508 1.5289949 1.4895159 1.3662602 1.2550786 1.0436437
00000000: e10d 32be 49b0 2dbe c6e4 1bbe a0ae f4bd
00000010: 8da5 d5bd c454 a9bd b791 97bd 9e8d 6fbd
00000020: a3ed 59bd e362 1cbd bddf 1abd 1ad8 07bd
00000030: 9bca 60bc 59db a83c bb96 113d 6fac 5a3d
00000040: a8a5 713d a073 883d 8bde 953d 4830 b23d
00000050: 9ff9 9cbe 5e25 9ebe 3586 a2be f15c a1be
00000060: ede6 9ebe 930f 9dbe dd85 97be fde7 9abe
00000070: 2c75 a1be be2c a8be 5f52 ec3d bcbf eb3d
00000080: 1578 da3d 6b7b e13d a39c de3d a44d dd3d
00000090: 5b02 f13d 8b3f d03d d1fa ae3d 9ce6 883d
000000a0: 6c38 de3f ce5c b83f af64 9e3f 4e2d 7f3f
000000b0: 4b28 5f3f 56ae 0e3f 37c6 cd3e a53c a33d
000000c0: 0518 abbe d8ff cfbe 2c6c 6ebe d974 02bf
000000d0: aca2 3cbf e7d8 6bbf 420c 8fbf f747 bbbf
000000e0: 6708 d1bf 9968 f6bf a846 1ac0 f07c 21c0
000000f0: 15c8 b840 85b3 e240 8795 ec40 de1a 0141
00000100: 57e2 0041 602a 0241 8843 fd40 ead7 f040
00000110: fdcf e740 6976 0241 7fa1 e140 c1f6 0641
00000120: 2162 1141 1c2f 1941 cedf 1e41 2f0c 2041
00000130: 122f 1541 f729 1141 a49d 1041 b302 1c41
00000140: 2185 08bb 24b5 b2bc d875 09bd 1a77 d0bc
00000150: f758 18bc fd09 b13b ee9a 123c 60fd 5c3c
00000160: f592 de3c 4759 233d 267e ecbe 0620 f3be
00000170: ae42 f5be 7855 e7be 069c ddbe 1c17 d6be
00000180: 00ab dabe a439 debe e6e4 ddbe d186 dcbe
00000190: 0ddf 3f3c d6a3 e5bc 3f40 8ebd 2166 cbbd
000001a0: 15a6 e8bd cb96 efbd 5638 cabd 9635 69bd
000001b0: e832 9abc 9346 5d3c 79a1 e13d 9a3a 783d
000001c0: 091d 943c 84a1 68bc dcb6 0fbd c1c9 12bd
000001d0: af2d 68bc 7502 e23c 103d 803d 0b77 b33d
000001e0: 033f 383d 8742 6c3d 8170 a33d 4c9f a43d
000001f0: 220b ab3d 8b2c 9d3d 5b4d 993d c449 893d
00000200: 8e59 523d 6a8e 463d 6e7d 2bbe f25d 16be
00000210: 408a febd bcf7 fdbd 338c ffbd a52d 08be
00000220: 8d56 0cbe c068 0fbe 9946 1cbe 81cb 1cbe
00000230: 2284 35bf f679 3dbf a178 57bf 4a91 6dbf
00000240: 06b3 72bf 7486 70bf 52bb 5ebf 8865 59bf
00000250: be77 54bf fa0f 62bf dba2 28bc 55e7 5cbd
00000260: 5384 24be bc06 7ebe 8521 8fbe d71b 89be
00000270: b539 57be 2ea2 49be 5f48 4bbe 81ba 89be
00000280: 11c0 2e3f 8f4b 1c3f 6a67 0c3f 8e24 ee3e
00000290: de9a de3e bdbe b63e 6538 c73e 8c2f c93e
000002a0: 1828 c43e 7f85 d43e b713 383f 965c 263f
000002b0: 4607 0d3f a24c ef3e 7058 d43e 1c7a b33e
000002c0: e212 d03e 3385 d33e 9bc8 cb3e 876b d43e
000002d0: 9361 49be 941e 1cbe 3515 0bbe 5a1d 01be
000002e0: 509d 02be 8363 f8bd 58f1 c8bd f610 bbbd
000002f0: dc87 aebd 5049 8cbd 967b 533c 516e 303d
00000300: ad4d 513d f559 543d 4fa6 5c3d 97fb 5e3d
00000310: 6ca2 923d a051 843d 3e6f 8a3d 9c2e b23d
00000320: f4bf 4dbf 52f6 27bf b687 35bf a65b 37bf
00000330: 63f5 25bf 9f32 0abf 2937 d4be 5a25 abbe
00000340: e012 9bbe a475 14be 9619 dcbf 4e43 c3bf
00000350: f396 bfbf 0725 b8bf 2217 aebf 9252 9bbf
00000360: 8a69 8cbf 286d 80bf e33f 68bf 5030 50bf
00000370: 696f 573f 6064 3a3f 89b4 113f 56dd 023f
00000380: 2db3 023f e2a8 ff3e 1aa2 123f 4de9 223f
00000390: dbdb 253f c1b8 273f 84e8 603f 9e1b 423f
000003a0: ee17 183f a655 0c3f b941 073f d009 033f
000003b0: fe18 203f caeb 203f 7880 303f eab1 2d3f
000003c0: db71 b23f 674f aa3f 8605 a93f fc55 973f
000003d0: 933b 883f 4edc 593f 8a3a 453f d259 3e3f
000003e0: 9151 3c3f 2235 3a3f 77ce cc3f 1bb6 c33f
000003f0: 75a8 be3f 9de1 ae3f 6aa6 a03f 1e96 853f

exp_avg_sq f4 [32, 1, 2, 10]
0.21702808 0.13414213 0.07331827 0.047794696 0.050887354 0.056823477 0.07406316 0.10442301
0.16667752 0.2407233 0.27206674 0.17161617 0.083929285 0.020712802 0.009164266 0.026663493
0.063169844 0.13845648 0.24233921 0.33421445 0.96239305 0.7576096 0.60302365 0.48895428
0.42205578 0.39011303 0.38368675 0.38964143 0.4307008 0.47645536 0.4153457 0.27867788
0.18043233 0.11880376 0.0892258 0.08397337 0.10031084 0.13193476 0.17164841 0.2347863
80.43996 63.5453 56.175385 44.635384 41.29812 28.483854 23.828138 16.249302
8.839979 8.207954 72.40626 60.05847 51.894543 45.053574 39.56391 31.30955
26.757162 22.566406 19.468966 18.09241 527.81433 535.57666 550.5792 558.86487
563.1148 566.2742 578.6135 586.9702 585.26306 577.67755 480.04395 493.62302
514.08014 525.40137 533.2126 539.11224 548.6294 557.60175 551.49225 550.83417
0.009406922 0.006276866 0.009801111 0.016696915 0.03357338 0.055477183 0.091823615 0.14284147
0.22562397 0.30180776 0.6672434 0.6607804 0.64872885 0.65426695 0.60204583 0.5796959
0.54010797 0.5126208 0.47762778 0.47060317 0.31864938 0.20972864 0.119802155 0.0598125
0.03591102 0.03978919 0.07142636 0.13083892 0.2243605 0.32144 0.36295924 0.24657612
0.14305887 0.08446942 0.07140091 0.102010295 0.14203675 0.19409521 0.28998432 0.39957258
0.049459282 0.037436534 0.027219048 0.022479303 0.02083013 0.030458143 0.053711906 0.08692263
0.12257559 0.159156 0.09391891 0.08916392 0.08366718 0.082145676 0.08124389 0.08260558
0.094925106 0.117677845 0.14169009 0.16539906 2.2799733 1.9212489 1.6045144 1.4694484
1.5460738 1.7861141 2.078067 2.56416 2.9109006 3.0372298 0.39813387 0.19489643
0.06654584 0.07585205 0.16762799 0.36853456 0.65690434 1.0740921 1.4274836 1.625777
4.9246006 4.6082473 4.0900784 3.3130665 2.586102 1.8124582 1.2899911 0.9126454
0.73801434 0.7308112 5.197983 4.8625975 4.256964 3.4418292 2.6582205 1.8632967
1.3345544 0.95878667 0.80958223 0.81719244 0.3945174 0.34329122 0.30225626 0.23743993
0.14756317 0.08687095 0.09335086 0.13436565 0.23221292 0.3708644 0.18378213 0.14284776
0.1158856 0.079443604 0.030862737 0.025599943 0.04809165 0.09199756 0.16651374 0.26939702
27.290014 28.759586 32.322025 35.852734 38.34543 40.23177 43.133217 46.261013
49.20303 50.061104 31.164598 32.87383 36.65763 40.28442 42.8059 44.94061
48.018787 51.167747 53.892086 54.282192 9.284244 7.9732504 6.4839478 5.268316
4.215613 3.0765188 2.420639 2.1370106 2.1069891 2.3877933 9.741784 8.2226925
6.7707343 5.5847273 4.4973893 3.300003 2.6793957 2.4250398 2.5546253 2.8567743
28.581842 25.94356 22.889719 18.305794 13.9001045 10.3662195 8.1180105 6.893377
6.4720936 6.395808 32.765373 29.757875 25.92288 20.722044 16.007957 12.252399
00000000: 9c3c 5e3e 8e5c 093e e427 963d 5fc4 433d
00000010: 426f 503d bcbf 683d 6dae 973d bbdb d53d
00000020: 83ad 2a3e 2b80 763e 554c 8b3e 26bc 2f3e
00000030: 1ee3 ab3d e5ad a93c b825 163c 666d da3c
00000040: 315f 813d 89c7 0d3e c527 783e 281e ab3e
00000050: 645f 763f b4f2 413f c25f 1a3f 3758 fa3e
00000060: b217 d83e e5bc c73e 9772 c43e 157f c73e
00000070: d184 dc3e f5f1 f33e 31a8 d43e deae 8e3e
00000080: 41c3 383e 634f f33d 04bc b63d 3bfa ab3d
00000090: c56f cd3d e819 073e 9ac4 2f3e d26b 703e
000000a0: 42e1 a042 632e 7e42 98b3 6042 a28a 3242
000000b0: 4631 2542 efde e341 07a0 be41 92fe 8141
000000c0: 8e70 0d41 c853 0341 01d0 9042 e03b 7042
000000d0: 0394 4f42 dc36 3442 7241 1e42 f579 fa41
000000e0: ab0e d641 0088 b441 71c0 9b41 41bd 9041
000000f0: 1ef4 0344 e8e4 0544 12a5 0944 5ab7 0b44
00000100: 59c7 0c44 8c91 0d44 44a7 1044 18be 1244
00000110: d650 1244 5d6b 1044 a005 f043 bfcf f643
00000120: 2185 0044 b059 0344 9b4d 0544 2fc7 0644
00000130: 4828 0944 8366 0b44 81df 0944 63b5 0944
00000140: 7e1f 1a3c 2bae cd3b d794 203c f8c7 883c
00000150: 3e84 093d 0b3c 633d 050e bc3d 0945 123e
00000160: f809 673e 8c86 9a3e 77d0 2a3f e728 293f
00000170: 1813 263f 0a7e 273f ad1f 1a3f f366 143f
00000180: 8444 0a3f 1e3b 033f a18b f43e e6f2 f03e
00000190: 0326 a33e 1bc3 563e d55a f53d f4fd 743d
000001a0: 6f17 133d fdf9 223d fc47 923d a3fa 053e
000001b0: c2be 653e c993 a43e cbd5 b93e 737e 7c3e
000001c0: 067e 123e 4efe ac3d a43a 923d c6ea d03d
000001d0: 1572 113e e5c0 463e d378 943e c794 cc3e
000001e0: d195 4a3d 0d57 193d 7bfa de3c 8426 b83c
000001f0: f3a3 aa3c 5b83 f93c 0401 5c3d 7e04 b23d
00000200: e908 fb3d caf9 223e 8f58 c03d 939b b63d
00000210: b359 ab3d fe3b a83d 3263 a63d 1d2d a93d
00000220: 1868 c23d 1501 f13d 3517 113e 5f5e 293e
00000230: 15eb 1140 7ceb f53f ba60 cd3f e316 bc3f
00000240: bfe5 c53f 639f e43f 0dff 0440 331b 2440
00000250: 324c 3a40 f961 4240 34d8 cb3e ee92 473e
00000260: 2f49 883d 5258 9b3d aca6 2b3e 90b0 bc3e
00000270: e22a 283f da7b 893f c8b7 b63f 7619 d03f
00000280: 5496 9d40 c376 9340 ece1 8240 4809 5440
00000290: b282 2540 a1fe e73f 6e1e a53f 21a3 693f
000002a0: 82ee 3c3f 7116 3b3f e055 a640 669a 9b40
000002b0: 0d39 8840 ee46 5c40 4920 2a40 8280 ee3f
000002c0: aed2 aa3f 0b73 753f c840 4f3f 8633 513f
000002d0: 2ffe c93e dec3 af3e 55c1 9a3e 7423 733e
000002e0: cd1a 173e 66e9 b13d bc2e bf3d 2697 093e
000002f0: 39c9 6d3e f0e1 bd3e 6231 3c3e af46 123e
00000300: 6e55 ed3d 54b3 a23d dad3 fc3c f9b6 d13c
00000310: c0fb 443d 3769 bc3d 9482 2a3e 68ee 893e
00000320: f351 da41 a213 e641 c149 0142 3369 0f42
00000330: b861 1942 55ed 2042 6a88 2c42 470b 3942
00000340: e7cf 4442 923e 4842 1951 f941 cd7e 0342
00000350: 6aa1 1242 3f23 2142 3e39 2b42 2fc3 3342
00000360: 3d13 4042 c6ab 4c42 7f91 5742 f720 5942
00000370: 438c 1441 de24 ff40 807c cf40 0b96 a840
00000380: 4de6 8640 afe5 4440 c0eb 1a40 c8c4 0840
00000390: e9d8 0640 9bd1 1840 59de 1b41 2690 0341
000003a0: dba9 d840 16b6 b240 9dea 8f40 4033 5340
000003b0: 387b 2b40 da33 1b40 fb7e 2340 64d5 3640
000003c0: 9da7 e441 698c cf41 251e b741 4472 9241
000003d0: d466 5e41 09dc 2541 5fe3 0141 8b96 dc40
000003e0: 641b cf40 76aa cc40 be0f 0342 2110 ee41
000003f0: 0f62 cf41 bfc6 a541 4c10 8041 d409 4441

exp_avg f4 [32]
0.0182241 0.6923489 0.96948546 -1.4246392 0.3217209 0.21671404 0.2665269 0.5017046
-0.20893571 -0.11204541 -0.29581726 -0.1823868 -0.5699123 0.40087906 0.59072906 -0.4771184
-0.6741424 -0.38477355 -1.050541 -0.4572123 -2.2618358 1.0515212 0.8375164 1.1001111
-0.10951705 -0.19056675 -0.5354147 -0.34754893 0.2178959 1.3381275 -0.4213265 -0.24254611
00000000: b54a 953c c73d 313f 3330 783f 945a b6bf
00000010: 9ab8 a43e 49ea 5d3e 3776 883e b66f 003f
00000020: 3ef3 55be 1078 e5bd 5c75 97be 9bc3 3abe
00000030: c6e5 11bf 0540 cd3e 053a 173f dd48 f4be
00000040: 9994 2cbf 0a01 c5be 2178 86bf bb17 eabe
00000050: ebc1 10c0 3f98 863f 7a67 563f 71d0 8c3f
00000060: 7a4a e0bd ee23 43be f010 09bf eff1 b1be
00000070: 1a20 5f3e c347 ab3f 1bb8 d7be 025e 78be

exp_avg_sq f4 [32]
4.0696063 15.819564 10.171384 2.534514 0.54679334 3.3246396 0.61490417 10.566926
3.1695611 3.7967865 2.2515762 1.2206286 6.5814567 0.36191508 3.7783678 4.256932
5.5015717 2.3692286 3.2793486 2.4397998 16.453299 34.326546 7.007082 5.488135
0.9443522 4.248671 5.2353187 1.1969738 1.6095526 7.301625 0.83660585 0.99659216
00000000: 373a 8240 ef1c 7d41 fdbd 2241 7a35 2240
00000010: a6fa 0b3f e5c6 5440 5c6a 1d3f 2112 2941
00000020: 17da 4a40 8dfe 7240 d319 1040 8f3d 9c3f
00000030: 4b9b d240 ef4c b93e c7d0 7140 c938 8840
00000040: e00c b040 71a1 1740 d9e0 5140 ae25 1c40
00000050: 5ba0 8341 624e 0942 043a e040 cd9e af40
00000060: 11c1 713f 1df5 8740 bb87 a740 7036 993f
00000070: d205 ce3f e9a6 e940 cd2b 563f aa20 7f3f

exp_avg f4 [32]
0.098652355 0.31469187 0.53838056 2.4371607 0.11191268 0.117401496 0.13826592 0.35648164
0.08589078 0.035038896 -0.063555054 0.06584791 0.056110498 0.16265826 0.2294003 0.21023512
0.56692415 0.6007018 2.4739377 0.97619176 0.39599347 1.3334386 0.47846702 0.38924205
0.34026042 0.048111465 0.17284994 0.7156042 0.28535798 1.452183 0.44912565 -0.016189527
00000000: 3f0a ca3d 4b1f a13e 4fd3 093f 71fa 1b40
00000010: 7a32 e53d 3270 f03d 9595 0d3e c384 b63e
00000020: 81e7 af3d f284 0f3d 2729 82bd 45db 863d
00000030: 1fd4 653d e38f 263e eae7 6a3e e047 573e
00000040: f121 113f 98c7 193f ff54 1e40 b4e7 793f
00000050: a8bf ca3e 1eae aa3f a1f9 f43e bc4a c73e
00000060: 9d36 ae3e 8710 453d 93ff 303e d631 373f
00000070: 711a 923e 22e1 b93f ccf3 e53e e69f 84bc

exp_avg_sq f4 [32]
2.4204352 7.8576818 4.3122735 6.270059 0.2390844 1.9039968 0.27742186 5.8968563
1.943141 2.4107165 2.088505 0.90823203 5.1785364 0.17491193 2.050218 1.6396376
11.090882 2.5630395 4.6013107 3.16203 6.2682033 51.847088 3.1182785 1.6708716
0.40235606 2.5846386 2.579096 1.0957685 0.9194934 6.212983 1.0111266 0.7167455
00000000: 69e8 1a40 2172 fb40 25fe 8940 53a4 c840
00000010: 8ad2 743e 2bb6 f33f 3d0a 8e3e 0cb3 bc40
00000020: d8b8 f83f 2e49 1a40 11aa 0540 e581 683f
00000030: 92b6 a540 1d1c 333e c636 0340 a5df d13f
00000040: 4174 3141 d708 2440 f03d 9340 b35e 4a40
00000050: 1f95 c840 6b63 4f42 e091 4740 1fdf d53f
00000060: 9d01 ce3e b86a 2540 e90f 2540 2442 8c3f
00000070: eb63 6b3f c2d0 c640 996c 813f a27c 373f

exp_avg f4 [1, 32, 2, 10]
-3.2389565 -3.146307 -3.1381133 -3.3047566 -3.656855 -3.98396 -4.2268825 -4.33341
-4.287191 -4.2186985 -2.2421212 -2.1261756 -2.0811734 -2.284364 -2.698335 -3.0448976
-3.3003585 -3.4410193 -3.3610337 -3.356912 -3.6205757 -3.70018 -3.838676 -3.914052
-4.004674 -4.036435 -4.1072545 -4.1971874 -4.2133703 -4.2041197 -2.2660677 -2.3442147
-2.4803455 -2.57709 -2.6973476 -2.7435648 -2.8515007 -2.9615133 -3.047472 -3.1107638
6.2879467 6.305259 6.05423 5.616741 5.441123 5.129393 5.2026134 5.2171736
5.2819734 4.7355375 1.5929828 1.5779939 1.449335 0.960886 0.6379527 0.32119733
0.16334538 0.038240686 0.17340122 -0.28753316 -3.759728 -3.63456 -4.292081 -4.8597484
-5.1566224 -4.807501 -4.302607 -4.083915 -4.3560934 -5.6078415 0.34259465 0.6772174
0.3590699 0.24796471 0.6370175 1.0880461 2.0492473 2.3589184 2.1179814 0.96883124
6.3584433 6.183105 6.030572 5.8327994 5.699427 5.387316 5.0996685 4.836024
4.610031 4.5234747 3.5539577 3.4154563 3.275458 3.0454578 2.907278 2.600509
2.3539891 2.1406033 1.9290138 1.8183295 -2.7140744 -2.8059888 -2.8881779 -2.8460402
-2.8556728 -2.8197618 -2.8546717 -2.9995341 -3.1322503 -3.223422 -3.5591536 -3.6163661
-3.65799 -3.6461356 -3.6104333 -3.5605798 -3.6181324 -3.7964056 -3.8955147 -4.005914
4.802082 4.63568 4.468331 4.322579 4.1424766 3.977563 3.8320897 3.7287648
3.547251 3.3975468 4.0684233 3.9107804 3.708872 3.565774 3.3326766 3.1064186
2.9334643 2.7643058 2.5534425 2.3990614 -4.964472 -4.7836123 -4.5985146 -4.490495
-4.4084744 -4.590748 -4.8165894 -5.159269 -5.249104 -5.278011 -1.476199 -1.2636225
-0.94237113 -0.81706405 -0.80677927 -1.0704635 -1.366325 -1.9172736 -1.9990599 -2.1430273
-3.3808544 -3.6518848 -4.082472 -4.4025984 -4.764082 -4.7929006 -4.5703077 -4.0684037
-3.6145465 -3.2758286 -0.27040166 -0.717686 -1.3329198 -1.823244 -2.3547513 -2.5335462
-2.2919388 -1.8935754 -1.5493498 -1.2842773 3.8269 3.442765 3.2940116 3.1632535
3.1002579 2.9284883 2.7132165 2.6008916 2.5853736 2.593162 5.398801 4.931258
4.7504425 4.573629 4.426162 4.1880107 3.8664975 3.6571033 3.563056 3.5400589
5.232583 5.1854243 5.5477595 6.020873 6.0629306 5.7877946 5.7241693 5.6755023
5.689376 5.8191843 2.9909308 2.8618727 3.1621847 3.3721008 3.167042 2.6844196
2.3873796 2.1815026 2.0404856 2.088873 -1.6688732 -1.9507036 -2.3445709 -2.8828428
-3.2440994 -3.614047 -3.9900837 -3.794917 -3.6797373 -3.3836215 -0.874069 -1.1774709
-1.7145538 -2.301031 -2.5902867 -3.1922555 -3.5251808 -3.3423321 -3.3659325 -3.0647013
-2.4186027 -2.505171 -2.8081343 -3.2652502 -3.779542 -4.116609 -4.2891026 -4.0395713
-3.6319861 -3.0885384 -1.8595369 -1.9719591 -2.367858 -2.9609444 -3.5191565 -3.8236425
00000000: 104b 4fc0 185d 49c0 d9d6 48c0 2281 53c0
00000010: ea09 6ac0 33f9 7ec0 9f42 87c0 4bab 8ac0
00000020: ab30 89c0 94ff 86c0 ea7e 0fc0 4313 08c0
00000030: f231 05c0 0533 12c0 85b1 2cc0 9adf 42c0
00000040: 1339 53c0 a939 5cc0 2d1b 57c0 a5d7 56c0
00000050: 83b7 67c0 c0cf 6cc0 deac 75c0 d47f 7ac0
00000060: 4a26 80c0 7a2a 81c0 a16e 83c0 5c4f 86c0
00000070: eed3 86c0 2688 86c0 4107 11c0 9d07 16c0
00000080: fbbd 1ec0 0bef 24c0 58a1 2cc0 9196 2fc0
00000090: fd7e 36c0 6f89 3dc0 c809 43c0 c116 47c0
000000a0: dc36 c940 afc4 c940 41bc c140 58bc b340
000000b0: ae1d ae40 fd23 a440 cf7b a640 16f3 a640
000000c0: ed05 a940 8689 9740 dce6 cb3f b4fb c93f
000000d0: cf83 b93f a0fc 753f de50 233f fa73 a43e
000000e0: 0344 273e 44a2 1c3d 1790 313e 8c37 93be
000000f0: 629f 70c0 a29c 68c0 ba58 89c0 0f83 9bc0
00000100: 0d03 a5c0 0cd7 99c0 f5ae 89c0 6faf 82c0
00000110: 1e65 8bc0 7073 b3c0 9168 af3e 1f5e 2d3f
00000120: 03d8 b73e 76ea 7d3e 9413 233f 1845 8b3f
00000130: de26 0340 85f8 1640 028d 0740 5305 783f
00000140: 5e78 cb40 ffdb c540 72fa c040 4ba6 ba40
00000150: b561 b640 e564 ac40 7c30 a340 b5c0 9a40
00000160: 6085 9340 4ec0 9040 0b74 6340 d696 5a40
00000170: 1ba1 5140 c8e8 4240 d810 3a40 bd6e 2640
00000180: c2a7 1640 a5ff 0840 ede9 f63f 05bf e83f
00000190: 65b3 2dc0 5295 33c0 e8d7 38c0 8625 36c0
000001a0: 58c3 36c0 fa76 34c0 f1b2 36c0 5ef8 3fc0
000001b0: ca76 48c0 8c4c 4ec0 2cc9 63c0 8b72 67c0
000001c0: 821c 6ac0 495a 69c0 5711 67c0 8ae0 63c0
000001d0: 7b8f 67c0 4ff8 72c0 1d50 79c0 7330 80c0
000001e0: a8aa 9940 7e57 9440 91fc 8e40 9152 8a40
000001f0: 2b8f 8440 6490 7e40 f540 7540 15a4 6e40
00000200: 2906 6340 6871 5940 8630 8240 3a4a 7a40
00000210: 295e 6d40 a435 6440 934a 5540 90cf 4640
00000220: e1bd 3b40 63ea 3040 9a6b 2340 398a 1940
00000230: f4dc 9ec0 5a13 99c0 0827 93c0 23b2 8fc0
00000240: 3912 8dc0 68e7 92c0 8021 9ac0 bb18 a5c0
00000250: a9f8 a7c0 77e5 a8c0 17f4 bcbf 62be a1bf
00000260: 3c3f 71bf 1c2b 51bf 1689 4ebf f304 89bf
00000270: bde3 aebf 3969 f5bf 32e1 ffbf 5c27 09c0
00000280: eb5f 58c0 7bb8 69c0 9ca3 82c0 16e2 8cc0
00000290: 5c73 98c0 715f 99c0 f63f 92c0 5d30 82c0
000002a0: bb54 67c0 2da7 51c0 1672 8abe 45ba 37bf
000002b0: 1e9d aabf 0f60 e9bf 3fb4 16c0 9f25 22c0
000002c0: 20af 12c0 ae60 f2bf 1851 c6bf 3363 a4bf
000002d0: eeeb 7440 4356 5c40 16d1 5240 bf72 4a40
000002e0: a06a 4640 5a6c 3b40 57a5 2d40 0275 2640
000002f0: c376 2540 5ef6 2540 fac2 ac40 decc 9d40
00000300: a003 9840 2b5b 9240 1ea3 8d40 2f04 8640
00000310: b274 7740 fb0d 6a40 1c09 6440 5390 6240
00000320: 5271 a740 ffee a540 3f87 b140 feaa c040
00000330: 8703 c240 9d35 b940 652c b740 b79d b540
00000340: 5e0f b640 c236 ba40 696b 3f40 ec28 3740
00000350: 3c61 4a40 80d0 5740 d1b0 4a40 88cd 2b40
00000360: d4ca 1840 bd9d 0b40 5197 0240 18b0 0540
00000370: a39d d5bf a8b0 f9bf 730d 16c0 7f80 38c0
00000380: 539f 4fc0 8c4c 67c0 885d 7fc0 ecdf 72c0
00000390: d180 6bc0 418d 58c0 fcc2 5fbf 5eb7 96bf
000003a0: 8076 dbbf 1844 13c0 42c7 25c0 ea4d 4cc0
000003b0: 909c 61c0 c5e8 55c0 706b 57c0 1124 44c0
000003c0: 63ca 1ac0 b954 20c0 79b8 33c0 dcf9 50c0
000003d0: 04e4 71c0 43bb 83c0 5440 89c0 2b44 81c0
000003e0: 7672 68c0 9daa 45c0 4e05 eebf 2869 fcbf
000003f0: fc8a 17c0 1d80 3dc0 dc39 61c0 8fb6 74c0
