results/2021-04-12_21-02_best/2021-04-12_21-02_last.pth (torch, 96051 bytes, 26 tensors)

encoder.maxpool_conv.0.0.weight f4 [32, 1, 2, 10]
-0.017163217 0.15858102 0.20340234 -0.20474651 -0.25670362 -0.07048486 -0.14016101 0.022573056
0.04669061 0.03399847 -0.13265459 -0.069508515 0.097784154 -0.1804251 -0.10815028 -0.0871621
-0.1710617 -0.06983801 0.2210322 -0.107052766 -0.15506415 -0.036500677 -0.036640696 0.138092
0.06522476 -0.15720682 0.006932373 -0.14830439 0.22954996 -0.16572385 0.103153385 -0.08158461
-0.14019233 -0.19409718 -0.186634 0.002718997 -0.003699602 -0.2046392 -0.14722009 -0.20629506
-0.12805225 0.1108868 -0.19233803 0.15069146 -0.19642308 0.21568947 0.015739072 0.06798074
0.20314184 0.06659222 -0.0023340504 0.039672066 0.11091777 0.00012599952 -0.046208985 -0.020042747
-0.118784174 -0.19578132 0.17453203 -0.037237857 -0.120079294 0.15817562 0.15129775 0.18010445
0.19167228 -0.029954785 0.049808037 -0.15257895 -0.10201723 0.15368532 -0.22962272 -0.11356898
-0.250592 0.06381989 0.10956001 -0.06480989 -0.16700533 0.017844314 -0.013506091 0.09810602
0.19590002 0.19389221 0.21014564 0.1571122 -0.092137635 0.10371332 0.00972211 -0.0016464174
0.10928382 -0.07348653 0.13630082 -0.10838911 -0.19624577 0.17786436 -0.022127459 0.15640534
0.12245567 0.08975079 -0.24054196 -0.12925881 0.097606644 -0.16296472 -0.15995292 0.17077103
-0.17831361 -0.17025374 0.07520633 -0.105932824 -0.073268026 -0.19080259 -0.19790345 0.07769991
-0.08565826 -0.21929167 0.01572845 0.19804968 0.15845732 -0.20193599 0.095198266 -0.15331991
-0.047579776 0.16864562 0.11501955 -0.15293734 0.1466713 0.15133986 0.12660447 0.19980216
-0.18224774 0.21045227 0.15238994 0.063312955 0.060135767 0.18831635 0.22278324 -0.14471073
-0.119316556 -0.1910864 0.04015517 0.11114486 0.058945816 0.020156996 0.11426477 -0.03616263
-0.12596291 0.085803114 -0.1113034 0.18799537 0.18712 -0.08114261 -0.22883713 -0.033112705
-0.16586696 -0.0718419 -0.12610018 0.045244705 0.015512642 -0.030881977 0.18607482 -0.2370185
-0.12327512 0.14095749 0.26013252 -0.09021663 0.13250333 -0.12103506 0.072559126 -0.19297598
-0.12611018 0.16808744 0.04953264 0.08211156 -0.016854068 0.05379025 0.05685624 -0.10214138
-0.11312077 -0.06538123 -0.16869417 -0.19687377 0.038103383 -0.08914286 -0.13155586 -0.039123155
-0.02180374 0.18134259 0.11329918 0.13823494 -0.044745177 0.018653596 0.28399405 0.11472016
0.024732249 -0.16443342 0.062760346 0.22342792 -0.11123556 0.0680647 0.13733369 -0.14561012
0.22483143 0.20922285 -0.123794064 -0.026996996 -0.08481077 0.032606907 0.11782233 0.05691716
-0.13917895 -0.050156057 -0.0046927244 0.08872603 0.08713502 -0.1307602 -0.021736283 0.07874802
-0.09796667 -0.06769615 -0.07813918 -0.07147644 0.10472997 -0.058432657 0.077080175 -0.20006885
0.11129508 -0.010763812 -0.13984445 0.049725063 -0.18842359 0.1650958 0.23414896 0.00449764
-0.09659381 0.19959477 -0.07871556 -0.17983879 -0.046675406 -0.23927158 -0.015232952 0.05674083
0.11451512 -0.20460704 0.15823033 0.18240151 0.025821792 -0.12490755 -0.16550878 -0.11605416
-0.066214696 0.06126896 0.18597545 0.20494641 0.06447836 -0.12523596 -0.1060089 -0.18707952
00000000: e099 8cbc 1063 223e b448 503e 12a9 51be
00000010: a86e 83be 5e5a 90bd 5e86 0fbe 21eb b83c
00000020: a73e 3f3d fb41 0b3d 9bd6 07be 7b5a 8ebd
00000030: 0f43 c83d 5bc1 38be e57d ddbd 0b82 b2bd
00000040: cc2a 2fbe 3b07 8fbd 4456 623e 7b3e dbbd
00000050: 23c9 1ebe bc81 15bd 8e14 16bd fd67 0d3e
00000060: 8f94 853d d3fa 20be f628 e33b 1bdd 17be
00000070: 250f 6b3e 83b3 29be 1542 d33d d515 a7bd
00000080: 948e 0fbe 69c1 46be fc1c 3fbe 3331 323b
00000090: 0675 72bb f08c 51be ddc0 16be 033f 53be
000000a0: 2120 03be 9e18 e33d 43f4 44be dd4e 1a3e
000000b0: 2223 49be b3dd 5c3e 3aef 803c 7c39 8b3d
000000c0: 6a04 503e 8061 883d def6 18bb 2d7f 223d
000000d0: db28 e33d bd1e 0439 a245 3dbd b030 a4bc
000000e0: 1e45 f3bd e67a 48be 86b8 323e b986 18bd
000000f0: 22ec f5bd caf8 213e cced 1a3e 4d6d 383e
00000100: bd45 443e bd63 f5bc 8303 4c3d a83d 1cbe
00000110: 69ee d0bd af5f 1d3e 3822 6bbe da96 e8bd
00000120: 984d 80be 01b4 823d 0061 e03d 0cbb 84bd
00000130: 7203 2bbe 3d2e 923c a748 5dbc cfeb c83d
00000140: 049a 483e ae8b 463e 6b30 573e 05e2 203e
00000150: a8b2 bcbd a667 d43d 7c49 1f3c 9acc d7ba
00000160: 32d0 df3d 1b80 96bd 7192 0b3e 1cfb ddbd
00000170: a7f4 48be 1322 363e a544 b5bc b928 203e
00000180: 0aca fa3d 43cf b73d a250 76be 6c5c 04be
00000190: fee5 c73d 39e0 26be b3ca 23be 9ade 2e3e
000001a0: d897 36be ff56 2ebe c705 9a3d 4ff3 d8bd
000001b0: 8c0d 96bd c161 43be 34a7 4abe 2121 9f3d
000001c0: 996d afbd ff8d 60be f3d8 803c 89cd 4a3e
000001d0: a342 223e 4fc8 4ebe 4ff7 c23d e5ff 1cbe
000001e0: 03e3 42bd 70b1 2c3e 5f8f eb3d 9b9b 1cbe
000001f0: 0031 163e d6f8 1a3e 9aa4 013e f098 4c3e
00000200: 279f 3abe cd80 573e 1c0c 1c3e 39aa 813d
00000210: ec50 763d 00d6 403e 4a21 643e 0d2f 14be
00000220: 3d5c f4bd 27ac 43be bf79 243d eb9f e33d
00000230: 2b71 713d 4920 a53c a603 ea3d 441f 14bd
00000240: 6cfc 00be 8bb9 af3d 09f3 e3bd dc81 403e
00000250: 639c 3f3e 192e a6bd 4854 6abe 30a1 07bd
00000260: 07d9 29be d921 93bd 6820 01be 8352 393d
00000270: bd28 7e3c 33fc fcbc 668a 3e3e fab4 72be
00000280: ab77 fcbd 2957 103e 1730 853e 7fc3 b8bd
00000290: f4ae 073e 3be1 f7bd e199 943d 7f9b 45be
000002a0: 0723 01be 1d1f 2c3e bde2 4a3d 1b2a a83d
000002b0: 8b11 8abc 2a53 5c3d 17e2 683d 802f d1bd
000002c0: ddab e7bd 98e6 85bd 2abe 2cbe 4799 49be
000002d0: 4b12 1c3d 8890 b6bd 94b6 06be 9a3f 20bd
000002e0: c29d b2bc dfb1 393e 6709 e83d 768d 0d3e
000002f0: b846 37bd 6dcf 983c ab67 913e 67f2 ea3d
00000300: 499b ca3c 3c61 28be 7f88 803d 4aca 643e
00000310: 78cf e3bd 8165 8b3d 34a1 0c3e d21a 15be
00000320: 363a 663e 843e 563e be87 fdbd ce28 ddbc
00000330: 45b1 adbd d28e 053d d54c f13d f821 693d
00000340: ed84 0ebe 7070 4dbd 6dc5 99bb feb5 b53d
00000350: d873 b23d 00e6 05be 4a10 b2bc a446 a13d
00000360: c0a2 c8bd 47a4 8abd 6f07 a0bd 3d62 92bd
00000370: ab7c d63d 1557 6fbd 36dc 9d3d d9de 4cbe
00000380: adee e33d b35a 30bc 6233 0fbe 82ac 4b3d
00000390: 1df2 40be e00e 293e bfc4 6f3e f060 933b
000003a0: fad2 c5bd 9262 4c3e a035 a1bd a927 38be
000003b0: b62e 3fbd 9c03 75be a293 79bc 1369 683d
000003c0: e786 ea3d 8284 51be 2207 223e 76c7 3a3e
000003d0: 3988 d33c 88cf ffbd 227b 29be cead edbd
000003e0: 929b 87bd 29f5 7a3d 5970 3e3e 79dd 513e
000003f0: 3b0d 843d db3d 00be 321b d9bd c691 3fbe

encoder.maxpool_conv.0.1.weight f4 [32]
0.9714858 0.99011457 0.9875641 1.0589958 0.942917 0.97011346 0.9389908 0.9871229
0.97573024 0.96910936 0.97562706 0.9368941 0.98236215 0.9264735 0.9658804 0.9778982
1.0445817 0.9887486 1.0300596 1.0027272 1.0331744 1.0633968 0.9741092 0.97951573
0.9525973 0.9705337 0.97188026 0.9807102 0.9611483 0.98577446 1.0033264 0.9728245
00000000: 4bb3 783f 2678 7d3f 00d1 7c3f 2d8d 873f
00000010: 0263 713f 5b59 783f b361 703f 16b4 7c3f
00000020: 75c9 793f 8d17 783f b2c2 793f 4bd8 6f3f
00000030: 167c 7b3f 5e2d 6d3f f043 773f 8957 7a3f
00000040: dab4 853f a11e 7d3f fed8 833f 5d59 803f
00000050: 0f3f 843f 631d 883f 385f 793f 8bc1 7a3f
00000060: 6bdd 733f e674 783f 25cd 783f d30f 7b3f
00000070: d10d 763f b75b 7c3f 006d 803f 070b 793f

encoder.maxpool_conv.0.1.bias f4 [32]
-0.032827344 0.0025542744 -0.003626855 0.1805421 -0.05005952 -0.029954659 -0.0659456 -0.0051589203
-0.036192212 -0.032235704 -0.013596377 -0.05881594 -0.026298368 -0.024187217 -0.016085016 -0.0131307645
0.18101843 0.0056311777 0.16653703 0.09041392 0.03385065 0.18631347 -0.033652455 0.024246532
-0.026525602 -0.029266251 -0.033454414 0.021409238 -0.028841559 0.19928901 0.07306369 -0.039734777
00000000: f775 06bd 9d65 273b 88b0 6dbb 07e0 383e
00000010: 360b 4dbd 7963 f5bc 7d0e 87bd 290c a9bb
00000020: 493e 14bd 9609 04bd 57c3 5ebc fce8 70bd
00000030: ad6f d7bc 4524 c6bc b9c4 83bc 6b22 57bc
00000040: e55c 393e be85 b83b af88 2a3e ef2a b93d
00000050: fba6 0a3d f5c8 3e3e 28d7 09bd aaa0 c63c
00000060: 384c d9bc c7bf efbc 7f07 09bd 6d62 af3c
00000070: 2245 ecbc 6b12 4c3e 6aa2 953d efc0 22bd

encoder.maxpool_conv.0.1.running_mean f4 [32]
-132.32573 -208.62947 32.391064 -6.223194 124.9849 -160.29494 176.54584 -55.364925
-48.96113 103.93616 2.0303526 -41.19979 -60.466114 128.77788 -104.762825 -37.133144
-3.8269644 -18.989511 -2.7906723 0.9042518 -21.476149 -0.96209806 84.60653 22.484516
-61.95996 254.0024 -25.548643 -3.5196347 -26.917166 6.0395813 -2.5966947 -32.20357
00000000: 6353 04c3 25a1 50c3 7390 0142 6824 c7c0
00000010: 45f8 f942 814b 20c3 bc8b 3043 af75 5dc2
00000020: 32d8 43c2 50df cf42 4cf1 0140 96cc 24c2
00000030: 4ddd 71c2 23c7 0043 9186 d1c2 5788 14c2
00000040: fcec 74c0 85ea 97c1 609a 32c0 0c7d 673f
00000050: 27cf abc1 0f4c 76bf 8b36 a942 4ae0 b341
00000060: 00d7 77c2 9d00 7e43 9f63 ccc1 b241 61c0
00000070: 5b56 d7c1 4044 c140 3f30 26c0 75d0 00c2

encoder.maxpool_conv.0.1.running_var f4 [32]
36.79092 83.56654 2.729911 1.9021928 34.076965 49.153503 60.71093 7.58532
8.587912 21.684338 2.7158282 5.8905554 12.511358 32.429054 22.035215 3.698919
1.1018046 4.6217556 0.82802486 0.68448824 2.4812746 0.91339767 18.063875 1.8700923
8.31073 124.43168 2.2946653 0.56031746 4.7047524 1.9851384 0.8659612 4.3627462
00000000: e729 1342 1222 a742 ddb6 2e40 0e7b f33f
00000010: d04e 0842 309d 4442 fed7 7242 f1ba f240
00000020: 1668 0941 8679 ad41 21d0 2d40 6e7f bc40
00000030: 862e 4841 5ab7 0142 1f48 b041 17bb 6c40
00000040: ef07 8d3f 6ce5 9340 70f9 533f 9f3a 2f3f
00000050: 34cd 1e40 6ed4 693f d182 9041 2f5f ef3f
00000060: c0f8 0441 05dd f842 ccdb 1240 f770 0f3f
00000070: 558d 9640 0419 fe3f a2af 5d3f 9e9b 8b40

encoder.maxpool_conv.2.0.weight f4 [1, 32, 2, 10]
0.0091675995 -0.013970043 0.01612091 -0.0040544127 0.02953757 0.014947684 0.021724405 0.0026632042
-0.006631586 -0.015915705 -0.017742857 0.016921347 0.027528148 -0.020888744 -0.015666666 -0.030030813
0.029244157 -0.006772951 0.021785507 -0.019018248 -0.024306878 -0.005352421 0.014663662 0.021209385
-0.018424008 0.018427342 0.016424876 0.0005541587 0.02410439 -0.025115106 -0.025788533 -0.021330731
-0.042781465 -0.0065454463 -0.024180975 -0.013208881 -0.029191747 -0.025869848 -0.038952213 -0.0060477513
0.019873295 0.008312294 0.0015430098 0.037581768 0.021922177 -0.035064306 0.0019405168 0.024057966
0.028450236 0.04667119 0.01826303 -6.977007e-05 -0.018367235 0.0282858 0.01457654 -0.0070889564
0.004937722 -0.02868146 0.01480148 -0.036388002 0.051070273 0.016489318 0.043039065 0.010634321
0.037073195 0.00094769674 -0.0013562773 0.0011778139 -0.009405917 0.023093993 -0.09537971 -0.05982809
-0.08136802 -0.023514492 -0.029565647 -0.050790593 -0.055578183 -0.015576918 -0.06143693 0.0011015706
0.023350758 0.013810457 -0.03378138 -0.010919762 0.027582383 0.032724243 0.03233853 -0.002084002
0.0017577554 -0.020881739 0.013291551 -0.0147399735 0.015382171 -0.027829647 0.01031555 -0.042747334
-0.013575394 0.0070391134 -0.012448434 -0.011407523 0.027469642 0.011003432 0.02016334 -0.011430291
0.0170207 0.017657068 -0.03534513 -0.02726379 -0.02421141 0.02652194 0.014903519 0.009799017
0.016847968 -0.010123077 0.008710646 0.007933749 -0.024113202 -0.014784827 -0.0004500204 -0.036003552
0.03249884 0.0075969286 0.023288574 0.016507488 -0.019594658 -0.0120835975 -0.02694279 0.025664918
-0.019790275 0.021715188 -0.0015058253 -0.004742838 0.010925891 0.02231707 -0.009747065 -0.022984616
-0.006937926 0.019771922 -0.01800316 -0.02423643 0.0027568303 0.0051797936 0.010170642 0.009179947
0.022723354 -0.026104556 0.009599044 -0.03278741 0.01769417 -0.017564962 -0.012198582 0.017744003
-0.047678616 0.016377933 -0.028090185 -0.019727293 -0.02158462 -0.020270849 -0.033523794 -0.04691505
-0.019023208 0.030476222 0.0035808932 0.040949553 -0.015761128 -3.5032976e-05 0.030037507 -0.02134489
-0.006617326 0.015223258 0.003378822 0.0059673297 0.0067237457 0.0010038577 0.008310774 -2.0179252e-06
0.034742586 0.03619547 -0.04282066 -0.044448636 -0.0045651896 -0.019244587 -0.03491706 0.012285514
0.017714148 -0.016520053 0.025020078 -0.016617106 -0.001315005 -0.014718346 -0.01778682 0.03671848
0.019045861 0.013884721 -0.032981515 0.002010367 -0.014133473 -0.008338968 0.007807401 -0.015471995
-0.00056601723 0.011669169 0.028431697 0.001476414 -0.0004989278 0.008943634 -0.023742044 0.0181453
-0.012615133 -0.012794594 -0.037413847 -0.020091008 -0.0100446325 -0.025224265 -0.023349818 -0.02160278
-0.009221542 -0.0015991563 -0.005207731 0.014963594 -0.016712442 -0.02127078 0.014856639 0.0073664277
0.01917021 0.010988756 0.030197093 -0.02017478 0.046905626 -0.004957775 -0.025280982 0.019550133
0.03994574 0.018816676 0.031785436 -0.0028444256 -0.011385683 -0.0032980703 -0.01544917 -0.02109211
0.030278074 -0.008287572 -0.034573697 0.034706857 0.018072767 0.0073312907 0.051663686 0.03966614
0.008652604 -0.0008526695 0.024937179 0.03830552 -0.034285977 0.00834503 -0.018376196 -0.007000688
00000000: b333 163c 9be2 64bc 0010 843c e1da 84bb
00000010: c6f8 f13c 21e7 743c 61f7 b13c 2789 2e3b
00000020: c64d d9bb a761 82bc 7859 91bc a39e 8a3c
00000030: b682 e13c df1e abbc 6157 80bc 2e03 f6bc
00000040: 7191 ef3c a2ef ddbb 8577 b23c 28cc 9bbc
00000050: 381f c7bc 5d63 afbb db3f 703c 4ebf ad3c
00000060: f2ed 96bc f0f4 963c 768d 863c f644 113a
00000070: 9276 c53c 32be cdbc 7942 d3bc c9bd aebc
00000080: 9e3b 2fbd 2f7b d6bb 2e17 c6bc 106a 58bc
00000090: 8823 efbc 01ed d3bc 5b8c 1fbd 372c c6bb
000000a0: 52cd a23c 4a30 083c d13e ca3a 57ef 193d
000000b0: 2396 b33c 979f 0fbd f058 fe3a 3615 c53c
000000c0: 7810 e93c 4a2a 3f3d 5a9c 953c 8551 92b8
000000d0: e276 96bc 9fb7 e73c 71d2 6e3c 7a4a e8bb
000000e0: 9dcc a13b 62f5 eabc e881 723c 960b 15bd
000000f0: 102f 513d 9b14 873c bb49 303d 933b 2e3c
00000100: 10da 173d da6e 783a 1dc5 b1ba e060 9a3a
00000110: 461b 1abc 9d2f bd3c 7056 c3bd 4d0e 75bd
00000120: 47a4 a6bd 77a1 c0bc a833 f2bc cc09 50bd
00000130: f3a5 63bd 5436 7fbc 4aa5 7bbd 9362 903a
00000140: 174a bf3c 4145 623c 585e 0abd cde8 32bc
00000150: 73f4 e13c db09 063d 6875 043d c093 08bb
00000160: 7c64 e63a 2e10 abbc cec4 593c ee7f 71bc
00000170: 8005 7c3c 00fb e3bc 8d02 293c d417 2fbd
00000180: 546b 5ebc 5da8 e63b 84f4 4bbc 9fe6 3abc
00000190: 0408 e13c bd47 343c 972d a53c 1e46 3bbc
000001a0: ff6e 8b3c 8ea5 903c 0ec6 10bd 5058 dfbc
000001b0: 0257 c6bc 8a44 d93c e42d 743c 0e8c 203c
000001c0: c004 8a3c 43db 25bc 19b7 0e3c 8efc 013c
000001d0: 0d89 c5bc 0f3c 72bc b7f0 ebb9 7678 13bd
000001e0: 811d 053d a8ef f83b aec7 be3c b63a 873c
000001f0: fa84 a0bc 48fa 45bc 20b7 dcbc 3c3f d23c
00000200: 371f a2bc 0de4 b13c 1d5f c5ba cf69 9bbb
00000210: 8202 333c 4ad2 b63c 27b2 1fbc 3c4a bcbc
00000220: 8b57 e3bb baf8 a13c 5d7b 93bc 7a8b c6bc
00000230: f0ab 343b 42bb a93b c4a2 263c 7d67 163c
00000240: 5426 ba3c 39d9 d5bc 4f45 1d3c 174c 06bd
00000250: 5df3 903c 65e4 8fbc 90dc 47bc df5b 913c
00000260: a74a 43bd 042b 863c 631d e6bc 229b a1bc
00000270: 3bd2 b0bc 0d0f a6bc 3f50 09bd ff29 40bd
00000280: 8fd6 9bbc 45a9 f93c 6bad 6a3b b8ba 273d
00000290: 7b1d 81bc 5ff0 12b8 3811 f63c 7bdb aebc
000002a0: 27d6 d8bb f96a 793c 3a6f 5d3b 9789 c33b
000002b0: de52 dc3b e093 833a ea29 083c b16b 07b6
000002c0: 3e4e 0e3d b341 143d b764 2fbd c60f 36bd
000002d0: 9697 95bb d3a6 9dbc 3105 0fbd 2e49 493c
000002e0: 431d 913c 1055 87bc e8f6 cc3c 9920 88bc
000002f0: 3f5c acba 3825 71bc aab5 91bc 1e66 163d
00000300: 1106 9c3c be7c 633c a017 07bd 5dc0 033b
00000310: 1590 67bc 2ba0 08bc 3ad5 ff3b 407e 7dbc
00000320: c660 14ba 0b30 3f3c 97e9 e83c 3c84 c13a
00000330: 7aca 02ba 5288 123c ad7e c2bc 74a5 943c
00000340: b4af 4ebc 6ba0 51bc 433f 19bd e695 a4bc
00000350: 3e92 24bc 1ea3 cebc 1e48 bfbc 50f8 b0bc
00000360: f315 17bc c89a d1ba 9da5 aabb dd29 753c
00000370: 88e8 88bc 0f40 aebc 4369 733c 1362 f13b
00000380: d80a 9d3c 2f0a 343c e55f f73c 9545 a5bc
00000390: 1d20 403d d574 a2bb 101a cfbc 9a27 a03c
000003a0: 259e 233d 6e25 9a3c 7231 023d 8b69 3abb
000003b0: 048b 3abc 7024 58bb 841e 7dbc 5cc9 acbc
000003c0: b909 f83c 99c8 07bc 269d 0dbd c728 0e3d
000003d0: 570d 943c 533b f03b 4d9d 533d f678 223d
000003e0: a7c3 0d3c ae85 5fba 0e49 cc3c 40e6 1c3d
000003f0: 746f 0cbd 98b9 083c ad89 96bc 0766 e5bb

decoder.linear1.weight f4 [32, 164]
0.06462226 0.20754723 0.084146425 0.17653452 -0.035861894 0.19650294 0.012819591 0.135067
0.04216795 0.203238 -0.05290137 0.15113784 0.06884498 0.13897398 0.018410368 0.19252683
-0.04278414 0.23051487 -0.0033537005 0.25646532 0.033110786 0.18086788 0.060294233 0.26086056
0.026453413 0.19532198 -0.061607026 0.18100297 0.06230999 0.15818363 0.033130385 0.19831122
0.08210228 0.13796484 -0.009798031 0.19135861 0.042156704 0.15094511 -0.04691199 0.1884204
0.028513657 0.21885866 0.00055691856 0.14718276 -0.024596909 0.17972335 -0.02342598 0.13607448
-0.006692831 0.15908496 0.06176616 0.18172757 -0.009403358 0.2761621 -0.018111464 0.14223197
0.07341795 0.12750329 -0.029740745 0.15681289 0.07297369 0.23076227 0.010887367 0.23842934
0.0059432173 0.19281241 0.026949279 0.26437375 0.06587753 0.1574136 -0.06295358 0.21306679
0.02216404 0.12905687 0.07650266 0.16830002 0.08639101 0.13546945 0.042396855 0.20319271
-0.051978234 0.21235177 0.0039910474 0.20605743 -0.027141651 0.14458984 0.024105828 0.14448623
-0.05677263 0.12654889 -0.048615627 0.24487644 0.0416704 0.15441488 0.05645342 0.15529457
0.0038961726 0.18978068 0.0016879679 0.26230446 0.047910634 0.14181216 0.022643382 0.17120087
0.07546928 0.26764756 0.0299629 0.23799644 -0.026193947 0.26002645 -0.05584277 0.13926128
0.016827213 0.2294284 -0.00090190355 0.1745913 -0.02446645 0.23765413 0.0012979347 0.13066359
-0.062297277 0.17439483 -0.04781458 0.2052255 0.054043747 0.26530164 0.025443807 0.17772
0.07598504 0.14073679 0.046930566 0.23344773 -0.054863706 0.13292599 -0.038021524 0.1308771
0.06679166 0.15892161 0.052056074 0.14011234 -0.031102609 0.25377104 0.07231486 0.25974348
-0.049831286 0.20552632 0.061742514 0.15907022 -0.05723525 0.20658298 -0.027340086 0.15726943
-0.017783202 0.13873233 -0.035371 0.20603749 0.05589167 0.24575739 -0.05603907 0.2506553
0.03881816 0.21760127 0.06687548 0.24567254 -0.043395873 0.2802691 -0.029655162 0.21673174
-0.040948577 0.16250478 0.036924675 0.17893264 -0.00691251 0.17323922 -0.0351175 0.19416052
0.017092032 0.22905226 -0.03288197 0.17985775 0.0032035694 0.2601293 0.08340534 0.16179793
0.09363939 0.29240593 -0.034305513 0.17910498 -0.017779766 0.17831936 -0.038172334 0.25787953
0.07821915 0.23192327 -0.050131243 0.28127742 0.034326676 0.2658089 -0.009421712 0.20120956
0.018325618 0.24988088 0.08215736 0.19895285 -0.012803641 0.30707234 -0.034903206 0.2541583
0.08068709 0.26711345 -0.018714026 0.21967448 -0.004472936 0.20957536 0.05207533 0.23401189
0.07967026 0.19548987 -8.5748485e-05 0.25840464 0.07414684 0.17447804 -0.031043386 0.23738511
0.001970796 0.16315445 0.03271836 0.29412708 0.034442246 0.20182401 0.02792449 0.28828767
0.007673015 0.18162024 0.052478623 0.24097684 -0.050596215 0.30013087 0.006686374 0.2788548
0.04847224 0.20868404 -0.030270936 0.24613354 0.07771897 0.18662608 0.056738626 0.2755624
-0.061444677 0.20877871 -0.0023947952 0.20301597 0.08034447 0.17661364 -0.06539829 0.25483352
00000000: ad58 843d 4387 543e f654 ac3d 77c5 343e
00000010: ece3 12bd 1138 493e 4309 523c 014f 0a3e
00000020: 4db8 2c3d 9f1d 503e 1baf 58bd e1c3 1a3e
00000030: 99fe 8c3d 324f 0e3e 57d1 963c c125 453e
00000040: 6c3e 2fbd 170c 6c3e c2c9 5bbb 6c4f 833e
00000050: 2d9f 073d 6e35 393e 16f7 763d 848f 853e
00000060: d4b4 d83c 7c02 483e a657 7cbd d858 393e
00000070: c338 7f3d e4fa 213e bab3 073d 1912 4b3e
00000080: 3d25 a83d a846 0d3e ec87 20bc 83f3 433e
00000090: 82ac 2c3d 5b91 1a3e c926 40bd 47f1 403e
000000a0: 7995 e93c 7c1c 603e 2cfe 113a 14b7 163e
000000b0: 757f c9bc 6609 383e d7e7 bfbc 1c57 0b3e
000000c0: 894f dbbb 2be7 223e 83fe 7c3d cb16 3a3e
000000d0: 8b10 1abc 1e65 8d3e 7e5e 94bc 42a5 113e
000000e0: 265c 963d 3990 023e dda2 f3bc 8f93 203e
000000f0: 3b73 953d f24c 6c3e ed60 323c d226 743e
00000100: 52bf c23b 9e70 453e bcc4 dc3c ff5b 873e
00000110: ccea 863d 0831 213e ceed 80bd 2e2e 5a3e
00000120: 5c91 b53c 7c27 043e 6dad 9c3d d756 2c3e
00000130: c5ed b03d 81b8 0a3e 53a8 2d3d c011 503e
00000140: 21e7 54bd be72 593e 55c7 823b b800 533e
00000150: 2b58 debc 5c0f 143e 9679 c53c 33f4 133e
00000160: 6b8a 68bd 0896 013e 2e21 47bd e4c0 7a3e
00000170: 95ae 2a3d ef1e 1e3e b43b 673d 8a05 1f3e
00000180: ee56 7f3b de55 423e ce3e dd3a c54c 863e
00000190: f13d 443d 3537 113e 9d7e b93c 484f 2f3e
000001a0: a38f 9a3d 1a09 893e c174 f53c 57b5 733e
000001b0: b094 d6bc 3022 853e 63bb 64bd 829a 0e3e
000001c0: 39d9 893c 47ef 6a3e b96d 6cba 10c8 323e
000001d0: dd6d c8bc 9b5b 733e 761f aa3a adcc 053e
000001e0: 6e2b 7fbd 8f94 323e 39d9 43bd a226 523e
000001f0: fa5c 5d3d 9ed5 873e 886f d03c 3bfc 353e
00000200: 0b9e 9b3d 4e1d 103e 443a 403d ec0c 6f3e
00000210: c4b8 60bd c01d 083e 75bc 1bbd a604 063e
00000220: 11ca 883d 59bc 223e c038 553d 9c79 0f3e
00000230: e6ca febc 47ee 813e d019 943d 19fd 843e
00000240: e41b 4cbd 7e75 523e b8e5 7c3d 4ee3 223e
00000250: 826f 6abd 7d8a 533e 51f8 dfbc 3d0b 213e
00000260: 14ae 91bc d90f 0e3e 2fe1 10bd 7efb 523e
00000270: aaee 643d d3a7 7b3e 3989 65bd e455 803e
00000280: caff 1e3d ded2 5e3e 03f6 883d 9591 7b3e
00000290: dfbf 31bd 6e7f 8f3e 62ef f2bc edee 5d3e
000002a0: b2b9 27bd a767 263e 543e 173d 1e3a 373e
000002b0: 5682 e2bb 9f65 313e 5ed7 0fbd 04d2 463e
000002c0: 9704 8c3c ad8c 6a3e 3faf 06bd a12c 383e
000002d0: faf2 513b ab2f 853e 6bd0 aa3d 5bae 253e
000002e0: 02c6 bf3d 3bb6 953e f083 0cbd 4c67 373e
000002f0: dfa6 91bc 5a99 363e 985a 1cbd c908 843e
00000300: 5d31 a03d 4b7d 6d3e 6b56 4dbd 9803 903e
00000310: 219a 0c3d 1b18 883e 865d 1abc e109 4e3e
00000320: 9b1f 963c c6e0 7f3e 1e42 a83d 4cba 4b3e
00000330: 5dc6 51bc 9638 9d3e aaf6 0ebd 0921 823e
00000340: 463f a53d 18c3 883e 284e 99bc 59f2 603e
00000350: b591 92bb ec9a 563e f14c 553d d0a0 6f3e
00000360: 292a a33d 7f2e 483e ded3 b3b8 9d4d 843e
00000370: 4cda 973d 5faa 323e b34e febc 1515 733e
00000380: 7828 013b f611 273e b003 063d d397 963e
00000390: 5013 0d3d f4aa 4e3e e6c1 e43c 719a 933e
000003a0: ea6d fb3b a8fa 393e d3f3 563d a2c2 763e
000003b0: fa3d 4fbd c1aa 993e 5f19 db3b 0ec6 8e3e
000003c0: d48a 463d 45b1 553e c1fa f7bc 6e0a 7c3e
000003d0: 202b 9f3d e81a 3f3e c366 683d 8416 8d3e
000003e0: 6aad 7bbd 16ca 553e fff1 1cbb 6be3 4f3e
000003f0: a48b a43d 35da 343e 8aef 85bd 8a79 823e

decoder.linear1.bias f4 [32]
0.22832908 0.29474476 0.24737822 0.19532944 0.16949314 0.23822911 0.1964588 0.23861922
0.1893234 0.14296713 0.037285253 0.16940072 -0.067274556 0.17513032 0.24288222 0.22002019
0.27221715 0.048171952 0.25384703 0.17537887 0.25200334 0.26970366 0.028858352 -0.07648936
-0.034161694 0.23113231 -0.062929966 -0.037400097 0.01755782 0.19292212 0.1306714 0.24600734
00000000: 19cf 693e c9e8 963e b750 7d3e 7104 483e
00000010: 9c8f 2d3e 55f2 733e 7f2c 493e 9958 743e
00000020: fedd 413e fa65 123e 6cb8 183d 6277 2d3e
00000030: 3ec7 89bd 5d55 333e 1eb6 783e f94c 613e
00000040: 0c60 8b3e f44f 453d 3df8 813e 8596 333e
00000050: 9506 813e 9916 8a3e 5a68 ec3c 74a6 9cbd
00000060: 22ed 0bbd f3ad 6c3e 6de1 80bd d830 19bd
00000070: 6bd5 8f3c 608d 453e b9ce 053e 59e9 7b3e

decoder.linear2.weight f4 [10, 32]
0.104675084 0.3546336 0.31037197 0.40222737 0.3799521 0.1997696 0.34661812 0.29746988
0.20882702 0.14752418 -0.100872345 0.38680533 -0.006780919 0.35262546 0.36874995 0.22378305
0.34587494 -0.14530495 0.06594487 0.10987567 0.05545823 0.34712467 0.15586397 -0.07433428
-0.17127086 0.23136438 -0.11134161 0.025315756 -0.0792459 0.29706 0.3716862 0.11634647
0.3864592 0.34656334 0.24741134 0.39170188 0.19845654 0.2753729 0.22170153 0.18141328
0.17351592 0.23408587 -0.047099143 0.18752737 -0.057372447 0.2626909 0.34047198 0.21693444
0.33732626 -0.07023584 0.39567158 0.32691106 0.11325482 0.08292253 -0.17032437 0.0154884495
-0.011745319 0.33804497 0.053733114 0.033423033 0.028832322 0.20747367 0.33326343 0.23915082
0.3731859 0.21176334 0.3617644 0.19789305 0.08077282 0.36572173 0.30753964 0.31715676
0.39437804 0.25286373 -0.053809743 0.32968953 -0.14725766 0.21174228 0.13846757 0.07055801
0.22920918 -0.14369649 0.38799822 0.20763214 0.37254503 0.38607475 -0.0005859962 0.048261996
0.13629314 0.06940359 0.042439256 -0.06084611 -0.02406425 0.24081095 0.12879522 0.36378595
0.38136297 0.2525619 0.22270276 0.12557173 0.121624336 0.22255413 0.19570662 0.14587906
0.23359932 0.30935827 0.09148675 0.31411788 0.0703547 0.09861976 0.38582668 0.24105513
0.39273614 -0.121842444 0.27044877 0.13547924 0.33026665 0.28064463 -0.13775209 0.08677274
-0.1503994 0.37702724 -0.10748146 -0.065149486 -0.10236925 0.39238548 0.33214095 0.2891574
0.31671748 0.2078705 0.16609251 0.1313965 0.3027466 0.36850992 0.14746827 0.33145627
0.3673824 0.28571734 0.110747 0.11396311 0.109487616 0.15200587 0.32350942 0.10599133
0.15067868 0.0701906 0.33844897 0.2709715 0.35230273 0.2905739 -0.09122858 -0.13120838
0.10773164 0.3369408 -0.086268134 0.072689325 0.11716818 0.39164314 0.40074196 0.17514655
0.39594623 0.2258351 0.38541636 0.31329924 0.24984463 0.19411786 0.4133828 0.24765365
0.2961566 0.23288171 0.14324594 0.15399238 0.17397726 0.17779762 0.18187453 0.11440703
0.3037579 -0.13483515 0.21860856 0.42298353 0.2524924 0.13757965 -0.12223257 0.12813495
0.009666953 0.35225457 -0.08632679 -0.15629296 0.094937965 0.18693617 0.17205475 0.39931116
0.3731668 0.1955097 0.093944296 0.24559912 0.39330572 0.06505599 0.3479436 0.24183573
0.19368495 0.23127206 0.023153475 0.31162763 0.046491843 0.18753767 0.31749287 0.39932892
0.15500173 0.015348372 0.0802888 0.2956587 0.22935349 0.30064026 -0.04015525 0.0037878067
-0.05625986 0.3269315 -0.07760577 -0.144491 -0.06193177 0.35506925 0.40320045 0.30169696
0.41612184 0.27162072 0.4209848 0.26753864 0.4421264 0.14250535 0.12654497 0.104967035
0.13538794 0.11496329 -0.1048096 0.4076768 -0.08053341 0.43177664 0.4118675 0.35103378
0.4131881 -0.015731229 0.13687737 0.16597943 0.21137357 0.20482402 0.11628726 0.13734673
-0.090538576 0.22280923 -0.09563913 0.10369361 0.06779742 0.25513944 0.1841605 0.20929843
00000000: e45f d63d 8992 b53e 13e9 9e3e bff0 cd3e
00000010: 1589 c23e 6790 4c3e ee77 b13e f94d 983e
00000020: c0d6 553e 9410 173e 2996 cebd 590b c63e
00000030: 7932 debb 538b b43e cbcc bc3e 6227 653e
00000040: 8516 b13e d2ca 14be 1b0e 873d 7f06 e13d
00000050: 2b28 633d 53ba b13e ce9a 1f3e 923c 98bd
00000060: a161 2fbe c9ea 6c3e 1207 e4bd fd62 cf3c
00000070: ad4b a2bd 4018 983e a74d be3e 0f47 ee3d
00000080: fbdd c53e c070 b13e 6659 7d3e 268d c83e
00000090: 3138 4b3e adfd 8c3e ba05 633e 67c4 393e
000000a0: 28ae 313e 35b4 6f3e 08eb 40bd 2d07 403e
000000b0: 5fff 6abd 6c7f 863e 5852 ae3e 1024 5e3e
000000c0: 07b6 ac3e cfd7 8fbd 7795 ca3e e360 a73e
000000d0: 25f2 e73d 4ad3 a93d 8369 2ebe 44c3 7d3c
000000e0: 706f 40bc 3b14 ad3e 4117 5c3d 97e6 083d
000000f0: c331 ec3c fa73 543e 81a1 aa3e f4e3 743e
00000100: 3912 bf3e 7dd8 583e 2f39 b93e 7aa4 4a3e
00000110: 386c a53d e13f bb3e d675 9d3e 5f62 a23e
00000120: ebeb c93e 5b77 813e 9b67 5cbd 11cd a83e
00000130: b6ca 16be f8d2 583e 71ca 0d3e b880 903d
00000140: d0b5 6a3e 2c25 13be b4a7 c63e 859d 543e
00000150: 39be be3e 97ab c53e 8a9d 19ba 5fae 453d
00000160: 6e90 0b3e 7823 8e3d c9d4 2d3d c539 79bd
00000170: 6422 c5bc 2597 763e e5e2 033e 2742 ba3e
00000180: 0242 c33e cb4f 813e 310c 643e e095 003e
00000190: 2e16 f93d 3be5 633e 5167 483e 5261 153e
000001a0: a934 6f3e 3564 9e3e 685d bb3d 0fd4 a03e
000001b0: 2016 903d 28f9 c93d 138b c53e 28d7 763e
000001c0: b614 c93e 8888 f9bd 4378 8a3e 12bb 0a3e
000001d0: b618 a93e a7b0 8f3e e20e 0dbe e8b5 b13d
000001e0: 4d02 1abe b709 c13e 3d1f dcbd 186d 85bd
000001f0: f8a6 d1bd c0e6 c83e 610e aa3e 700c 943e
00000200: cb28 a23e 01dc 543e 2814 2a3e ce8c 063e
00000210: 9a01 9b3e 55ad bc3e ec01 173e a3b4 a93e
00000220: 8c19 bc3e 8b49 923e 53cf e23d 7e65 e93d
00000230: 0b3b e03d 6da7 1b3e 07a3 a53e fc11 d93d
00000240: 834b 1a3e 17c0 8f3d 2f49 ad3e c7bc 8a3e
00000250: 0661 b43e 1ac6 943e 0dd6 babd 7d5b 06be
00000260: 68a2 dc3d 8183 ac3e 59ad b0bd 24de 943d
00000270: dff5 ef3d 7385 c83e 0d2e cd3e 9e59 333e
00000280: 77b9 ca3e 5141 673e 4b55 c53e c268 a03e
00000290: 45d7 7f3e d5c6 463e e9a6 d33e eb98 7d3e
000002a0: d6a1 973e 8b78 6e3e 10af 123e 2eb0 1d3e
000002b0: 1827 323e 9410 363e 513d 3a3e 3c4e ea3d
000002c0: 2886 9b3e 3a12 0abe ecda 5f3e 4c91 d83e
000002d0: af46 813e aee1 0c3e 1255 fabd cf35 033e
000002e0: 2462 1e3c b65a b43e 1acc b0bd 430b 20be
000002f0: d66e c23d 326c 3f3e 1f2f 303e 8372 cc3e
00000300: b80f bf3e b233 483e de65 c03d 567e 7b3e
00000310: 5e5f c93e 133c 853d aa25 b23e c9a3 773e
00000320: 5955 463e 95d2 6c3e 5bac bd3c a88d 9f3e
00000330: 3b6e 3e3d e009 403e 6d8e a23e d774 cc3e
00000340: c6b8 1e3e bd77 7b3c 746e a43d 9460 973e
00000350: a4db 6a3e 85ed 993e d579 24bd da3c 783b
00000360: bd70 66bd 9163 a73e c6ef 9ebd 73f5 13be
00000370: 2bac 7dbd a3cb b53e 4a70 ce3e 0678 9a3e
00000380: ec0d d53e df11 8b3e 528b d73e d3fa 883e
00000390: 645e e23e ecec 113e 0195 013e f5f8 d63d
000003a0: 23a3 0a3e e071 eb3d 6aa6 d6bd 03bb d03e
000003b0: b3ee a4bd d411 dd3e 4ce0 d23e b3ba b33e
000003c0: 648d d33e c7de 80bc 9529 0c3e 83f6 293e
000003d0: 5072 583e 63bd 513e 0428 ee3d 9fa4 0c3e
000003e0: 4a6c b9bd 1a28 643e 73de c3bd 515d d43d
000003f0: 60d9 8a3d a3a1 823e 9294 3c3e 5452 563e

decoder.linear2.bias f4 [10]
0.09142837 0.15103404 0.25695324 0.004890604 0.18338466 0.080176294 -0.032315247 0.16118439
0.14341792 0.2949995
00000000: cc3e bb3d aba8 1a3e 608f 833e 5c41 a03b
00000010: 30c9 3b3e 7833 a43d fe5c 04bd 850d 253e
00000020: 26dc 123e 2d0a 973e

exp_avg f4 [32, 1, 2, 10]
-0.16581959 -0.16501553 -0.14808716 -0.11946378 -0.1078815 -0.08990212 -0.07773847 -0.056694563
-0.045787934 -0.028118689 -0.028911758 -0.028072353 -0.0081814965 0.024003606 0.030812344 0.044545468
0.050770197 0.06328508 0.07484071 0.09079129 -0.28938815 -0.29530376 -0.31449768 -0.3160016
-0.3170714 -0.30821964 -0.30222476 -0.31163785 -0.3194445 -0.3369768 0.120362304 0.11812738
0.09795757 0.091678984 0.09154311 0.09142746 0.09477153 0.08255991 0.061497662 0.045020048
0.43473077 0.31836125 0.17332573 0.038208123 0.065112196 -0.044558927 -0.12813196 -0.3117295
-0.5510393 -0.5740021 -1.448768 -1.5966545 -1.7521195 -1.852232 -1.8433994 -2.0159388
-2.1272106 -2.2927878 -2.5976167 -2.650968 18.24221 19.148241 19.469177 19.99244
19.77524 19.559477 19.254522 18.751902 18.111588 18.460884 17.745817 18.838463
19.574211 19.815695 19.920488 19.711576 19.02147 18.432283 18.045155 18.340567
-0.00031845373 -0.02806144 -0.045754723 -0.039297216 -0.022792611 -0.013409527 -0.010438156 -0.010663479
-0.0012853713 0.00815983 -0.44148368 -0.46353975 -0.4717339 -0.44400123 -0.4235734 -0.4137499
-0.42318308 -0.43656245 -0.43694884 -0.43593454 0.027496679 -0.008885313 -0.04836467 -0.07758322
-0.095861815 -0.1051726 -0.09863337 -0.06767023 -0.0341502 -0.0041406685 0.1183205 0.07181993
0.03136185 -0.000971506 -0.023441792 -0.032438032 -0.022110393 0.007464053 0.039272718 0.06003095
0.04033953 0.056378983 0.081416786 0.081161276 0.083795905 0.07265603 0.06724569 0.058234196
0.039188415 0.034863528 -0.16103983 -0.1375892 -0.11229283 -0.112859815 -0.11572716 -0.12762843
-0.13443233 -0.13899375 -0.15381803 -0.1558621 -1.2216505 -1.2567037 -1.3926418 -1.5376917
-1.5916306 -1.5812955 -1.5567397 -1.5542107 -1.5404859 -1.689059 -0.33510354 -0.35963124
-0.5224321 -0.6520926 -0.7333801 -0.73965037 -0.714353 -0.71701264 -0.74606466 -0.89988387
0.5262951 0.4550124 0.39216262 0.31016546 0.2605302 0.18962651 0.23126301 0.25621936
0.25639272 0.30611703 0.6067986 0.53574425 0.43371287 0.35023308 0.28548163 0.2281312
0.28940958 0.31348425 0.3092646 0.33919448 -0.13466191 -0.103086114 -0.10064816 -0.10961549
-0.13311237 -0.14449154 -0.13455224 -0.1415373 -0.14708841 -0.14623144 0.07930116 0.0991744
0.09285969 0.07661198 0.058406554 0.039994083 0.041422017 0.019367265 0.009995786 0.015475983
0.15359516 0.31671295 0.3512972 0.39727423 0.41120908 0.44024977 0.53339267 0.53143597
0.49710968 0.575097 -0.24672498 -0.084957734 -0.042975266 0.03252236 0.06553091 0.1909886
0.286934 0.24398929 0.29757616 0.32583275 0.5085613 0.3929954 0.29714134 0.26862863
0.252713 0.27935776 0.3860859 0.4451304 0.47324297 0.49930593 0.54724926 0.4112766
0.32573268 0.2847786 0.2512461 0.28738302 0.4149463 0.42281377 0.4907093 0.4908399
1.0151564 0.9637419 0.94701326 0.8454564 0.78231025 0.6101129 0.5662442 0.55565816
0.56513995 0.5734943 1.2022731 1.1349517 1.0953668 1.0168486 0.95488954 0.78172624
00000000: 9ccc 29be d5f9 28be 29a4 17be 6da9 f4bd
00000010: faf0 dcbd 9a1e b8bd 5935 9fbd 8f38 68bd
00000020: 218c 3bbd 2a59 e6bc 5ad8 ecbc fef7 e5bc
00000030: af0b 06bc 36a3 c43c 2b6a fc3c 4f75 363d
00000040: 69f4 4f3d 9c9b 813d 1646 993d c9f0 b93d
00000050: af2a 94be 0e32 97be d705 a1be f6ca a1be
00000060: 2f57 a2be f7ce 9dbe 34bd 9abe ff8e 9fbe
00000070: 3b8e a3be 3988 acbe 8380 f63d c5ec f13d
00000080: fa9d c83d 31c2 bb3d f47a bb3d 523e bb3d
00000090: 9317 c23d 2c15 a93d f9e4 7b3d f166 383d
000000a0: 0895 de3e 3f00 a33e 4d7c 313e 1f80 1c3d
000000b0: 8b59 853d 6c83 36bd 0635 03be 029b 9fbe
000000c0: e910 0dbf cdf1 12bf 3b71 b9bf 2d5f ccbf
000000d0: 7445 e0bf f015 edbf 83f4 ebbf 2405 01c0
000000e0: 3824 08c0 09bd 12c0 5a3f 26c0 76a9 29c0
000000f0: 0cf0 9141 992f 9941 e0c0 9b41 84f0 9f41
00000100: b133 9e41 cf79 9c41 4309 9a41 e503 9641
00000110: 88e4 9041 e4af 9341 6ff7 8d41 2cb5 9641
00000120: fc97 9c41 8b86 9e41 295d 9f41 4fb1 9d41
00000130: f82b 9841 5175 9341 7a5c 9041 7bb9 9241
00000140: 23f6 a6b9 1be1 e5bc 4e69 3bbd 1ef6 20bd
00000150: 92b7 babc a2b3 5bbc cd04 2bbc dfb5 2ebc
00000160: e779 a8ba cfb0 053c 260a e2be 1555 edbe
00000170: 1b87 f1be 2154 e3be 9dde d8be 07d7 d3be
00000180: 74ab d8be 1d85 dfbe c2b7 dfbe d032 dfbe
00000190: b740 e13c b493 11bc 081a 46bd f4e3 9ebd
000001a0: 3353 c4bd bb64 d7bd 4b00 cabd b196 8abd
000001b0: 15e1 0bbd 72ae 87bb 0552 f23d 5416 933d
000001c0: 4975 003d aaac 7eba 0009 c0bc bedd 04bd
000001d0: db20 b5bc 0495 f43b 6edc 203d 03e3 753d
000001e0: 103b 253d a6ed 663d d8bd a63d e237 a63d
000001f0: 309d ab3d afcc 943d 1cb8 893d fb86 6e3d
00000200: 0884 203d 0fcd 0e3d a0e7 24be 2fe4 0cbe
00000210: c9f9 e5bd 0c23 e7bd 5c02 edbd 07b1 02be
00000220: a1a8 09be 6154 0ebe 7982 1dbe 509a 1fbe
00000230: 0b5f 9cbf abdb a0bf 1642 b2bf 15d3 c4bf
00000240: 8dba cbbf e467 cabf 3f43 c7bf 60f0 c6bf
00000250: a42e c5bf 1633 d8bf b192 abbe 9621 b8be
00000260: 1cbe 05bf 8aef 26bf ccbe 3bbf ba59 3dbf
00000270: d7df 36bf 248e 37bf 18fe 3ebf ca5e 66bf
00000280: 47bb 063f 63f7 e83e 8ac9 c83e 02ce 9e3e
00000290: 3764 853e 742d 423e 36d0 6c3e 2f2f 833e
000002a0: e845 833e 5fbb 9c3e 2757 1b3f 8926 093f
000002b0: 9d0f de3e c051 b33e a62a 923e 3a9b 693e
000002c0: 7e2d 943e 0281 a03e ee57 9e3e e6aa ad3e
000002d0: d0e4 09be d01e d3bd 9f20 cebd 167e e0bd
000002e0: 9c4e 08be 97f5 13be 10c8 09be 27ef 10be
000002f0: 589e 16be b2bd 15be a668 a23d f31b cb3d
00000300: 392d be3d bee6 9c3d b63b 6f3d d6d0 233d
00000310: 22aa 293d 19a8 9e3c 5dc5 233c fa8e 7d3c
00000320: 0d48 1d3e 3328 a23e 3add b33e 8767 cb3e
00000330: ff89 d23e 6b68 e13e 6c8c 083f 300c 083f
00000340: 2985 fe3e 8f39 133f 79a5 7cbe 52fe adbd
00000350: d506 30bd 2b36 053d 1235 863d 8492 433e
00000360: 03e9 923e 54d8 793e e75b 983e 8dd3 a63e
00000370: 1331 023f b136 c93e e922 983e b189 893e
00000380: 9963 813e fb07 8f3e 0dad c53e 22e8 e33e
00000390: e74c f23e 07a5 ff3e 8718 0c3f d992 d23e
000003a0: 6fc6 a63e 80ce 913e 54a3 803e de23 933e
000003b0: d773 d43e 0c7b d83e 403e fb3e 5e4f fb3e
000003c0: a5f0 813f cab7 763f 766f 723f d56f 583f
000003d0: 7c45 483f 5c30 1c3f 61f5 103f 9d3f 0e3f
000003e0: 03ad 103f 86d0 123f 16e4 993f 1946 913f
000003f0: fb34 8c3f 1828 823f a473 743f 361f 483f

exp_avg_sq f4 [32, 1, 2, 10]
0.21319866 0.13663544 0.07633444 0.049976062 0.054143947 0.061327353 0.076291375 0.09981116
0.15004149 0.21279445 0.28989425 0.19062255 0.09681543 0.026360178 0.0108959 0.024129946
0.05484787 0.119725734 0.20890512 0.28736815 1.1232458 0.8669713 0.6739987 0.53361195
0.44931886 0.41063055 0.401609 0.40844584 0.45057252 0.50538737 0.48923117 0.31610155
0.19379161 0.11832925 0.08464354 0.08154339 0.10137378 0.1384265 0.18375716 0.25681317
85.32588 67.68995 59.708427 47.9268 44.075367 30.504755 25.460112 17.2956
9.531769 8.725527 78.621796 65.25491 56.523457 49.406147 43.434727 34.368176
29.156742 24.282612 20.359509 18.978289 791.4477 808.064 834.2358 847.0162
854.71954 866.3457 893.29456 915.1641 914.2605 907.2289 723.39325 745.029
778.0805 792.5535 807.569 825.6578 850.01105 872.7653 863.12146 865.8277
0.008838531 0.0060098222 0.010185783 0.0174434 0.034862407 0.0568033 0.09118239 0.14027473
0.21795535 0.29109338 0.6568886 0.6500936 0.64099413 0.652168 0.6105307 0.59719807
0.56758994 0.5511483 0.52728677 0.53378314 0.28661042 0.18702075 0.10792179 0.05667478
0.037571777 0.041922905 0.06706895 0.115651496 0.1963629 0.28235155 0.33389094 0.23157935
0.14193588 0.09077807 0.079529434 0.10403061 0.13175549 0.16912287 0.24766833 0.34130552
0.05383014 0.039879378 0.028254101 0.022513267 0.019917414 0.027559437 0.04842845 0.07982916
0.11439029 0.15130259 0.08993132 0.0836583 0.07824067 0.077824056 0.07898396 0.083314866
0.09948194 0.12689616 0.15482382 0.18229118 5.072962 4.240799 3.5400503 3.230034
3.3495767 4.002193 4.7081738 5.7393045 6.2751594 5.9936595 1.4215604 0.98341304
0.64915544 0.6230576 0.87275624 1.4770113 2.1620774 2.974484 3.508471 3.318836
8.6114 8.112301 7.3722095 6.1244664 4.936819 3.6707788 2.7469208 2.0395434
1.6804125 1.6244637 9.210778 8.708983 7.803907 6.464376 5.1635113 3.8382466
2.9108825 2.1962914 1.8813589 1.8402494 0.43692663 0.37225217 0.3234622 0.2528475
0.15714897 0.09708037 0.11419266 0.17250144 0.29773632 0.47611913 0.20330015 0.15589549
0.12468263 0.08791242 0.034843553 0.032054972 0.062760785 0.118514985 0.212648 0.3461138
44.622116 46.34423 50.29235 54.089294 56.541912 58.476402 61.63802 65.084854
68.17418 68.62907 48.27159 50.312458 54.701874 58.55341 61.03492 63.068115
66.5085 69.93239 72.74354 72.460106 16.068592 13.880647 11.365902 9.210576
7.3401375 5.3605366 4.156157 3.614464 3.5201333 3.9492917 17.126633 14.543367
12.05136 9.935202 7.9826527 5.887441 4.715632 4.212236 4.3689265 4.828985
40.440933 36.72362 32.312664 25.787302 19.547646 14.589104 11.481648 9.820114
9.201011 9.053017 45.820293 41.638485 36.131866 28.816177 22.204601 17.03388
00000000: c050 5a3e 29ea 0b3e 3b55 9c3d b3b3 4c3d
00000010: 0bc6 5d3d 6432 7b3d a73e 9c3d cb69 cc3d
00000020: 7aa4 193e cae6 593e 056d 943e 8f32 433e
00000030: 2b47 c63d 4df1 d73c b884 323c 2aac c53c
00000040: 29a8 603d c432 f53d 39eb 553e eb21 933e
00000050: 85c6 8f3f d5f1 5d3f 2e8b 2c3f cb9a 083f
00000060: 1f0d e63e 2b3e d23e b29f cd3e d01f d13e
00000070: 71b1 e63e 1161 013f 827c fa3e 10d8 a13e
00000080: 4f71 463e 9b56 f23d 9859 ad3d 3900 a73d
00000090: 0e9d cf3d adbf 0d3e d62a 3c3e 047d 833e
000000a0: daa6 aa42 4161 8742 6ed5 6e42 0bb5 3f42
000000b0: 2d4d 3042 bd09 f441 4fae cb41 645d 8a41
000000c0: 2082 1841 c29b 0b41 5c3e 9d42 8482 8242
000000d0: 0518 6242 e59f 4542 29bd 2d42 0379 0942
000000e0: 0241 e941 ca42 c241 46e0 a241 89d3 9741
000000f0: a7dc 4544 1904 4a44 178f 5044 09c1 5344
00000100: 0dae 5544 2096 5844 da52 5f44 81ca 6444
00000110: ac90 6444 a6ce 6244 2bd9 3444 db41 3a44
00000120: 2785 4244 6d23 4644 6ae4 4944 196a 4e44
00000130: b580 5444 fb30 5a44 c6c7 5744 f974 5844
00000140: 7ccf 103c 0bee c43b 45e2 263c 76e5 8e3c
00000150: e2cb 0e3d 94aa 683d d5bd ba3d 2ea4 0f3e
00000160: b02f 5f3e 310a 953e da29 283f 896c 263f
00000170: 3118 243f 7bf4 263f bd4b 1c3f f9e1 183f
00000180: 934d 113f 0e18 0d3f 44fc 063f 03a6 083f
00000190: 9abe 923e 5e82 3f3e 1906 dd3d d023 683d
000001a0: dde4 193d 5ab7 2b3d 725b 893d b1da ec3d
000001b0: 5b13 493e 6290 903e c1f3 aa3e 2323 6d3e
000001c0: a457 113e dae9 b93d 54e0 a23d 000e d53d
000001d0: e9ea 063e 8c2e 2d3e c49c 7d3e 99bf ae3e
000001e0: fe7c 5c3d 8f58 233d 2575 e73c be6d b83c
000001f0: d829 a33c 54c4 e13c e95c 463d 787d a33d
00000200: 7545 ea3d 11ef 1a3e e92d b83d 0b55 ab3d
00000210: a53c a03d 3862 9f3d 58c2 a13d fca0 aa3d
00000220: 30bd cb3d 11f1 013e 238a 1e3e 8aaa 3a3e
00000230: b455 a240 a0b4 8740 2f90 6240 e1b8 4e40
00000240: 775f 5640 f711 8040 5ca9 9640 62a8 b740
00000250: 1bce c840 0fcc bf40 b1f5 b53f f5c0 7b3f
00000260: 0d2f 263f b480 1f3f f46c 5f3f b50e bd3f
00000270: 7a5f 0a40 f25d 3e40 ca8a 6040 cf67 5440
00000280: 4bc8 0941 fccb 0141 24e9 eb40 a1fb c340
00000290: 6cfa 9d40 0aee 6a40 8dcd 2f40 e187 0240
000002a0: c217 d73f 6dee cf3f 595f 1341 ff57 0b41
000002b0: 9bb9 f940 2bdc ce40 7c3b a540 d5a5 7540
000002c0: e64b 3a40 0a90 0c40 5ed0 f03f 4b8d eb3f
000002d0: d9b4 df3e d697 be3e d69c a53e 3a75 813e
000002e0: a9eb 203e 13d2 c63d d7dd e93d 38a4 303e
000002f0: e570 983e e3c5 f33e ea2d 503e 11a3 1f3e
00000300: 9b59 ff3d 6d0b b43d 1db8 0e3d 134c 033d
00000310: ba88 803d fcb7 f23d 66c0 593e d435 b13e
00000320: 0c7d 3242 7e60 3942 5e2b 4942 705b 5842
00000330: eb2a 6242 d6e7 6942 558d 7642 722b 8242
00000340: 2e59 8842 1542 8942 1c16 4142 f53f 4942
00000350: b8ce 5a42 b136 6a42 c223 7442 c045 7c42
00000360: 5a04 8542 62dd 8b42 b17c 9142 93eb 9042
00000370: 7a8c 8041 2117 5e41 bcda 3541 855e 1341
00000380: 68e2 ea40 8489 ab40 3dff 8440 6153 6740
00000390: dd49 6140 32c1 7c40 5803 8941 a2b1 6841
000003a0: 5fd2 4041 96f6 1e41 e471 ff40 eb65 bc40
000003b0: 75e6 9640 a3ca 8640 3fce 8b40 0c87 9a40
000003c0: 84c3 2142 fde4 1242 2b40 0142 654c ce41
000003d0: 9461 9c41 f86c 6941 d5b4 3741 301f 1d41
000003e0: 5737 1341 28d9 1041 fb47 3742 cf8d 2642
000003f0: 0887 1042 8887 e641 06a3 b141 6345 8841

exp_avg f4 [32]
0.026614515 0.47192988 0.6962258 -1.112083 0.27569532 0.24560992 0.13974781 0.17907621
-0.161445 0.022668008 -0.08040156 -0.17435911 -0.5996365 0.35322067 0.48657745 -0.42310864
-0.18192539 -0.576875 -0.7192105 0.30234483 -2.0611255 -0.43979695 0.6349898 0.98677915
-0.16625367 0.01164391 -0.5007307 -0.298872 -0.16936684 1.3756068 -0.2538623 -0.28392476
00000000: af06 da3c cba0 f13e db3b 323f bc58 8ebf
00000010: f027 8d3e 2b81 7b3e 0d1a 0f3e c15f 373e
00000020: d751 25be 42b2 b93c 93a9 a4bd 328b 32be
00000030: c781 19bf 57d9 b43e ae20 f93e b2a1 d8be
00000040: a64a 3abe 14ae 13bf 2e1e 38bf f1cc 9a3e
00000050: 7be9 03c0 112d e1be b18e 223f 8f9d 7c3f
00000060: 673e 2abe 19c6 3e3c e32f 00bf c005 99be
00000070: 806e 2dbe e213 b03f 3dfa 81be 965e 91be

exp_avg_sq f4 [32]
3.684817 19.322723 9.99388 2.8319407 0.56486684 2.773885 0.56413144 12.712636
3.028028 4.033821 2.227717 1.8604056 8.695186 0.3335852 4.2914553 3.8259187
4.992832 2.3725336 3.046236 2.2075286 17.446896 28.231037 8.465926 4.9434366
0.912971 4.9474893 4.7138233 1.0465393 1.7611977 6.662839 0.8171371 1.3223267
00000000: 0bd4 6b40 f094 9a41 efe6 1f41 843e 3540
00000010: 1d9b 103f 5587 3140 eb6a 103f f566 4b41
00000020: 36cb 4140 1015 8140 ea92 0e40 c521 ee3f
00000030: 7b1f 0b41 aecb aa3e 9a53 8940 dadb 7440
00000040: 48c5 9f40 97d7 1740 88f5 4240 2648 0d40
00000050: 3e93 8b41 2ad9 e141 6f74 0741 a230 9e40
00000060: 78b8 693f d551 9e40 a4d7 9640 00f5 853f
00000070: ed6e e13f fa35 d540 e62f 513f 0042 a93f

exp_avg f4 [32]
0.12146489 0.15680002 0.42251527 2.2932365 0.09530905 0.1491133 0.07397731 0.30538565
0.11653757 0.067578875 0.18011461 0.09463059 0.054814376 0.118482344 0.13027151 0.25771415
1.2136271 0.48920158 2.3912497 0.98019576 0.7044117 3.657084 0.38826084 0.3959326
0.30017373 0.11507413 0.2718903 0.7938615 0.15755303 1.8974727 0.7798678 -0.0523434
00000000: 96c2 f83d 2f90 203e ec53 d83e 63c4 1240
00000010: 6431 c33d 28b1 183e 6a81 973d 825b 9c3e
00000020: 40ab ee3d cb66 8a3d f76f 383e afcd c13d
00000030: 0a85 603d dfa6 f23d e565 053e 1cf3 833e
00000040: 2258 9b3f a178 fa3e 3c0a 1940 1cee 7a3f
00000050: 5354 343f aa0d 6a40 20ca c63e aeb7 ca3e
00000060: 5fb0 993e fcab eb3d 3535 8b3e 823a 4b3f
00000070: 9555 213e 63e0 f23f 6ba5 473f 0866 56bd

exp_avg_sq f4 [32]
2.156463 9.477018 4.3539767 7.557916 0.31254417 1.5388771 0.26325378 7.156138
1.8502692 2.586432 2.0600133 1.2980032 6.5688252 0.16579302 2.3163862 1.3904591
12.117285 2.7118027 5.516255 3.5292952 6.806618 48.86366 3.937248 1.5442883
0.43882695 3.0557816 2.201435 1.067937 1.0908078 7.1712747 1.2993624 0.96252346
00000000: 7d03 0a40 dea1 1741 c753 8b40 73da f140
00000010: ca05 a03e edf9 c43f 33c9 863e 15ff e440
00000020: 9fd5 ec3f 1a88 2540 42d7 0340 f824 a63f
00000030: d133 d240 a5c5 293e ac3f 1440 90fa b13f
00000040: 66e0 4141 2d8e 2d40 2985 b040 f9df 6140
00000050: d1cf d940 6374 4342 dffb 7b40 3dab c53f
00000060: edad e03e ed91 4340 50e4 0c40 29b2 883f
00000070: 979f 8b3f 157b e540 8251 a63f f067 763f

exp_avg f4 [1, 32, 2, 10]
-2.1190531 -2.0811563 -2.0699065 -2.2668767 -2.690644 -3.075426 -3.3997254 -3.6057444
-3.6563325 -3.7169158 -1.1287535 -1.0576417 -1.0081707 -1.247659 -1.7353584 -2.1443813
-2.4760337 -2.7103505 -2.736967 -2.8807251 -2.3773239 -2.5417924 -2.7451348 -2.9022217
-3.0600786 -3.1709251 -3.323335 -3.4983714 -3.613821 -3.7064958 -0.96240085 -1.1258111
-1.3311111 -1.5092571 -1.701766 -1.8299288 -2.0282807 -2.2348726 -2.428616 -2.5969787
3.6401079 3.827561 3.8334723 3.6147199 3.6019533 3.5678139 3.842098 3.9724333
4.24455 3.8262546 -0.64189315 -0.4534285 -0.3417146 -0.6398807 -0.80262935 -0.880194
-0.8499121 -0.827828 -0.5329293 -0.88961107 0.5165055 0.75805676 -0.019906888 -0.75347126
-1.1192085 -0.85320294 -0.37982213 -0.28040975 -0.6521446 -1.8734995 1.0402879 1.5356438
1.0911891 0.8445672 1.185316 1.65907 2.62663 2.8626952 2.554959 1.4853894
3.02655 2.9527714 2.9195752 2.8380046 2.8179436 2.6141195 2.4386747 2.31235
2.2440753 2.3174238 0.406777 0.34981942 0.30734888 0.17633246 0.13615413 -0.06540277
-0.20009367 -0.27636048 -0.33238307 -0.2897628 -1.6015829 -1.7959312 -1.95896 -2.0177083
-2.1024 -2.1450808 -2.2553105 -2.4465292 -2.6429582 -2.8060489 -2.243258 -2.412101
-2.5432296 -2.6218023 -2.6603706 -2.6941166 -2.8242269 -3.0500708 -3.2278447 -3.4220076
1.6463455 1.6098772 1.5675192 1.5635208 1.5454427 1.526465 1.5331357 1.5985693
1.582889 1.6099209 1.0404875 1.009786 0.9374861 0.9305926 0.8495657 0.76059437
0.73618007 0.7349134 0.6853553 0.7042948 -3.973147 -3.8582702 -3.6254478 -3.5152285
-3.460975 -3.6721082 -4.001819 -4.4572015 -4.622901 -4.764418 0.0766379 0.25548086
0.7512413 0.9324771 0.93302417 0.70081013 0.28928554 -0.4925622 -0.63277453 -0.97109634
-2.5985224 -2.8082757 -3.2252855 -3.6093247 -4.0943675 -4.34415 -4.31307 -4.0385475
-3.7660348 -3.559835 0.013298273 -0.3723722 -0.9638207 -1.5160608 -2.1798024 -2.578624
-2.5566838 -2.387698 -2.2236085 -2.0833926 0.72723603 0.40982243 0.38061035 0.42125085
0.53415596 0.5283156 0.4807054 0.52892655 0.70231146 0.8903564 2.374301 1.9906139
1.9394099 1.9394383 1.9737675 1.90231 1.73402 1.6807203 1.7725358 1.918423
1.6183398 1.4467255 1.8079627 2.3406487 2.3636343 1.9618131 1.794407 1.7722793
1.8521689 2.0681682 1.012552 0.7280147 1.0011035 1.2616545 0.9818671 0.31159556
-0.14691712 -0.37679702 -0.49647972 -0.44541165 -1.2388536 -1.4216288 -1.7967739 -2.2826383
-2.5970302 -3.0399938 -3.551941 -3.5898175 -3.6647797 -3.564855 -0.5447329 -0.76339513
-1.2657735 -1.8075494 -2.074541 -2.7506602 -3.248623 -3.3256342 -3.5254664 -3.4098194
-1.7712065 -1.7704406 -2.0030003 -2.4644883 -3.0349092 -3.5030901 -3.8528068 -3.826425
-3.6333203 -3.308008 -1.2507321 -1.2535827 -1.5664842 -2.1659238 -2.7822633 -3.2471752
00000000: 919e 07c0 aa31 05c0 5979 04c0 8214 11c0
00000010: 8333 2cc0 c8d3 44c0 1a95 59c0 84c4 66c0
00000020: 5a01 6ac0 f3e1 6dc0 ff7a 90bf ce60 87bf
00000030: bd0b 81bf 4ab3 9fbf 3920 debf 8b3d 09c0
00000040: 5677 1ec0 6276 2dc0 782a 2fc0 cd5d 38c0
00000050: 1326 18c0 baac 22c0 4ab0 2fc0 00be 39c0
00000060: 54d8 43c0 70f0 4ac0 85b1 54c0 51e5 5fc0
00000070: d848 67c0 3a37 6dc0 e75f 76bf 941a 90bf
00000080: d961 aabf 562f c1bf 78d3 d9bf 1b3b eabf
00000090: 5acf 01c0 2708 0fc0 726e 1bc0 e634 26c0
000000a0: 87f7 6840 c2f6 7440 9c57 7540 9257 6740
000000b0: 6786 6640 1057 6440 efe4 7540 593c 7e40
000000c0: 5bd3 8740 5be1 7440 1c53 24bf c827 e8be
000000d0: 37f5 aebe 39cf 23bf 1e79 4dbf 6554 61bf
000000e0: d793 59bf 89ec 53bf 0e6e 08bf 8dbd 63bf
000000f0: b439 043f 0210 423f c513 a3bc 7ee3 40bf
00000100: 3942 8fbf 826b 5abf 0c78 c2be de91 8fbe
00000110: f3f2 26bf d5ce efbf 2728 853f fa8f c43f
00000120: 16ac 8b3f 8e35 583f 6fb8 973f 685c d43f
00000130: b51a 2840 6636 3740 7384 2340 3d21 be3f
00000140: ffb2 4140 35fa 3c40 52da 3a40 dea1 3540
00000150: 3059 3440 bc4d 2740 3f13 1c40 8bfd 1340
00000160: ee9e 0f40 ac50 1440 1345 d03e 881b b33e
00000170: d55c 9d3e 7f90 343e fd6b 0b3e e3f1 85bd
00000180: 5be5 4cbe 1f7f 8dbe 1d2e aabe ca5b 94be
00000190: ab00 cdbf 13e1 e5bf 34bf fabf 2222 01c0
000001a0: b98d 06c0 0149 09c0 0257 10c0 ef93 1cc0
000001b0: 3a26 29c0 4e96 33c0 8a91 0fc0 dd5f 1ac0
000001c0: 46c4 22c0 9ccb 27c0 8343 2ac0 686c 2cc0
000001d0: 22c0 34c0 5c34 43c0 0295 4ec0 2c02 5bc0
000001e0: 73bb d23f 7510 ce3f 78a4 c83f 7321 c83f
000001f0: 11d1 c53f 3563 c33f ca3d c43f eb9d cc3f
00000200: 1b9c ca3f e311 ce3f b22e 853f ab40 813f
00000210: 17ff 6f3f 513b 6e3f 237d 593f 50b6 423f
00000220: 4c76 3c3f 4923 3c3f 7273 2f3f aa4c 343f
00000230: 0a48 7ec0 e6ed 76c0 5607 68c0 81f9 60c0
00000240: 9d80 5dc0 d203 6bc0 e70e 80c0 65a1 8ec0
00000250: ceee 93c0 1d76 98c0 55f4 9c3d 63ce 823e
00000260: 5a51 403f d2b6 6e3f acda 6e3f 4b68 333f
00000270: 3c1d 943e 1d31 fcbe 83fd 21bf c599 78bf
00000280: 314e 26c0 caba 33c0 146b 4ec0 2dff 66c0
00000290: 0f05 83c0 4703 8bc0 ab04 8ac0 c83b 81c0
000002a0: b706 71c0 56d4 63c0 00e1 593c 92a7 bebe
000002b0: f4bc 76bf 480e c2bf e281 0bc0 2d08 25c0
000002c0: b5a0 23c0 0bd0 18c0 9a4f 0ec0 4e56 05c0
000002d0: 242c 3a3f 3fd4 d13e 5cdf c23e 31ae d73e
000002e0: 72be 083f b13f 073f 051f f63e bb67 073f
000002f0: afca 333f 66ee 633f 8cf4 1740 70cc fe3f
00000300: 953e f83f 843f f83f 6aa4 fc3f e57e f33f
00000310: 5ef4 dd3f d821 d73f 74e2 e23f e38e f53f
00000320: c225 cf3f 4d2e b93f 526b e73f 30cd 1540
00000330: c945 1740 b11c fb3f 21af e53f 0cda e23f
00000340: df13 ed3f de5c 0440 4e9b 813f 2c5f 3a3f
00000350: 2924 803f e57d a13f a45b 7b3f 7489 9f3e
00000360: 7171 16be 8aeb c0be 9732 febe ff0c e4be
00000370: c192 9ebf eff7 b5bf b0fc e5bf bf16 12c0
00000380: be35 26c0 428f 42c0 0053 63c0 92bf 65c0
00000390: c08b 6ac0 9626 64c0 9e73 0bbf dd6d 43bf
000003a0: de04 a2bf c75d e7bf 48c5 04c0 d10a 30c0
000003b0: 70e9 4fc0 31d7 54c0 3ea1 61c0 7b3a 5ac0
000003c0: e5b6 e2bf cc9d e2bf 2831 00c0 2dba 1dc0
000003d0: f43b 42c0 a132 60c0 6394 76c0 26e4 74c0
000003e0: 5288 68c0 67b6 53c0 fd17 a0bf 6675 a0bf
000003f0: 8e82 c8bf 7f9e 0ac0 9a10 32c0 b8d1 4fc0
